model_weights/DQN/cartpole/cartpole_dqn_episode_2599.pth (torch, 72508 bytes, 6 tensors)

layer1.weight f4 [128, 4]
00000000: b412 183e c1dc 5ebe 2328 e53d 930d 78be
00000010: 2dc6 04be dbe4 1b3e 075a af3e 8332 713d
00000020: 3e24 8c3e 4a2b 93be 47ea 4a3f 9f34 903e
00000030: 86bd 5bbe 4b96 79be f16c 9f3d 9a78 0cbe
00000040: 4014 713d cf98 a5be 67df e0be 87a6 60be
00000050: 2dc6 93be e075 cebc 235b 68bf 1d4e 09be
00000060: a7ad 003f e917 f4bd aece d5be b47c 3bbe
00000070: ff47 85be acc2 7fbd 700b 07bd dd3e 153c
00000080: 3f26 8bbe ea6c 6fbe 22e3 b4bd a140 21be
00000090: 4e79 3d3e 59bd 843e 56fe bc3e 001f f13e
000000a0: 5696 723e 70c5 99be ef51 9ebe 7a69 84be
000000b0: 380d ecbd 7011 ecbd c384 ee3d a561 d5bd
000000c0: 21f7 e43e 5d50 f43d ec45 5f3e 1d54 19be
000000d0: 1bb8 893e 42e4 bc3d c266 3cbd ec24 23bd
000000e0: 144f 3fbe 4329 903e 18e3 483e da9e 9a3e
000000f0: d6d8 ccbe 2275 99be 4c80 6dbf 2352 7cbe
00000100: 31e6 93be 61e6 d23c 4170 023e c228 943a
00000110: dd20 c2be b759 3ebd 137b 7bbf 720b 1cbe
00000120: dd22 9ebe a124 38be daad c139 2cab ebbd
00000130: d2f2 cfbc d350 2d3e bffa d73e 7d85 843d
00000140: 5afb 793e 2646 96be ba7d fbbd e992 77be
00000150: 03ab d8bd 2dd4 543e b55b 543d 557f bebc
00000160: 4ab5 b83e 9133 473e af3d 7abe 092a c43c
00000170: 897a af3e 59d8 103e 823f bf3d d789 35be
00000180: 86c0 273e 85c8 cd3e 0c72 0a3e 4765 103e
00000190: 2b22 29be 4d04 2cbe b13c 983e 7372 c93d
000001a0: f01e 183f 0ba8 753d 3194 94be cc39 d13c
000001b0: a9e0 643e 9ff3 ae3d 8125 f0be e0ef 083d
000001c0: 668f c0be 03f0 68be 4057 8b3e bc89 fbbc
000001d0: a0be 9dbe edcc a13d 08dc bebe 2486 c93d
000001e0: bd78 a4be e37a 7cbe 94e3 823e 0865 a2bd
000001f0: c21e a13e d8c6 303d cc85 3bbe 0831 4b3d
00000200: b40b aabe 3020 e13d 075c 193e 68be 4a3d
00000210: 9c88 86be b3ec 973d 6af1 fb3e 7210 ed3d
00000220: 0707 2dbe a2ee e5be 3487 9ebf f3e2 a7be
00000230: db93 0e3e 99b4 513e 7fd4 6f3e 2f6c 6fbd
00000240: db7a 2ebe c746 88be 6a3d 04bf 31b2 95be
00000250: f674 a7be a992 e6bd 47ab fd3c af3c 373d
00000260: b5b9 d1be 2a7b e3be 630c fb3d cbfa 58be
00000270: 6ae5 d6be c0c5 8cbe 8774 19bf 8fdd debe
00000280: e19c c6be ab06 6e3c 06ce d1be aeaf 9b3d
00000290: 1d1c e5be fc3f 8d3e 617d 78be f755 8e3e
000002a0: b77a a33e 0815 0a3f fa72 c83e 2c96 9a3e
000002b0: b84a b0be 4b4e 033e 9c24 503e f316 0c3e
000002c0: 7d20 0ebd 7cc7 793e 01bd 843f d83d a23e
000002d0: 8cd0 1a3c a2b7 153d 10d1 923d 2265 9abe
000002e0: e31b 823e 235b 6fbe b3bc d0be 274b 153d
000002f0: bb90 553e 370a 543e eb60 ffbd f477 7ebe
00000300: e717 f23e 7528 d8bd 6f2e d9bd cf11 1cbe
00000310: e2da f9bd 3c8d 95be 9042 0fbf efd6 7fbe
00000320: f4fe 8b3e 0b7f 793e e954 183d 061c 203e
00000330: 3f9f a7bd 880b 5cbe 9e92 33be 789c 053d
00000340: 14b5 2e3e 6661 2cbe 6891 fdbe 6419 c5bd
00000350: 2390 3b3d 7a72 a43d b503 873f 3d55 5b3e
00000360: b8ff 71be 5968 6c3e c484 073f 345f 0bbe
00000370: 6470 b5be 6029 f33d 1e83 ccbe f186 32bc
00000380: 4af9 873d d36b 4bbc 5cea 143d 9cac 28be
00000390: f053 febe 2984 d7bd b6ee 2abf 5eef 16be
000003a0: 0750 963e 5e92 7fbe 82ab 1f3e 5efa debd
000003b0: fc02 8ebd f15f 2ebe 804b 843e 33ea 28be
000003c0: f5e8 70bd d1c5 dd3e 95bf 013f 6e61 ac3e
000003d0: dab6 a73c 9fbd a1be e2c3 c5be 932d 4abd
000003e0: b55a 1b3f 659b 1cbd 9751 03bd addd 5cbe
000003f0: 1104 fbbe 38be a0be f519 703e c386 d23d
0.14850885 -0.21763898 0.11189296 -0.24223928 -0.12966223 0.1522402 0.34248373 0.058886062
0.273714 -0.28743964 0.7926373 0.28165147 -0.21459016 -0.24373738 0.07784451 -0.13717881
0.058857203 -0.32343146 -0.43920442 -0.21938525 -0.28862134 -0.025202692 -0.90764064 -0.13408704
0.5026497 -0.11918623 -0.41759247 -0.18309289 -0.2603149 -0.062441513 -0.032969892 0.009109226
-0.27177617 -0.23381391 -0.08832385 -0.1574731 0.18503305 0.2592571 0.36912793 0.47093964
0.23690161 -0.30033445 -0.30921885 -0.25861722 -0.11525959 -0.115267634 0.11646416 -0.10419015
0.44719794 0.119293906 0.21804017 -0.14973493 0.26898274 0.09223224 -0.045996435 -0.039830133
-0.1868251 0.2815648 0.1961788 0.3019932 -0.40009183 -0.29972178 -0.9277389 -0.24640708
-0.2888656 0.025744619 0.12738134 0.0011303651 -0.37915698 -0.046472277 -0.9823467 -0.15238741
-0.30885974 -0.17982723 0.00036941358 -0.11507258 -0.02538434 0.16925363 0.42183492 0.06470773
0.2441229 -0.29350394 -0.1227984 -0.24177136 -0.10579493 0.20784064 0.05184527 -0.023254076
0.36075813 0.19453265 -0.24437593 0.023945825 0.34273174 0.1414503 0.09338285 -0.17728363
0.16382036 0.40192047 0.13520068 0.14101134 -0.1651694 -0.16798516 0.29733804 0.098362826
0.59422207 0.05997471 -0.2901931 0.025540255 0.22351326 0.08542561 -0.46903613 0.033431888
-0.37609404 -0.22747807 0.27215004 -0.030705325 -0.30809498 0.079004146 -0.37277246 0.098400384
-0.32123366 -0.24656253 0.25564253 -0.079294264 0.3146878 0.043158382 -0.18312758 0.049607307
-0.33212054 0.109924674 0.14976512 0.04949799 -0.262761 0.07418194 0.49207622 0.11575402
-0.16897212 -0.44908625 -1.2385011 -0.32790336 0.1392359 0.20479049 0.23420905 -0.05845278
-0.17039053 -0.266165 -0.5165621 -0.29237512 -0.32706422 -0.11258442 0.03096546 0.044735607
-0.40961996 -0.44429904 0.12258222 -0.2118942 -0.41971904 -0.2749462 -0.5994343 -0.4352841
-0.38791564 0.014527957 -0.40977496 0.076018676 -0.4474801 0.2758788 -0.24266578 0.2779996
0.31929561 0.5393834 0.3915022 0.30192697 -0.34432006 0.12822835 0.20326465 0.1368063
-0.034698952 0.24392503 1.037018 0.31687808 0.0094491355 0.03655208 0.07168782 -0.30155283
0.254119 -0.2337461 -0.40768966 0.036448624 0.20855992 0.20707022 -0.124696575 -0.24850446
0.4728386 -0.105545916 -0.1060456 -0.15241168 -0.12199952 -0.29209316 -0.5596094 -0.24984334
0.2734295 0.2436487 0.03719035 0.1563569 -0.08184671 -0.21488774 -0.17536399 0.032619923
0.17061263 -0.1683403 -0.49525 -0.096239835 0.045791756 0.08029647 1.0548006 0.21419235
-0.23632705 0.2308668 0.5293696 -0.13610536 -0.3543731 0.11873126 -0.39943784 -0.01089643
0.06639345 -0.012415844 0.036356315 -0.16472095 -0.49673414 -0.105232544 -0.66770494 -0.14739749
0.2935793 -0.24958178 0.15592769 -0.108875975 -0.06934163 -0.17028786 0.25838852 -0.1649559
-0.058815915 0.43314984 0.50682956 0.33668083 0.020472933 -0.31589982 -0.3862601 -0.04935987
0.6068528 -0.038234133 -0.032060232 -0.21568938 -0.4902654 -0.31395125 0.23447402 0.1027961

layer1.bias f4 [128]
00000000: 3bed f33e 84f5 8d3e 700c 91be 9257 f23e
00000010: d7cd ca3e eacb 79be 99df 5ebe 4205 ae3e
00000020: 8c06 babe fa9b 57be a44b 10be 875b 123f
00000030: 73a1 7a3d 94a5 e93e 29ee f13e 4c63 a1be
00000040: 8d53 a03e ffbb 25be 9c9e 22bd bd39 f43e
00000050: ecd7 8b3e 1c75 f53e ea55 c33e 6bf3 aabe
00000060: e958 b0be dc1e 5ebe d38f e03e 688a 8a3e
00000070: 4d7c d8be 9b9d cd3e e9aa 69bd 236d 4fbe
00000080: 2ed2 c83e 330a 7e3e 9e5e 95bc f4fc bebe
00000090: 6cc9 89be a9f8 e03e 67f0 39be b3d9 18be
000000a0: 529c cfbe 3d24 893d 2232 9e3d 037f e83e
000000b0: 7b62 a7be a8e4 ad3e 08a1 8f3e 6dc4 183e
000000c0: 529d 20be 8ef7 f2bd a6fe 643e 2d92 d53e
000000d0: 982d 173f b46e 00be 20ff b23e 8c03 f73e
000000e0: 2abf 0c3f 9753 b4be 446c 1e3f f0c9 0e3f
000000f0: e32e 383e 9e22 043f 133a 9a3e 9dc2 53bd
00000100: 3e40 adbe b318 0ebf 1b50 aa3e d8e3 223e
00000110: d1b8 c43e f955 5bbe ba89 2e3e d78c b83e
00000120: 153b ad3e e152 87be bb33 9f3e 52cf 083f
00000130: 2664 123e cb98 6abe f8fa 9d3e fce3 453e
00000140: ec14 b3be 5c6a 1bbe 450d b23e 1271 893d
00000150: f644 a13e ce95 093f 5060 bcbe a600 c83e
00000160: 30a7 d5be f227 033f 02ba e63e c791 c2be
00000170: 1834 db3e 27e1 ff3e c961 c5be 3a0a f53e
00000180: c441 ad3e 4d28 91be 225a 183f 4bf9 13be
00000190: 799e afbe 1df8 a33e 2339 f53e 2ea2 2e3e
000001a0: cee9 0e3f 5459 ae3e 07de 20be 3fcd 8abc
000001b0: 90aa 843e 46fb 0bbd b936 7ebe e034 bf3e
000001c0: 3322 583e 7b84 94be 107c 0e3f e16c 483d
000001d0: 4271 92be 225a 93be 6242 143f 93e1 0a3f
000001e0: 3129 63be 7cac 513e 584c e13e f530 52be
000001f0: 5d55 563d 6871 c03e 48c9 183f 3a5c 0c3f
0.4764193 0.27726376 -0.28329802 0.47332436 0.39610168 -0.24394193 -0.21764983 0.33988386
-0.3633312 -0.21055594 -0.14091355 0.5717091 0.061189126 0.4563414 0.47252014 -0.3152107
0.31313744 -0.16184996 -0.039702043 0.477003 0.27313173 0.4794091 0.38151485 -0.33388838
-0.34442833 -0.2169146 0.4385973 0.2705872 -0.42282334 0.40159306 -0.05704776 -0.20256476
0.39222854 0.24808578 -0.018233594 -0.37302363 -0.26911485 0.43939713 -0.18158112 -0.14926796
-0.4054895 0.06696365 0.07724406 0.45409402 -0.32692322 0.33963513 0.28052545 0.1491868
-0.15685013 -0.118636236 0.22362766 0.41713086 0.59053946 -0.1254223 0.3496027 0.48244894
0.54979193 -0.35220024 0.6188395 0.5577688 0.17986636 0.5161532 0.30122432 -0.05169927
-0.33838075 -0.5550644 0.3326424 0.15907228 0.38422254 -0.21419515 0.17044726 0.36044952
0.3383414 -0.2643042 0.31094155 0.53441346 0.14296016 -0.22909848 0.30855536 0.1932525
-0.349769 -0.15177292 0.3477575 0.067110196 0.31497926 0.5374421 -0.3679223 0.39062995
-0.41729116 0.51232827 0.45063788 -0.38001844 0.42813182 0.49976465 -0.38551167 0.47859365
0.33839238 -0.2835106 0.5951253 -0.14450566 -0.34300593 0.32025233 0.47895154 0.17054054
0.5582551 0.34052527 -0.15709697 -0.016943572 0.2591138 -0.03417518 -0.24825563 0.37345028
0.21106796 -0.29007325 0.55658054 0.04893196 -0.28602034 -0.28779703 0.5791379 0.5425045
-0.22183682 0.20475954 0.44003558 -0.20526488 0.052327503 0.37586522 0.5968213 0.54828227

layer2.weight f4 [128, 128]
00000000: f0c6 1c3e 305f 353e 3e6a eebd 9b64 f53d
00000010: e917 ee3d 16be b5be 3372 adbd c81d 1d3e
00000020: 1ca4 6cbe 31b8 c2bd 84ec 08bf 8be5 963e
00000030: c9ff 873d 8cdc 963d e4ad 193e cdeb edbc
00000040: 8592 f53d 10a9 72be 7c5a 2ebc dcfc d33d
00000050: 0652 613e f33b f43d 7eb7 483d a389 f2bc
00000060: 1766 89bd 4f44 17be 5295 203e ddfa 943e
00000070: b1a2 03be 4989 473e 7dbf 63bd ff6d 7dbe
00000080: f490 613e 3e75 203e 5f39 ff3c 5b54 aabe
00000090: 02d0 33bf a130 613e af4a b4bd bbf0 4ebd
000000a0: 4286 04bf ed5c a33e a538 773d bf51 693e
000000b0: f37d 1abf 7865 c63d e6ad 1a3d a909 893d
000000c0: 5c52 21bd eafc adbd 5a5b 1bbc ccb6 033e
000000d0: 9091 253e 70b4 32bf 1e2a fd3d dc89 2e3e
000000e0: bd27 723e 5df1 b7be 1229 293e ae14 303e
000000f0: 5b34 ff3d 7938 093e 5a34 0a3e 0083 4abd
00000100: a8d6 6cbe a995 d6be af0a 613e 2c61 3e3d
00000110: badf ea3c 6475 adbe a624 a23d f5f6 ec3d
00000120: 8539 c03d 4046 4dbd 688e d53d fd0a 263e
00000130: 1c06 03be 54b3 28be 470a c43d 5cc9 343e
00000140: dee8 79be e6ac 7abe dd1f 163e ffbf c43d
00000150: 2648 2e3e 4bb6 0f3e 65c3 08be d599 443e
00000160: 288e 1abf 4ba6 433e cfb1 083e a9c3 0fbe
00000170: 1765 313d f0c7 323e effa 0bbf c6e2 ff3d
00000180: 6347 693d 364b b8be 5791 e43d 76a8 00be
00000190: 42bb 06be b7c4 323d b11a 3a3e c4b7 c53c
000001a0: c672 583d 7b91 563e 820b 26bd 8a0b dfbe
000001b0: 18ab 003e 1db0 8ebc f0eb 3bbe b0aa 473e
000001c0: b40a 60bd 4a7c a8be 9d65 3c3e c2f8 093e
000001d0: a05b 28bf 8b83 35be 0cbb 963e 39ee 4b3e
000001e0: 27e5 903c e49a 0c3d e302 083e dd35 06be
000001f0: 4dc7 b53d b0d4 b03d 26e1 3c3e 176d 223e
00000200: df30 20bd e473 80bc ea23 263e 4f4b 2b3d
00000210: d6ed a6bd 9a71 563b 2d31 9fbc a644 c9bc
00000220: c972 34bd 20ce 5e3e 66fb ce3d fffc 00bd
00000230: d4fb 59bc 7b2a 8dbd 12d5 9e3c c0f7 a13c
00000240: fecd 803b 163f 8d3b 86cd 223d e46e 953c
00000250: 767a 31be 0d4d 00bd cc98 afbd 0a55 973b
00000260: 9e54 86bd b8ee 813e 6aca 27bd d6d1 83be
00000270: f4ba d63e ca65 9abc a451 ea3d c02d 393e
00000280: c655 70bd d369 58be 0296 67be 8256 013e
00000290: 60b2 d6bc 535b 5dbb 7f95 d43e 457c 50bb
000002a0: fc84 413c 8268 1a3e 11e2 133b f995 fabc
000002b0: f010 9d3e e0f2 503b efba 573d e030 48bb
000002c0: 3f98 b43c d8cf 17be c66c 5f3c 874d 9f3d
000002d0: e748 fcbc b1f6 d53e 671c 0d3d d346 f7bd
000002e0: 6068 97bd b056 e5bd a40f c7bb 3956 24bc
000002f0: dc62 bc3d 201f 8e3d e9ed 17bd ab96 f73d
00000300: 70fe 2d3d f2c2 4bbd bb8f d53d f75e 073e
00000310: 92ab bcbc 096b 853e bfa4 083e 842b 2d3d
00000320: 0930 d2bd 7a14 3dbd a373 e8bc 61ba 413d
00000330: d39b babd 91b6 fcbb 328c aabd ddc3 78be
00000340: 8d8e b93e 4c58 a03d 8664 d33d 609f 5bbd
00000350: daff ba3d 6ef3 10be ac91 eb3b f837 c83d
00000360: 1cf6 733d 198b 26bd 1dd8 a2bd 9b4d a23c
00000370: c710 5c3d 5424 d5bd 16a3 07be ea86 003d
00000380: 7acc bcbd 101a 853e 9727 123d 642f 153e
00000390: 13f3 593e 5561 bcbc bd39 21be 29b8 19bb
000003a0: 8131 c23d 26d8 8b3d 6943 83bb bd1c f93d
000003b0: f533 1ebe 2908 1e3e f030 4a3e 26f3 b8bb
000003c0: 3145 923c a4aa a23e 0d0c 8d3d e27b 393d
000003d0: 39f4 adbd d154 703e 212a 1cbd 78cf 713d
000003e0: ffb3 893c adf6 a0bd 36a4 8abd 9d09 443e
000003f0: eae9 a53d 7c26 99bb 916c 57bd 2fca e8bd
0.15310264 0.17712092 -0.11641358 0.119820796 0.11625654 -0.35496587 -0.084690474 0.15343392
-0.23109478 -0.09507788 -0.53485894 0.29472002 0.06640584 0.07366285 0.1500774 -0.029043103
0.11990837 -0.23697305 -0.01064169 0.103509635 0.22003946 0.11925497 0.049003117 -0.029606646
-0.06708925 -0.14772151 0.15681961 0.29097643 -0.1285503 0.19485964 -0.05560254 -0.24748991
0.22027951 0.15669724 0.031155286 -0.33267483 -0.7023927 0.21991207 -0.08803307 -0.050522547
-0.5176736 0.31906834 0.060356755 0.2278509 -0.60348433 0.096873224 0.0377635 0.06691296
-0.039385185 -0.08495505 -0.009482229 0.128627 0.16168809 -0.69806576 0.12361549 0.17044777
0.23647971 -0.35926333 0.16519573 0.17195389 0.12461158 0.13400449 0.13496533 -0.049441338
-0.2312876 -0.41911057 0.21976732 0.04647939 0.028671134 -0.33878624 0.079171464 0.11570541
0.09385971 -0.050115824 0.104275525 0.16215129 -0.127953 -0.16474658 0.09572273 0.17654938
-0.24405238 -0.24480018 0.14660592 0.09606933 0.1701971 0.14034383 -0.13355787 0.19199307
-0.60373163 0.19106404 0.13349079 -0.14039482 0.043309297 0.17459083 -0.5467977 0.124944255
0.056952845 -0.3599488 0.11160534 -0.12564263 -0.1315737 0.043644633 0.18174244 0.024135478
0.05284383 0.20953934 -0.04053832 -0.4356349 0.12565267 -0.017417962 -0.18351722 0.19498706
-0.054697707 -0.32907325 0.18398137 0.134738 -0.6576481 -0.17725961 0.2943958 0.19915093
0.017687393 0.034327403 0.13282351 -0.13106485 0.08875904 0.08634317 0.18445262 0.15861927
-0.039109107 -0.015680261 0.16224638 0.041819867 -0.08150832 0.003272152 -0.019432629 -0.024568867
-0.04405478 0.21758318 0.10106544 -0.031491276 -0.013304669 -0.06892868 0.01938871 0.019771457
0.003930806 0.004310499 0.039746784 0.018241353 -0.17331871 -0.03132348 -0.085740656 0.0046182917
-0.06559108 0.2537744 -0.04096452 -0.2574603 0.4193951 -0.018847365 0.11441353 0.18083858
-0.05867555 -0.21134119 -0.22615817 0.12630656 -0.026208103 -0.0033776357 0.41520306 -0.0031812352
0.011811491 0.15078929 0.0022565166 -0.03058909 0.30676985 0.0031883046 0.05266851 -0.003054671
0.022045253 -0.1482538 0.013636773 0.07778459 -0.030796481 0.41789773 0.034450915 -0.120740555
-0.07392955 -0.11198175 -0.0060748626 -0.010030323 0.091985434 0.069395304 -0.037092123 0.120892845
0.04247898 -0.04974646 0.10427805 0.1321982 -0.02303103 0.26058224 0.13344096 0.042277828
-0.10263068 -0.046162106 -0.028375452 0.047296885 -0.09111752 -0.0077121933 -0.083275214 -0.24293466
0.3624157 0.07829341 0.10321908 -0.05361879 0.09130831 -0.14155361 0.0071889963 0.097763
0.05956088 -0.040659998 -0.079513766 0.019812396 0.053726938 -0.1040732 -0.13245806 0.031378664
-0.09218688 0.25996447 0.035682287 0.1456886 0.21284132 -0.02299563 -0.15744682 -0.0023455715
0.09482098 0.068283364 -0.0040058387 0.121636845 -0.15449508 0.154328 0.1974523 -0.00564422
0.017855259 0.31770813 0.06887064 0.04528416 -0.084938474 0.23469855 -0.038126115 0.05903575
0.016809462 -0.0785955 -0.06769602 0.19144292 0.08101256 -0.004673777 -0.05259377 -0.113666885

layer2.bias f4 [128]
00000000: f223 353e 570f aabc 23c1 51bd c43d 363e
00000010: 17af 923e 1571 b6bd ee07 423e 0bc9 863e
00000020: 844f 45bc 2e44 72bd 4af5 653e 1685 5d3e
00000030: fbed 9b3c ea13 01be 57d7 7f3e 3675 c73c
00000040: c6c1 f3bc 534b 643d 9add bc3b 3e06 8a3e
00000050: c86d 8c3e d7de 793e e32f 393e 4340 a93d
00000060: 1d86 203e 174b 063e 069b 833e 82b2 e63c
00000070: 1c09 633e ec0a 55bd 557d 613d af6b 693e
00000080: 4d24 853e 27d7 553e 1cc5 d7bc e44d 1fbd
00000090: 1bd0 563c 457e 483e 0d21 f7bc 8934 55bc
000000a0: 4e38 973e 473d 6f3e ea0d 553e 0141 10be
000000b0: ee3d 953e ddb4 83bd cc19 fabc e2df 5bbd
000000c0: ba2f d0bd 0d0e 1f3e a67f a3bd 66e8 593e
000000d0: 0c30 e5bc 023d 3c3e 7c55 96bc 18a4 5f3e
000000e0: ecd5 413e 577e 523e 5ac5 5c3e e358 3bbc
000000f0: 6865 90bd 5f51 973e 2ec7 b1bd 8154 333e
00000100: 723e 553e d2bb 4b3e 4f97 cd3b d456 0dbd
00000110: 5c4c 693e 7898 773d eeaa 82bd 092e 223e
00000120: f1dd 6a3e 88b8 8d3d 1f37 6b3e f946 933e
00000130: b522 843e 670e a6bd d115 1c3e ab76 443e
00000140: dda2 7d3e 390d 873e 85d3 1ebd 659b 173d
00000150: db69 6dbd 7a1a d83c 8c2e c3bc 0a34 413e
00000160: 886d f0bc 19f9 2e3e 05dd 423e 3435 a23c
00000170: e60f 863e 46b3 153d 14d5 9abd 6c03 ccbc
00000180: 34e7 553e 77fc 87bd 09e1 44b8 3e1c 753e
00000190: 4911 e9bc d399 893e cf3e a33c 6553 8f3a
000001a0: dcc5 033c aeda ab3c a69e 0fbb 60db 793e
000001b0: f2bf 513e fbf3 c3bb 6ff5 843e 9735 8cbd
000001c0: aa4c 8e3e bc7b 7d3e 7da9 333e 8be8 763e
000001d0: e560 8c3e 487e 7c3e b7fa 573e 15b9 76bd
000001e0: dcc4 ef3d dbec 593e 2d16 3e3e 8156 873e
000001f0: 0b1e e7bc 6af5 8e3e 8b89 863e 7bbb 96bd
0.17689493 -0.020759268 -0.05120958 0.17796999 0.28649208 -0.089082874 0.18948337 0.2632526
-0.012042884 -0.059147052 0.22456852 0.216328 0.019034376 -0.12605253 0.2498449 0.024347883
-0.029755484 0.055735897 0.0057637217 0.26957887 0.27427506 0.24401413 0.18084674 0.0826421
0.1567616 0.13114582 0.2570421 0.028161291 0.22171444 -0.05201237 0.055051167 0.22794984
0.26004258 0.20882855 -0.026339106 -0.03889264 0.01311114 0.19579418 -0.030167127 -0.013013014
0.29535145 0.23363219 0.20806089 -0.14087297 0.2914881 -0.06430981 -0.030529879 -0.05368031
-0.10165353 0.15532704 -0.079833314 0.21280059 -0.027977012 0.18382648 -0.018351309 0.2183994
0.18929261 0.20556007 0.21559659 -0.011434766 -0.07050592 0.2955427 -0.08680569 0.17512704
0.20824602 0.19895867 0.006274141 -0.034506634 0.22783035 0.06044814 -0.063802585 0.15837874
0.22936226 0.06919962 0.22970246 0.28765085 0.2580773 -0.08108216 0.15242697 0.19185893
0.24769159 0.26377276 -0.03877594 0.03701343 -0.05796228 0.026379813 -0.023825906 0.18867508
-0.029349104 0.1708721 0.19029625 0.01980076 0.26184005 0.03654792 -0.07560173 -0.024903975
0.20888978 -0.06639951 -4.6939622e-05 0.23936555 -0.028450625 0.2687517 0.01992741 0.0010934888
0.008042779 0.020978298 -0.002191463 0.24400091 0.20483378 -0.0059800125 0.259685 -0.06846159
0.27792865 0.24754232 0.17545123 0.24112146 0.27417675 0.24657547 0.21091734 -0.0602351
0.1170747 0.2128176 0.18563147 0.26433185 -0.028212568 0.2792161 0.26276812 -0.07359978

layer3.weight f4 [2, 128]
00000000: 0558 ab3e 75ab 52be 6b4b d9be efed 903e
00000010: 7c94 9d3e d626 c0be 0718 923e 4834 893e
00000020: 4a43 3ebd 6bed 1dbf fdc5 5e3e 5b0b 9e3e
00000030: a17b 8fbe 48eb f0be fb94 a93e f385 b4be
00000040: 6d24 4fbe 7a20 51bd 305c 02bf af8d 9d3e
00000050: 3dee 8e3e 9938 9d3e 5b41 a23e 8a6e efbe
00000060: cbe0 a73e 84ab aa3e ab2b 953e a93a 38bf
00000070: f956 753e 4a77 773d 9b67 01bd 6f97 8d3e
00000080: 8680 943e 2863 883e aa3a 61bf 7787 3e3d
00000090: ccd5 26bc 2567 9d3e 1e9b 81bd f4aa 42bf
000000a0: 55d6 903e 9556 b43e 0716 983e fd47 f7be
000000b0: 47b7 823e 2399 6f3d c863 593d 47e6 683d
000000c0: 7413 cebe 7c62 8e3e f8cc 99be 3414 8e3e
000000d0: 08ee f8bc d2dd 8c3e 2247 61bd a7b5 a33e
000000e0: 700c 9d3e 9f7b ba3e 72f1 823e 2dbd 26bf
000000f0: 092f 3cbf 8d24 873e 04e1 3fbf 5e14 823e
00000100: 18a2 9d3e cb38 a23e 7b96 05bf 1b30 04bc
00000110: 67e4 5a3e 6787 99be f61b 03bf c6ac 9b3e
00000120: a042 6e3e fb69 c03e 4ae1 8f3e 99ab 9e3e
00000130: d137 963e ea82 11bf 1b9e b63e 6982 9e3e
00000140: 5be5 a43e 32dd 9d3e cbab 23bf f831 98bd
00000150: df43 1dbf f85a a7be 05dd bd3c 85ac a53e
00000160: 491c 3bbc f978 883e 9f5c 7b3e 66d6 5c3d
00000170: 488d b13e eef8 213e 50d9 21bf 0f62 a5bc
00000180: c6e2 883e 2298 11bf 2107 1dbc 77fe 803e
00000190: 5de5 74be c821 643e c137 bbbe b632 fbbe
000001a0: 5ce3 b33a 1d9a acbe 3079 aabe 8403 a63e
000001b0: 79f5 ac3e 5277 b6be 13cf a43e 743f 93be
000001c0: 10fc a63e b614 6b3e e669 9b3e 7646 813e
000001d0: a06d 8a3e f2db 8d3e 0fde b73e 18c2 b0bc
000001e0: f0e3 f0be 47a6 a93e b1a4 9b3e 6221 9a3e
000001f0: 6ce8 763d c412 943e b849 8a3e cec8 4cbe
00000200: ac6d 573e fb7a a33d 1d3e 01bf fb18 a23e
00000210: 6cfb 713e 1d60 18bf 392b 983e bb8a 8e3e
00000220: 7a11 9d3c ba0a 15bf 7f98 9d3e ada2 be3e
00000230: c9f7 04bc 6a23 25bf bc9d a43e 2a06 e5be
00000240: 8738 9abe f079 55bd 6af7 88ba f4c1 723e
00000250: 04b0 873e f2d1 6a3e 9aa9 873e a12f 3dbe
00000260: d71b 533e eed5 b23e 2312 a03e 2231 f2be
00000270: 1f9a ab3e bf9e 7b3d 4046 21bc da3d 903e
00000280: 578f 843e 7561 9f3e 4dee 48bf 0723 42bd
00000290: 31ac 34bd 075c 943e 7d30 6fbc dde0 2cbf
000002a0: 4242 7f3e 5741 823e 0f36 8d3e 675f efbe
000002b0: a3de 973e 4acc c9bc 9266 243d abc4 0c3c
000002c0: 9cbc 04bf 6a5e 9e3e 8f8d a2be 75c7 8b3e
000002d0: ca64 47bb 6115 ab3e 87cd 803b 06d9 513e
000002e0: d5a7 573e 0dff a03e 1201 aa3e 9850 7dbe
000002f0: 4913 bbbe 4788 953e a11f 37bf b53a 903e
00000300: 681a 9f3e 8f24 693e fccc dbbe 4aa6 ccbc
00000310: 8e50 a83e cd4d babe 274f debe 618a 983e
00000320: 0937 9b3e e883 44be 286e ac3e 04ed 8a3e
00000330: 9565 9c3e d8e2 35bf 4a30 5f3e 1947 a23e
00000340: dcf2 aa3e ffdc 873e 6007 bfbe b8fe 083d
00000350: 7dc7 a5be 1693 e33b ccc6 b33d 49fa 713e
00000360: 0bb1 89be 0110 a23e 1690 a03e 7b73 5c3c
00000370: 22b1 643e ec17 cebd 53d6 2abf 14d4 3d3c
00000380: 06d0 933e 2d38 f8be 14da 07bd 8ca0 a93e
00000390: f5b7 a0be 6252 9a3e 6599 f6be 8874 ecbe
000003a0: 3c29 313d bfa0 aebe b4b4 4fbd 6caa 7e3e
000003b0: c580 b23e 1e53 2bbe e89b 603e 6f71 cdbd
000003c0: e371 9e3e 5b19 a13e 293f 293e 6f14 913e
000003d0: 398a 833e 7f9d 9e3e 9120 913e 05e9 7dbd
000003e0: 3278 003f 8e37 a13e cb0b a03e 8d49 503e
000003f0: fd94 1cbd 157c 7d3e 9f5d a33e bb94 adbe
0.3346559 -0.20573218 -0.42440352 0.2830653 0.30777347 -0.3752963 0.28533956 0.267977
-0.04645089 -0.61690396 0.21755214 0.3086804 -0.2802401 -0.47054505 0.33121476 -0.35258445
-0.20228739 -0.051056363 -0.50921917 0.30772159 0.27916136 0.30707243 0.31690487 -0.46764022
0.3278869 0.3333398 0.2913488 -0.7196451 0.23958959 0.060416497 -0.031592946 0.27654597
0.29004306 0.2663815 -0.8798014 0.046515908 -0.010182809 0.30742756 -0.063284144 -0.76042104
0.28288522 0.35222307 0.29704306 -0.4829711 0.25530455 0.058495652 0.053073674 0.056860235
-0.40249217 0.27809513 -0.3003919 0.2774979 -0.03038694 0.27512985 -0.05499948 0.31974527
0.30673552 0.3642244 0.25574833 -0.6513241 -0.7350927 0.26395074 -0.7495272 0.25406164
0.3078773 0.31683955 -0.5218274 -0.00806811 0.21376191 -0.29986116 -0.5121454 0.30405253
0.23267603 0.37580857 0.2810157 0.30990294 0.2933946 -0.56840384 0.356675 0.3095887
0.32206234 0.3083282 -0.6393401 -0.07431406 -0.6143169 -0.3268659 0.02317668 0.32358184
-0.011420318 0.26654795 0.24547051 0.053915404 0.34678102 0.15817615 -0.6322222 -0.02018836
0.26735514 -0.5687276 -0.009584219 0.2519414 -0.2391562 0.22278512 -0.36565974 -0.49062127
0.0013724375 -0.3371133 -0.33295584 0.32424557 0.3378103 -0.3563791 0.32189235 -0.28759348
0.32614183 0.2295712 0.30354232 0.2524907 0.27036762 0.27706867 0.35911605 -0.021576926
-0.47048903 0.33134672 0.30399087 0.30103594 0.06028025 0.28920567 0.27009368 -0.19998476
0.2103793 0.07982441 -0.504854 0.31659684 0.23631066 -0.5952166 0.29720476 0.27840218
0.019173373 -0.5821949 0.30780408 0.37233487 -0.008115717 -0.6450716 0.32151592 -0.44731265
-0.30121252 -0.05211824 -0.0010449712 0.237068 0.26501477 0.2293165 0.26496583 -0.184752
0.20616089 0.3492884 0.31263837 -0.4730311 0.33516023 0.06143069 -0.009843409 0.2817219
0.2589061 0.3112904 -0.7848862 -0.047396686 -0.044109527 0.2897646 -0.014598963 -0.67530614
0.24927619 0.25440475 0.27580306 -0.46752474 0.29662046 -0.024633545 0.04013688 0.008591811
-0.51850295 0.30931407 -0.31748626 0.2730061 -0.0030425065 0.33414748 0.003930751 0.20492944
0.21060117 0.31444588 0.33203942 -0.24737775 -0.3653815 0.29205534 -0.71532637 0.2816979
0.31074834 0.22767852 -0.42929828 -0.024981637 0.32873958 -0.36387482 -0.43419763 0.29793075
0.30315426 -0.19190943 0.33677793 0.27133954 0.3054625 -0.7104926 0.21795765 0.31694868
0.33388412 0.26535794 -0.37310314 0.033446044 -0.3237876 0.0069450242 0.08778152 0.23630632
-0.26892886 0.31652835 0.3135993 0.013455267 0.22333196 -0.100631565 -0.6673328 0.011586208
0.28869647 -0.4848036 -0.03316696 0.331303 -0.31390348 0.30140978 -0.48163906 -0.46182656
0.043252215 -0.34107015 -0.05070944 0.24869698 0.34863868 -0.16730925 0.21934474 -0.10031401
0.30946264 0.31464657 0.16528 0.28335902 0.25691393 0.30979535 0.2834516 -0.061989803
0.50183403 0.31487697 0.31258997 0.20340557 -0.038228024 0.24754365 0.31907365 -0.33902535

layer3.bias f4 [2]
00000000: 1ff6 d33c 43ed d93d
0.025874196 0.10640957
