model_weights/DQN/cartpole/cartpole_dqn_episode_3199.pth (torch, 72508 bytes, 6 tensors)

layer1.weight f4 [128, 4]
000000 50 64 d0 3d 16 85 2e be 77 79 9b 3d e0 0d 39 be
       0.10175383 -0.17042956 0.07591527 -0.18071699
000010 c0 72 d8 bd da 4e cc 3d d5 97 79 3e 18 40 28 3d
       -0.10568762 0.09975977 0.24374326 0.04107675
000020 d7 f9 5d 3e 0f 86 46 be 57 32 15 3f 16 86 42 3e
       0.21677338 -0.19387077 0.5827994 0.18996462
000030 91 97 2b be 58 d6 43 be 53 bb 4c 3d 7e 07 d4 bd
       -0.16757037 -0.19124734 0.049983334 -0.103529915
000040 a5 7a 0e 3d d7 71 7f be 92 85 a9 be 5b be 27 be
       0.03478493 -0.2494577 -0.3310972 -0.16381209
000050 2e 55 47 be a6 13 ad bc 2e c6 24 bf 97 7f 5c bd
       -0.19466087 -0.021127533 -0.643649 -0.053832617
000060 9f ed bd 3e 84 1a b4 bd 43 36 9e be f9 9a 0b be
       0.37095353 -0.0879412 -0.30900773 -0.13633336
000070 ca 55 4e be 51 47 6c bd ec be 02 bd 1d c7 99 3b
       -0.20149913 -0.0576852 -0.03192036 0.0046929256
000080 e2 25 4d be 99 c2 30 be d8 95 85 bd 8d dc ed bd
       -0.20033982 -0.17261733 -0.06522721 -0.11614332
000090 35 ba 09 3e 3e a5 40 3e a0 c7 84 3e 10 0a b4 3e
       0.13449939 0.18813035 0.25933552 0.35163927
0000a0 e5 dd 32 3e 63 ed 5f be ea 84 5f be d7 27 2c be
       0.17467459 -0.218679 -0.21828046 -0.16812073
0000b0 ad 7b bd bd 32 d7 c1 bd ed fe a2 3d f6 04 a0 bd
       -0.09252105 -0.094648734 0.079587795 -0.07813446
0000c0 d0 1b a8 3e 67 4a 54 3d 07 4f 1d 3e 3b 64 a8 bd
       0.3283372 0.051828768 0.15362178 -0.082222424
0000d0 da f2 33 3e de c0 f1 3c be c7 4e bd 38 8a 02 bd
       0.1757311 0.029510912 -0.050483458 -0.031870097
0000e0 4f 00 17 be f2 aa 48 3e fb 3b 0c 3e b8 e8 61 3e
       -0.14746211 0.1959646 0.13694756 0.22061431
0000f0 fc cb 8c be d4 b5 61 be 70 f7 28 bf ea fa 35 be
       -0.27499378 -0.22042018 -0.6600256 -0.17771497
000100 f8 c3 63 be 6f ee e5 3b 48 a0 b0 3d b1 29 ab ba
       -0.22242725 0.007016949 0.08624321 -0.001305869
000110 4d ae 90 be df 39 1a bd 93 75 25 bf 05 c1 14 be
       -0.2825798 -0.037652846 -0.6463253 -0.14526756
000120 95 2a 6c be d8 4f 0a be 52 d2 a1 38 5d 45 b3 bd
       -0.23063119 -0.1350702 7.7162535e-05 -0.08753464
000130 b7 99 ef bc 55 e6 e5 3d 08 b0 9a 3e 98 90 3a 3d
       -0.029248102 0.11225573 0.30212426 0.04554805
000140 af 42 31 3e 9e e9 66 be 9c 1d c5 bd 0a 60 38 be
       0.17310594 -0.22550055 -0.09624788 -0.18005386
000150 8b 86 b6 bd c9 f5 0e 3e 92 b7 eb 3c 3d 1a b0 bc
       -0.08912381 0.13960947 0.028774057 -0.021496886
000160 18 87 77 3e 67 67 cc 3d b7 95 4f be 1f 5a 71 3c
       0.24172628 0.0998066 -0.20271955 0.014730959
000170 76 87 81 3e 44 1c d6 3d 3b d5 8c 3d 77 15 08 be
       0.2529866 0.1045461 0.06876608 -0.13289438
000180 c5 50 f7 3d 8d 04 98 3e 92 0d cc 3d ce 19 d5 3d
       0.120759524 0.29690972 0.09963526 0.104053125
000190 cb ea e8 bd 87 8e ea bd 3a 22 52 3e 46 c3 82 3d
       -0.11372908 -0.11452966 0.20520869 0.06384902
0001a0 1c 21 cd 3e 4c d3 8b 3d c4 0e d1 bd 2b 5c 34 bd
       0.40064323 0.06827411 -0.102078944 -0.04403321
0001b0 ae fc 18 3e 00 f8 33 3d 24 d3 b5 be 93 3d b9 3c
       0.1494014 0.043937683 -0.3551265 0.022612369
0001c0 89 8e 89 be b3 96 24 be e9 d9 48 3e c1 af 25 bd
       -0.26866558 -0.16073112 0.19614376 -0.040450815
0001d0 27 94 72 be 8c 51 3f 3d 37 92 90 be 08 10 91 3d
       -0.23689328 0.04670863 -0.28236553 0.07083136
0001e0 a5 52 6e be c3 08 34 be 38 63 48 3e be db 6e bd
       -0.23273714 -0.17581467 0.19569099 -0.05831503
0001f0 4a ab 6d 3e a1 80 02 3d d8 8f 0a be 31 29 16 3d
       0.23209873 0.03186095 -0.13531435 0.036660377
000200 20 c3 82 be 58 d0 8c 3d 8d 58 d0 3d e1 85 0d 3d
       -0.25539494 0.06875676 0.1017314 0.034551505
000210 c7 c7 4d be 4b da 3b 3d 63 73 b6 3e 01 07 ac 3d
       -0.2009574 0.045862477 0.35634908 0.083997734
000220 b6 1e f7 bd 98 92 aa be 62 4c 6a bf 12 38 6c be
       -0.120664045 -0.33314967 -0.915228 -0.23068264
000230 0e 7b d2 3d c0 d1 1a 3e 49 10 31 3e 0d c2 30 bd
       0.10277377 0.15119076 0.17291369 -0.04315381
000240 4f ea fe bd 0b d9 49 be a6 fb c2 be e0 34 46 be
       -0.124470346 -0.19711702 -0.38082618 -0.19356108
000250 58 06 80 be b8 a1 c0 bd 05 8e 7e 3c e1 11 fe 3c
       -0.2500484 -0.094058454 0.01553679 0.031014385
000260 71 24 9a be 3d 64 a4 be b3 c7 d2 3d da 2b 24 be
       -0.30105928 -0.32107726 0.10291996 -0.16032353
000270 a2 15 9d be 5a 40 44 be 28 97 ce be 1a c5 b2 be
       -0.30680567 -0.19165173 -0.40349698 -0.34916002
000280 be 6b 92 be 16 9a 34 3c 14 0c 9b be ed 3a 54 3d
       -0.28597826 0.011023065 -0.30282652 0.05181401
000290 74 45 ae be f0 df 40 3e 02 dd 3a be de 9d 4f 3e
       -0.34037364 0.18835425 -0.1824837 0.20275065
0002a0 b0 48 71 3e 88 9d bf 3e 87 90 ad 3e 04 89 89 3e
       0.23562884 0.37424874 0.33899328 0.26862347
0002b0 d3 4c 87 be 77 d6 a8 3d a7 d3 0f 3e ef 5a ca 3d
       -0.264258 0.08244031 0.14045583 0.098806255
0002c0 96 c7 d1 bc bf 77 38 3e 4c c1 43 3f dd 4c 6f 3e
       -0.025607865 0.1801443 0.7646682 0.23369165
0002d0 ca e7 01 bb c7 17 80 3c a8 7e 1e 3d e1 c4 61 be
       -0.0019821995 0.015636338 0.038695008 -0.2204776
0002e0 5e 47 24 3e d6 7e 2c be a2 65 98 be 6c 15 16 bd
       0.1604285 -0.16845259 -0.2976504 -0.036641523
0002f0 85 64 2d 3e ae 46 fb 3d 12 39 e6 bd ba 87 06 be
       0.16932876 0.122693405 -0.11241354 -0.13137713
000300 5b cb b2 3e a1 6f 9f bd 92 82 a2 bd 26 5e e8 bd
       0.34920773 -0.077849634 -0.079350606 -0.113460824
000310 a4 69 a4 bd 46 79 56 be 24 21 cb be 33 6e 44 be
       -0.08027962 -0.209447 -0.39673722 -0.19182663
000320 22 75 5c 3e 4c ce 14 3e 22 69 27 3c ed 61 f2 3d
       0.21529058 0.14531821 0.010217937 0.11835084
000330 79 fe 8d bd 4e 65 2d be ce d4 0c be e9 57 b2 3c
       -0.069333024 -0.16933176 -0.13753054 0.021770434
000340 a4 76 f1 3d e8 c0 09 be c8 59 be be 7c 6b 95 bd
       0.11790207 -0.13452494 -0.37177873 -0.07295892
000350 d1 5f 47 3d 96 49 8f 3d b3 28 42 3f e6 76 16 3e
       0.048675362 0.06996457 0.7584335 0.14693794
000360 bb ff 3d be 39 e0 1f 3e dd 87 c2 3e b0 52 d8 bd
       -0.18554585 0.15612878 0.3799428 -0.105626464
000370 bf fc 8a be b0 1d 9a 3d d3 de 9a be 1e 6f 25 bc
       -0.27145955 0.07525194 -0.30248126 -0.010097293
000380 8e bc 24 3d aa 89 a5 bc c9 07 a1 3c f6 07 fd bd
       0.040218882 -0.020207245 0.019657033 -0.12355034
000390 bc 01 b9 be 55 a8 9f bd 33 64 e4 be fa 46 d3 bd
       -0.36134136 -0.07795779 -0.44607696 -0.10316272
0003a0 5d 81 55 3e ba e2 46 be e0 62 db 3d ac 2b a8 bd
       0.2085013 -0.19422427 0.10712218 -0.08211455
0003b0 23 69 75 bd 97 34 0c be 89 11 3b 3e b0 eb fd bd
       -0.05991472 -0.13691936 0.18268408 -0.123984694
0003c0 b4 7b a4 bc f7 03 b3 3e c9 60 96 3e 15 f7 85 3e
       -0.020078517 0.34963962 0.29370716 0.2616507
0003d0 a5 71 e1 3b ac fc 78 be 56 3e 95 be 4b 79 1d bd
       0.0068800026 -0.24315137 -0.2914912 -0.038445752
0003e0 c4 e3 fe 3e 0f 9e 71 bd 0e ce 08 bc a0 03 0c be
       0.49783146 -0.058988627 -0.0083499085 -0.13673258
0003f0 a1 60 b6 be b1 03 6b be 14 90 32 3e fb ac ac 3d
       -0.35620597 -0.22950627 0.17437774 0.08431431

layer1.bias f4 [128]
000000 9d 1c d2 3e 2e 77 8f 3e 12 c8 83 be 3d 29 d4 3e
       0.41037455 0.28020614 -0.2573858 0.41437712
000010 a2 d8 b6 3e 05 ee 5d be 02 f0 23 be 1b 07 a4 3e
       0.35712153 -0.21672828 -0.16009524 0.3203667
000020 68 70 89 be c1 6e 17 be 83 27 f7 bd 8c 89 f4 3e
       -0.26843572 -0.14788343 -0.12068083 0.4776119
000030 d2 8a 10 3e ec 08 ef 3e b2 8d d6 3e 2a a0 8a be
       0.14115456 0.46686494 0.4190498 -0.2707532
000040 d7 f4 9a 3e 92 65 0a be 38 6d ab bc 71 c3 da 3e
       0.30264923 -0.13515308 -0.020926103 0.42727235
000050 4c 10 83 3e 02 b7 de 3e be d4 da 3e 4d 9e 7b be
       0.2559837 0.43499 0.42740434 -0.24572106
000060 2e 2e 82 be 19 d8 41 be 80 6a cf 3e 7d ed 93 3e
       -0.25425857 -0.18930091 0.4051094 0.28892127
000070 99 63 a8 be bd c1 b9 3e 6b 6e 81 bd fe 30 19 be
       -0.32888487 0.36280623 -0.06319889 -0.14960095
000080 86 1a b9 3e df 31 74 3e 9c 66 8e bc 8e 00 8d be
       0.36153048 0.2384715 -0.017382912 -0.27539486
000090 cc 8b 4d be 72 9f c6 3e d8 05 1a be 6f 05 15 be
       -0.2007286 0.38793522 -0.15041292 -0.14552854
0000a0 fa bb 99 be f9 8b 1c 3e 78 04 c6 3d b1 87 d0 3e
       -0.30026227 0.1528777 0.09668821 0.40728524
0000b0 fa c7 76 be d8 da a4 3e c1 a9 92 3e ef 06 0b 3e
       -0.24099723 0.32198215 0.28645137 0.13576864
0000c0 06 8c eb bd e8 2b ed bd 82 26 84 3e 07 32 be 3e
       -0.11501317 -0.1158064 0.2581063 0.37147543
0000d0 29 d4 fc 3e ee a2 00 be 3f 46 ad 3e c2 24 da 3e
       0.49380615 -0.12562153 0.33842656 0.4260617
0000e0 cf 31 f1 3e b8 de 8d be 7e ad 04 3f 76 e3 f3 3e
       0.47108313 -0.27708983 0.5182723 0.47634476
0000f0 08 f9 31 3e af 8a e1 3e 36 8c 88 3e 4a 37 60 bd
       0.17380154 0.4405112 0.26669472 -0.054740228
000100 66 bb 7f be 28 77 d4 be 04 92 a1 3e c5 cd f7 3d
       -0.2497383 -0.4149716 0.31556714 0.12099794
000110 e3 25 d0 3e 38 01 22 be 0a 3a 64 3e 0f 38 bf 3e
       0.40653905 -0.15820777 0.22287765 0.37347457
000120 62 3e 9d 3e ee 87 48 be 93 54 9c 3e 05 9e e7 3e
       0.30711657 -0.19583103 0.30533275 0.45237747
000130 0f 82 1e 3e 9e ca 2e be 85 ac bf 3e 1d 4d 6f 3e
       0.15479301 -0.1706948 0.3743631 0.2336926
000140 1a 73 97 be 0c 6d 15 be 3e d7 a8 3e 5a 63 a2 3d
       -0.29580003 -0.1459238 0.32976717 0.07929106
000150 f4 bf a5 3e 12 a7 f2 3e 81 14 8d be 98 00 b5 3e
       0.3237301 0.4739309 -0.27554706 0.35352015
000160 9b a3 9d be 85 08 e2 3e 36 3c ca 3e 4e 87 8f be
       -0.30788884 0.44147125 0.39499062 -0.28032917
000170 76 29 d0 3e 19 e9 e0 3e 6f f0 92 be 89 19 d4 3e
       0.40656632 0.4392784 -0.2869906 0.41425732
000180 79 45 c8 3e d6 2a 56 be 2e a4 ff 3e 3a 1c da bd
       0.39115503 -0.20914778 0.49929947 -0.10649915
000190 da 1d 8c be b1 d9 c6 3e 17 52 d3 3e 62 cb 44 3e
       -0.27366525 0.3883796 0.41273567 0.1921821
0001a0 78 90 f7 3e d7 5c a2 3e 9b d4 0e be 7c 25 11 bc
       0.48352408 0.31711456 -0.1394829 -0.008859035
0001b0 cd cb 89 3e 2a 12 9f bc 16 99 3b be 92 4b b3 3e
       0.269133 -0.019417841 -0.18320116 0.35018593
0001c0 e8 3a 92 3e 9f b0 6d be da 5f f4 3e 1d f0 ce 3d
       0.28560567 -0.23211907 0.4772938 0.10104392
0001d0 b3 e8 67 be 66 3d 59 be 93 3a ff 3e 71 26 f1 3e
       -0.22647361 -0.21214828 0.49849376 0.4709964
0001e0 73 06 1d be e1 8b d0 3e b8 27 c4 3e 94 2a 1b be
       -0.15334491 0.4073172 0.38311553 -0.15152961
0001f0 eb 8d 53 3d 3e f3 bd 3e 10 17 00 3f 22 d2 ed 3e
       0.051649015 0.37099642 0.5003519 0.4644938

layer2.weight f4 [128, 128]
000000 5c c5 22 3e 46 9b 70 3e 1b 60 a4 bd b5 c5 f7 3d
       0.15895599 0.23496732 -0.08026143 0.120982565
000010 98 fa f1 3d b5 50 83 be fe 73 80 bd f2 20 1a 3e
       0.11815375 -0.25647512 -0.06272124 0.1505163
000020 fe ab 2e be e3 50 90 bd 00 e2 c8 be 26 82 85 3e
       -0.17057797 -0.07046678 -0.39234924 0.26075858
000030 39 4b 7f 3d fb f0 13 3e 9c 7e 40 3e 72 fc 98 bc
       0.062327597 0.14447396 0.18798298 -0.018675063
000040 7c 7d 04 3e 83 4c 24 be af cb 09 39 48 bc 34 3e
       0.12938493 -0.16044812 0.00013141216 0.17649949
000050 c8 a1 4a 3e 18 9e 3a 3e da e6 c1 3d 6f 17 b1 bc
       0.19788277 0.1822437 0.094678596 -0.02161762
000060 a4 7c 4a bd a3 46 e3 bd 89 9a 27 3e 99 4d 94 3e
       -0.049435273 -0.11097457 0.16367544 0.28965452
000070 97 51 c0 bd 25 d9 3d 3e ab 56 08 bd 67 0b 3b be
       -0.09390562 0.18539865 -0.033285778 -0.18266068
000080 0b 4d 59 3e 28 8d 2d 3e db f0 03 3d 06 3a 7b be
       0.21220796 0.16948378 0.03221212 -0.24533853
000090 5a c7 04 bf 20 96 48 3e d7 19 6f bd 0c 4f e8 bc
       -0.51866686 0.19588518 -0.058374252 -0.028358005
0000a0 34 72 c3 be 55 20 88 3e 69 42 49 3d 75 41 62 3e
       -0.38173068 0.26587167 0.0491356 0.22095282
0000b0 c6 de e3 be 60 d9 11 3e c9 90 86 3d 02 06 28 3d
       -0.445059 0.14243078 0.06570584 0.041021354
0000c0 76 85 ee bc 81 bd 6e bd e9 f2 99 3c 71 6b 03 3e
       -0.029116374 -0.058286194 0.018792586 0.12833954
0000d0 85 b2 2a 3e 4e 93 03 bf 76 f5 33 3e 82 11 2d 3e
       0.16669662 -0.51396644 0.17574105 0.1690121
0000e0 7d 76 76 3e 16 8a 83 be a0 ce 31 3e ff e3 2c 3e
       0.24068637 -0.2569129 0.17363977 0.16883849
0000f0 01 14 d6 3d 69 85 08 3e 1c 0e 29 3e d9 7f f3 bc
       0.10453034 0.13332142 0.16509289 -0.029724048
000100 e8 d1 2e be 18 39 9e be b0 29 85 3e 24 7a 78 3d
       -0.1707226 -0.30902934 0.26008368 0.060663357
000110 f7 04 87 3d 8a 03 80 be f4 a4 b1 3d 4d 44 2d 3e
       0.06592744 -0.250027 0.086740404 0.16920586
000120 37 b3 01 3e 56 96 17 bd 04 f2 e9 3d 06 eb 29 3e
       0.12666021 -0.037008606 0.11423114 0.1659356
000130 2a 01 91 bd c3 96 f2 bd ea 6d 15 3e 70 27 56 3e
       -0.070803 -0.11845162 0.1459271 0.20913482
000140 72 68 35 be a6 53 34 be fb 7a 13 3e 5f 02 a4 3d
       -0.17715624 -0.17610034 0.14402382 0.08008265
000150 d7 ad 45 3e 21 ca 47 3e 5d 0d c9 bd 75 bd 45 3e
       0.19304596 0.195107 -0.09817002 0.19310553
000160 15 f7 e3 be 6f 43 31 3e 35 ee 08 3e 8a 37 d4 bd
       -0.44524446 0.1731088 0.13372119 -0.10362156
000170 d8 54 bd 3d 6a 02 4e 3e 9b 74 ce be f2 54 19 3e
       0.09244698 0.20118108 -0.40323338 0.1497381
000180 2b eb ff 3d e7 23 88 be 9d 46 10 3e 83 dc bd bd
       0.124960266 -0.2658989 0.14089437 -0.09270575
000190 1f 8e be bd 65 ad 12 3e 12 0e 38 3e 14 74 2b 3d
       -0.09304451 0.14323957 0.17974117 0.041858748
0001a0 51 01 d4 3d a8 72 3e 3e 8f 45 e4 bc 3d 39 80 be
       0.103518136 0.18598425 -0.0278652 -0.2504367
0001b0 e4 2d 2f 3e 67 bd 69 bc 73 dc 0a be 10 4f 52 3e
       0.1710735 -0.014266348 -0.13560657 0.20537972
0001c0 a3 89 e2 3b 3c c7 71 be 6f 78 31 3e de bf d0 3d
       0.00691338 -0.23611158 0.17331098 0.10192846
0001d0 01 c2 f7 be 27 0e 06 be ac b0 9c 3e bd 0d 7b 3e
       -0.483902 -0.13091336 0.3060354 0.2451696
0001e0 43 c6 6b 3c 76 1f 29 3e 4d db 10 3e a6 e1 c5 bd
       0.014390531 0.16515908 0.14146157 -0.0966218
0001f0 57 64 98 3d ce 26 d5 3d 6e 17 3a 3e 9e 00 1e 3e
       0.07441013 0.10407792 0.18173 0.15429923
000200 cb 83 0f 3d ba 2e 96 bc a0 bf fe 3d 04 1c 97 3d
       0.035037797 -0.018332828 0.12438893 0.073783904
000210 4c ef a8 bc 0f a0 81 3a 5a dd 6a bc bd aa 6e bb
       -0.020621918 0.000988962 -0.014335001 -0.0036417686
000220 96 41 05 bd 21 a1 23 3e f8 99 85 3d f4 ea dd 3b
       -0.03253325 0.15979435 0.06523508 0.0067723934
000230 76 f5 33 bc 98 58 8e bd 64 e8 4d bc 10 1f 6f 3d
       -0.010983815 -0.06950492 -0.012567613 0.058379233
000240 88 dc a8 3c ef a0 be bc cf 7c a1 3e 59 7c 29 3c
       0.02061297 -0.023270098 0.31540534 0.010344588
000250 23 89 a5 bc 0d 73 5e bd 87 0b ee bd 68 21 5f 3b
       -0.020206993 -0.05430894 -0.116232924 0.0034047011
000260 13 0e 46 bd b5 9b 5f 3e 15 4e 80 bc e6 58 b3 be
       -0.048353266 0.21836741 -0.015662232 -0.35028762
000270 b4 e6 aa 3e 55 71 34 bd 87 08 40 3e cf cd 08 3e
       0.33379138 -0.044053394 0.18753253 0.1335976
000280 da ab 3d bd 12 f3 0a be 07 67 7d bd ea d7 be 3d
       -0.04630647 -0.13569286 -0.061865833 0.09318526
000290 59 3c a9 bc fe ea 66 3c 3f 63 f0 3e a2 7d 5a 3c
       -0.020658659 0.014094112 0.4695072 0.013335617
0002a0 5a 45 f2 3c c1 5b 09 3c b4 fb d9 3a 85 e2 d6 bc
       0.029574085 0.008383692 0.00166308 -0.02623106
0002b0 42 bb 67 3e 6c b6 9f 3c 42 de 39 3d c3 9e 66 bb
       0.22630027 0.019496165 0.045377977 -0.0035189844
0002c0 ae 5d 85 3c 32 1b 71 3f 20 12 19 bd 58 e2 93 3d
       0.016280022 0.9418212 -0.0373708 0.07220906
0002d0 64 17 b8 bc 71 8d 9e 3e dd a6 13 3d 9d db fa bd
       -0.022472091 0.30967286 0.036047805 -0.12248919
0002e0 d6 5b 33 bd 01 bc 9f be 7b 28 d9 3c ec 04 37 3d
       -0.043788753 -0.31198123 0.02650856 0.04468243
0002f0 97 49 00 bc 14 67 8a 3d 2e 75 d0 bc 16 ff 00 3e
       -0.007830045 0.06757942 -0.0254465 0.12597308
000300 53 6a 00 3d dc 92 16 bd 76 91 b3 3d 10 2a dd 3d
       0.0313514 -0.03676115 0.08767979 0.107990384
000310 96 32 70 bd ad bc 44 3e bd 85 02 3e ef 2d 51 3c
       -0.058641993 0.19212599 0.1274633 0.012767299
000320 3c be e8 bc 8e de 00 bd 28 7e 1d bd af 11 8a 3d
       -0.028411023 -0.031462245 -0.03845039 0.06741654
000330 bb d9 24 bd eb 89 ba bb f0 eb 2a bd d1 74 f6 be
       -0.040246706 -0.0056927106 -0.041728914 -0.48136
000340 65 69 91 3e 9d 8a 6c 3d 7a ef e4 3d b0 b7 22 bd
       0.28400722 0.05774938 0.11178489 -0.03972596
000350 13 53 3b 3d 3b b7 42 be 2a de ad 3b 64 00 93 3d
       0.045733523 -0.1901521 0.005306025 0.07177809
000360 7e 29 34 3d 13 f8 4a bc fd f0 46 3c cc 63 6f 3c
       0.043984883 -0.012388247 0.012142417 0.014611196
000370 8f 18 3e 3d f5 b9 7e bd 31 f1 c7 bd 19 5b 67 3d
       0.04641014 -0.06218906 -0.097628005 0.056483362
000380 05 fa 99 bd b7 47 44 3e e6 1e 57 3d ef e8 db 3d
       -0.075183906 0.19167982 0.0525197 0.10737788
000390 9a fa 32 3e 01 26 7b 3c 31 e9 ce bd 5f 9c 10 3e
       0.1747841 0.015328885 -0.101030715 0.14122151
0003a0 32 40 88 3d 72 a3 45 3d 99 aa 51 bc 16 80 5d 3d
       0.06652869 0.048251577 -0.012797021 0.05407723
0003b0 4c 9b d3 bd 45 4e 0b 3e 33 64 15 3e 2b 92 8d 3b
       -0.10332355 0.13604076 0.14589004 0.004320403
0003c0 ad 8a 09 bb af 27 73 3e c0 61 52 3d 68 08 09 3d
       -0.0020987198 0.23745607 0.051362753 0.033455282
0003d0 b7 41 f7 3d 87 70 31 3e d3 5c c6 bd ca 5c 90 3c
       0.12073081 0.17328082 -0.096856736 0.01762237
0003e0 2c ed 4a 3c 20 01 34 be fe 19 ad bc 69 a8 10 3e
       0.012385648 -0.17578554 -0.021130558 0.14126743
0003f0 c1 45 8e 3d 13 a3 fb bc 64 2d 04 bd f4 ae c2 bd
       0.06946898 -0.030717408 -0.03226985 -0.09506026

layer2.bias f4 [128]
000000 e2 63 4a 3e 6f 18 7a bc 16 a5 1b bd d4 b4 49 3e
       0.19764665 -0.0152646145 -0.037999235 0.19697887
000010 54 9c 8d 3e 4f c0 86 bd 34 1d 52 3e c3 30 85 3e
       0.2765833 -0.06579649 0.20518953 0.26013765
000020 1b a3 11 bc 0c e4 32 bd f6 a2 6e 3e 14 53 6d 3e
       -0.008888985 -0.043674514 0.23304352 0.23176223
000030 d2 06 66 3c b9 77 be bd b9 d6 7f 3e b7 38 08 3c
       0.014039712 -0.09300179 0.24984254 0.008314303
000040 2f 64 df bc 02 93 28 3d c7 46 27 bc 2c 15 88 3e
       -0.027269451 0.041155823 -0.010209746 0.26578653
000050 d5 bb 8a 3e 3b da 79 3e 1a 34 4b 3e 70 f5 7a 3d
       0.2709643 0.24399655 0.19844094 0.061269224
000060 16 56 5a 3e 1b ca 34 3e f1 03 81 3e 25 56 aa 3c
       0.21321902 0.17655222 0.2519832 0.02079303
000070 30 51 6b 3e fb 33 1d bd 7b 84 26 3d bd fc 6e 3e
       0.2298019 -0.03837965 0.040653687 0.233386
000080 1a ad 82 3e 60 17 61 3e 25 41 9f bc 1d 07 eb bc
       0.2552269 0.21981573 -0.019440243 -0.028689915
000090 a4 80 1e 3c 24 1e 56 3e b3 89 b6 bc b4 51 1d bc
       0.009674225 0.20909935 -0.022282457 -0.009601999
0000a0 21 82 90 3e 01 af 71 3e 46 6c 5f 3e 04 e7 d4 bd
       0.2822428 0.23601915 0.21818647 -0.10395625
0000b0 5e d8 8e 3e c2 43 42 bd d9 b1 b8 bc 5a 66 22 bd
       0.2789945 -0.0474279 -0.022545742 -0.03964839
0000c0 fd bb 99 bd 72 7a 39 3e f3 20 71 bd e3 06 64 3e
       -0.07506559 0.18113115 -0.058869313 0.22268252
0000d0 bc 3a a9 bc fb 66 4e 3e 12 a2 5d bc e0 bb 67 3e
       -0.02065789 0.20156471 -0.01352741 0.22630262
0000e0 14 83 53 3e b4 68 5e 3e ef ee 65 3e 29 6e 0a bc
       0.20655471 0.21719629 0.22454427 -0.008449116
0000f0 fa 19 55 bd 70 d9 90 3e e2 40 83 bd 9a fe 47 3e
       -0.052026726 0.28290892 -0.0640886 0.19530717
000100 e0 60 60 3e 69 ad 58 3e 66 86 c8 3b e5 8d d0 bc
       0.21911955 0.211599 0.006119537 -0.025458286
000110 46 26 6f 3e c0 07 08 3d a3 c3 40 bd 6e e5 3a 3e
       0.23354444 0.033210516 -0.047061574 0.18251583
000120 c4 2a 71 3e a6 35 57 3d eb c4 6e 3e c1 d8 8d 3e
       0.2355147 0.052541398 0.23317306 0.27704433
000130 38 51 81 3e 51 d9 74 bd c2 cb 34 3e 05 43 75 3e
       0.25257277 -0.05977756 0.17655852 0.23951347
000140 f4 70 7b 3e 41 c5 85 3e 0c 98 ea bc f1 8a df 3c
       0.24554807 0.26127055 -0.028636955 0.027287932
000150 6e 0b 26 bd 49 7d 44 3c e5 ff 8f bc db 57 50 3e
       -0.040538244 0.011992761 -0.017578075 0.20346014
000160 10 83 b1 bc 16 5b 43 3e 0f 12 54 3e 4d 40 6f 3c
       -0.02166894 0.19077715 0.20710014 0.014602733
000170 06 10 83 3e a9 c1 33 3c 78 61 64 bd ea c0 96 bc
       0.25598162 0.010971465 -0.055757016 -0.018402535
000180 53 e5 60 3e 4c 72 48 bd 1e 4e 11 b8 ae 72 78 3e
       0.2196248 -0.048937127 -3.4643446e-05 0.24262497
000190 1d 13 ac bc 16 72 88 3e 06 53 1d 3c 3f ee 2d 3b
       -0.021005208 0.2664954 0.009602314 0.002653971
0001a0 4f 5c c2 3b 42 95 7d 3c b9 03 d4 ba 35 c4 78 3e
       0.005931414 0.01547748 -0.0016175426 0.24293597
0001b0 4c 5b 5c 3e 1d b0 70 bc aa 90 82 3e f9 cb 4e bd
       0.21519202 -0.014690426 0.25500995 -0.050487492
0001c0 37 66 8b 3e e0 c1 7e 3e 0d f8 48 3e 7c 79 78 3e
       0.2722642 0.24878645 0.19625874 0.24265093
0001d0 86 67 8a 3e f7 0e 7d 3e dd f8 7d 3e b9 3b 36 bd
       0.27032107 0.2471274 0.24801965 -0.04449055
0001e0 80 38 c1 3d b7 a7 69 3e 6f 20 4f 3e ce 59 85 3e
       0.09434605 0.22817884 0.20227216 0.26045078
0001f0 00 a5 aa bc 84 99 8c 3e 65 36 84 3e 11 3b 5e bd
       -0.020830631 0.27460873 0.2582275 -0.05425555

layer3.weight f4 [2, 128]
000000 55 1c a7 3e 64 34 34 be b9 73 a0 be 2b c8 8f 3e
       0.32638803 -0.1759811 -0.3133829 0.28082404
000010 a3 90 96 3e c8 ce 8d be 8a f1 8e 3e 4f b0 89 3e
       0.29407224 -0.27696824 0.27918655 0.26892325
000020 04 80 0c bd fa 05 e9 be 53 51 6a 3e 14 1b 9e 3e
       -0.034301773 -0.45512372 0.22882585 0.30880034
000030 b2 d2 53 be 60 e1 b1 be 02 f7 a1 3e 1a 21 84 be
       -0.20685843 -0.3474226 0.31633765 -0.25806504
000040 db 7d 16 be f4 67 1a bd 2b cd be be da 1a 9b 3e
       -0.14696448 -0.037696794 -0.37265906 0.30293924
000050 e8 02 8f 3e b0 15 98 3e 34 5c 9c 3e bc 25 b0 be
       0.27931905 0.29704046 0.30539095 -0.3440379
000060 75 f5 b2 3e b7 d4 ab 3e 4d 55 92 3e 7e 17 08 bf
       0.34952894 0.33560726 0.28580704 -0.53160846
000070 c3 c6 7a 3e 61 ca 36 3d 9c f0 be bc 10 ea 8d 3e
       0.24489884 0.044626597 -0.02330809 0.27717638
000080 be ec 8f 3e 31 e4 88 3e 96 53 26 bf 37 af 0c 3d
       0.28110307 0.26736596 -0.6497129 0.034346785
000090 58 fb f5 bb ad cc 99 3e 03 3b 3f bd ac 9a 0f bf
       -0.007506769 0.30038968 -0.046687137 -0.56095386
0000a0 3a c6 8e 3e 52 e2 a9 3e 2e 73 92 3e e7 a6 b6 be
       0.2788561 0.3318048 0.286035 -0.3567421
0000b0 10 ac 81 3e c4 e3 30 3d f7 86 20 3d 93 f3 2b 3d
       0.25326586 0.043185964 0.039191213 0.041980337
0000c0 13 3a 98 be 47 0f 8f 3e 4e d5 62 be c2 66 8d 3e
       -0.29731807 0.27941343 -0.22151682 0.2761746
0000d0 3f de b7 bc 9b 0f 8f 3e bc 5c 26 bd 1c 0b 9b 3e
       -0.022444842 0.27941594 -0.040615782 0.30281913
0000e0 f4 c6 9a 3e 63 9a ac 3e b7 27 82 3e 88 d7 f5 be
       0.30229914 0.33711538 0.25420925 -0.48016
0000f0 c6 0e 0b bf 78 51 87 3e 72 9e 0d bf 07 f1 81 3e
       -0.5431942 0.26429343 -0.55319893 0.25379202
000100 1d 0c 9c 3e 06 1a 9c 3e 33 23 c5 be c7 f5 c2 bb
       0.30477992 0.30488604 -0.38503417 -0.005949709
000110 94 ce 62 3e 8a 5a 60 be e7 66 c1 be 38 77 99 3e
       0.22149116 -0.21909538 -0.3777382 0.2997377
000120 57 4e 75 3e 88 74 8d 3e 33 fa 8d 3e de fa 98 3e
       0.23955666 0.2762797 0.2772995 0.29878896
000130 b3 09 91 3e b0 a9 d6 be 3f c3 ab 3e 31 79 b0 3e
       0.28327712 -0.41926336 0.33547398 0.34467462
000140 17 1e 9d 3e 94 9e 9d 3e 28 61 f1 be cc 6c 60 bd
       0.3068702 0.30785048 -0.47144437 -0.054791257
000150 16 45 e1 be 3d 44 75 be 37 39 8c 3c cd 68 9d 3e
       -0.4399802 -0.23951812 0.017117126 0.3074402
000160 b6 40 0a bc 5e 7a 87 3e 63 3f 80 3e 21 1b 23 3d
       -0.00843828 0.26460546 0.2504836 0.039820794
000170 5a 12 a8 3e c3 fd 90 3e a5 ba ee be a3 de 73 bc
       0.328265 0.28318605 -0.46626773 -0.014884624
000180 04 35 88 3e 66 c7 d6 be 8b ac e7 bb e6 a5 7f 3e
       0.26602948 -0.41949004 -0.0070701293 0.24965629
000190 ef dc 34 be 29 6c 6d 3e 3b 00 89 be 60 78 b9 be
       -0.17662404 0.23185791 -0.26757988 -0.3622465
0001a0 04 d6 84 3a 1b bd 7e be f3 72 7b be 28 e8 9d 3e
       0.0010134582 -0.24876826 -0.24555568 0.30841184
0001b0 06 ad a6 3e c5 db 86 be 8e 7c 9d 3e 0c 18 59 be
       0.3255388 -0.26339546 0.3075909 -0.2120058
0001c0 ce a7 9f 3e ca 05 73 3e 59 81 97 3e 04 4a 7f 3e
       0.31182712 0.23732677 0.29590872 0.24930578
0001d0 63 ad 88 3e 3c ee 8e 3e 13 67 bc 3e 11 7d 82 bc
       0.26694784 0.27916133 0.3679739 -0.015928777
0001e0 3e 20 8e be c3 b5 a3 3e 1a ab 9a 3e 03 dc 95 3e
       -0.27758974 0.3197461 0.30208665 0.29269418
0001f0 3a 5f 36 3d 75 04 8f 3e 3b 55 8a 3e e6 4d 17 be
       0.04452441 0.27933088 0.2701815 -0.1477581
000200 c5 f3 6f 3e b0 48 fb 3d ae b4 be be 75 f2 9d 3e
       0.23432834 0.122697234 -0.37247223 0.30849043
000210 ea 88 78 3e 05 b2 e0 be 86 a8 95 3e 93 f1 8e 3e
       0.24270979 -0.43885818 0.29230136 0.27918682
000220 10 bc 67 3c f1 b1 db be 89 58 99 3e e8 b7 b5 3e
       0.014143959 -0.42909196 0.2995036 0.35491872
000230 34 16 c4 bb 85 83 f3 be 0b dd 9e 3e 54 fa a8 be
       -0.005984092 -0.4756128 0.31028017 -0.33003485
000240 39 79 64 be 47 83 1d bd 74 fd a7 ba a0 9a 7f 3e
       -0.22311868 -0.038455274 -0.0012816624 0.24961329
000250 92 b3 89 3e 4e 3c 75 3e a2 04 8a 3e 93 78 13 be
       0.26894814 0.23948786 0.2695666 -0.14401464
000260 f1 c0 8a 3e 95 2b b0 3e 8e b7 9c 3e c4 d5 b2 be
       0.27100328 0.3440825 0.3060879 -0.34928715
000270 ed 9c a3 3e 67 c4 39 3d bc e4 ed bb 66 fa 8e 3e
       0.31955662 0.04535332 -0.0072599333 0.27925414
000280 47 a1 85 3e 84 d2 9b 3e 03 6c 14 bf 1d 32 0f bd
       0.26099607 0.30434048 -0.5797731 -0.0349599
000290 a4 6c 05 bd 7d e3 91 3e 47 95 30 bc 72 2a ff be
       -0.03257431 0.28493872 -0.010777778 -0.4983707
0002a0 0d f7 80 3e 78 ff 84 3e 38 5d 8d 3e 77 b8 b0 be
       0.25188485 0.25976157 0.27610183 -0.34515736
0002b0 1d 73 93 3e c7 16 95 bc d5 70 f2 3c 8a aa cf 3b
       0.28798762 -0.018199338 0.029594818 0.0063374685
0002c0 b9 c0 c3 be bf cc 9d 3e d1 c0 6f be 4f 35 8c 3e
       -0.38232973 0.3082027 -0.23413397 0.2738442
0002d0 50 3d 13 bb 38 e9 a6 3e 0d 12 3e 3b e7 4f 61 3e
       -0.0022466965 0.32599807 0.0029002458 0.22003137
0002e0 2d 83 6b 3e 81 5d 9c 3e 28 5e a1 3e a5 f6 3a be
       0.22999258 0.30540088 0.31517148 -0.1825815
0002f0 f6 39 8a be e5 09 92 3e 38 43 07 bf aa ea 8e 3e
       -0.26997346 0.28523174 -0.5283694 0.2791341
000300 14 ae 9d 3e 96 29 76 3e 13 5c a2 be 3f 35 97 bc
       0.30796874 0.24039301 -0.31710872 -0.018458007
000310 4a ff 9d 3e 96 57 89 be 6a 2f a4 be ae 40 97 3e
       0.30858833 -0.26824635 -0.32067424 0.29541534
000320 fd c4 96 3e 79 c7 32 be 75 d6 a2 3e 03 3d 8b 3e
       0.29447165 -0.17458905 0.31804243 0.27194986
000330 e1 6b 98 3e a1 55 06 bf 9f c8 6f 3e cd 60 bb 3e
       0.29769805 -0.5247441 0.23416375 0.3659729
000340 63 52 a3 3e 52 f9 8c 3e c5 07 8d be 55 e7 c9 3c
       0.31898794 0.27533966 -0.2754499 0.02464644
000350 e7 90 82 be 69 9c 96 3c 98 c0 84 3d d2 4a 7a 3e
       -0.25501177 0.018385129 0.06482047 0.24442604
000360 e8 e8 4a be 0d 79 9b 3e a6 56 9c 3e 97 d2 22 3c
       -0.19815409 0.30365792 0.30534858 0.009937904
000370 e2 0e 74 3e 6e 8e 4b be e3 02 fc be 06 33 0c 3c
       0.23833802 -0.19878551 -0.49220952 0.008557087
000380 ec 68 8f 3e 0b 5b b7 be a1 40 c8 bc 44 4e a0 3e
       0.28009737 -0.35811648 -0.02444488 0.31309712
000390 c3 15 6d be 71 a2 95 3e 1b b4 b6 be 50 88 ae be
       -0.23152833 0.29225495 -0.35684285 -0.34088373
0003a0 6c ca 02 3d 0f e4 80 be 1d 64 19 bd 0b 75 81 3e
       0.031931326 -0.25173995 -0.03744899 0.2528461
0003b0 3d 7f aa 3e be e9 f9 bd 3c d3 70 3e 5a c6 97 bd
       0.333002 -0.12202786 0.2351808 -0.074108794
0003c0 e0 69 9c 3e 13 8f 9b 3e 53 b4 46 3e 0f 9c 8d 3e
       0.30549526 0.30382594 0.19404726 0.27658126
0003d0 cc 07 83 3e 7a c3 9b 3e 91 f0 a2 3e 3d 62 3b bd
       0.25591886 0.30422574 0.31824163 -0.045747984
0003e0 e4 a2 f2 3e 32 03 9e 3e 16 e4 9d 3e b6 c4 62 3e
       0.473899 0.30861813 0.30838078 0.22145352
0003f0 55 01 e7 bc 48 58 80 3e ad d8 9c 3e 0b 1b 80 be
       -0.028198877 0.25067353 0.3063406 -0.25020632

layer3.bias f4 [2]
000000 45 06 34 3d d4 84 c8 3d
       0.04395129 0.0979096
