model_weights/DQN/cartpole/cartpole_dqn_episode_799.pth (torch, 72498 bytes, 6 tensors)

layer1.weight f4 [128, 4]
00000000: 6f0d 1a3e f795 94be 0709 113e 634f 9abe
00000010: b4c2 1bbe f59e 533e 65f9 bf3e 80f3 f7bc
00000020: 499b 943e 5357 babe a919 443f 0a19 bc3e
00000030: ba2b 25be a714 9ebe c82f 823d 6cbe 3cbe
00000040: 9b15 76bc 6920 bdbe 82e8 a8be cbaa 90be
00000050: 52af 8cbe d2c6 bb3d 8792 33bf 66b3 0cbe
00000060: 71d1 1b3f d0c0 27be 1eef ebbe 7c98 6fbe
00000070: 3ff3 8fbe 7acd edbd 886c 61bd dbe7 473c
00000080: 651c 90be 8bdd 80be 562d 343e 53f8 783e
00000090: 2fda 773e f6a7 a93e 46c7 103d 4e2f 043f
000000a0: ba92 6c3e abf8 9bbe a178 2fbf a828 aebe
000000b0: 7a0d 47be 0868 1cbe 8584 5b3e 63cb debd
000000c0: 3273 f73e d032 f6bd 2c82 f23d 4cc0 923c
000000d0: 0028 773e a5b6 d53d efb0 ec3d 4ddd 18be
000000e0: b3ab 7bbd b2c0 de3e 161b 4c3e 095f af3e
000000f0: 0bc3 d6be f5eb 9ebe 91e5 aabe 6784 733e
00000100: e4c4 9cbe 4acf a43d 70a7 dd3d f710 a7bc
00000110: 2167 a0be 7ce2 113e e71b febe f189 aebe
00000120: cc68 c7be 1e01 86bd 5993 ff3e 7a8a 44bd
00000130: 0b7e 2ebc 8b53 803e bb25 fa3e b389 393c
00000140: 49fc 7f3e c66e b4be 26ab d6bd c8f6 93be
00000150: 7a48 a9bc ef7c ad3e 2f39 b03c f8e1 34be
00000160: 724d ba3e 875c 3b3e 5427 4dbe 8fe5 f4bc
00000170: 2bf5 d83e c703 253e b058 2d3d 510e 6cbe
00000180: 0803 453e 1cef f63e 3556 e23d 591f 263e
00000190: b6d2 91bd 4576 f9bd 80db 1d3f 488f c23e
000001a0: 8e85 e83e 0cda f1bd ddcc 88be 7934 d43d
000001b0: 74f9 f33d c965 f43c d8b8 ddbe 6a10 f13c
000001c0: 4c88 dfbe 8539 89be b85e ff3e 40a0 873e
000001d0: af72 acbe 40a3 fe3d b499 ecbe fe72 2b3e
000001e0: b9bc 93be 9afe 03be 578c 2b3f 4b1a c93e
000001f0: 8869 b93e 6357 433a 2104 94be e7ce 8a3d
00000200: a3aa b5be 05e7 303e 23fe 2d3e 7a75 bb3d
00000210: 8945 80be 52af b03d b80d dd3e 7608 063d
00000220: 55fd a2bd dd34 bebe 092c 75be c7b3 973d
00000230: c2db 2f3e 106e 813e dfee 803e ce3d 9cbd
00000240: 8d16 59bd 6038 38be 4dd7 31bc 9ade 343e
00000250: 3d4b 78be b956 0bbe d70c a6bc adb3 e83d
00000260: 126f e6be aa6a f7be f9c3 823e 5e6d 38be
00000270: da83 dcbe 8ca8 78be f49b bbbd fd7b dabe
00000280: e6aa a0be 001f 4e3e cfe8 953d d6c4 fb3e
00000290: 253f c8be 38be f93e c6db aabe 4b79 873e
000002a0: 92b3 f13e e78a f63e c06f ccbd f01a a83e
000002b0: a8b5 c4be c622 403e 3089 6f3e 528a 373e
000002c0: 9a76 e3bc 5a98 a23e 471f 7a3f f12f 9c3e
000002d0: e18e c43c 627d 803d 23e5 213d 50c1 e7be
000002e0: 58eb 313e df42 ccbe b66a 97be 81df d33e
000002f0: 6cf3 283d e02d 313e e434 073d f2c6 dfbe
00000300: 9874 0e3f 0ee5 2cbe 005a 02be 4d3b 95be
00000310: 8b18 9fbd 9ade 99be 23e2 c5bd 27a0 8fbe
00000320: 2c75 a83e 1312 6c3e 9885 e53c 2049 123e
00000330: 414c b3bd 3c4e 8abe 6b88 5bbe b257 6d3c
00000340: b972 333e 09c3 6ebe 8983 17bf affd efbd
00000350: 45a3 073d aa2f f23d 5904 673f a1a4 e43d
00000360: e7fd 9cbe 624d 8d3e 75cc 043f 0e0c 17be
00000370: f306 ccbe 883f 333e 9ad9 f2be 7cb7 bbbc
00000380: 2d9f 463d 780b f2bc 787b 473d e813 80be
00000390: 9a2f f8be 1084 513c 081f a0be b2bc 86be
000003a0: 846f a63e 4047 a8be c512 403e bd61 0ebe
000003b0: b85c 23be 93d3 6dbe be84 c03e 9609 57be
000003c0: 2c33 5a3d e7a3 f33e 0224 4d3e ac2f 243e
000003d0: e4a5 babb 9fe7 b1be f2ad b4be fb6b 59bd
000003e0: f5bb f03e 2dd2 90be 36af 88bd c603 99be
000003f0: b313 04bf c4b8 adbe c2a0 853d adc9 e33e
0.15044187 -0.29020664 0.141636 -0.30138692 -0.15210992 0.20666106 0.3749496 -0.030267477
0.29024723 -0.36394748 0.76601654 0.36737853 -0.16129962 -0.3087513 0.0635677 -0.18432015
-0.0150198 -0.3693879 -0.3298989 -0.28255305 -0.2747751 0.09168781 -0.7014546 -0.1374031
0.6086646 -0.16382146 -0.4608087 -0.23398012 -0.2811527 -0.11611457 -0.055035144 0.012201275
-0.28146663 -0.25169024 0.1759542 0.24313478 0.24204324 0.33135957 0.035346292 0.5163468
0.23102847 -0.30463156 -0.6854344 -0.34015393 -0.19438735 -0.1527406 0.21437271 -0.10878637
0.48330075 -0.120214105 0.118412346 0.01791396 0.24136353 0.10435227 0.11557185 -0.1492817
-0.061443042 0.4350639 0.19932207 0.34252194 -0.4194568 -0.31039396 -0.3337827 0.23780976
-0.30618966 0.0804735 0.10822952 -0.020393832 -0.3132868 0.14246553 -0.49630663 -0.34089616
-0.3894714 -0.06543182 0.49917105 -0.047983624 -0.010650168 0.25063738 0.4885691 0.011324334
0.24998583 -0.35240763 -0.10481863 -0.28899217 -0.020664442 0.3388438 0.021511642 -0.17664325
0.3638721 0.18297015 -0.20034534 -0.029894618 0.42374548 0.16114722 0.042320907 -0.23052336
0.19239438 0.482293 0.11051599 0.16222896 -0.07120268 -0.12180761 0.61663055 0.3799994
0.45414394 -0.11809167 -0.26718798 0.10361571 0.11912814 0.029833691 -0.43305087 0.029426772
-0.43658674 -0.26801696 0.49876952 0.2648945 -0.33681247 0.12433481 -0.46211016 0.16743085
-0.2885492 -0.12890092 0.67011017 0.39277872 0.36213326 0.00074516813 -0.289094 0.06777745
-0.35481748 0.17275627 0.16991477 0.09153266 -0.2505305 0.0862719 0.4317453 0.032722913
-0.079584755 -0.37149706 -0.2394258 0.07407337 0.17173675 0.25279284 0.25182244 -0.07628976
-0.05300002 -0.17990255 -0.010854554 0.17663041 -0.24247451 -0.13607301 -0.020269794 0.113623954
-0.45006615 -0.48323566 0.2554014 -0.1801047 -0.43069345 -0.24283046 -0.09160605 -0.4267272
-0.31380385 0.20129013 0.07319795 0.4917361 -0.39110675 0.48777938 -0.333708 0.26459727
0.47207314 0.4815285 -0.09982252 0.32833052 -0.38419843 0.18763265 0.23392177 0.17923859
-0.027766515 0.3175686 0.97703975 0.30505326 0.023993911 0.06273915 0.039525162 -0.45264673
0.17374933 -0.3989477 -0.295736 0.41381457 0.04124777 0.17302656 0.033009425 -0.4370647
0.5564666 -0.16884252 -0.12729645 -0.29146805 -0.07768353 -0.30052644 -0.09662273 -0.28051874
0.32901895 0.2305377 0.028017804 0.14285707 -0.08754779 -0.27012813 -0.21438758 0.01448624
0.17524232 -0.23316588 -0.5918508 -0.11718308 0.03311469 0.118254974 0.9024101 0.11164213
-0.30662462 0.275981 0.51874477 -0.14750692 -0.39849052 0.17504704 -0.47431642 -0.02291464
0.048491646 -0.029546484 0.048701733 -0.25015187 -0.48473817 0.012787834 -0.31273675 -0.26315838
0.32506955 -0.3286686 0.1875716 -0.13904472 -0.15953338 -0.2322524 0.37601274 -0.2099975
0.053271458 0.47585985 0.20033267 0.1603381 -0.0056960452 -0.34747025 -0.3528896 -0.053081494
0.470184 -0.2828535 -0.06674044 -0.2988569 -0.5159256 -0.33930027 0.06524803 0.44489804

layer1.bias f4 [128]
00000000: b935 f43e 6efe 5e3e d2c1 a6be 0f55 ec3e
00000010: b2ec bc3e 6acc 19be fddf b5be f458 913e
00000020: 49ce abbe 998f 70be b24f 1abe 1922 163f
00000030: b7df 8e3e cd40 063f 18b5 dc3e 4a98 abbe
00000040: 048c b13e c7d5 00be b3e5 24be 45d3 dc3e
00000050: d366 983e 5559 e93e 3b6c f93e aa7f d8be
00000060: 28df eabe d5f3 0abe e7cd 113f fee8 633e
00000070: a02c b3be b022 f63e 8fd8 66be 013b afbe
00000080: e49a f23e 29c4 2f3e 6ff0 9cbe 5aa2 eabe
00000090: a6b4 70be 0ed0 e03e c4e0 58be 5a54 62bd
000000a0: c311 cebe ade1 e53d e1c0 6c3e 46d7 093f
000000b0: 1828 c1be b8a6 933e 459d 4b3e 262b 613e
000000c0: 3914 82be 33e6 11be 2d45 bf3e cacc c53e
000000d0: 3137 1d3f 74c6 37be 7748 ac3e 6b73 143f
000000e0: 4b80 0f3f a93d d2be 5427 253f 6889 093f
000000f0: 3ead 4a3e 1038 063f be65 ee3e 4a06 173d
00000100: 29ff dcbe dc88 e8be 8fbe 943e facf 573e
00000110: e96f f43e cf8b 6abe 8c52 ca3d 914e c03e
00000120: d1b6 913e 3219 45be 8c56 653e 66d6 0b3f
00000130: dae6 37be bdea 86be eb1b ca3e a002 413e
00000140: 8068 c2be 6324 42be 558d 993e b2ad 8e3e
00000150: 99ec 523e 4cec 033f e7fd f9be f8ef b73e
00000160: c66d 7cbe 3d99 083f 384d d83e d805 00bf
00000170: d9b4 f53e 07b2 033f 33b5 a2be ca13 f13e
00000180: 50ca c13e decd c7be ad9c 193f 3dd4 75be
00000190: 8029 92be 6469 af3e bdb6 fa3e 6b00 f63d
000001a0: 8360 113f 608d a23e 5a6d b0bd b099 7a3c
000001b0: da59 873e 267f a5bd 874b a9be 4268 e43e
000001c0: 2348 583e d76e dabe 5c08 163f f048 7e3e
000001d0: 56ae b3be 28fb c4be a235 133f f900 0e3f
000001e0: 6ac4 6fbe 662b e63d 9675 de3e f74d 79be
000001f0: bd82 523e bbbb cd3e 27a0 193f 7e6c 253f
0.47697237 0.21776745 -0.32569748 0.46158645 0.36899334 -0.15019384 -0.35522452 0.28388178
-0.3355582 -0.23492278 -0.15069464 0.5864578 0.27905056 0.5244263 0.43106914 -0.33514625
0.34677136 -0.1258155 -0.16103248 0.43129936 0.2976595 0.45575967 0.48715386 -0.422849
-0.4587338 -0.13569577 0.5695481 0.22256848 -0.34994984 0.4807334 -0.22543548 -0.34224704
0.47383797 0.17164673 -0.30652186 -0.4582699 -0.23506412 0.43908733 -0.21179491 -0.055256225
-0.40247926 0.11224685 0.23120452 0.53844106 -0.37725902 0.28838134 0.19884212 0.21989116
-0.25406054 -0.1424797 0.37357464 0.38632804 0.6141234 -0.17946798 0.33649036 0.57988614
0.56055135 -0.41062668 0.64513135 0.5372529 0.19792649 0.52429295 0.46561998 0.036871232
-0.43163422 -0.45416915 0.29051635 0.2107543 0.4774163 -0.22904895 0.09879026 0.3755994
0.2845979 -0.19247892 0.22396296 0.5462402 -0.17959157 -0.26350966 0.39474425 0.18848658
-0.37970352 -0.18959193 0.2999064 0.27866894 0.20598067 0.51532435 -0.48826525 0.3592527
-0.2465125 0.53358823 0.42246413 -0.50008917 0.47989538 0.51443523 -0.3177887 0.4708541
0.37849665 -0.39024252 0.60004693 -0.24006744 -0.28547287 0.34260094 0.48967543 0.120117985
0.5678789 0.31748486 -0.08614607 0.015295431 0.2643574 -0.08080892 -0.33065435 0.44610792
0.21121268 -0.4266269 0.58606505 0.24832511 -0.35093945 -0.38472867 0.5750371 0.55470234
-0.2341477 0.11238746 0.43449086 -0.24346147 0.20557685 0.4018229 0.6001 0.6461867

layer2.weight f4 [128, 128]
00000000: 8901 af3d 54ec b53d 8a57 bebd f1c8 8e3d
00000010: 425d dc3c 6b94 8bbd ef84 fdbd e2ac e03d
00000020: 2807 cabd bf04 92bc 23bf 99bd 597f 8b3e
00000030: 502d 9a3d e72c f53c a2ed ad3d 95de 563d
00000040: 6d64 ba3d 3c37 88bd c40a 5f3d b159 263c
00000050: e957 2c3e de06 963d 82e8 133d 4b63 22bd
00000060: 016d adbd e1ed a43b e97f 443d 02fe 193e
00000070: 2fd5 143d 5cc1 3c3e c398 083d 3bae acbe
00000080: 481a 5e3e af90 cf3d fdd6 30bc eed5 cfbe
00000090: e921 ad3c f41e 4b3e 9ef5 44bd 43d3 b73c
000000a0: dc71 663d e3c0 9e3e 90bd 5a3d 0f15 683e
000000b0: 128b ccbe bb1f 8d3d 7696 8dbd 6d3a ad3d
000000c0: 306a 40bd 7a23 35bd 3ed0 ecbb 03bc 963d
000000d0: 9bb6 8c3d cece 06bf ca24 5b3d e91f 233e
000000e0: a203 2e3e b88c 89bd 737d aa3d 2d1f e83d
000000f0: 77e3 ac3d b304 313d 04fe 633d c49c fdbc
00000100: 1a71 8ebe 0996 1dbe 5cf1 143e b4de c83d
00000110: 7bea 643a 3937 58be ed81 cb3d afc0 c23d
00000120: d182 6a3b c505 573d f96f a93c f23d cc3d
00000130: 0f80 77bd 6d5c 7ebe 22dc c03d 110e 0a3e
00000140: fb6e 883c 640d 2bbe eeb6 0a3e 8ffb df3d
00000150: 50fe f73d 7082 213d fa02 35be 04c3 103e
00000160: 502f 42be 45a7 233e 3820 4c3d bd03 47be
00000170: 2831 b23c 4fba 013e 4d96 f2bd 3cfa 273d
00000180: c5eb 503d 23ea dcbe eadb 293c 8173 a1bd
00000190: d0f6 583c 559a 4e3d 3cf6 dd3d 0812 66bd
000001a0: a370 833c cb24 413e c39a 06bb 943c b2bd
000001b0: 1dee 263c 2a55 543c 9c2c dcbd 4cdc 343e
000001c0: 1d9b ccbc c083 f8bc 0691 243e eaba 003e
000001d0: 2d63 f6bd 2bd2 cebd 83fb 573e 9bb5 dd3d
000001e0: af36 3ebc 2658 4bbb 5546 2b3d e988 033d
000001f0: c62c d13d ad65 e03d 3f06 fe3d 755a 143e
00000200: 1bbd 183d 86b2 993c 9ef5 5dbd e7d6 5e3d
00000210: 632d 09bd 2ddd 843b 3fa4 843c bf0d 56bd
00000220: ff37 5fbd aac4 693d adc5 913d f6fc cbbb
00000230: 5f2e a0bc 0e81 d53b fa93 e5bc 3558 c03c
00000240: 7754 c03c c4f5 353c 44f4 01be 20d1 603d
00000250: 566b c3bd 6aac 473d fa9a 73bd 3449 4b3c
00000260: 01b8 a7bd 2e30 303d c556 1e3d 2f43 c1bd
00000270: b4b3 903d 347a 5ebc b954 a7bd 7012 823e
00000280: 6f52 70bd 72b9 96be 53d5 55bd 2117 1e3e
00000290: 0906 04bd 8ee2 47bd f53f 743e 8b6e e73b
000002a0: 2a9c 8ebb 5855 3f3d 6337 cfb9 aaf1 97bd
000002b0: ad39 803d 15b4 c73c 49d1 993c 967b e5ba
000002c0: 0cc8 443d 13b0 03be f696 0b3d 1ce8 293d
000002d0: 9a05 8a3c f333 133e 24ea 5c3d 45aa 9bbd
000002e0: 0a61 6e3c 2f06 15be ecff 10bc 1aa5 c83c
000002f0: 1c8b de3d 280b 883d cc64 ecba 6d0f 19bd
00000300: 9f07 3f3d 5937 7cbd c448 8c3d 8d8a f33c
00000310: 6d5b f13c 71f1 f13c ba14 b63b 1ac6 e13c
00000320: 0db5 0bbd 866f 6bbd e44b a1bd ee0a 4d3d
00000330: 9260 95bd 154d 9c3c 871b edbc 7e35 f2bc
00000340: 52a9 133d d566 cf3d 7c78 283d 9bd8 c3bc
00000350: 9e05 6abd 1e21 a5bd caa4 6d3c 2041 4d3d
00000360: fc27 973d 0051 8fbd 8036 a539 b5c4 2a3d
00000370: 38d8 003d e14d 46bd 2cc4 27be bb08 cf3b
00000380: db7b 6fbd 9b7e 9f3e f84f 4e3d 7251 28bc
00000390: e908 d23a e58b f7bc b4f9 94bd 1df9 f73c
000003a0: fc61 7e3d bb23 1fbd 9788 723b 82ad 463d
000003b0: 0339 59bd da4a acbb 90a0 f43c 43bd 08bd
000003c0: 5342 903c e853 4fbc 6795 b53c 297b 863d
000003d0: a2e3 04bd eb13 b83d d992 96bc bac0 e03c
000003e0: fbd2 b23c 2a92 a8bd b35e 5b3d 5c45 2f3d
000003f0: afb5 c03d bb84 e4bb f9a6 693b eb31 d9bd
0.08545215 0.08882967 -0.092940405 0.0697192 0.026899938 -0.06815418 -0.12378871 0.10970475
-0.09864646 -0.017824529 -0.075071596 0.27245596 0.07528174 0.029928638 0.084925905 0.052458365
0.09101186 -0.0665116 0.054453626 0.01015322 0.1683041 0.073255286 0.03611041 -0.039645474
-0.084680565 0.00503324 0.047973547 0.15038303 0.03633612 0.18433136 0.03334881 -0.33726677
0.21689713 0.10135018 -0.010793445 -0.40592903 0.021134334 0.19836026 -0.0480858 0.022439605
0.05626093 0.31006536 0.053403437 0.22664283 -0.39949852 0.06890818 -0.06913464 0.084584095
-0.04697627 -0.044223286 -0.007226973 0.07360079 0.06870767 -0.5265931 0.05350188 0.15930142
0.16993573 -0.06716293 0.08324709 0.11334071 0.08441823 0.043217372 0.05566217 -0.03095854
-0.27820665 -0.15389265 0.14545196 0.09808102 0.000873245 -0.21114816 0.09936891 0.09509408
0.003578354 0.052495737 0.020683276 0.09972753 -0.06042486 -0.24839945 0.09416987 0.13481928
0.016654482 -0.16704327 0.13546345 0.10936653 0.12109053 0.039431036 -0.17676917 0.14136893
-0.18963361 0.15981777 0.049835414 -0.1943502 0.021751955 0.12668727 -0.11845074 0.041010126
0.051006097 -0.43147382 0.010367373 -0.07883359 0.013242438 0.05044015 0.10837981 -0.05616954
0.01604492 0.18861692 -0.0020539023 -0.087029606 0.010188607 0.012959758 -0.10750696 0.17662162
-0.024976308 -0.03033626 0.16070947 0.12571302 -0.12030635 -0.1009868 0.21092038 0.10825654
-0.011609717 -0.0031027882 0.04181512 0.03211299 0.10213618 0.10956893 0.12403535 0.14487632
0.03728972 0.018761884 -0.054189317 0.054404166 -0.03349055 0.0040546865 0.0161916 -0.052259203
-0.05449676 0.05707232 0.07117782 -0.0062252237 -0.019553361 0.0065156287 -0.028024662 0.02347956
0.023477776 0.011105958 -0.12690836 0.054886937 -0.09541957 0.04874841 -0.05947397 0.01240759
-0.08189393 0.043014698 0.03865697 -0.094366424 0.07065526 -0.01357894 -0.081704564 0.25404692
-0.058672365 -0.2943836 -0.052205395 0.1543851 -0.032232318 -0.048800044 0.23852523 0.0070627383
-0.0043521123 0.04671225 -0.00039523383 -0.07419141 0.06261001 0.024377862 0.018776553 -0.0017508145
0.048042342 -0.12860136 0.034079514 0.041481122 0.016848374 0.14375286 0.05393423 -0.07600836
0.014549503 -0.1455314 -0.008850079 0.024492789 0.10866377 0.06642753 -0.0018035411 -0.037368227
0.046638127 -0.06157622 0.068498164 0.029729152 0.02946254 0.029534074 0.00555667 0.027560282
-0.03410821 -0.057479404 -0.07875803 0.05005925 -0.0729381 0.019079724 -0.02894379 -0.029566523
0.03605015 0.101270355 0.041130528 -0.023906996 -0.057134263 -0.08062957 0.014504621 0.050110936
0.07380673 -0.069978714 0.00031511858 0.0416915 0.031456202 -0.048414115 -0.16383427 0.0063181794
-0.058467727 0.3115128 0.050369233 -0.010273324 0.0016024384 -0.030218074 -0.072741896 0.030270154
0.062105164 -0.038852435 0.0037007683 0.048505314 -0.053032886 -0.0052579464 0.029861718 -0.03338362
0.01760975 -0.012654282 0.022165967 0.0656646 -0.03244365 0.08988174 -0.01838057 0.02743565
0.021829119 -0.082310036 0.05355711 0.042790756 0.094096534 -0.0069738305 0.0035652502 -0.10605224

layer2.bias f4 [128]
00000000: 0f39 c63d 6b61 7eba 6a9e 79bd 543c 003e
00000010: 9bd3 733e 65a3 91bd df7e fa3d d919 583e
00000020: ef18 74bc f735 85bc 3751 283e 4e67 3b3e
00000030: 5545 d63c bc56 cabd e0d4 613e ac2c b2bb
00000040: c8d8 d5bb 8057 8d3d cceb 20bd ae73 613e
00000050: 2e66 663e 1249 3b3e e70d ea3d 8d7c 933d
00000060: 8790 4b3d f1b2 8a3d 2eda 563e 4348 0a3c
00000070: 767f 2a3e 98f6 83bd b4a8 8b3d c699 2f3e
00000080: 9cae 573e 78d2 173e 1e1a 31bd dc81 3bbd
00000090: 4022 853c 3c81 083e d322 19bd f413 18bd
000000a0: 66a2 7f3e 6a48 343e a83a 153e d1a7 e8bd
000000b0: f95a 7e3e 58f6 a2bd f557 10bd 3c4a 88bd
000000c0: 67d7 00be 5387 bf3d 8967 b4bd 3016 183e
000000d0: bbe0 0dbd 0cc6 033e 78e6 b9bc 0069 1b3e
000000e0: 929b e33d 14f0 2e3e 94b9 233e 27be 943d
000000f0: 936e 6f3d e668 813e d042 90bd 3bc2 d33d
00000100: 7cb5 1e3e 33eb 043e 26ed 42bc 96e0 2ebd
00000110: 2b74 2e3e 0b5d 303d fcea ccbc 4447 bb3d
00000120: e1e5 2f3e 1c96 843d 6f97 363e 366d 7b3e
00000130: e928 5a3e 4958 74bd 937a 893d 00a2 1a3e
00000140: 8212 513e 0e53 563e 33b8 92bd 906d 3b3d
00000150: 239f d1bd 1826 5d3b ccdd 69bd 3869 f83d
00000160: b142 2abd 3750 d03d 53d0 033e 8ba8 c83c
00000170: b77e 573e 413a 553d 4113 5cbd a485 fcbc
00000180: 7beb 163e d3b3 93bd f590 73b8 a522 3e3e
00000190: 00b3 023d 97de 603e dca9 64bb a917 973b
000001a0: 1e0b 233c 1aac 293d a62a 113d 6012 443e
000001b0: b636 203e 575c a6bb 4de5 523e 14c6 c7bd
000001c0: 3424 723e cd56 473e 0ea9 bc3d 14bf 3a3e
000001d0: ddbc 623e e300 4e3e a301 e83d d8e1 98bd
000001e0: e55d 7fbd 086f 333e 972e fb3d 5355 523e
000001f0: 2109 0fbd 68d4 6c3e fa2b 5f3e 49b4 7bbc
0.09678852 -0.00097038475 -0.06094209 0.12523013 0.2381119 -0.07111243 0.1223123 0.2110361
-0.014898523 -0.016261084 0.16437231 0.18301126 0.026156107 -0.098798245 0.22053862 -0.005437454
-0.0065260865 0.06901455 -0.039287373 0.22016785 0.22499916 0.18289593 0.11428433 0.072014906
0.04969838 0.067724116 0.20981666 0.00844008 0.16650185 -0.064435184 0.06819287 0.17148504
0.21062702 0.14826381 -0.043237798 -0.04577814 0.016251683 0.13330549 -0.037386727 -0.037128404
0.24964294 0.17605749 0.14573157 -0.113601334 0.24839391 -0.079571426 -0.035240132 -0.06654784
-0.1258217 0.09351983 -0.0880881 0.14852214 -0.034638148 0.12868518 -0.022692904 0.15176773
0.11113657 0.1708377 0.15988761 0.07262831 0.05845506 0.25275344 -0.070439935 0.10339781
0.15498918 0.12980346 -0.011897361 -0.04269465 0.17036502 0.043057483 -0.025014393 0.09144452
0.17177536 0.064739436 0.17831205 0.2455338 0.21304668 -0.059654508 0.06712832 0.1510086
0.20417216 0.2093012 -0.071640395 0.045758784 -0.10235431 0.003374463 -0.057096288 0.12129444
-0.041567508 0.1017155 0.12872438 0.02449443 0.21044432 0.05205751 -0.0537293 -0.030825444
0.14738266 -0.07212033 -5.8070716e-05 0.18567903 0.03190899 0.21959911 -0.0034891283 0.004610975
0.009951381 0.041423894 0.035441063 0.19147635 0.1564587 -0.0050769257 0.20595284 -0.09754577
0.23646623 0.19466706 0.09211932 0.18236953 0.22142358 0.20117526 0.11328437 -0.07464951
-0.062345404 0.17522824 0.12264746 0.20540361 -0.034920815 0.23127902 0.2179412 -0.015362808

layer3.weight f4 [2, 128]
00000000: e90a 803e bba9 19bd c030 0abd db22 503e
00000010: 174f 7a3e 5566 24be 01c2 503e 8f9c 3c3e
00000020: 586c 6bbd ba13 e9be ead1 023e a993 613e
00000030: 8660 27be e887 68be 5206 823e 88b3 28bd
00000040: 24a3 bebd 2b72 81bd 67a7 dabe 5770 723e
00000050: 89a1 4b3e 4ca1 713e 5406 803e 4670 88be
00000060: 696c 523e 9f67 7e3e ffd1 573e a8ea 3abf
00000070: 0dc8 1b3e b958 993d 2426 20bd 2f78 4b3e
00000080: 7daf 603e 41f7 3c3e 0d1f 67bf 2f82 583d
00000090: 4f58 4ebc 060a 6f3e 1965 a0bd 067e 49bf
000000a0: adce 533e c839 913e ab89 663e 1f5c b2be
000000b0: 87dd 323e e16d 943d c5fd 663d a138 903d
000000c0: d106 ffbe 7681 443e 6113 0fbe 7e1b 4d3e
000000d0: 9d3e 1abd d72a 403e 2f88 8bbd b5a2 853e
000000e0: 174e 693e 58b7 943e af6c 323e 80ab c3be
000000f0: 1dda aabe 9b0d 3b3e 9530 57bf 051e 323e
00000100: 9d3a 683e f466 813e 6907 0bbf fa8c 23bc
00000110: e591 033e a8d6 50bd fb61 bdbe 5343 6a3e
00000120: 2120 193e d698 ee3d 1e99 523e 45d6 733e
00000130: a6e6 643e 5872 2bbf 2ac1 903e 4488 563e
00000140: 1b17 803e 664f 5b3e 56d3 26bf 4022 bcbd
00000150: e1ee 0cbf 9b22 46be f8bc ee3b a001 863e
00000160: 0b8d 5ebc 4b95 3d3e c422 253e 25de 883d
00000170: f472 913e 15bd c3bb bcc5 41bf 317f ccbc
00000180: 323d 403e 4540 1dbf 6668 42bc 77a1 2f3e
00000190: 1532 aabd bfe4 0b3e 06b0 96bd 4931 f0be
000001a0: 2986 de3a 688c d9bd 8ef9 c3be 7551 823e
000001b0: aa41 863e 39cf b0bc fe89 823e ef8f babe
000001c0: 2ac6 7f3e 4ded 113e b8ec 713e 8605 303e
000001d0: 7ee0 433e 3cb7 463e d793 6b3e 949c dabc
000001e0: ed93 17be 558b 823e 3773 653e eb96 6c3e
000001f0: 6eff 983d c275 5d3e af14 413e 136b 0fbe
00000200: b8b6 003e e937 81bc 7dfb 9ebd 3b1f 843e
00000210: 2c29 2c3e 309f cabe a3ad 6d3e e70f 553e
00000220: d975 c23c e005 b5be ed16 793e 4172 8b3e
00000230: 088f 323c 8e6e dbbe 90fc 663e 07eb 49bd
00000240: fdc1 63be f63d 84bd fa22 a6bd a35a 263e
00000250: 98d9 473e ea80 233e 0367 473e a14c 88be
00000260: 648c 0d3a 9bdf 6d3e 49f9 7f3e d9b9 1ebf
00000270: 1b41 8f3e bed3 9b3d 258e 47bc 331b 623e
00000280: 6067 433e 6a70 813e 9164 7abf 9ec6 86bd
00000290: 3381 5fbd 8e54 6b3e 792c 94bc c52d 59bf
000002a0: 2d9d 383e 7967 3d3e d13a 5a3e 1930 c4be
000002b0: 38db 703e 35b1 f9bc be18 7e3d b61d 2e3c
000002c0: b438 24bf 25e5 7a3e 4109 1ebe 5d8b 503e
000002d0: 45a9 76bb 6147 883e d369 9f3b 75c4 093e
000002e0: 4dfd 003e 9259 623e a47f 8e3e b53f f63c
000002f0: 0d20 d5bd 139d 673e 2a3c 5cbf 4941 5f3e
00000300: 6f61 813e 7f45 183e b0f4 e4be 684b fdbc
00000310: b772 8d3e 13e1 b0bd 406d 9bbe c19d 713e
00000320: 4559 773e 53bf 33be bd99 923e ac33 583e
00000330: cf4f 783e cea2 5abf f417 103e 8bb7 c53d
00000340: fafc 8d3e c980 4c3e f2a7 fbbe 0f6d 293d
00000350: 1cb0 e0be d131 13bd f6d0 083d 48dc 283e
00000360: 579f a4be f2b7 843e 1a97 813e cba2 883c
00000370: 6a14 143e 3162 b0bc 70c8 4ebf 78e3 6a3c
00000380: 6189 663e 6dcb 1cbf 6307 28bd b77d 8a3e
00000390: fe29 1abe 6d0f 743e 842b debd 6843 06bf
000003a0: 811d 5b3d 83a8 08be b232 0abd 522f 393e
000003b0: cf79 973e 7ab4 01bd 0552 143e face 16be
000003c0: 42e0 773e 2df9 833e 8b36 ab3d 97d9 5f3e
000003d0: 2802 423e a669 803e fef3 ca3d 9b2c 9dbd
000003e0: 5c1d 4e3d 84b9 543e 6468 7c3e 2691 fe3d
000003f0: 03d4 41bd b5d3 363e 83eb 843e 8e38 93be
0.25008324 -0.037515383 -0.033737898 0.20325796 0.24444233 -0.16054662 0.20386507 0.18419097
-0.05747637 -0.45522863 0.12775388 0.22028984 -0.16345415 -0.22708094 0.25395447 -0.04118684
-0.0930846 -0.06320604 -0.42705843 0.23675667 0.1988584 0.23596686 0.25004828 -0.26648158
0.20549168 0.24844216 0.21076201 -0.7301431 0.15213032 0.07487626 -0.039098874 0.19870065
0.21941943 0.18453695 -0.90281755 0.052858528 -0.012594297 0.23343667 -0.07831783 -0.7870792
0.2068431 0.28364396 0.22513454 -0.34835908 0.17467318 0.0724752 0.056394357 0.07042051
-0.49809888 0.1919001 -0.13972236 0.20030019 -0.03765737 0.18766342 -0.06813084 0.26100698
0.22783695 0.2904613 0.17424272 -0.38216782 -0.33369532 0.18266909 -0.84058505 0.17394264
0.22678609 0.2527386 -0.5430818 -0.009982342 0.12848623 -0.050985962 -0.36988816 0.22877245
0.14953662 0.11650245 0.20566222 0.23812206 0.2235361 -0.6697135 0.28272372 0.20950419
0.25017628 0.21417007 -0.65166223 -0.0918622 -0.55052 -0.19349138 0.0072857104 0.26173115
-0.013583432 0.18513982 0.16126543 0.06682996 0.28408015 -0.005973468 -0.75692344 -0.024962993
0.18773344 -0.6142619 -0.011865711 0.17151438 -0.08310334 0.13661478 -0.073577926 -0.46912602
0.0016977239 -0.106224835 -0.38276333 0.25452772 0.26221973 -0.021583186 0.25495905 -0.36437938
0.24977937 0.1425068 0.23625457 0.17189607 0.19128606 0.19405836 0.23005615 -0.02668599
-0.14802523 0.25496927 0.22407232 0.23104446 0.07470594 0.21626952 0.18855546 -0.1400569
0.12569702 -0.01577373 -0.07762811 0.25805077 0.16812581 -0.39574575 0.23210768 0.20806848
0.023737835 -0.35356045 0.24325152 0.27235606 0.010898359 -0.42857784 0.22557282 -0.049296405
-0.2224197 -0.064571306 -0.0811214 0.16245513 0.19516599 0.15967146 0.1947289 -0.26620963
0.0005399643 0.2322983 0.24997438 -0.6200233 0.2797936 0.07608746 -0.012179886 0.22080688
0.19082403 0.25281078 -0.978097 -0.06580852 -0.054566573 0.22981474 -0.018087612 -0.84835464
0.18028708 0.18496503 0.21311499 -0.38317946 0.23521125 -0.030480007 0.062035315 0.010627201
-0.6414902 0.24501474 -0.15433218 0.20365663 -0.0037637514 0.26616958 0.00486491 0.13453849
0.12596627 0.22104481 0.27831757 0.030059675 -0.10406504 0.22618513 -0.86029303 0.21802248
0.25269648 0.1487026 -0.44717932 -0.030919746 0.27626583 -0.086366795 -0.3035679 0.23595335
0.24155147 -0.17553453 0.28632918 0.21113461 0.24249195 -0.8540467 0.14071637 0.09654149
0.27732068 0.19971003 -0.4915157 0.041363772 -0.4388436 -0.03593618 0.033402406 0.1649028
-0.32152817 0.2592159 0.25310594 0.016679188 0.14460912 -0.021531196 -0.80774593 0.014336459
0.22513343 -0.61247903 -0.04102267 0.27049038 -0.15055081 0.2383401 -0.10848144 -0.52446604
0.053494934 -0.13345532 -0.033739753 0.18084458 0.2958512 -0.031666256 0.14484413 -0.14727393
0.24206641 0.25776044 0.083600126 0.21860348 0.18946135 0.25080603 0.09909819 -0.076745234
0.050320968 0.20773894 0.24649197 0.124300286 -0.04732133 0.17854197 0.2596093 -0.28754085

layer3.bias f4 [2]
00000000: 0f73 083b 7867 e93d
0.0020820533 0.11396688
