model_weights/DQN/cartpole/cartpole_dqn_episode_3899.pth (torch, 72508 bytes, 6 tensors)

layer1.weight f4 [128, 4]
000000 f7 32 8e 3d 5a 0c 00 be f7 f0 49 3d 04 a8 03 be
       0.069433145 -0.12504712 0.049302068 -0.12857062
000010 7e 57 a4 bd 0c dd 83 3d 32 e5 2a 3e e4 14 f0 3c
       -0.080245 0.06438646 0.16688994 0.029306836
000020 29 39 1e 3e 89 03 0d be 4d d1 d2 3e 67 19 0a 3e
       0.15451492 -0.1377088 0.4117531 0.13486253
000030 24 8f fa bd 6c cb 0f be 48 b1 fa 3c 99 af 96 bd
       -0.12234333 -0.14042443 0.030602112 -0.07357711
000040 3e de b1 3c 09 1e 3a be ed 05 76 be 7a 2e ef bd
       0.021712419 -0.1817552 -0.24025698 -0.116787866
000050 75 2a 09 be e4 0e 7c bc 7d 2f e7 be 39 ca f5 bc
       -0.13395102 -0.01538441 -0.45153418 -0.030003654
000060 15 5c 87 3e b9 bc 81 bd fd 09 67 be 86 2a c2 bd
       0.2643744 -0.06334824 -0.22562404 -0.09480767
000070 e2 74 16 be 2e 68 3c bd 12 f9 e2 bc 32 07 5d 3b
       -0.14693025 -0.04599779 -0.027706657 0.0033726213
000080 a9 c8 11 be f4 e1 fa bd 26 af 3d bd 7a fc a9 bd
       -0.14236702 -0.122501284 -0.046309613 -0.08300109
000090 da 36 c5 3d 2e c6 09 3e 9b 97 3c 3e d3 cb 7e 3e
       0.09629603 0.13454506 0.18417208 0.2488244
0000a0 85 10 00 3e 9f 67 1c be 52 1f 26 be 80 d1 09 be
       0.12506302 -0.15273903 -0.16222885 -0.13458824
0000b0 07 fb 8b bd 78 43 91 bd 9f 12 57 3d 2d 07 63 bd
       -0.06834989 -0.07092947 0.052507993 -0.055426765
0000c0 41 d8 7c 3e 36 64 08 3d 58 fe 28 3e 01 01 07 bd
       0.2469187 0.033298694 0.16503274 -0.03295994
0000d0 9c a3 e7 3d c7 57 de b9 a6 55 48 bd 31 d5 bc bc
       0.11310503 -0.0004240854 -0.048909806 -0.023050876
0000e0 27 33 df bd 65 eb 08 3e 89 09 bc 3d f5 bf 20 3e
       -0.108984284 0.13371046 0.09181506 0.15698226
0000f0 ca ae 46 be b9 b7 20 be 5b 1a ed be 74 92 07 be
       -0.19402614 -0.15695085 -0.4630917 -0.13239461
000100 8e b9 25 be fc bc 62 b9 d2 5f 65 3d 94 81 83 ba
       -0.16184065 -0.00021623442 0.055999584 -0.0010033124
000110 99 60 4c be bf 6d de bc 2a 18 e4 be 4d 08 8c bd
       -0.19958724 -0.02715194 -0.44549686 -0.06837521
000120 5e 73 28 be c7 a6 c8 bd 4c 97 70 bb 17 a9 75 bd
       -0.16450259 -0.09797435 -0.0036711274 -0.05997571
000130 48 3e d4 bc 14 37 96 3d 4e fc 54 3e a9 db 05 3d
       -0.025908604 0.07334724 0.20799372 0.032680187
000140 05 21 f7 3d b2 ae 27 be db b7 94 bd 7e 64 03 be
       0.12066845 -0.16375235 -0.0726163 -0.12831303
000150 96 16 8d bd 0f df bb 3d cc 36 53 3c 25 02 83 bc
       -0.068890736 0.091734044 0.012891483 -0.015992234
000160 77 34 23 3e ce 28 3d 3d 97 95 24 be 37 48 21 3c
       0.15937982 0.046181493 -0.16072689 0.0098438775
000170 8d 04 38 3e e0 1c 97 3d 27 2f 4b 3d 49 6e b6 bd
       0.17970486 0.07378554 0.049605515 -0.08907754
000180 49 cd af 3d 04 c0 57 3e 53 0d 91 3d c7 83 97 3d
       0.08584077 0.21069342 0.070826195 0.073981814
000190 2d f4 a9 bd 39 e2 a4 bd ab c6 13 3e 6b 64 36 3d
       -0.08298526 -0.08050961 0.14431255 0.04452936
0001a0 c3 84 88 3e 40 3e 0c 3d da 6d a2 bd 9e f1 f0 bc
       0.2666379 0.034239054 -0.07931109 -0.029412087
0001b0 9c bd cc 3d 8b 45 b9 3c 5c c8 84 be c3 e3 7a 3c
       0.099971026 0.022616168 -0.25934112 0.015313092
0001c0 48 43 40 be f2 09 e6 bd 7f b8 0c 3e 24 c8 03 bd
       -0.18775666 -0.11232366 0.13742255 -0.03217329
0001d0 99 ca 2f be 59 69 e9 3c 21 7f 52 be 7e 1c 4d 3d
       -0.17167129 0.028492616 -0.20556308 0.050076
0001e0 cf 6a 28 be 59 b5 fd bd b3 ea 12 3e 16 3a 27 bd
       -0.16446994 -0.12388105 0.14347343 -0.04082688
0001f0 82 f3 28 3e d8 51 b9 3c d8 b7 c4 bd 82 26 d5 3c
       0.16499141 0.022622034 -0.09605378 0.026019339
000200 2d d5 3d be cc 0a 32 3d 0c 2b 89 3d 20 67 c9 3c
       -0.18538351 0.043467328 0.06697664 0.024585307
000210 fb 5b 15 be ed b6 ea 3c c6 a3 7f 3e 2e 2c 77 3d
       -0.14585869 0.028651679 0.24964818 0.060344867
000220 07 10 ae bd a9 78 73 be 89 02 28 bf 29 17 28 be
       -0.08499151 -0.23776497 -0.6562887 -0.16415085
000230 ab a4 95 3d 39 c4 db 3d 80 64 fb 3d ab f5 fa bc
       0.073067985 0.10730786 0.12275028 -0.030634722
000240 47 ae b1 bd c0 21 0e be 8b ba 8a be a8 bf 08 be
       -0.08675819 -0.13880062 -0.27095446 -0.13354361
000250 2e 2d 39 be ec e9 91 bd e6 87 d7 3b 5a 60 b5 3c
       -0.18083641 -0.07124695 0.0065774797 0.02214067
000260 a4 49 58 be 3a 21 67 be 4b f0 a9 3d d8 dc e8 bd
       -0.21121842 -0.22571269 0.08297785 -0.113702476
000270 81 39 58 be 1e 8d 0c be dd 46 90 be df db 6e be
       -0.21115686 -0.13725707 -0.28179064 -0.23326062
000280 b0 59 4e be 80 a3 10 3c 79 6d 5b be b1 f6 bf 3c
       -0.201514 0.008828044 -0.21428479 0.023433061
000290 70 bd 7b be cc 80 fd 3d 22 e1 10 be 68 40 13 3e
       -0.24583983 0.12378082 -0.14148381 0.14380038
0002a0 7f 8b 31 3e 1b 12 8a 3e 09 25 94 3e 4a d9 40 3e
       0.1733837 0.26966938 0.28934506 0.18832889
0002b0 c6 3d 44 be 13 6c 59 3d c1 cc c0 3d 2b 1f 90 3d
       -0.1916419 0.053081583 0.09414054 0.07037195
0002c0 7b 24 95 bc 27 1d 03 3e 41 25 0b 3f 97 12 2a 3e
       -0.018205872 0.1280409 0.5435372 0.16608654
0002d0 c2 c7 b9 bb c1 06 ac 3b ef 69 ae 3c 34 9e 21 be
       -0.005669565 0.0052498286 0.021290747 -0.15783006
0002e0 dc 2e e2 3d 2f 65 fe bd 08 99 5d be 08 4a c8 bc
       0.11044094 -0.12421643 -0.21640408 -0.024449363
0002f0 d3 5a 10 3e a7 35 9d 3d 62 b3 a4 bd 57 f0 80 bd
       0.14097147 0.07676249 -0.08042027 -0.06295841
000300 42 15 7e 3e 1f c6 64 bd ed b1 6d bd a4 34 9f bd
       0.24812797 -0.055853005 -0.05803101 -0.07773712
000310 32 0e 5a bd 4c 9d 16 be 40 17 93 be e9 9f 00 be
       -0.053236194 -0.14708441 -0.28728676 -0.12561001
000320 07 3c 14 3e cd b6 b0 3d 14 f4 d3 bb 31 a4 ab 3d
       0.14476024 0.086286165 -0.0064683054 0.083809264
000330 e1 62 57 bd 88 cd ff bd 62 0e d2 bd 0b 46 81 3c
       -0.052584533 -0.12490374 -0.102566496 0.01578047
000340 c2 e8 a5 3d f5 82 cb bd ec a6 89 be ed 2f 55 bd
       0.08101036 -0.099370874 -0.26885164 -0.05204766
000350 4f 95 05 3d 4e f7 48 3d c0 36 0b 3f 5c a3 d6 3d
       0.032613095 0.049063973 0.54380417 0.10480377
000360 f8 4f 0c be b3 32 d5 3d 8d f1 86 3e 9c b4 97 bd
       -0.1370238 0.10410061 0.26356164 -0.074074954
000370 5e dc 48 be 61 2d 46 3d d3 92 61 be 53 53 fc bb
       -0.19615313 0.04838312 -0.22028665 -0.0077003627
000380 8c f6 cd 3c c7 23 9d bc d7 f3 0c 3c ba be b4 bd
       0.025141977 -0.019182099 0.008603058 -0.08825441
000390 5d f4 84 be 43 1b 65 bd 28 8e 9b be 9b ef 5d bd
       -0.25967684 -0.055934202 -0.30381894 -0.054183584
0003a0 bd 8a 14 3e a0 b7 11 be 37 56 92 3d 82 dc 6d bd
       0.1450605 -0.14230204 0.071453504 -0.05807162
0003b0 0b 78 3c bd 81 96 d0 bd 8b 84 ff 3d ff ae b4 bd
       -0.04601292 -0.10184956 0.124764524 -0.0882244
0003c0 16 4b 42 bc 0a c4 93 3e 15 37 4d 3e 5c 0c 2f 3e
       -0.011858722 0.28860503 0.20040543 0.17094558
0003d0 d1 fd 04 3b b4 49 35 be 47 99 58 be 73 19 e1 bc
       0.0020292888 -0.17703897 -0.2115222 -0.027477955
0003e0 cc 1b cc 3e fb 1f 08 bd 84 e5 aa 3c 2a fe c2 bd
       0.39864957 -0.033233624 0.020861395 -0.09521134
0003f0 3f 8a 7e be 77 a5 27 be ad 62 05 3e 80 58 88 3d
       -0.24857424 -0.16371714 0.13025923 0.06657505

layer1.bias f4 [128]
000000 c3 62 b0 3e 86 28 90 3e de a3 3a be 0b a7 b4 3e
       0.3445035 0.28155917 -0.18226573 0.35283694
000010 bb 17 a0 3e 87 60 25 be 02 c9 e2 bd 14 d6 94 3e
       0.31268105 -0.16150104 -0.110734954 0.2906958
000020 c5 2a 43 be 42 20 da bd ab 62 b3 bd 3d a7 c6 3e
       -0.19059284 -0.10650684 -0.08759054 0.38799468
000030 25 67 34 3e 8c d8 fa 3e df 99 be 3e a2 88 46 be
       0.17617472 0.48993337 0.3722677 -0.19388059
000040 7d 2a 90 3e 46 ee d6 bd d8 29 ef bb 97 c9 c6 3e
       0.28157416 -0.10494666 -0.0072986893 0.38825676
000050 12 a1 68 3e 9d 4d cf 3e 56 bb f7 3e b5 70 34 be
       0.22717693 0.40488902 0.48385113 -0.1762112
000060 e9 e3 38 be 6c 4a 08 be c5 d7 ce 3e ac d1 98 3e
       -0.18055691 -0.1330964 0.40398994 0.29847467
000070 23 ae 73 be 47 c5 a2 3e a0 a5 48 bd a3 64 d9 bd
       -0.23796897 0.31791136 -0.048986077 -0.10614898
000080 91 ca a6 3e 0e a3 61 3e 63 9d b8 bb 34 3e 48 be
       0.3257642 0.22034857 -0.0056339963 -0.19554979
000090 f0 94 16 be 56 aa a9 3e 6f 11 f2 bd 14 74 ee bd
       -0.14705253 0.33137769 -0.118197314 -0.11643234
0000a0 90 36 5d be 84 25 77 3e b6 09 16 3e 09 8f b7 3e
       -0.21602845 0.24135405 0.14652142 0.35851315
0000b0 b1 66 2f be 70 5a 9c 3e d2 a5 88 3e a7 1b da 3d
       -0.17129017 0.30537748 0.2668901 0.106498055
0000c0 8b f2 a6 bd 97 ff b5 bd cd 49 ad 3e 37 88 a5 3e
       -0.0815173 -0.088866405 0.33845368 0.32330486
0000d0 c3 de ce 3e 9b fa b0 bd 63 a7 a9 3e 0e 2e bc 3e
       0.4040433 -0.08641549 0.33135518 0.36753887
0000e0 d6 59 cc 3e a0 fc 48 be bc 03 d9 3e 66 e0 cb 3e
       0.3991229 -0.19627619 0.42385662 0.3981964
0000f0 9a e4 83 3e e7 95 bb 3e 75 db 7c 3e 49 27 4e bd
       0.25760347 0.36637804 0.24693091 -0.050330434
000100 3e cb 35 be 4f 6f 98 be 76 a1 9b 3e 53 b5 f8 3d
       -0.17753312 -0.29772422 0.30396622 0.1214396
000110 61 0a f4 3e b9 03 e6 bd 1a 6d 86 3e 35 14 cd 3e
       0.47664168 -0.11231179 0.26255113 0.4005448
000120 03 0d 8d 3e 34 e1 0b be 83 31 97 3e 8c ee bf 3e
       0.2754899 -0.13660127 0.29529962 0.37486684
000130 b3 ff 2e 3e 25 ba fb bd e1 73 f2 3e 54 b0 8a 3e
       0.17089729 -0.122913636 0.47354034 0.27087653
000140 5f 74 59 be 3d ec cc bd e2 bb 9b 3e 48 01 03 3e
       -0.21235798 -0.100059964 0.3041678 0.12793458
000150 9f 4c ac 3e b5 ac d7 3e 24 e4 4e be 96 ca a0 3e
       0.33652207 0.42123953 -0.20204216 0.3140456
000160 00 ff 5f be 38 5e bd 3e 14 0f ac 3e 78 dd 4b be
       -0.21874619 0.36985946 0.33605254 -0.19908702
000170 a2 7f c0 3e 4e 60 c4 3e 93 da 55 be ae 89 b4 3e
       0.37597376 0.38354725 -0.2088416 0.3526129
000180 b1 45 fa 3e cd 46 18 be 35 b7 d3 3e 51 46 9b bd
       0.48881295 -0.14870758 0.41350713 -0.07581771
000190 7d e7 50 be be d7 04 3f 81 ef b0 3e 91 78 4b 3e
       -0.20400806 0.51891696 0.34557727 0.19870211
0001a0 81 80 d7 3e 66 ea 91 3e 84 9a d0 bd 9a af 01 bc
       0.42090228 0.28499144 -0.101857215 -0.007915402
0001b0 1c 52 99 3e e2 4c 8d bc 29 76 05 be 2e 4b a5 3e
       0.29945457 -0.017248575 -0.13033356 0.3228392
0001c0 e7 98 1a 3f a1 71 38 be 2c e4 cc 3e 43 06 03 3e
       0.6038956 -0.18012096 0.4001783 0.12795357
0001d0 08 25 32 be a2 78 1a be 81 b5 da 3e b6 71 d2 3e
       -0.17396939 -0.1508508 0.42716601 0.4110238
0001e0 2e ae dd bd c7 08 53 3f 08 0e a6 3e 77 49 dc bd
       -0.10824238 0.8243527 0.3243258 -0.107562
0001f0 da 33 e8 3d 9e 03 e2 3e 40 af d1 3e 2c e5 c3 3e
       0.11338015 0.44143385 0.40954018 0.38260782

layer2.weight f4 [128, 128]
000000 d6 51 1a 3e f9 93 8f 3e 37 d9 67 bd 46 04 e5 3d
       0.1507028 0.28042582 -0.056603637 0.11182456
000010 d2 07 e1 3d 50 13 3a be 2c b2 39 bd 79 d2 0c 3e
       0.1098782 -0.1817143 -0.045335934 0.13752164
000020 1c 08 f8 bd c6 aa 4c bd 3d ad 8e be 85 13 60 3e
       -0.12110922 -0.04996755 -0.27866545 0.21882446
000030 bf 71 a2 3d 1b 24 54 3e fe d1 57 3e 4b 4c 49 bc
       0.079318516 0.20716898 0.210762 -0.012286256
000040 e3 56 04 3e 4e 8c e3 bd 44 70 25 3b e7 d6 64 3e
       0.1292377 -0.11110745 0.0025243917 0.22347604
000050 d9 37 2e 3e ad 74 64 3e c3 57 18 3e 8d fc 7f bc
       0.17013492 0.22310133 0.14877228 -0.015624178
000060 98 e3 0f bd 15 06 9d bd a2 58 4f 3e 6e 75 9a 3e
       -0.03512916 -0.07667176 0.20248654 0.30167717
000070 ee 71 88 bd 63 ac 2c 3e 68 fd b5 bc e5 0b 05 be
       -0.06662355 0.16862635 -0.02221556 -0.12992819
000080 30 f7 48 3e 0d 87 2c 3e 38 7b da 3c 19 9d 32 be
       0.19625545 0.16848393 0.026670083 -0.1744274
000090 5b 5d bc be 60 25 2a 3e 14 cc 25 bd 6d 8a 92 bc
       -0.36789975 0.1661582 -0.040477827 -0.017888272
0000a0 b7 ed 8a be d8 df 86 3e c8 04 41 3d 6c 25 50 3e
       -0.27134487 0.26342654 0.0471237 0.20326775
0000b0 e2 f5 a1 be da e7 2d 3e 2d 2d ad 3d f0 0c 22 3d
       -0.31632906 0.16982976 0.08455882 0.03956312
0000c0 41 d4 a9 bc ad ca 24 bd 26 fd 87 3d 24 c5 f2 3d
       -0.020731093 -0.04023235 0.06640081 0.11854008
0000d0 55 fd 20 3e 35 ec ba be c6 5e 59 3e 64 c3 23 3e
       0.15721639 -0.36508337 0.2122756 0.15992504
0000e0 1a 1c 69 3e 00 36 3c be df 96 29 3e e5 7b 1e 3e
       0.22764626 -0.18379974 0.16561459 0.1547695
0000f0 a6 79 e4 3d 46 15 f7 3d c0 9f 34 3e 53 44 a5 bc
       0.11156015 0.120646045 0.17639065 -0.020174181
000100 a8 3a f8 bd 60 87 60 be 8b 59 91 3e a5 73 81 3d
       -0.12120563 -0.21926641 0.28388628 0.063208856
000110 10 51 ea 3d 64 00 36 be 42 71 ba 3d 7e 9f 62 3e
       0.11441243 -0.17773587 0.091036335 0.22131154
000120 1f 0c 10 3e 8d 22 d8 bc 83 dc ed 3d d6 30 1e 3e
       0.14067124 -0.026383663 0.11614325 0.15448317
000130 bb 63 d7 ba 71 c3 a4 bd 5c c1 57 3e 53 4b 7f 3e
       -0.001643292 -0.0804509 0.21069854 0.24931078
000140 c2 d6 00 be 04 d3 06 be ec 2d 08 3e 92 8d ae 3d
       -0.12581924 -0.13166434 0.13298768 0.08523096
000150 18 94 5d 3e b8 fe 6c 3e c7 82 8b bd 05 5e 3b 3e
       0.21638525 0.23144042 -0.06812053 0.18297584
000160 b6 07 a2 be 63 b8 17 3e a4 e0 f8 3d 29 e2 96 bd
       -0.31646508 0.14816432 0.12152222 -0.073673554
000170 d1 29 03 3e df 09 55 3e ab c4 92 be 1b 52 1e 3e
       0.1280892 0.20804547 -0.2866567 0.15461008
000180 bb f9 4e 3e 60 38 41 be fb 5b 18 3e d1 13 87 bd
       0.20212452 -0.18869162 0.14878838 -0.065955766
000190 82 28 86 bd 05 a4 83 3e 34 68 28 3e 22 8f 4c 3d
       -0.06550695 0.25711074 0.16446 0.04994119
0001a0 dd c5 06 3e 77 44 23 3e b5 8d a4 bc 8b ba 2d be
       0.13161416 0.15944086 -0.020087102 -0.16965692
0001b0 c7 5f 5b 3e c2 17 38 bc 7f 26 c5 bd 00 1d 51 3e
       0.21423255 -0.011236133 -0.09626483 0.20421219
0001c0 ad 5e e5 3d 3d 52 2f be 0a c2 1c 3e 73 4a be 3d
       0.111996986 -0.17121215 0.15308395 0.09291544
0001d0 93 da af be 67 35 be bd eb 82 9b 3e c3 ab 89 3e
       -0.34346446 -0.092875294 0.3037332 0.26888856
0001e0 7b ba 98 3c 14 66 e0 3e ea 11 0c 3e 1d 9e 8c bd
       0.018643608 0.4382788 0.13678709 -0.06866095
0001f0 74 06 93 3d 77 dd 16 3e 6f c1 29 3e 61 6f 10 3e
       0.07178965 0.1473292 0.16577695 0.14104988
000200 26 5d 27 3c f7 66 19 3c 0a f2 b5 3d b6 cd 78 3d
       0.010215079 0.009362928 0.08884056 0.060743056
000210 8d c7 56 bc 6a f5 f3 ba ed 05 27 bc c8 b5 77 3c
       -0.0131091 -0.0018612568 -0.010194284 0.015119024
000220 5d b2 af bc 3b 5b e8 3d 2e 61 1e 3d 84 f5 2e 3c
       -0.021447355 0.11345526 0.038666897 0.010678653
000230 21 e1 3e bc 7b 99 57 bd 44 b0 35 3c c0 5d 1d 3d
       -0.011650355 -0.052636605 0.011089388 0.038419485
000240 87 28 19 3d 32 b3 a0 3c 86 23 8a 3e 28 dc 7e 3c
       0.037392166 0.019616697 0.26980227 0.015555419
000250 05 b3 32 bd 83 c3 10 bd 50 1c ae bd 15 7c 1e 3b
       -0.043627758 -0.035342705 -0.08501494 0.0024182845
000260 de bc 0c bd e5 f6 27 3e 25 3b 02 bd ea 05 70 be
       -0.034359805 0.16402777 -0.031794686 -0.23439756
000270 9d e3 7a 3e 92 6f 9f bb 2c f1 15 3e cb 2d c2 3d
       0.2450089 -0.004865595 0.14642781 0.094813906
000280 d6 9b 00 bc 84 66 a2 bd 79 c3 5d bc c2 be 87 3d
       -0.007849654 -0.079297096 -0.013535374 0.06628181
000290 cb 04 c0 bc 9e 17 d1 3c bd 37 b0 3e 10 93 b1 bc
       -0.023439785 0.025523957 0.34417525 -0.02167657
0002a0 f6 3d b9 3d ec 8e 8e 3d e3 d3 9b 3a d3 c9 f9 3a
       0.09045021 0.06960854 0.0011888709 0.0019057341
0002b0 c5 ca 24 3e 88 1f c6 bc ab 3b 12 3d 3c 83 20 bb
       0.16092975 -0.024184957 0.035701435 -0.0024492284
0002c0 80 36 3d 3c c3 c7 28 be 47 83 bd bc 28 7d 80 3d
       0.011548638 -0.16482453 -0.023133887 0.06273872
0002d0 5e d6 3e bc 6f fd 60 3e d2 35 be 3b e6 8b 8c bd
       -0.011647789 0.21971677 0.0058047557 -0.06862621
0002e0 fe 3f 1d bd 60 e4 eb 3f 34 77 8e 3c 61 f3 04 3d
       -0.038391106 1.842907 0.017390825 0.032458667
0002f0 58 4b 37 3c e3 36 68 3d 55 95 86 bc 85 48 db 3d
       0.011187397 0.05669297 -0.016428629 0.107071914
000300 70 89 b6 3c 72 ba d5 bc 59 e4 90 3d e3 58 a7 3d
       0.022282332 -0.02608988 0.07074804 0.08171251
000310 12 68 34 bd 49 d3 0b 3e b4 4b e0 3d 2a 49 8d 3c
       -0.04404456 0.13654818 0.10951939 0.017246801
000320 60 9e 07 bd 34 30 13 3c 5e db 08 bc eb 34 4d 3d
       -0.033110023 0.0089836605 -0.008353082 0.050099295
000330 d5 dc 17 bd c9 aa 84 bb 8d 18 36 bd 99 c2 5d be
       -0.037075836 -0.0040486795 -0.044457007 -0.21656264
000340 b1 f2 4e 3e 22 2b 28 3d a6 17 bb 3d 97 fc f5 bc
       0.20209767 0.04105676 0.0913537 -0.03002767
000350 18 77 67 3d fe e2 eb bd ac f5 76 3b 33 4a 82 3d
       0.05651006 -0.11517905 0.0037683053 0.06361809
000360 37 c8 ff 3c 3f e2 b7 3b eb 01 ee 38 5b 22 2a 3c
       0.0312234 0.0056116874 0.000113490816 0.010384168
000370 1b ae f4 3c dd 76 4c bd 7c a9 ca bd d5 3b 26 3d
       0.029868176 -0.049918044 -0.09895608 0.040584404
000380 fc aa 94 bd 50 82 0b 3e 7e 7a 12 3d fa 48 9c 3d
       -0.07259175 0.13623929 0.03576135 0.07631107
000390 0c ea 03 3e b1 6d 0e bd 00 27 9d bd 3d af 97 3d
       0.1288225 -0.03477258 -0.07673454 0.07406471
0003a0 d4 5c 67 3d 30 b3 5a 3d 41 0e 87 bc 1f fe 5f bc
       0.056485012 0.053393543 -0.016486289 -0.013671427
0003b0 1f 51 78 bd 91 9e dc 3d b8 12 d4 3d 29 61 d5 3c
       -0.060624238 0.10772432 0.10355133 0.026047306
0003c0 fb d0 d1 bc a7 e8 72 3e 82 9c 56 3d 48 b3 c7 3c
       -0.025612345 0.23721562 0.05239535 0.02437748
0003d0 33 65 b3 3e d7 ec fb 3d 27 e3 1e bd 32 f2 f8 3c
       0.35038146 0.12301033 -0.038790848 0.030388925
0003e0 28 3a 10 3c 52 a7 b9 bd 7e 2a df bc 38 72 cd 3d
       0.008802928 -0.09065117 -0.027241942 0.10031551
0003f0 5d 61 28 3d a4 ad 50 bd c2 11 54 bc 8f 9b 4b bd
       0.041108478 -0.050946847 -0.012943687 -0.0497089

layer2.bias f4 [128]
000000 c8 ce 54 3e a8 a6 2e bb 3a 01 dd bc 3b c1 4f 3e
       0.20782006 -0.0026649628 -0.026978124 0.20288555
000010 ac 1a 85 3e bd 36 3f bd 6c 3c 57 3e e5 0f 7e 3e
       0.25996912 -0.046683062 0.21019143 0.24810751
000020 30 d1 ce bb 29 fb fd bc 82 18 6d 3e 00 49 70 3e
       -0.006311558 -0.031003552 0.2315388 0.23465347
000030 b8 8a 23 3c 2a 7c 87 bd 0b 65 77 3e 13 50 02 3c
       0.009981804 -0.06615479 0.24159639 0.0079536615
000040 f5 37 bd bc fd 57 ef 3c 9c 7c 15 bc 0b 98 81 3e
       -0.023097971 0.02921676 -0.0091239475 0.25311312
000050 4e 6e 84 3e 0e a6 73 3e c4 c3 4f 3e 9c e6 4a 3d
       0.25865406 0.23793814 0.20289522 0.049536332
000060 97 65 87 3e 3e 68 51 3e 98 72 76 3e 2f e8 71 3c
       0.26444694 0.20449921 0.24067152 0.01476483
000070 29 c0 67 3e 92 57 df bc 21 5a ec 3c 1b d2 6b 3e
       0.22631897 -0.027263436 0.02885157 0.23029368
000080 56 83 78 3e 6c c9 61 3e a1 43 62 bc a3 22 a7 bc
       0.2426885 0.22049493 -0.013810069 -0.020402258
000090 1f 3d e1 3b 3a 8b 59 3e 9f aa 81 bc 27 84 df bb
       0.0068737413 0.21244517 -0.015828429 -0.0068211737
0000a0 19 96 88 3e cf bd 69 3e 67 13 5e 3e 81 5f 97 bd
       0.26677015 0.22826312 0.21687089 -0.07391263
0000b0 1c fa 86 3e 1d 1d 0a bd bb 48 83 bc a2 8d e6 bc
       0.26362693 -0.03371917 -0.016025892 -0.028143708
0000c0 3a 27 5a bd 44 01 47 3e 66 54 2b bd 98 52 65 3e
       -0.053260066 0.19434077 -0.041828535 0.22394788
0000d0 f5 4b 70 bc f6 04 55 3e fb 73 1d bc d0 10 67 3e
       -0.014666547 0.20802674 -0.009610171 0.22565007
0000e0 eb d2 5a 3e 50 8b 5c 3e e8 7f 64 3e 31 87 c4 bb
       0.21369521 0.21537519 0.22314417 -0.0059975614
0000f0 e7 83 17 bd 5a 8f 88 3e 2e 52 3a bd aa 89 4f 3e
       -0.036991026 0.2667187 -0.04548853 0.20267358
000100 63 4c 61 3e 39 25 5a 3e 12 54 ab 3b 6a 44 94 bc
       0.22001795 0.21303262 0.005228528 -0.018099029
000110 83 92 6a 3e 5e 4e d9 3c 2e 13 09 bd d8 b9 45 3e
       0.22907452 0.026526626 -0.033465557 0.19309175
000120 88 68 6e 3e 49 57 06 3d 14 a6 67 3e 69 5e 85 3e
       0.23282063 0.032798085 0.22621948 0.26048592
000130 f9 aa 75 3e b3 f3 2d bd 9a 7a 40 3e 1d 87 91 3e
       0.23991002 -0.042468738 0.18796769 0.28423396
000140 97 2d 70 3e 27 77 80 3e 47 d6 a6 bc 79 c9 9e 3c
       0.23454891 0.25090906 -0.020365847 0.019383179
000150 df 42 0e bd 53 36 2a 3b 4c 86 4c bc 0f 4d 54 3e
       -0.034731742 0.002597232 -0.012483191 0.2073252
000160 1a 07 7c bc 95 41 4b 3e 33 39 5a 3e f4 09 2a 3c
       -0.0153825525 0.19849236 0.21310882 0.01037835
000170 08 4b 78 3e ad 7e a3 3c ba 55 22 bd ec fa 55 bc
       0.24247372 0.019957865 -0.039632536 -0.013060313
000180 26 2b 61 3e b7 64 0e bd 36 5a ce b7 ca 50 71 3e
       0.21989116 -0.034764018 -2.4599121e-05 0.23565975
000190 6a 6f 74 bc 99 31 82 3e ce e2 da 3b 0b f5 d9 3b
       -0.014919141 0.25428465 0.0066798693 0.006651526
0001a0 1c 2e 8a 3b e9 46 34 3c 26 bd 96 ba 53 ec 71 3e
       0.0042169224 0.011003234 -0.0011500462 0.23625307
0001b0 2b 77 59 3e d3 06 2b bc 42 99 79 3e 0a 03 13 bd
       0.21236865 -0.010438639 0.2437487 -0.03589157
0001c0 f0 87 82 3e c0 25 77 3e 96 0f 54 3e 9b b8 72 3e
       0.25494337 0.24135494 0.2070907 0.23703234
0001d0 97 f0 82 3e 66 72 75 3e 21 57 8c 3e 23 70 01 bd
       0.2557418 0.23969421 0.27410224 -0.031601083
0001e0 bb ba dc 3d 30 3a 6b 3e 4a 2f 55 3e d3 75 7e 3e
       0.107778035 0.22971416 0.2081882 0.24849634
0001f0 e3 5a 72 bc a7 05 85 3e 19 58 7a 3e fb d9 1d bd
       -0.014792177 0.25980875 0.24447669 -0.03853796

layer3.weight f4 [2, 128]
000000 e9 21 a2 3e 0e 1a 09 be b0 e5 63 be 87 5c 8e 3e
       0.31666496 -0.13388845 -0.22255588 0.27804968
000010 7e b7 8b 3e 16 68 49 be f7 9c 8b 3e f5 1b 86 3e
       0.2728843 -0.19668612 0.27268192 0.26193205
000020 8a 84 c7 bc 4d bd a5 be f7 6e 6b 3e b8 76 9d 3e
       -0.024355192 -0.32370988 0.22991548 0.30754638
000030 21 9a 16 be b6 8c 7c be d2 9d 9b 3e 63 a4 3a be
       -0.14707233 -0.24663052 0.30393845 -0.18226771
000040 c3 fd d7 bd 86 25 db bc ac 43 87 be ec 9c 95 3e
       -0.10546448 -0.026751291 -0.26418817 0.29221284
000050 85 93 8c 3e 55 b9 8e 3e b0 f4 94 3e 1d 50 80 be
       0.27456298 0.27875772 0.29092932 -0.25061122
000060 2c 99 ca 3e ad 0f ad 3e 5a 6d 8d 3e 73 26 c1 be
       0.39569986 0.33801022 0.2762249 -0.37724647
000070 5b c3 77 3e 21 db 01 3d db cf 87 bc e4 7a 8a 3e
       0.24195616 0.03170312 -0.016578605 0.27046883
000080 7c 3d 8b 3e 12 60 85 3e 03 13 ec be b7 c8 c7 3c
       0.27195346 0.26049858 -0.46108255 0.0243877
000090 38 cd ae bb e2 3b 92 3e 5e 03 08 bd 94 f8 cb be
       -0.0053345226 0.28561312 -0.033206336 -0.39838088
0000a0 c4 5d 8a 3e 18 b1 9d 3e 0b ba 8a 3e 86 c0 81 be
       0.27024662 0.30799174 0.27095065 -0.25342196
0000b0 77 a1 7a 3e 6e 25 fb 3c ec ff e3 3c 8a 41 f4 3c
       0.24475656 0.030657496 0.027831994 0.029816408
0000c0 f4 0a 58 be 81 c1 8e 3e 35 33 21 be 1f 6c 88 3e
       -0.21097928 0.27882007 -0.1574219 0.2664499
0000d0 08 aa 82 bc 87 e2 8e 3e 51 20 ec bc 06 05 90 3e
       -0.015950218 0.27907202 -0.028824003 0.28128833
0000e0 3c 93 95 3e 4d 16 a0 3e 6f 1d 7c 3e 5c b2 ae be
       0.29213893 0.31267014 0.24620603 -0.34120452
0000f0 30 6f c5 be fe 94 83 3e 44 22 c9 be 1b 98 7d 3e
       -0.38561392 0.2569961 -0.39283955 0.24765055
000100 db bd 97 3e ea f7 93 3e 4a d3 8c be 5b 98 8a bb
       0.29637036 0.2890008 -0.2750495 -0.004229588
000110 17 20 63 3e 46 9b 1e be 36 84 89 be a1 01 94 3e
       0.2218021 -0.1548892 -0.2685868 0.28907493
000120 19 d5 75 3e dc 81 63 3e 42 eb 87 3e 2b ad 8e 3e
       0.24007072 0.22217506 0.26546675 0.27866492
000130 97 d9 8a 3e 69 a1 98 be 80 c1 a1 3e 28 d2 d4 3e
       0.27119133 -0.29810646 0.3159294 0.41566586
000140 79 35 94 3e bb 98 9b 3e 8b 80 ab be 1a 6f 1f bd
       0.28947046 0.30389962 -0.33496508 -0.038924314
000150 6b 0b a3 be 14 c8 2f be 45 1e 47 3c 38 77 94 3e
       -0.3184465 -0.17166167 0.012153213 0.28997207
000160 8b 45 c4 bb a7 f3 81 3e 04 40 7e 3e 26 84 e7 3c
       -0.0059897355 0.25381204 0.24829108 0.028261255
000170 c3 2f 9c 3e c2 aa 37 3e 10 ae a9 be b0 37 2d bc
       0.3050519 0.17936233 -0.33140612 -0.010572359
000180 17 47 83 3e a2 b6 98 be fb bf a4 bb 4b 44 78 3e
       0.25640175 -0.29826838 -0.0050277687 0.24244802
000190 0c 69 00 be 23 d3 6d 3e e4 52 42 be 0d fe 83 be
       -0.12540072 0.23225074 -0.18976933 -0.25779763
0001a0 8a 72 3c 3a bf 17 35 be 48 c5 32 be f1 f7 95 3e
       0.00071886985 -0.1768484 -0.1745807 0.29290727
0001b0 c0 4b 9c 3e 67 5e 3f be f0 78 96 3e f4 5d 1a be
       0.30526543 -0.18688355 0.29389143 -0.15074903
0001c0 6b b4 97 3e 51 2d 74 3e 25 76 91 3e 5c 6d 76 3e
       0.29629835 0.23845412 0.2841045 0.24065155
0001d0 9a 16 82 3e 2d 9c 8c 3e df ed c2 3e 17 4d 39 bc
       0.2540787 0.27462903 0.38072106 -0.011309884
0001e0 35 bc df bd 83 d3 9d 3e 92 a4 96 3e 30 88 8e 3e
       -0.109245695 0.30825433 0.29422432 0.27838278
0001f0 c4 8a 01 3d 44 75 8a 3e 3a 94 86 3e 4e c0 d6 bd
       0.031626478 0.27042592 0.26284963 -0.10485898
000200 85 06 80 3e 14 b4 ce 3d 5d a6 87 be 34 e1 98 3e
       0.25004974 0.10092941 -0.26494113 0.29859316
000210 dc b4 73 3e dd a1 9f be 5a b7 8d 3e 4a 83 8a 3e
       0.23799461 -0.3117818 0.2767895 0.2705329
000220 5d cb 24 3c 3a 29 9c be 30 3d 8f 3e 64 37 ab 3e
       0.010058251 -0.30500203 0.2797637 0.33440697
000230 09 60 8b bb 2a f8 ac be f4 a7 99 3e ac 56 72 be
       -0.0042533916 -0.33783084 0.3001095 -0.23665875
000240 fa b6 21 be 84 ce df bc 96 1f 49 3b d8 24 7f 3e
       -0.15792456 -0.027320154 0.0030688993 0.24916399
000250 26 80 86 3e 27 e7 75 3e f4 0c 87 3e a6 73 e9 bd
       0.26269644 0.24013959 0.2637707 -0.11399011
000260 8d 71 b0 3e 2e a5 ac 3e 3d bf 94 3e ee e6 7d be
       0.34461632 0.33719772 0.29052153 -0.24795124
000270 18 8c 97 3e a5 16 04 3d 00 1b a9 bb de f8 8a 3e
       0.2959907 0.032248158 -0.0051606894 0.27142996
000280 cf 1b 81 3e 13 ce 92 3e 44 b7 d2 be 34 66 cb bc
       0.2521653 0.28672847 -0.41155446 -0.024829008
000290 1b 4c bd bc 0a 42 8c 3e 3e b6 fa bb ed 64 b5 be
       -0.023107579 0.27394134 -0.0076511195 -0.35428563
0002a0 6d 32 7b 3e 2b 2a 82 3e b8 67 87 3e 16 e8 7a be
       0.24530955 0.25422797 0.2644632 -0.24502596
0002b0 bb 1e 8b 3e 54 a6 53 bc 51 3b ac 3c 04 a2 93 3b
       0.27171883 -0.012918074 0.021024378 0.0045053978
0002c0 dc 24 8b be f5 76 99 3e 4f 62 2a be 6d bc 86 3e
       -0.2717656 0.2997357 -0.16639064 0.26315632
0002d0 7c 0f d1 ba 36 e2 9d 3e c7 35 07 3b 86 04 65 3e
       -0.0015950049 0.30836648 0.002063142 0.22365007
0002e0 1e 23 74 3e 5c 2c 94 3e c9 86 95 3e 54 fc 04 be
       0.23841521 0.28940094 0.29204395 -0.1298688
0002f0 cb 3b 44 be 40 87 8b 3e d5 f3 bf be 16 a0 8a 3e
       -0.19163434 0.27251625 -0.37490717 0.2707526
000300 4e 74 98 3e 1b 82 77 3e 05 3c 6e be ca 9d 56 bc
       0.29776233 0.24170725 -0.23265083 -0.013099143
000310 94 8f 91 3e 4c 04 45 be e7 fc 68 be 6e 00 91 3e
       0.28429854 -0.1923992 -0.22752725 0.2832064
000320 11 77 8d 3e 8b db e9 bd 94 83 95 3e 49 7c 85 3e
       0.27629903 -0.114188276 0.2920195 0.26071385
000330 98 43 8e 3e a5 9c be be 6c 12 78 3e 87 83 e1 3e
       0.27785945 -0.37228885 0.24225777 0.4404566
000340 cf 70 97 3e b3 04 8f 3e a0 48 48 be bd 70 8f 3c
       0.29578254 0.27933273 -0.19558954 0.017509812
000350 56 68 39 be e7 37 87 3c 98 53 3c 3d ef 22 77 3e
       -0.18106207 0.016506149 0.04597816 0.2413442
000360 e0 36 10 be 1e 44 90 3e 93 3a 94 3e 3b 21 e7 3b
       -0.14083433 0.2817697 0.2895094 0.007053522
000370 e3 dd 77 3e 2d 04 05 be e3 2a b3 be 54 15 c7 3b
       0.24205737 -0.12989874 -0.34993657 0.0060755406
000380 94 c1 89 3e a1 47 82 be 54 42 8e bc 76 e5 93 3e
       0.269055 -0.25445274 -0.017365612 0.28886002
000390 b5 8c 28 be 0d 9f 8c 3e 1d 34 82 be 97 c7 78 be
       -0.16459925 0.27465096 -0.25430384 -0.24294887
0003a0 3c b4 b9 3c bf 2b 37 be 34 ac d9 bc ed 73 7d 3e
       0.02266895 -0.17887782 -0.02657137 0.24751253
0003b0 50 34 9e 3e b9 af b1 bd a8 86 76 3e ee 68 57 bd
       0.30899286 -0.086760946 0.24074805 -0.052590303
0003c0 d3 70 94 3e 9b c6 91 3e d4 8b 59 3e ae d2 85 3e
       0.28992328 0.28471836 0.21244746 0.26137298
0003d0 ec 53 7a 3e e9 b3 93 3e e2 68 b2 3e 06 4d 05 bd
       0.24446076 0.28848198 0.34845644 -0.03254416
0003e0 a2 f8 e0 3e 54 e6 9b 3e 3b ed 98 3e 9c 8f 69 3e
       0.43939692 0.30449164 0.29868492 0.22808689
0003f0 6d 42 a4 bc fb d9 7a 3e 69 69 93 3e bb 1f 36 be
       -0.020051206 0.24497215 0.2879136 -0.17785542

layer3.bias f4 [2]
000000 46 15 67 3d 5c ea b4 3d
       0.056416772 0.08833763
