model_weights/DQN/cartpole/cartpole_dqn_episode_299.pth (torch, 72498 bytes, 6 tensors)

layer1.weight f4 [128, 4]
0.18063527 -0.28483832 0.22902781 -0.29718986 -0.14529352 0.23333383 0.4389005 -0.014819891
0.34917328 -0.35465276 0.8192432 0.39209098 -0.19450082 -0.3755042 0.04231467 -0.2207347
-0.08790104 -0.43028012 -0.32650015 -0.31708634 -0.2920394 0.097447485 -0.74486125 -0.14603698
0.57121825 -0.2768435 -0.6247177 -0.4024848 -0.35036033 -0.17072299 -0.07013368 -0.03762299
-0.30723238 -0.26875365 0.21522495 0.25770107 0.22123633 0.2993793 -0.073219284 0.52385414
0.23243073 -0.32761958 -0.729385 -0.3612401 -0.12625113 -0.1040658 0.39658856 -0.05389685
0.5070273 -0.15040563 0.10947847 0.010179446 0.26716024 0.11538266 0.15774873 -0.14529975
-0.06096815 0.45637843 0.2230244 0.3728273 -0.4565569 -0.34125838 -0.30290064 0.2590476
-0.30982712 0.1011846 0.21516997 -0.30043605 -0.24729624 0.19209605 -0.59961295 -0.39705274
-0.41377905 -0.0694322 0.5311253 -0.050968207 -0.001874319 0.26787725 0.5391447 0.029100044
0.18693401 -0.4182568 -0.0073472406 -0.28470454 -0.013013055 0.36270326 0.051618315 -0.19708546
0.38863608 0.18578975 -0.20212169 -0.03439543 0.41723713 0.12677045 -0.07061611 -0.36735976
0.17000946 0.46348998 0.010235781 0.12759434 -0.090764984 -0.110262506 0.64748013 0.42556804
0.48523474 -0.13121064 -0.26070103 0.118331075 0.14384031 0.047699317 -0.39424667 0.03979963
-0.47554573 -0.29939777 0.56992954 0.2962875 -0.30375227 0.18407552 -0.3741195 0.23080954
-0.307975 -0.12533471 0.76945966 0.421213 0.33166403 -0.081485495 -0.3831478 0.06145624
-0.33959898 0.22213914 0.2687523 0.12202643 -0.22578369 0.06095742 0.4394859 -0.010735606
-0.084881015 -0.38413933 -0.25214526 0.06799978 0.15556754 0.23074913 0.16691636 -0.15422268
-0.06781712 -0.2073445 0.046246074 0.20223734 -0.22223006 -0.1740142 -0.07494143 -0.017634086
-0.47828114 -0.51280624 0.27274406 -0.19265 -0.45741084 -0.25860792 -0.0976833 -0.45333737
-0.33428538 0.21311867 0.07865331 0.5239647 -0.387406 0.5470342 -0.28611398 0.2760067
0.48087284 0.45232788 -0.19510682 0.32559997 -0.37287048 0.23180687 0.33246994 0.24409968
-0.07426505 0.2766947 0.9015872 0.42392707 0.03831727 0.07988315 0.10797602 -0.4803111
0.22103809 -0.44905528 -0.41442788 0.3891975 0.0614197 0.19843288 0.10309961 -0.44937998
0.5183282 -0.27650496 -0.26053488 -0.41170144 -0.082572885 -0.31925416 -0.10264232 -0.2982982
0.35533386 0.2396554 0.040486787 0.15920022 -0.1282287 -0.35046652 -0.25689077 -0.048777416
0.20510808 -0.22709303 -0.54924893 -0.10489782 -0.0033519608 0.059791993 0.7735255 0.13220139
-0.33717746 0.2927585 0.59602153 -0.20866968 -0.36608177 0.24455135 -0.38350704 0.0078503145
0.069414414 -0.013493094 0.11728395 -0.24908157 -0.5158067 0.01358272 -0.33229417 -0.2791599
0.35830525 -0.3378862 0.24968822 -0.13360739 -0.19261402 -0.3198716 0.35994893 -0.22390726
0.053689882 0.48593512 0.18328232 0.15742819 -0.0184897 -0.42504463 -0.461441 -0.078486696
0.512475 -0.29103032 -0.017963145 -0.30925915 -0.5103503 -0.33763155 0.037266154 0.4933503
00000000: 74f8 383e 54d6 91be 4486 6a3e 4529 98be
00000010: d3c7 14be 10ef 6e3e 91b7 e03e 21cf 72bc
00000020: d7c6 b23e 0c95 b5be ecb9 513f 26c0 c83e
00000030: 392b 47be 1642 c0be 2652 2d3d 4708 62be
00000040: 7605 b4bd ad4d dcbe 072b a7be 2459 a2be
00000050: 3086 95be 8c92 c73d 3aaf 3ebf b88a 15be
00000060: 5c3b 123f 6ebe 8dbe 80ed 1fbf 7d12 cebe
00000070: 6e62 b3be 02d2 2ebe 3fa2 8fbd 901a 1abd
00000080: 904d 9dbe 149a 89be ee63 5c3e 65f1 833e
00000090: c78b 623e 3e48 993e fef3 95bd 4e1b 063f
000000a0: 5202 6e3e c1bd a7be fab8 3abf 76f4 b8be
000000b0: fa47 01be 7320 d5bd a80d cb3e f2c2 5cbd
000000c0: 8bcc 013f ef03 1abe 4036 e03d b1c7 263c
000000d0: 3ac9 883e be4d ec3d e288 213e 75c9 14be
000000e0: bdb9 79bd 6faa e93e 8260 643e 38e3 be3e
000000f0: d3c1 e9be 6bb9 aebe cb15 9bbe e3a1 843e
00000100: a9a1 9ebe df39 cf3d 8455 5c3e c1d2 99be
00000110: 3a3b 7dbe d4b4 443e 3c80 19bf 7f4a cbbe
00000120: d9da d3be 7832 8ebd d4f7 073f 0ac4 50bd
00000130: b6ab f5ba 3527 893e 6305 0a3f 3763 ee3c
00000140: a16b 3f3e c125 d6be 1fc1 f0bb cbc4 91be
00000150: b534 55bc 3eb4 b93e ba6d 533d c5d0 49be
00000160: 4ffb c63e ab3f 3e3e fdf8 4ebe 39e2 0cbd
00000170: 1ba0 d53e 1dd0 013e 2e9f 90bd 9416 bcbe
00000180: f616 2e3e 8f4e ed3e fab3 273c 17a8 023e
00000190: fee2 b9bd 4fd1 e1bd 42c1 253f 0ee4 d93e
000001a0: b070 f83e 155c 06be 9b7a 85be 9057 f23d
000001b0: e04a 133e 5c60 433d b3da c9be f004 233d
000001c0: bb7a f3be aa4a 99be e7e6 113f ffb2 973e
000001d0: 6b85 9bbe 4b7e 3c3e 978c bfbe 5659 6c3e
000001e0: e6ae 9dbe be57 00be 4ffb 443f 3ba9 d73e
000001f0: decf a93e dee1 a6bd f32b c4be 8ab9 7b3d
00000200: ebdf adbe 7178 633e e799 893e fee8 f93d
00000210: d733 67be 7dae 793d 4c04 e13e 65e4 2fbc
00000220: 19d6 adbd e9ad c4be 2f19 81be 7843 8b3d
00000230: 194d 1f3e 8049 6c3e 1fec 2a3e 8dec 1dbe
00000240: b4e3 8abd 1e52 54be 866c 3d3d 4e17 4f3e
00000250: 4790 63be c730 32be e47a 99bd 5c75 90bc
00000260: 44e1 f4be 4547 03bf 1ca5 8b3e 0b46 45be
00000270: c131 eabe 4268 84be 2f0e c8bd d61b e8be
00000280: 7427 abbe c83b 5a3e fd14 a13d 8d22 063f
00000290: 145a c6be 6f0a 0c3f 887d 92be c050 8d3e
000002a0: f734 f63e 8597 e73e 15ca 47be 0ab5 a63e
000002b0: e1e8 bebe c85e 6d3e 8039 aa3e 44f5 793e
000002c0: 4618 98bd edaa 8d3e 6bce 663f f80c d93e
000002d0: 92f2 1c3d c799 a33d 8822 dd3d 56eb f5be
000002e0: cf57 623e 93ea e5be e42f d4be e544 c73e
000002f0: 3993 7b3d fd31 4b3e e325 d33d 2215 e6be
00000300: 28b1 043f 0f92 8dbe d464 85be 88ca d2be
00000310: f91b a9bd 4875 a3be 2336 d2bd 8bba 98be
00000320: 52ee b53e 3a68 753e 79d5 253d 6205 233e
00000330: 624e 03be 5970 b3be 3087 83be d4ca 47bd
00000340: da07 523e 138b 68be 949b 0cbf abd4 d6bd
00000350: 92ac 5bbb 73e8 743d c405 463f cd5f 073e
00000360: 86a2 acbe 71e4 953e de94 183f 81ad 55be
00000370: 126f bbbe ab6b 7a3e 095b c4be 9b9e 003c
00000380: 2529 8e3d 2312 5dbc 9132 f03d 3d0f 7fbe
00000390: e80b 04bf 0f8a 5e3c 7622 aabe 0cee 8ebe
000003a0: c973 b73e 6cff acbe 45ae 7f3e 60d0 08be
000003b0: 9c3c 45be 36c6 a3be 3a4b b83e f247 65be
000003c0: ece9 5b3d 7dcc f83e 5cae 3b3e db34 213e
000003d0: b677 97bc 739f d9be ff41 ecbe a2bd a0bd
000003e0: 9031 033f ed01 95be 7227 93bc 3757 9ebe
000003f0: 51a6 02bf 0bde acbe 65a4 183d 6998 fc3e

layer1.bias f4 [128]
0.45133388 0.1660892 -0.25630012 0.44572636 0.3813574 -0.15955077 -0.43461382 0.25611535
-0.35003805 -0.22233672 -0.16340247 0.5372083 0.227306 0.49497658 0.38994983 -0.33203346
0.28843638 -0.10123317 -0.17096515 0.39194712 0.2576798 0.4145673 0.45029992 -0.41555765
-0.46683505 -0.10291754 0.53945196 0.18014716 -0.3374303 0.47725177 -0.23525307 -0.3797993
0.45636111 0.12795016 -0.34498715 -0.45067617 -0.20735389 0.4128096 -0.22604036 -0.05866083
-0.42636263 0.064606555 0.17284413 0.525205 -0.3662978 0.24447495 0.16993333 0.1623805
-0.30940774 -0.15136944 0.33196935 0.37051964 0.5971572 -0.19418986 0.27146465 0.58225036
0.53522086 -0.4361642 0.62350726 0.51303256 0.13853653 0.509123 0.4347298 -0.06524484
-0.41632932 -0.37202242 0.2405184 0.14018059 0.44179645 -0.2505821 0.09209239 0.33190987
0.24327302 -0.21075293 0.16879813 0.52329516 -0.17458074 -0.22006425 0.3511889 0.15258323
-0.40503985 -0.15238073 0.29319963 0.23361944 0.16555788 0.4840833 -0.5108969 0.31309074
-0.26230887 0.524289 0.4217642 -0.5175766 0.44540372 0.48048267 -0.3373461 0.43774995
0.3302487 -0.43560168 0.5750896 -0.27701846 -0.3364938 0.29009673 0.46698436 0.191057
0.53799736 0.29432037 -0.09147991 0.0073075267 0.20586212 -0.04013121 -0.3210623 0.4215852
0.12583223 -0.35644343 0.569519 0.19979443 -0.37344173 -0.36265123 0.5516138 0.5253259
-0.21984105 0.056444034 0.41096064 -0.25587732 0.14735962 0.35233298 0.55294883 0.62063056
00000000: 3c15 e73e 4a13 2a3e c539 83be 3f36 e43e
00000010: 4741 c33e 4761 23be b485 debe 8d21 833e
00000020: 3038 b3be 3dac 63be fa52 27be 7c86 093f
00000030: e7c2 683e 926d fd3e 81a7 c73e 4a00 aabe
00000040: efad 933e 5653 cfbd 7d11 2fbe 4bad c83e
00000050: 9bee 833e 2a42 d43e b68d e63e f9c3 d4be
00000060: 0105 efbe 6ec6 d2bd 8619 0a3f 7f78 383e
00000070: aac3 acbe 585a f43e 2ee6 70be 0e75 c2be
00000080: 2aa8 e93e 5e05 033e 28a2 b0be 07bf e6be
00000090: 9454 54be c85b d33e 2077 67be 5746 70bd
000000a0: 344c dabe 7150 843d 0dfe 303e d673 063f
000000b0: 638b bbbe a457 7a3e 0103 2e3e 1347 263e
000000c0: b16a 9ebe 9700 1bbe e3f7 a93e c0b4 bd3e
000000d0: 4bdf 183f b5d9 46be 6afd 8a3e 5c0e 153f
000000e0: 3c04 093f ea50 dfbe 2c9e 1f3f 1a56 033f
000000f0: 85dc 0d3e e355 023f e894 de3e 169f 85bd
00000100: 1e29 d5be b979 bebe 754a 763e 808b 0f3e
00000110: 2533 e23e 4c4c 80be ef9a bc3d 17f0 a93e
00000120: 901c 793e 9ecf 57be 6bd9 2c3e acf6 053f
00000130: 4bc5 32be 8658 61be 08cf b33e c73e 1c3e
00000140: 6261 cfbe b209 1cbe 431e 963e ef39 6f3e
00000150: 0188 293e c4d9 f73e 24ca 02bf 6e4d a03e
00000160: 594d 86be ce37 063f 7af1 d73e e67f 04bf
00000170: f50b e43e d301 f63e a1b8 acbe c320 e03e
00000180: 5c16 a93e 2f07 dfbe 1239 133f 5dd5 8dbe
00000190: ea48 acbe 8f87 943e 9318 ef3e 72a4 433e
000001a0: 32ba 093f 29b1 963e d259 bbbd fa73 ef3b
000001b0: 85cd 523e a060 24bd 4762 a4be 04da d73e
000001c0: 2ada 003e c17f b6be ffcb 113f e996 4c3e
000001d0: c133 bfbe 6cad b9be 9036 0d3f c27b 063f
000001e0: 031e 61be dc31 673d 6f69 d23e 5a02 83be
000001f0: 71e5 163e fd64 b43e 0e8e 0d3f a5e1 1e3f

layer2.weight f4 [128, 128]
0.026003538 0.05555417 -0.052572228 0.040287226 0.0734813 -0.0724103 -0.18362224 0.08344186
-0.10894274 0.025842825 -0.07864903 0.1593892 0.058091912 -0.006912232 0.05372594 0.053477015
0.011821022 -0.16857034 0.057840746 -0.026698973 0.0708207 0.036809262 0.0049821967 0.004911395
-0.017500773 -0.0014894326 0.007608221 0.111423455 0.025227882 0.10476293 -0.059376184 -0.26807058
0.1593066 0.025877325 -0.008299401 -0.31253046 0.015174349 0.13941899 -0.0510533 0.024236614
0.057316467 0.2835723 0.042704754 0.17023133 -0.2533807 0.027188417 -0.042874184 0.06042585
-0.05397107 -0.04696807 -0.033824034 0.081821576 -0.0015645929 -0.31276092 0.0052690627 0.08403198
0.12275156 -0.07130891 0.033183593 0.055815518 0.0710612 0.02469537 0.018253969 -0.013561522
-0.16181973 -0.1801923 0.10801004 0.07001225 -0.026355071 -0.12874734 0.04835377 0.066848405
-0.036769025 0.051162306 0.019688489 0.033668004 -0.07688434 -0.28438714 0.0717852 0.07341423
0.018658614 -0.037448272 0.093717806 0.078414395 0.0714789 -0.0060224975 -0.1494481 0.08053769
-0.20139495 0.12195813 -0.007111243 -0.1718341 -0.021482272 0.07268026 -0.12587614 -0.008198844
0.023205496 -0.23639311 -0.03941408 -0.019889709 0.017529339 0.02492342 0.030835398 0.027910646
-0.027770158 0.12645565 -0.0021789141 -0.059789814 -0.02342491 -0.024022907 -0.053998396 0.12630549
-0.04306315 -0.086891204 0.118067935 0.10151317 -0.12792815 -0.04064827 0.15330641 0.06249854
0.0059066783 -0.04033231 -0.027330376 0.038158964 0.087902285 0.08959157 0.03389764 0.013426771
0.045443904 0.0009007235 -0.06732245 0.057713572 -0.03560164 0.0043047103 0.07802452 -0.055556
-0.057888363 0.016721161 0.07559516 0.018611366 -0.029272588 0.0046098647 -0.03921531 0.024929864
0.03556172 0.011939287 -0.13490912 0.046707734 -0.08812936 0.04904073 -0.065051354 -0.034659218
-0.14397942 0.041796137 0.044391833 -0.086998865 0.07509636 -0.003740003 -0.086771436 0.18340014
-0.062099267 -0.017636262 -0.05546023 0.05280402 -0.03423834 -0.05079985 0.253579 0.007503197
-0.0046283947 0.05270416 -0.01588747 -0.07961215 -0.118391864 0.027929978 0.0150862355 -0.0043484382
0.0581338 -0.13660212 0.027252225 0.044149823 0.029004784 -0.05985423 0.046372 -0.072364256
0.01849432 -0.15442207 -0.0059971157 0.027232021 0.09822898 0.07043851 0.0030512842 -0.039721146
-0.10125457 -0.06552226 0.063962206 0.035294876 0.024777431 -0.05715238 0.0032787982 0.02459409
-0.027874488 -0.061045792 -0.08359464 0.058198005 -0.068640046 0.03921434 -0.03907398 -0.016460985
0.038272582 0.07662784 0.04373846 -0.02219542 -0.06755679 -0.08736964 -0.023063332 0.05251602
0.07835618 -0.0745614 0.001205676 -0.0049870117 0.036496524 -0.052903913 -0.17402166 0.0055484246
-0.064745955 0.10181555 0.056787048 -0.07363647 0.0017146211 -0.038612228 -0.06601907 0.03210592
0.06731607 -0.04094953 0.00393271 0.050775047 -0.056105006 0.01488687 -0.036910705 -0.042657506
0.003217661 -0.013395503 0.021209432 0.0708053 -0.03444384 0.030573662 -0.017200116 0.024488686
0.0007784593 -0.09140035 0.07121974 0.041098356 0.08353581 -0.013403104 0.017558038 -0.08508284
00000000: 5f05 d53c c58c 633d fa55 57bd 3804 253d
00000010: 5d7d 963d da4b 94bd 7807 3cbe 91e3 aa3d
00000020: 5f1d dfbd 55b4 d33c be12 a1bd ec36 233e
00000030: c9f1 6d3d 0180 e2bb bb0f 5c3d b70a 5b3d
00000040: f6ac 413c b49d 2cbe 6bea 6c3d ceb7 dabc
00000050: 710a 913d 4fc5 163d b241 a33b c4ef a03b
00000060: c85d 8fbc 1139 c3ba 624e f93b fb31 e43d
00000070: b4aa ce3c f28d d63d 7134 73bd 8c40 89be
00000080: 4521 233e affc d33c 36fa 07bc fe03 a0be
00000090: d59d 783c dac3 0e3e 441d 51bd dd8b c63c
000000a0: acc4 6a3d 6330 913e 2eeb 2e3d 1f51 2e3e
000000b0: 1dbb 81be 3eba de3c d79c 2fbd 1981 773d
000000c0: c510 5dbd 9761 40bd 128b 0abd 1292 a73d
000000d0: 0713 cdba 3322 a0be 1aa8 ac3b f518 ac3d
000000e0: 2b65 fb3d 680a 92bd 85eb 073d d09e 643d
000000f0: 8988 913d f24d ca3c 5989 953c 2531 5ebc
00000100: 12b4 25be 5584 38be 5e34 dd3d 9562 8f3d
00000110: 97e6 d7bc 58d6 03be 9a0e 463d d1e7 883d
00000120: 1e9b 16bd 918f 513d c149 a13c 76e7 093d
00000130: 8975 9dbd 319b 91be 1e04 933d 335a 963d
00000140: f3d9 983c 5c63 19bd 1fef bf3d ba97 a03d
00000150: 8863 923d 5f58 c5bb ec08 19be f2f0 a43d
00000160: 7a3a 4ebe 2fc5 f93d 6e05 e9bb 47f5 2fbe
00000170: 97fb afbc 63d9 943d ade5 00be 7254 06bc
00000180: 7419 be3c 0911 72be a970 21bd beef a2bc
00000190: b099 8f3c 332c cc3c 849a fc3c dea4 e43c
000001a0: 3e7e e3bc 977d 013e 1dcc 0ebb 2ae6 74bd
000001b0: 99e5 bfbc b0cb c4bc 6c2d 5dbd 3a56 013e
000001c0: fc62 30bd 04f4 b1bd 9acd f13d 23e6 cf3d
000001d0: 99ff 02be cd7e 26bd 5bfc 1c3e 78fe 7f3d
000001e0: cf8c c13b 7e33 25bd f4e3 dfbc 934c 1c3d
000001f0: 1d06 b43d c97b b73d 40d8 0a3d f6fb 5b3c
00000200: 6323 3a3d 881e 6c3a 5ae0 89bd 1165 6c3d
00000210: 06d3 11bd 870e 8d3b 52cb 9f3d b08e 63bd
00000220: 591c 6dbd d1fa 883c a3d1 9a3d dd76 983c
00000230: 11cd efbc 590e 973b 3ca0 20bd b739 cc3c
00000240: 2ba9 113d 009d 433c 9e25 0abe 9c50 3f3d
00000250: 2a7d b4bd efde 483d a539 85bd d3f6 0dbd
00000260: 576f 13be 6d32 2b3d 36d4 353d 762c b2bd
00000270: 1fcc 993d d71a 75bb 39b5 b1bd 3fcd 3b3e
00000280: cd5b 7ebd ec79 90bc 442a 63bd 0749 583d
00000290: 803d 0cbd 8113 50bd 1bd5 813e 61dd f53b
000002a0: caa9 97bb 51e0 573d 7126 82bc b20b a3bd
000002b0: 6f77 f2bd 69cd e43c 422c 773c 587d 8ebb
000002c0: b51d 6e3d 6de1 0bbe 0f40 df3c 72d6 343d
000002d0: 719b ed3c b629 75bd 91f0 3d3d b633 94bd
000002e0: 6681 973c d220 1ebe 7483 c4bb b015 df3c
000002f0: 472c c93d 1142 903d 0ef8 473b a4b2 22bd
00000300: 8e5e cfbd 8930 86bd 9efe 823d 5c91 103d
00000310: 0afa ca3c 9d18 6abd 1be1 563b 8c79 c93c
00000320: 0a59 e4bc 270b 7abd ab33 abbd 0861 6e3d
00000330: 2793 8cbd 379f 203d 0a0c 20bd 30d9 86bc
00000340: b6c3 1c3d 0fef 9c3d 1927 333d 2bd3 b5bc
00000350: 375b 8abd dbee b2bd 50ef bcbc 0a1b 573d
00000360: 3479 a03d a6b3 98bd c607 9e3a 166a a3bb
00000370: 617d 153d c6b1 58bd bc32 32be 8fcf b53b
00000380: 8799 84bd ac84 d03d 8999 683d b8ce 96bd
00000390: 23bd e03a db27 1ebd 0235 87bd 7f81 033d
000003a0: 02dd 893d b2ba 27bd f6dd 803b 7ff9 4f3d
000003b0: 5dce 65bd 0fe8 733c ae2f 17bd a3b9 2ebd
000003c0: 65df 523b d078 5bbc 67bf ad3c 5e02 913d
000003d0: fc14 0dbd 9e75 fa3c 42e7 8cbc 7f9c c83c
000003e0: 8511 4c3a 1b30 bbbd a8db 913d c056 283d
000003f0: d314 ab3d b198 5bbc e0d5 8f3c e93f aebd

layer2.bias f4 [128]
0.038182475 0.0018259638 -0.06215418 0.088187516 0.19576876 -0.0679951 0.07421271 0.16745837
-0.01583822 -0.0076403217 0.11767753 0.15307496 0.030301822 -0.09553782 0.18427062 -0.005773014
-0.010322407 0.07336626 -0.04731811 0.17932372 0.18331088 0.13644089 0.06807884 0.07645977
-0.0041364552 0.03134021 0.16830808 0.00284502 0.12226243 -0.068435565 0.07245329 0.12718205
0.16865006 0.10230898 -0.03093257 -0.048652496 0.017251778 0.08756457 -0.039709784 -0.059180453
0.20860262 0.13199069 0.09965873 -0.11958921 0.2076548 -0.08446078 -0.037462566 -0.07062548
-0.008162509 0.052912775 -0.08924147 0.10147354 -0.036828548 0.089866415 -0.024113733 0.10500154
0.0589045 0.13184892 0.11580638 0.074817434 0.051335078 0.21282215 -0.079323255 0.053578258
0.114596546 0.081938185 -0.0016833618 -0.04536157 0.12455929 0.04850949 -0.016243773 0.04588239
0.12608571 0.05849552 0.13546467 0.20573652 0.17266278 -0.051164214 0.0088198595 0.07768046
0.16583124 0.16141585 -0.09980135 0.048631523 -0.110327855 0.006083862 -0.06065218 0.07431094
-0.04262974 0.05290822 0.08305717 0.026025385 0.1690399 0.05530178 -0.044606343 -0.03280066
0.1016684 -0.096352234 -6.172558e-05 0.14156593 0.035520002 0.17681587 0.00034137713 -0.00018838547
0.01056255 0.04658756 0.046000384 0.15041374 0.11813144 -0.0053913817 0.16327876 -0.10264162
0.19864742 0.15003128 0.038006 0.13628863 0.17727621 0.16291153 0.055708162 -0.07928324
-0.049003817 0.1409747 0.076517366 0.15897062 -0.037142623 0.18977569 0.17723292 -0.028403018
00000000: 3a65 1c3d 2e55 ef3a 6295 7ebd a89b b43d
00000010: 9b77 483e 0441 8bbd d5fc 973d 357a 2b3e
00000020: 28bf 81bc aa5b fabb eb00 f13d afbf 1c3e
00000030: 873b f83c 55a9 c3bd 70b1 3c3e 8d2b bdbb
00000040: 501f 29bc 0d41 963d a2d0 41bd a3a0 373e
00000050: d9b5 3b3e 29b7 0b3e eb6c 8b3d f196 9c3d
00000060: 1a8b 87bb 985e 003d f458 2c3e 8473 3a3b
00000070: ba64 fa3d f227 8cbd 6462 943d 033c 023e
00000080: 9ab2 2c3e 5f87 d13d 4d66 fdbc d747 47bd
00000090: 9a53 8d3c 0e55 b33d baa6 22bd 3467 72bd
000000a0: ed9b 553e 9128 073e e019 cc3d 30eb f4bd
000000b0: 76a3 543e c6f9 acbd 5972 19bd 17a4 90bd
000000c0: 0bbc 05bc 11bb 583d 3bc4 b6bd 5cd1 cf3d
000000d0: 88d9 16bd e20b b83d 2a8a c5bc 0c0b d73d
000000e0: d845 713d 6703 073e e52b ed3d e239 993d
000000f0: bb44 523d 0dee 593e 3b74 a2bd e074 5b3d
00000100: 98b1 ea3d 35cf a73d 40a4 dcba 0ecd 39bd
00000110: f118 ff3d e3b1 463d a911 85bc 2cef 3b3d
00000120: 9d1c 013e 0099 6f3d 40b7 0a3e 98ac 523e
00000130: 83ce 303e 9191 51bd 2c81 103c ef16 9f3d
00000140: aacf 293e 324a 253e a664 ccbd d931 473d
00000150: 92f3 e1bd 225b c73b 6c6e 78bd 5630 983d
00000160: 869c 2ebd 4ab6 583d e119 aa3d 3033 d53c
00000170: cc18 2d3e 1f84 623d 24b5 36bd fc59 06bd
00000180: 8637 d03d 5254 c5bd ab72 81b8 a9f6 103e
00000190: 6c7d 113d 380f 353e ddfa b239 5789 45b9
000001a0: 8c0e 2d3c 99d2 3e3d e66a 3c3d 0f06 1a3e
000001b0: e5ee f13d 30aa b0bb 8c32 273e c535 d2bd
000001c0: 3b6a 4b3e cda1 193e 2eac 1b3d 3f8f 0b3e
000001d0: e587 353e 48d2 263e 3e2e 643d 405f a2bd
000001e0: 3ab8 48bd ac5b 103e 23b5 9c3d 32c9 223e
000001f0: dd22 18bd 8f54 423e 8c7c 353e 72ad e8bc

layer3.weight f4 [2, 128]
0.17564066 -0.027155703 -0.018984633 0.15491204 0.1957316 -0.103682645 0.15150617 0.13476063
-0.061055426 -0.3236884 0.07386354 0.17104909 -0.107790574 -0.16917494 0.21105829 -0.043754436
-0.039299693 -0.06720642 -0.33843845 0.19391555 0.1521796 0.18689997 0.20599996 -0.28282437
0.162716 0.2059022 0.15762419 -0.32859555 0.098454006 0.07953265 -0.04154355 0.14994378
0.17459081 0.13130061 -0.52170926 0.056160018 -0.013375359 0.1841536 -0.08320718 -0.31709722
0.16013472 0.23529837 0.17542017 -0.22708796 0.122432314 0.07692007 0.059910856 0.07486538
-0.19193605 0.14331393 -0.082367875 0.15012144 -0.04000749 0.13782533 -0.07238437 0.21542205
0.1803935 0.246599 0.11981824 -0.40332064 -0.26177588 0.13121043 -0.60539985 0.123607345
0.17612983 0.20810613 -0.21657464 -0.0105956625 0.07017547 -0.026390819 -0.2681182 0.1822908
0.096787296 -0.02972291 0.15054804 0.18856014 0.17621937 -0.31845587 0.21335317 0.10025123
0.20182997 0.15054125 -0.48822743 -0.0976364 -0.4170896 -0.11442187 0.007739415 0.21867384
0.0718789 0.13158433 0.113971874 0.070938945 0.24228638 -0.0063446574 -0.4450849 -0.026518697
0.1391809 -0.47909853 -0.012601842 0.115049645 -0.0293982 0.08542606 -0.051169213 -0.28642815
0.0018033078 -0.07237029 -0.120619036 0.20998706 0.21657857 -0.022916647 0.21173845 -0.1800856
0.20215623 0.08634327 0.19035386 0.118408695 0.140637 0.14128321 0.16384864 -0.028352816
-0.104055494 0.20999242 0.17513093 0.1839568 0.07934531 0.16995609 0.13761778 -0.097839355
0.04508236 -0.00107183 -0.099183194 0.21162525 0.108559676 -0.29831257 0.17689836 0.1555373
0.02521059 -0.30482513 0.19469789 0.22556905 -0.09262728 -0.33623686 0.17881848 -0.052381974
-0.14283855 -0.06857169 0.03738599 0.113958515 0.14661768 0.10052726 0.14398198 -0.2825222
-0.027637731 0.18569076 0.19757146 -0.22286509 0.23160385 0.08086497 -0.012940184 0.17227274
0.14239047 0.20144822 -0.54138434 -0.0698089 -0.05796122 0.17881337 -0.01919883 -0.374346
0.12862527 0.12336411 0.16046914 -0.21476315 0.18325141 -0.032434903 0.06600836 0.011293931
-0.27293348 0.19673994 -0.10826691 0.15181813 -0.0040035658 0.21825507 0.005170495 0.07518205
0.06255912 0.17190854 0.22990201 0.009745606 0.003342372 0.17566594 -0.58277214 0.16816509
0.20248346 0.093867764 -0.29523927 -0.03290051 0.22660686 -0.07159085 -0.1666106 0.1862615
0.19378594 -0.10514732 0.23440838 0.1583209 0.19249506 -0.44018316 0.056901075 -0.02303906
0.22569615 0.1277594 -0.2559822 0.043947455 -0.23111473 0.050784584 0.0354555 0.112977244
-0.124310456 0.2063718 0.20999701 0.01770329 0.087260775 -0.022864657 -0.44786647 0.015229183
0.1765265 -0.43855184 -0.043575343 0.21740676 -0.08774393 0.19090745 -0.09572939 -0.31424758
0.056828585 -0.097952016 -0.038162146 0.12689349 0.25103644 -0.033666447 0.08914094 0.0002986195
0.18996869 0.20780602 0.017655393 0.16552658 0.13535681 0.20136292 0.023035878 -0.08158853
0.08538911 0.15583888 0.19815509 0.06298674 -0.050254967 0.12600279 0.21239336 -0.21986637
00000000: 25db 333e a375 debc a985 9bbc 43a1 1e3e
00000010: dd6d 483e 9157 d4bd 6f24 1b3e b1fe 093e
00000020: 4115 7abd 7cba a5be c545 973d 7e27 2f3e
00000030: 4ec1 dcbd 323c 2dbe aa1f 583e da37 33bd
00000040: b7f8 20bd 85a3 89bd ce47 adbe cc91 463e
00000050: f8d4 1b3e b562 3f3e a7f1 523e 5bce 90be
00000060: 069f 263e 07d8 523e 3c68 213e ad3d a8be
00000070: 41a2 c93d 04e2 a23d 9229 2abd dd8a 193e
00000080: efc7 323e ab73 063e bd8e 05bf 0c08 663d
00000090: 5224 5bbc c392 3c3e 8768 aabd 915a a2be
000000a0: 5bfa 233e 0ef2 703e 58a1 333e bf89 68be
000000b0: cbbd fa3d 4588 9d3d 1665 753d 0553 993d
000000c0: e28a 44be e3c0 123e 7db0 a8bd 6fb9 193e
000000d0: e5de 23bd 1522 0d3e 423e 94bd 9997 5c3e
000000e0: 13b9 383e 7384 7c3e 4463 f53d 0b80 cebe
000000f0: 7d07 86be 075c 063e 7cfb 1abf d925 fd3d
00000100: 615b 343e c619 553e bec5 5dbe 6e99 2dbc
00000110: 28b8 8f3d 8f31 d8bc ca46 89be 71aa 3a3e
00000120: 6b38 c63d 767d f3bc 4429 1a3e e915 413e
00000130: da72 343e a60c a3be 4179 5a3e 8450 cd3d
00000140: 84ac 4e3e 7c27 1a3e f2f8 f9be 98f5 c7bd
00000150: c58c d5be 0356 eabd eb9a fd3b 09ec 5f3e
00000160: 3f35 933d 0bbe 063e 166a e93d 7048 913d
00000170: ec19 783e d8e6 cfbb 2be2 e3be bd3d d9bc
00000180: 7085 0e3e 674c f5be f577 4ebc 269f eb3d
00000190: 7ed4 f0bc dcf3 ae3d cf96 51bd b6a6 92be
000001a0: f85c ec3a e036 94bd 1d07 f7bd d906 573e
000001b0: c6c6 5d3e b1bb bbbc f7d1 583e 5c68 38be
000001c0: 0b02 4f3e bed4 b03d 1fec 423e 4280 f23d
000001d0: 2503 103e 8cac 103e f0c7 273e 2a44 e8bc
000001e0: 0c1b d5bd 4108 573e 8655 333e 2c5f 3c3e
000001f0: cb7f a23d f808 2e3e adeb 0c3e 0060 c8bd
00000200: 48a8 383d a67c 8cba 8f20 cbbd 4ab4 583e
00000210: 8954 de3d 6dbc 98be d824 353e 2c45 1f3e
00000220: 7086 ce3c 0a12 9cbe e25e 473e 93fb 663e
00000230: 5fb3 bdbd 3d27 acbe 311c 373e 7b8e 56bd
00000240: 4544 12be 506f 8cbd 0d22 193d 1563 e93d
00000250: f222 163e 3ce1 cd3d 0370 133e c0a6 90be
00000260: 8668 e2bc b825 3e3e 2c50 4a3e bf36 64be
00000270: 8f29 6d3e 899c a53d 1103 54bc 4468 303e
00000280: cfce 113e 7148 4e3e 2a98 0abf f8f7 8ebd
00000290: bf68 6dbd da1a 373e dd46 9dbc 47aa bfbe
000002a0: 58b6 033e 53a6 fc3d 0652 243e dfea 5bbe
000002b0: 42a6 3b3e 76da 04bd 642f 873d 2e0a 393c
000002c0: f0bd 8bbe 3276 493e 0bbb ddbd 3676 1b3e
000002d0: 5830 83bb 427e 5f3e 416d a93b 0cf9 993d
000002e0: ff1e 803d cb08 303e 6f6b 6b3e 09ac 1f3c
000002f0: b20b 5b3b c6e1 333e 8e30 15bf 7833 2c3e
00000300: d357 4f3e be3d c03d 9a29 97be afc2 06bd
00000310: a10b 683e 399e 92bd f89b 2abe 56bb 3e3e
00000320: d26f 463e 7a57 d7bd c008 703e e01e 223e
00000330: 6d1d 453e b05f e1be 1a11 693d 69bc bcbc
00000340: e41c 673e 5cd3 023e 1910 83be 3f02 343d
00000350: 57a9 6cbe 7f03 503d c939 113d 9d60 e73d
00000360: 7b96 febd 2153 533e 7509 573e 7d06 913c
00000370: c7b5 b23d a94e bbbc c14e e5be d383 793c
00000380: 5dc3 343e de89 e0be 0f7c 32bd e19f 5e3e
00000390: 17b3 b3bd 3e7d 433e c50d c4bd 0fe5 a0be
000003a0: 17c5 683d 119b c8bd e94f 1cbd 5ef0 013e
000003b0: d987 803e d4e5 09bd 868f b63d 0890 9c39
000003c0: 2787 423e 1acb 543e 0ba2 903c cd7f 293e
000003d0: fa9a 0a3e 1532 4e3e bdb5 bc3c e317 a7bd
000003e0: 7ce0 ae3d 3a94 1f3e 2be9 4a3e 31ff 803d
000003f0: 27d8 4dbd e006 013e a57d 593e a624 61be

layer3.bias f4 [2]
-0.00953558 0.10912106
00000000: 1f3b 1cbc dd7a df3d
