model_weights/DQN/cartpole/cartpole_dqn_episode_1599.pth (torch, 72508 bytes, 6 tensors)

layer1.weight f4 [128, 4]
0	0x3e21952e	0.15779564
1	0xbe86d5d7	-0.26335022
2	0x3dabb6aa	0.0838445
3	0xbe8fd686	-0.28093356
4	0xbe0aa487	-0.13539325
5	0x3e2834ee	0.16426441
6	0x3e98b5ba	0.29826146
7	0x3c7cd3b4	0.015431333
8	0x3e91c359	0.2846935
9	0xbe9fcb33	-0.31209716
10	0x3f31ee60	0.69504356
11	0x3e9a406b	0.30127272
12	0xbe7af3ed	-0.24507113
13	0xbe92c397	-0.28664848
14	0x3d7e4559	0.062077854
15	0xbe22e445	-0.1590739
16	0x3d6bc05e	0.057556503
17	0xbec2c0ab	-0.3803762
18	0xbefb235d	-0.49050418
19	0xbe71bacb	-0.23606412
20	0xbe9dd85d	-0.30829135
21	0x3d5d9a88	0.05410245
22	0xbf392581	-0.7232285
23	0xbdf70097	-0.120606594
24	0x3f0ebb14	0.5575421
25	0xbdfeffcd	-0.12451134
26	0xbebcc7ab	-0.36871085
27	0xbe50954a	-0.2036945
28	0xbe9739f4	-0.29536402
29	0xbdaa437e	-0.08313654
30	0xbd55717b	-0.052110177
31	0x3c122c15	0.008921643
32	0xbe885c09	-0.26632717
33	0xbe48509f	-0.19562005
34	0x3e704529	0.23463883
35	0x3e3949c2	0.18094543
36	0x3e642c27	0.22282468
37	0x3e9c8b87	0.305752
38	0x3dc0e092	0.094178334
39	0x3ef25708	0.47332025
40	0x3e876baa	0.2644933
41	0xbe82637b	-0.25466523
42	0xbaaf850e	-0.0013391094
43	0xbe41e78a	-0.18935981
44	0xbe0d9702	-0.13827136
45	0xbe1ad537	-0.15120398
46	0x3dca9592	0.098918095
47	0xbdefb4e9	-0.11704428
48	0x3f017d06	0.50581396
49	0x3c75c7c3	0.01500124
50	0x3e01a087	0.12658893
51	0xbd9be072	-0.07611169
52	0x3e71fdf5	0.23632033
53	0x3dc97800	0.09837341
54	0x3d5945d6	0.053045116
55	0xbe23cfb8	-0.15997207
56	0xbe36a0c4	-0.17834765
57	0x3ea8aaac	0.32942712
58	0x3e0fa055	0.14026006
59	0x3e8a68f0	0.27033186
60	0xbeda735b	-0.42666134
61	0xbe768f1b	-0.24078028
62	0xbf19f816	-0.60144174
63	0x3d2c6f9e	0.042098634
64	0xbea6ffa8	-0.32616925
65	0x3c6dba92	0.014509814
66	0x3ddd0ff3	0.10794058
67	0xbbf54197	-0.0074846256
68	0xbec2b91f	-0.3803186
69	0x3d9a4fbd	0.0753474
70	0xbf3c294f	-0.7350053
71	0xbe8a9b13	-0.27071437
72	0xbeb49c75	-0.35275617
73	0xbdfcfa3c	-0.12352416
74	0x3eb77e81	0.35838702
75	0xbcebeff1	-0.028800936
76	0xbcf305d7	-0.02966587
77	0x3e3c1b41	0.18369772
78	0x3ecfae0c	0.40562475
79	0x3d05e399	0.032687757
80	0x3e6dda3c	0.23227781
81	0xbeb1ada9	-0.34702805
82	0xbe28d571	-0.16487671
83	0xbe87f888	-0.26556802
84	0xbdcc8558	-0.09986371
85	0x3e727a17	0.23679386
86	0xbd4f4afd	-0.050608624
87	0xbe0de73b	-0.13857739
88	0x3ebdb741	0.37053874
89	0x3e6ca1f3	0.23108654
90	0xbe1eb8ae	-0.15500137
91	0xbcadc926	-0.02121408
92	0x3ec612f8	0.38686347
93	0x3e2239c4	0.15842348
94	0x3d6f9d88	0.058499843
95	0xbe7043fc	-0.23463434
96	0x3e3b4c70	0.18290877
97	0x3ee3be62	0.44481188
98	0x3e1b98e2	0.15195039
99	0x3e463777	0.19357096
100	0xbe08405e	-0.13305804
101	0xbe0ba5d4	-0.13637477
102	0x3f008767	0.5020661
103	0x3ea9efa6	0.3319065
104	0x3eddc567	0.4331467
105	0xbdbdcc7d	-0.09267519
106	0xbe8e95ab	-0.27848563
107	0x3d2bbe17	0.04192933
108	0x3dd9fcfe	0.106439576
109	0x3c4526ae	0.012033148
110	0xbeeebef5	-0.46630064
111	0xbaf7d461	-0.0018907898
112	0xbeb83df0	-0.35984755
113	0xbe1f717a	-0.15570632
114	0x3f16ffbd	0.58983976
115	0x3e5f4ec9	0.21807398
116	0xbeb17103	-0.34656534
117	0x3d938d8d	0.07204733
118	0xbedd3e84	-0.43211758
119	0x3de4bbbd	0.11168621
120	0xbe9e9979	-0.30976465
121	0xbe34422c	-0.17603368
122	0x3f19cde9	0.6007982
123	0x3ebf61e4	0.37379372
124	0x3eb41675	0.35173383
125	0x3d458eb3	0.04823179
126	0xbe51a72d	-0.20473929
127	0x3d632dfc	0.055463776
128	0xbebeae49	-0.37242344
129	0x3de0ca87	0.10976129
130	0x3e10f29c	0.14155048
131	0x3d5f59be	0.054528944
132	0xbe9b10c9	-0.30286244
133	0x3d7479de	0.059686534
134	0x3eeb96d2	0.46013504
135	0x3dd32506	0.10309796
136	0xbe19c5da	-0.1501688
137	0xbecc6f2c	-0.39928567
138	0xbf5c8498	-0.8613982
139	0xbc87653e	-0.016527768
140	0x3e1f6dfd	0.15569301
141	0x3e648aa2	0.22318509
142	0x3e86ecc5	0.26352516
143	0xbcb467b7	-0.022022111
144	0xbe12b76b	-0.14327781
145	0xbe40727a	-0.1879367
146	0xbe187d25	-0.14891489
147	0xbe0b62de	-0.13611934
148	0xbebd7465	-0.37002864
149	0xbe0f1c59	-0.13975658
150	0x3c0176be	0.0079018455
151	0x3d3b1b0d	0.045680095
152	0xbedcc6df	-0.43120477
153	0xbee00ba8	-0.43758893
154	0x3eb4f864	0.35345757
155	0xbdc8895f	-0.097918265
156	0xbee3883e	-0.44439882
157	0xbe889b1d	-0.26680842
158	0xbebf84b2	-0.37405926
159	0xbebcf054	-0.36902106
160	0xbecebd90	-0.40379
161	0x3de9566c	0.11393437
162	0xbd0f3be2	-0.034969218
163	0x3e4313d5	0.19050534
164	0xbec9e69b	-0.3943375
165	0x3ec8524b	0.39125285
166	0xbe9aa67a	-0.30205137
167	0x3e79631d	0.24354215
168	0x3ede9674	0.43474162
169	0x3f075819	0.528688
170	0x3d926546	0.071482226
171	0x3e8d653d	0.276163
172	0xbec5576c	-0.3854326
173	0x3e05be35	0.1306084
174	0x3e474e8d	0.19463558
175	0x3e181ded	0.14855166
176	0xbcc996c4	-0.024608023
177	0x3e909def	0.28245494
178	0x3f616370	0.88042355
179	0x3e7fdb55	0.24986012
180	0x3c6a7d1c	0.014312055
181	0x3cc15a54	0.023602642
182	0xbcfd76a4	-0.030940361
183	0xbebb15e4	-0.3654014
184	0x3e87c944	0.2652074
185	0xbe981819	-0.29705885
186	0xbf0519e0	-0.5199261
187	0x3e3548da	0.17703572
188	0x3cd789d9	0.026310848
189	0x3e14b19b	0.14520876
190	0xbda721d3	-0.08160748
191	0xbecc9f08	-0.3996508
192	0x3f067bea	0.5253283
193	0xbe00b7a5	-0.12570055
194	0xbdc7697d	-0.09736917
195	0xbe44dddd	-0.19225259
196	0xbdf5d260	-0.120030165
197	0xbe94275a	-0.28936273
198	0xbe9e2662	-0.3088866
199	0xbe7ef6ae	-0.24898788
200	0x3eacd514	0.33756316
201	0x3e932387	0.28738043
202	0x3da959c0	0.082690716
203	0x3de85785	0.11344818
204	0xbdc675d2	-0.09690441
205	0xbe842096	-0.2580611
206	0xbe712364	-0.23548657
207	0x3d1cd76e	0.038291387
208	0x3e3b0dbf	0.18266962
209	0xbe5694e8	-0.2095524
210	0xbf177bed	-0.5917347
211	0xbdf4c361	-0.11951328
212	0x3d7993f4	0.060932115
213	0x3e05882e	0.1304023
214	0x3f61774b	0.8807265
215	0x3def8e3f	0.11697053
216	0xbe817ccf	-0.25290534
217	0x3e6ddd67	0.2322899
218	0x3ed5c086	0.41748446
219	0xbe035073	-0.12823658
220	0xbecb8c25	-0.3975536
221	0x3deefffb	0.11669918
222	0xbee7a142	-0.45240217
223	0xbc22c461	-0.009934516
224	0x3d8bbd4b	0.06823214
225	0xbcd93342	-0.0265137
226	0xbb82599b	-0.003977967
227	0xbe725f60	-0.23669195
228	0xbef48c1b	-0.47763142
229	0x3cf39ca2	0.029737774
230	0xbeb07395	-0.34463182
231	0xbe64ff27	-0.22362958
232	0x3ea375a7	0.319257
233	0xbe98a150	-0.29810572
234	0x3dff7933	0.12474289
235	0xbe0ba085	-0.13635452
236	0xbda8b074	-0.08236781
237	0xbe5218f0	-0.20517325
238	0x3e80c7f2	0.25152546
239	0xbe48f69b	-0.19625323
240	0x3d81bc02	0.06334688
241	0x3eeb7d66	0.4599411
242	0x3e9694c0	0.29410362
243	0x3e73b13e	0.23798081
244	0x3c8d6ad2	0.01726285
245	0xbebecc78	-0.37265372
246	0xbeeabb01	-0.45845798
247	0xbd5f8f08	-0.054579765
248	0x3ef236ba	0.47307378
249	0xbe6a890a	-0.22903839
250	0xbdda8d5d	-0.10671494
251	0xbe983ded	-0.29734746
252	0xbf034944	-0.5128367
253	0xbe950819	-0.2910774
254	0x3ee15b8c	0.44015157
255	0x3eeeebf7	0.46664402

layer1.bias f4 [128]
0	0x3efd4431	0.49466088
1	0x3e87bab7	0.2650964
2	0xbe9af050	-0.3026147
3	0x3ef9b60b	0.487717
4	0x3ecdbbbd	0.40182295
5	0xbe896b81	-0.2683983
6	0xbe8e8003	-0.2783204
7	0x3ead3cf0	0.33835554
8	0xbedd2788	-0.43194222
9	0xbe515ecb	-0.20446317
10	0xbe67dde4	-0.22643238
11	0x3f19a330	0.6001463
12	0x3e527cfd	0.20555492
13	0x3eec9391	0.46206334
14	0x3ef3b5fb	0.47599778
15	0xbee9c216	-0.45655888
16	0x3e9e5e00	0.3093109
17	0xbe56aa5f	-0.20963429
18	0xbdd1bcc1	-0.1024108
19	0x3ef77985	0.483349
20	0x3e966189	0.29371288
21	0x3efe0a90	0.49617434
22	0x3ed257b9	0.41082552
23	0xbeb60681	-0.35551837
24	0xbec7323d	-0.38905516
25	0xbe74a4c8	-0.23890984
26	0x3f017c6b	0.5058047
27	0x3e9693a8	0.29409528
28	0xbf079895	-0.52967197
29	0x3ed0d6b9	0.4078882
30	0xbe4a7178	-0.19769847
31	0xbe67b9b0	-0.22629428
32	0x3eca7095	0.39539018
33	0x3e7a466d	0.24440928
34	0xbe3dfb21	-0.1855283
35	0xbed82a0e	-0.42219585
36	0xbed520ba	-0.4162653
37	0x3ee5d7b2	0.44891125
38	0xbe6ebc4e	-0.2331402
39	0xbe0ee0c3	-0.13952927
40	0xbf06e86b	-0.5269839
41	0x3e16096e	0.14652035
42	0x3e4db5f8	0.20088947
43	0x3eeed903	0.46649942
44	0xbead0dd2	-0.33799607
45	0x3eb42519	0.35184553
46	0x3e906dff	0.2820892
47	0x3e8047ee	0.25054878
48	0xbe1e5bfd	-0.15464778
49	0xbdd16cf9	-0.10225863
50	0x3e93e4cb	0.28885493
51	0x3ed870fe	0.42273706
52	0x3f1f3189	0.6218496
53	0xbdd908fc	-0.10597417
54	0x3ec30378	0.38088584
55	0x3efecf20	0.497674
56	0x3f1288e6	0.5724014
57	0xbf0bfd43	-0.5468332
58	0x3f278aa2	0.6544591
59	0x3f15bc23	0.584902
60	0x3e45347c	0.19258302
61	0x3f091a8b	0.53556126
62	0x3ec72eed	0.3890299
63	0xbda411c2	-0.080111995
64	0xbec1bce2	-0.3783942
65	0xbf3660f3	-0.7124168
66	0x3eacbb1d	0.33736506
67	0x3e43718b	0.19086282
68	0x3ed2cebb	0.41173348
69	0xbe521726	-0.20516643
70	0x3dfbd596	0.12296598
71	0x3ebecd68	0.37266088
72	0x3eb1f0e5	0.347541
73	0xbe9423c7	-0.28933546
74	0x3e964104	0.29346478
75	0x3f0ec8e0	0.5577526
76	0x3cf0a918	0.029377505
77	0xbe8471df	-0.25868127
78	0x3eaa858d	0.33305016
79	0x3e2a084c	0.16604728
80	0xbedfe92d	-0.43732587
81	0xbe5d9040	-0.21637058
82	0x3eb0846d	0.34476033
83	0x3e404c8f	0.18779205
84	0x3e9e3e19	0.30906752
85	0x3f0ee1f3	0.5581352
86	0xbecc8302	-0.399437
87	0x3ec9f588	0.39445138
88	0xbeff7467	-0.49893495
89	0x3f082943	0.5318796
90	0x3eecbffe	0.46240228
91	0xbedc002a	-0.42968875
92	0x3ecad92a	0.39618808
93	0x3f08e345	0.53471786
94	0xbefb539d	-0.4908723
95	0x3eff8fa4	0.49914277
96	0x3eab7d86	0.33494204
97	0xbea240c7	-0.31690046
98	0x3f1e3ea3	0.61814326
99	0xbe284437	-0.16432272
100	0xbeddf4f9	-0.43350962
101	0x3e9ad72b	0.30242285
102	0x3efe5fc8	0.4968245
103	0x3e405b07	0.18784724
104	0x3f0d74d7	0.5525641
105	0x3eb86b1f	0.36019227
106	0xbdf57be3	-0.1198652
107	0xbd2f0d9b	-0.042737585
108	0x3e8b5f04	0.2722093
109	0xbdecd680	-0.1156435
110	0xbe80d331	-0.25161126
111	0x3ec0e923	0.3767787
112	0x3e8ed6f1	0.27898362
113	0xbeea99e5	-0.45820537
114	0x3f152192	0.5825435
115	0x3e4aa95a	0.19791165
116	0xbeee758f	-0.46574065
117	0xbe9e1f5c	-0.308833
118	0x3f1b8fca	0.6076628
119	0x3f115413	0.5676891
120	0xbe739eed	-0.23791094
121	0x3e4f79c5	0.20261295
122	0x3ee7c1a1	0.45264915
123	0xbe6ac5d8	-0.22927034
124	0x3e53e7fa	0.20693961
125	0x3ec414db	0.3829716
126	0x3f20aa53	0.62759894
127	0x3f127ac7	0.57218593

layer2.weight f4 [128, 128]
0	0x3e1a9a75	0.15097983
1	0x3dd3e653	0.10346665
2	0xbdf25592	-0.118327275
3	0x3df4a9c3	0.11946442
4	0x3dfb665b	0.12275382
5	0xbe5bb2a2	-0.21454862
6	0xbd981b7b	-0.074271165
7	0x3e1b2a7c	0.15152925
8	0xbe48c0d5	-0.1960481
9	0xbcc53f92	-0.024078164
10	0xbe7ac440	-0.24488926
11	0x3e9b1ff0	0.30297804
12	0x3da7e379	0.08197684
13	0x3cf51680	0.029917955
14	0x3dc2fe4c	0.095211595
15	0x3d80544b	0.062660776
16	0x3dd8bee7	0.10583287
17	0xbe0ae4ce	-0.13563845
18	0x3c5feb51	0.013666944
19	0x3d2ff7a6	0.042960785
20	0x3e735486	0.23762712
21	0x3dc59a77	0.096486025
22	0x3d45fb40	0.048335314
23	0xbce81eb7	-0.028334958
24	0xbd97d5a8	-0.074137986
25	0xbe08fe44	-0.13378245
26	0x3d5c86b6	0.053839408
27	0x3e647a2f	0.22312234
28	0xbdc08828	-0.0940097
29	0x3e405a78	0.18784511
30	0xbd4487ec	-0.047981188
31	0xbe8dafdb	-0.2767323
32	0x3e52a648	0.20571244
33	0x3e013fd8	0.1262201
34	0x3d7f0651	0.062261883
35	0xbebca3ea	-0.36843807
36	0xbf1f3f28	-0.62205744
37	0x3e67ae68	0.22625124
38	0xbd75b8f7	-0.05999085
39	0xbbde57eb	-0.006785383
40	0xbf1300fa	-0.57423365
41	0x3e8a32e3	0.26991948
42	0x3d807416	0.06272142
43	0x3e56181b	0.20907633
44	0xbeabe134	-0.33570254
45	0x3dfcd439	0.12345166
46	0x3d6463c6	0.055759214
47	0x3dd9f556	0.10642497
48	0xbcd91bf6	-0.02650259
49	0xbd100249	-0.03515843
50	0x3c6e3b4a	0.014540503
51	0x3e0470e9	0.12933697
52	0x3e21832b	0.15772693
53	0xbf086e18	-0.5329299
54	0x3d87659a	0.06611176
55	0x3e22a308	0.15882504
56	0x3e6921ad	0.22766753
57	0xbe947b4c	-0.29000318
58	0x3e2131ec	0.157417
59	0x3e2cfd20	0.16893435
60	0x3dca7d76	0.09887211
61	0x3e0ba5db	0.13637488
62	0x3d8e0095	0.06933705
63	0xbd34702e	-0.044052295
64	0xbe8484bc	-0.25882518
65	0xbf05b5f9	-0.52230793
66	0x3e3855c6	0.1800147
67	0x3db7e575	0.08979312
68	0x3c90af2a	0.01766165
69	0xbe46ad86	-0.19402131
70	0x3d9ac6d3	0.07557454
71	0x3db5d54f	0.08878576
72	0x3db87ecc	0.090085596
73	0xbc1f83d6	-0.009736022
74	0x3dcda615	0.10041443
75	0x3e21278e	0.15737745
76	0xbdd09f1f	-0.101866
77	0xbe613124	-0.21991402
78	0x3db07141	0.086153515
79	0x3e08e6d6	0.13369307
80	0xbe792f7d	-0.24334522
81	0xbe29345a	-0.16523877
82	0x3e1242f5	0.14283355
83	0x3ddf343e	0.10898636
84	0x3d899d4e	0.067194566
85	0x3da13934	0.07872239
86	0xbe1aad71	-0.15105225
87	0x3e3a6ff4	0.18206769
88	0xbedeeb1c	-0.4353875
89	0x3e49e193	0.19714956
90	0x3e0e1ada	0.1387743
91	0xbe1e5931	-0.15463711
92	0x3cf1ad25	0.029501507
93	0x3e1f8e12	0.1558154
94	0xbefc6481	-0.49295428
95	0x3ddb7625	0.10715894
96	0x3d5b49be	0.053537123
97	0xbecde2d5	-0.40212122
98	0x3dc433d1	0.09580196
99	0xbda9b764	-0.08286932
100	0xbda7bf02	-0.08190729
101	0x3d460666	0.048345946
102	0x3e3ba038	0.18322837
103	0x3ccab4d9	0.024744438
104	0x3cee3031	0.029075714
105	0x3e5712ef	0.21003316
106	0x3cf30740	0.029666543
107	0xbeda6e64	-0.42662346
108	0x3ccc9993	0.024975574
109	0xbd1fa99a	-0.038980104
110	0xbdcf3303	-0.101171516
111	0x3e22aab4	0.1588543
112	0xbc11e434	-0.0089045055
113	0xbedb75e2	-0.42863375
114	0x3e3acd47	0.1824237
115	0x3e0e892a	0.13919511
116	0xbf1fb5b1	-0.62386614
117	0xbdd473c2	-0.103736416
118	0x3e7425bb	0.23842518
119	0x3e0b26b2	0.1358898
120	0x3b0376c0	0.0020059794
121	0x3d2780cd	0.04089432
122	0x3e08f13b	0.13373272
123	0xbe15f269	-0.14643253
124	0x3de05fb1	0.10955752
125	0x3ded007e	0.115723595
126	0x3e36e179	0.17859448
127	0x3e1ea723	0.15493445
128	0x3d06a6dc	0.032873973
129	0x3cc70914	0.024296321
130	0xbd467e93	-0.048460554
131	0x3d38b47c	0.045094
132	0xbd1700b7	-0.036865916
133	0x3b6fa203	0.0036565072
134	0xbcb1fbf9	-0.021726595
135	0xbd6a48c5	-0.057198305
136	0xbd4987b8	-0.049201697
137	0x3d67449e	0.056461923
138	0x3de99ea3	0.11407211
139	0xbbd55039	-0.0065098074
140	0xbc73e1bd	-0.014885363
141	0x3bf1a2da	0.0073741497
142	0xbc9f62a8	-0.019456223
143	0x3cad9999	0.021191405
144	0x3c98a8b1	0.018635126
145	0x3c1cb0f9	0.009563678
146	0xbdea75ba	-0.11448236
147	0x3d66e29c	0.056368455
148	0xbdbfc83d	-0.09364364
149	0x3d38a92c	0.04508321
150	0xbd5a1732	-0.053244777
151	0x3ba90b97	0.0051588523
152	0xbd961495	-0.073281445
153	0x3d1cf24a	0.038317002
154	0x3d0e6443	0.034763586
155	0xbdbc027a	-0.0918016
156	0x3d82b75f	0.063826315
157	0xbbd07b4f	-0.006362356
158	0xbd9722e5	-0.073797025
159	0x3e4eeb21	0.20206882
160	0xbd37ee0e	-0.04490476
161	0xbec190ad	-0.3780569
162	0xbd411dc7	-0.04714754
163	0x3e108876	0.14114556
164	0xbcee238a	-0.02906968
165	0xbd4623b3	-0.04837389
166	0x3e5c8970	0.21536803
167	0x3bd10f5c	0.006380005
168	0xbb80c9e6	-0.003930318
169	0x3d6f7ef2	0.058470674
170	0x3b2520e0	0.0025196597
171	0xbd607dd3	-0.054807495
172	0x3d1c0371	0.03808922
173	0x3ca129da	0.019673277
174	0x3c2638a5	0.010145341
175	0xbb60d2b6	-0.003430528
176	0x3cc9b199	0.024620818
177	0xbded8ab8	-0.11598724
178	0x3d09549f	0.033527967
179	0x3d10a7df	0.035316344
180	0x3c3e35cc	0.011609506
181	0x3e39ff1d	0.18163724
182	0x3d62e203	0.055391323
183	0xbd761a1a	-0.060083486
184	0x3c5406dc	0.0129410885
185	0xbe069b34	-0.13145143
186	0xbbf1766d	-0.007368854
187	0x3cb25768	0.021770194
188	0x3dd2d58d	0.10294638
189	0x3d5afa86	0.053461574
190	0xbb6704e3	-0.0035250715
191	0xbd0b2ee2	-0.033980258
192	0x3d428aed	0.04749577
193	0xbd63cc7c	-0.055614933
194	0x3d939249	0.07205636
195	0x3cfbce51	0.030738028
196	0x3ce9984e	0.028515007
197	0x3cee6cb4	0.029104568
198	0x3b829b68	0.003985811
199	0x3ce84d99	0.028357314
200	0xbd0daa18	-0.034586042
201	0xbd54aea0	-0.051924348
202	0xbd90a234	-0.07062188
203	0x3d3bc2cb	0.045840066
204	0xbd90a50b	-0.070627294
205	0xbc0d4ebf	-0.008624732
206	0xbcb5e58e	-0.022204187
207	0xbc5df5c8	-0.013547368
208	0x3d05613a	0.032563426
209	0x3dc37dd0	0.09545481
210	0x3d0e5674	0.034750417
211	0xbcc01f36	-0.023452383
212	0xbc6ffeca	-0.014648149
213	0xbd90fb43	-0.07079174
214	0x3c03cdee	0.008044703
215	0x3d4598dc	0.04824148
216	0x3d88866d	0.06666265
217	0xbd8925cb	-0.066966616
218	0xbbd027a4	-0.006352382
219	0x3cb560d6	0.022140902
220	0x3cf401d7	0.029786034
221	0xbd26f73b	-0.04076312
222	0xbe178837	-0.14798056
223	0x3c1ada67	0.009451485
224	0xbd560a79	-0.05225608
225	0x3e94b714	0.29045928
226	0x3d3bbddc	0.04583536
227	0xba4e3bfd	-0.00078672153
228	0x3abb580d	0.0014293209
229	0xbcc7939d	-0.02436238
230	0xbd8e3b4d	-0.069449045
231	0x3c83ad88	0.016073957
232	0x3d6cb256	0.057787262
233	0xbd20e592	-0.039281435
234	0x3b5aed88	0.003340574
235	0x3e22fb46	0.15916166
236	0xbd442383	-0.04788543
237	0x3b6fa990	0.0036569573
238	0x3cec9155	0.028877893
239	0xbc8f046d	-0.017458165
240	0x3cabddc9	0.020979779
241	0xbc3b2a28	-0.011423625
242	0x3cbdbf55	0.023162523
243	0x3d65fef8	0.05615136
244	0xbcefad7d	-0.02925753
245	0x3db81b14	0.0898954
246	0xbc756b23	-0.014979157
247	0x3cf44688	0.029818788
248	0x3c99d3e4	0.018777795
249	0xbda91e01	-0.08257676
250	0x3d2e6df7	0.04258534
251	0x3e5aeccf	0.21379398
252	0x3db9164f	0.09037458
253	0xbba001da	-0.004883033
254	0x3a7ca348	0.0009637368
255	0xbdb68ee9	-0.08913977

layer2.bias f4 [128]
0	0x3e1e798b	0.15476052
1	0xb981e8ed	-0.0002477834
2	0xbdc8657f	-0.09784984
3	0x3e23f6be	0.16012093
4	0x3e8edc34	0.27902377
5	0xbdfa980c	-0.12236032
6	0x3e2faf9a	0.1715683
7	0x3e821195	0.2540404
8	0xbc5c64da	-0.013451779
9	0xbdaf0226	-0.08545332
10	0x3e595c42	0.212266
11	0x3e5502b3	0.20801811
12	0x3cb98f5a	0.022651363
13	0xbe322642	-0.17397407
14	0x3e809705	0.2511522
15	0xbd08a562	-0.033360846
16	0xbd2c783c	-0.042106852
17	0x3d7f181c	0.062278852
18	0xbc966901	-0.018360617
19	0x3e84759e	0.25870985
20	0x3e877011	0.26452687
21	0x3e6c3c1e	0.23069808
22	0x3e2439ab	0.16037624
23	0x3d8538ef	0.06505
24	0x3dee6a03	0.11641314
25	0x3dd31a11	0.10307706
26	0x3e7e00fd	0.24805064
27	0x3d2ff294	0.04295595
28	0x3e566af5	0.20939238
29	0xbd6e0817	-0.058113184
30	0x3d7bea62	0.06150282
31	0x3e5b66f3	0.21425991
32	0x3e8006a3	0.25005063
33	0x3e465f97	0.19372402
34	0xbb86fed8	-0.004119735
35	0xbd296b96	-0.041362368
36	0x3c701ccf	0.014655306
37	0x3e362fe5	0.17791708
38	0xbd0a4e95	-0.033766348
39	0x3c20c69e	0.009812979
40	0x3e93bb16	0.28853673
41	0x3e602ede	0.21892878
42	0x3e4420be	0.19153115
43	0xbe267806	-0.16256723
44	0x3e929056	0.28625745
45	0xbd932a30	-0.07185781
46	0xbd0becb1	-0.034161273
47	0xbd75b93a	-0.0599911
48	0xbde88a2e	-0.11354481
49	0x3e093164	0.13397747
50	0xbdbde1cb	-0.09271582
51	0x3e496bc9	0.19670023
52	0xbd000e77	-0.031263795
53	0x3e2a0bbc	0.16606039
54	0xbca7f27b	-0.020501366
55	0x3e4e3731	0.20138241
56	0x3e2cd289	0.16877188
57	0x3e526408	0.20545971
58	0x3e4f2b8c	0.20231456
59	0x3c0e73be	0.008694587
60	0xbd66f137	-0.056382384
61	0x3e946ea5	0.28990665
62	0xbdc1a4b7	-0.09455245
63	0x3e1fa75f	0.15591191
64	0x3e452b62	0.1925483
65	0x3e383b7b	0.1799144
66	0x3c07b764	0.00828347
67	0xbd1dde26	-0.038541935
68	0x3e5d6dbc	0.21623892
69	0x3c7c5859	0.015401923
70	0xbdbf38be	-0.093369946
71	0x3e0bf12e	0.13666221
72	0x3e5e9578	0.21736705
73	0x3d75a105	0.059968013
74	0x3e5f14d0	0.21785283
75	0x3e8fda9c	0.28096473
76	0x3e7f0c71	0.2490709
77	0xbdb978fb	-0.09056278
78	0x3e0236b4	0.1271618
79	0x3e273529	0.16328873
80	0x3e72c6fc	0.23708719
81	0x3e81df03	0.25365457
82	0xbd1fad5b	-0.038983684
83	0x3d2958fb	0.041344624
84	0xbd82086e	-0.06349264
85	0x3c955cdf	0.018232761
86	0xbcd9f721	-0.026607098
87	0x3e2ca734	0.16860658
88	0xbd06899a	-0.03284607
89	0x3e1b3bf4	0.15159589
90	0x3e31f7d5	0.17379697
91	0x3cb54637	0.022128208
92	0x3e801dd7	0.25022766
93	0x3d408dc9	0.047010217
94	0xbdace53c	-0.084421605
95	0xbce41191	-0.027840408
96	0x3e45e287	0.19324695
97	0xbd60c3ac	-0.054874107
98	0xb85be560	-5.242729e-05
99	0x3e69e393	0.22840719
100	0xbd327d85	-0.043576736
101	0x3e85ad13	0.26108608
102	0xbd2e1aa2	-0.042505868
103	0x3cdc5721	0.026897015
104	0x3c133d13	0.008986729
105	0x3c654ab7	0.013994864
106	0xbb208fc3	-0.002449975
107	0x3e6c725f	0.23090504
108	0x3e422b3b	0.18961804
109	0xbd67a6b2	-0.056555457
110	0x3e7e1e48	0.24816239
111	0xbd9c9cc6	-0.0764709
112	0x3e897207	0.26844808
113	0x3e73f2b0	0.23823047
114	0x3e1c364a	0.15255085
115	0x3e6aaf3f	0.22918414
116	0x3e877068	0.26452947
117	0x3e71d95c	0.23618072
118	0x3e2f322f	0.17108987
119	0xbd8a1419	-0.067421146
120	0x3b0b4d09	0.0021255633
121	0x3e52d47f	0.20588873
122	0x3e2b1b4e	0.16709635
123	0x3e818144	0.25293934
124	0xbd0136dd	-0.031546462
125	0x3e8ad14b	0.27112803
126	0x3e824921	0.25446418
127	0xbdab4162	-0.0836208

layer3.weight f4 [2, 128]
0	0x3e959718	0.29216838
1	0xbd1c35de	-0.03813731
2	0xbeae094b	-0.33991465
3	0x3e7e19ab	0.24814479
4	0x3e90bfd7	0.28271362
5	0xbe8816d8	-0.26579928
6	0x3e7f5fbf	0.24938868
7	0x3e6d74ae	0.23189041
8	0xbd54ab01	-0.051920895
9	0xbf0f66be	-0.5601615
10	0x3e347edf	0.17626522
11	0x3e88a805	0.2669069
12	0xbe57d957	-0.21079002
13	0xbec05829	-0.3756726
14	0x3e9816fe	0.29705042
15	0xbe7af7eb	-0.24508636
16	0xbdfbb758	-0.122908294
17	0xbd698e71	-0.05702061
18	0xbec75824	-0.38934433
19	0x3e8f3e17	0.27977058
20	0x3e7bc99f	0.24588631
21	0x3e8f2c3f	0.27963445
22	0x3e96222c	0.29322946
23	0xbe75fcda	-0.24022236
24	0x3e8887bc	0.26666057
25	0x3e964217	0.29347298
26	0x3e83eb36	0.2576539
27	0xbf292758	-0.6607566
28	0x3e4e3e4c	0.20140952
29	0x3d8a7f17	0.06762522
30	0xbd109b75	-0.035304505
31	0x3e76a54b	0.24086492
32	0x3e86159f	0.2618837
33	0x3e6aead2	0.2294114
34	0xbf512174	-0.8169167
35	0x3d4399b8	0.04775402
36	0xbc3a5280	-0.011372209
37	0x3e8d69f9	0.27619913
38	0xbd90d4b1	-0.07071818
39	0xbf360120	-0.71095467
40	0x3e80d3bd	0.25161543
41	0x3ea6c86b	0.32574782
42	0x3e88708d	0.2664837
43	0xbede3c39	-0.4340532
44	0x3e5fe42d	0.21864386
45	0x3d861221	0.065464266
46	0x3d72ffef	0.05932611
47	0x3d82489b	0.06361505
48	0xbee64750	-0.44976282
49	0x3e75b7ac	0.23995847
50	0xbe59bb02	-0.21262744
51	0x3e7c64e7	0.24647866
52	0xbd0b4dfe	-0.034009926
53	0x3e73f3f2	0.23823527
54	0xbd7bacf5	-0.06144424
55	0x3e98af0f	0.2982106
56	0x3e8d7de1	0.276351
57	0x3eaa5f74	0.3327595
58	0x3e6081b9	0.21924485
59	0xbf309377	-0.68975013
60	0xbf3a9180	-0.72878265
61	0x3e6950e2	0.2278476
62	0xbf46793a	-0.7752873
63	0x3e62ade8	0.22136652
64	0x3e8a92c3	0.27065095
65	0x3e97199e	0.29511732
66	0xbf047708	-0.5174413
67	0xbc13b320	-0.009014875
68	0x3e32a0cb	0.1744415
69	0xbe4c5a5e	-0.19956347
70	0xbef5da4f	-0.4801812
71	0x3e8b09f0	0.2715602
72	0x3e4837c2	0.1955252
73	0x3e3f777a	0.1869792
74	0x3e7d3b33	0.24729614
75	0x3e8f267e	0.27959055
76	0x3e87cf96	0.26525563
77	0xbf22a474	-0.63532186
78	0x3ea72b1c	0.32650077
79	0x3e7df30e	0.2479975
80	0x3e9588a1	0.29205802
81	0x3e869590	0.26285982
82	0xbf157261	-0.58377653
83	0xbda9fe9d	-0.08300517
84	0xbf004de7	-0.5011887
85	0xbe441485	-0.19148453
86	0x3cd43cde	0.02590793
87	0x3e99a329	0.30007294
88	0xbc512c16	-0.012766859
89	0x3e6e1393	0.23249654
90	0x3e531ed9	0.20617236
91	0x3d76c02d	0.060241867
92	0x3ea5f8fb	0.3241652
93	0xbbb0bba3	-0.005393462
94	0xbf34e1f9	-0.70657307
95	0xbcb8bcf8	-0.022551045
96	0x3e6dd164	0.23224407
97	0xbf0d5a25	-0.55215675
98	0xbc2f8128	-0.010711946
99	0x3e5e520f	0.2171099
100	0xbe4c04fd	-0.19923778
101	0x3e3d6306	0.18494806
102	0xbe8f8561	-0.28031448
103	0xbeda566e	-0.42644066
104	0x3ac8ed98	0.0015329598
105	0xbe6d188c	-0.23153895
106	0xbebe766d	-0.37199727
107	0x3e974dc5	0.2955152
108	0x3e9bb240	0.3040943
109	0xbe8f966a	-0.28044444
110	0x3e97b358	0.29629016
111	0xbea48d72	-0.32139164
112	0x3e9704ec	0.29495943
113	0x3e4298e1	0.19003631
114	0x3e903d80	0.2817192
115	0x3e603f4d	0.21899147
116	0x3e722ef9	0.23650731
117	0x3e7540ae	0.23950455
118	0x3e963b9b	0.2934235
119	0xbcc5898e	-0.024113443
120	0xbe60fb5b	-0.21970885
121	0x3e96d172	0.2945667
122	0x3e8a4806	0.27008075
123	0x3e8cd16a	0.2750352
124	0x3d8a2eba	0.06747194
125	0x3e846939	0.2586153
126	0x3e71e978	0.23624218
127	0xbe3a4a4f	-0.18192409
128	0x3e40b128	0.1881758
129	0xbc846a41	-0.016163947
130	0xbed3d19c	-0.41370857
131	0x3e99321d	0.29921046
132	0x3e5e99c2	0.21738341
133	0xbf05fcb6	-0.5233873
134	0x3e8e6d48	0.2781775
135	0x3e83d25f	0.25746438
136	0x3caf8d93	0.021429813
137	0xbefbe1a0	-0.49195576
138	0x3e94a890	0.29034853
139	0x3ea0de5e	0.31419653
140	0x3d03ca3a	0.03217528
141	0xbf10d72c	-0.56578326
142	0x3e88a21b	0.26686177
143	0xbe93a570	-0.28837156
144	0xbe87094d	-0.26374283
145	0xbd6e86f7	-0.05823418
146	0xbdac36a8	-0.08408862
147	0x3e58e429	0.21180786
148	0x3e798449	0.24366869
149	0x3e555947	0.20834838
150	0x3e757b4c	0.23972815
151	0xbe75bd7c	-0.23998064
152	0x3d9e0d6c	0.07717404
153	0x3e8adb43	0.27120408
154	0x3e96f264	0.29481804
155	0xbf0e5209	-0.55593926
156	0x3ea43986	0.32075137
157	0x3d8cba9b	0.0687153
158	0xbc34418a	-0.011001954
159	0x3e8707af	0.2637305
160	0x3e734ccf	0.23759769
161	0x3e977f1a	0.29589158
162	0xbf607045	-0.8767131
163	0xbd730821	-0.059333924
164	0xbd49c729	-0.0492622
165	0x3e8c2936	0.2737519
166	0xbc85d744	-0.016337998
167	0xbf42c5d5	-0.7608312
168	0x3e691241	0.2276087
169	0x3e6e8dc3	0.23296265
170	0x3e84ad36	0.259134
171	0xbef8c50d	-0.48587838
172	0x3e907904	0.28217328
173	0xbce1925c	-0.02753561
174	0x3d37aa9e	0.044840448
175	0x3c1d3bc0	0.009596765
176	0xbf144f3e	-0.57933414
177	0x3e93455d	0.28763857
178	0xbe7151af	-0.23566316
179	0x3e80f930	0.25190115
180	0xbb5ecc2b	-0.0033996205
181	0x3e9f6345	0.31130424
182	0x3b8ff043	0.004392655
183	0x3e3abdea	0.18236509
184	0x3e35b655	0.17745335
185	0x3e864c86	0.26230258
186	0x3ea3afa6	0.31969947
187	0xbe3ebb84	-0.18626219
188	0xbf0ba144	-0.54542947
189	0x3e8c6524	0.27420914
190	0xbf48e4fc	-0.784744
191	0x3e864800	0.26226807
192	0x3e9650e2	0.29358584
193	0x3e4b5e21	0.19860126
194	0xbedc674d	-0.43047562
195	0xbce4c011	-0.027923616
196	0x3ea2f102	0.318245
197	0xbe81ba69	-0.25337532
198	0xbee032f1	-0.43788865
199	0x3e8e5112	0.27796227
200	0x3e927207	0.2860262
201	0xbe27d5d7	-0.16390167
202	0x3ea7ebdd	0.32797137
203	0x3e82bfaa	0.25536853
204	0x3e938466	0.2881195
205	0xbf4b17b3	-0.7933304
206	0x3e4a30a7	0.19745122
207	0x3e2fac87	0.17155658
208	0x3ea45f37	0.32103893
209	0x3e7dfef4	0.24804288
210	0xbee3e2da	-0.44509012
211	0x3d190a79	0.037363503
212	0xbecd329b	-0.4007767
213	0xbd0b8904	-0.034066215
214	0x3dc8cea6	0.0980504
215	0x3e597d07	0.212391
216	0xbe99d09c	-0.3004197
217	0x3e9b78ce	0.30365604
218	0x3e977db0	0.2958808
219	0x3c7656aa	0.015035311
220	0x3e47da28	0.19516814
221	0xbc9f393a	-0.019436467
222	0xbf3ee47f	-0.7456741
223	0x3c54333d	0.012951669
224	0x3e8b3f1f	0.27196595
225	0xbf0d1e25	-0.5512412
226	0xbd17c551	-0.03705341
227	0x3ea29fbd	0.31762496
228	0xbe96a2d9	-0.29421118
229	0x3e91436f	0.2837176
230	0xbeb9d11d	-0.36292353
231	0xbef5a51c	-0.4797753
232	0x3d45f94a	0.048333444
233	0xbe80dff5	-0.25170866
234	0xbd68065e	-0.056646697
235	0x3e6b4b23	0.22977881
236	0x3eaa7811	0.33294728
237	0xbd86021a	-0.065433696
238	0x3e436703	0.19082265
239	0xbde599b9	-0.11210961
240	0x3e934ca4	0.2876941
241	0x3e9a2da5	0.3011295
242	0x3e0c308d	0.13690396
243	0x3e892bf6	0.26791352
244	0x3e744e0f	0.23857902
245	0x3e96e78c	0.2947353
246	0x3e20d55b	0.15706389
247	0xbd8df0fc	-0.0693073
248	0x3e662eea	0.22478834
249	0x3e81a0ad	0.25317898
250	0x3e93bd7e	0.2885551
251	0x3e351d2b	0.17686908
252	0xbd2ef830	-0.04271716
253	0x3e68b949	0.2272693
254	0x3e9aea13	0.3025671
255	0xbeb32ee8	-0.34996724

layer3.bias f4 [2]
0	0x3c4cc80b	0.012498866
1	0x3de73f9e	0.11291431
