model_weights/DQN/cartpole/cartpole_dqn_episode_699.pth (torch, 72498 bytes, 6 tensors)

layer1.weight f4 [128, 4]
0	0x3e18f6c6	0.14937887
1	0xbe96a971	-0.2942615
2	0x3e3311f1	0.17487313
3	0xbe972ec0	-0.29527855
4	0xbe215f4d	-0.1575901
5	0x3e5376ba	0.2065076
6	0x3ecc1bc4	0.39864933
7	0xbcb1df57	-0.021712942
8	0x3ea2a881	0.31769183
9	0xbeb1a7d4	-0.34698355
10	0x3f4db3f9	0.8035274
11	0x3ec0fcfd	0.37693015
12	0xbe1932cc	-0.14960784
13	0xbe9d624e	-0.30739063
14	0x3ce0b1c6	0.027428519
15	0xbe62268a	-0.22085014
16	0xbcecde5c	-0.028914623
17	0xbed78d3f	-0.4209995
18	0xbed1a9eb	-0.4094995
19	0xbe9820a2	-0.29712397
20	0xbe8e69e7	-0.27815172
21	0x3dbe3c53	0.0928885
22	0xbf35e0a3	-0.71045893
23	0xbe0e6dfb	-0.13909142
24	0x3f1a315a	0.60231555
25	0xbe470622	-0.19435933
26	0xbf095fbe	-0.53661716
27	0xbe89cfc7	-0.26916334
28	0xbe7799ae	-0.24179718
29	0xbdd62ca6	-0.10457735
30	0xbdbb0a95	-0.09132878
31	0xbcd3b494	-0.025842942
32	0xbe91e913	-0.28498134
33	0xbe85caa7	-0.26131174
34	0x3e36abb1	0.17838933
35	0x3e8139b4	0.25239336
36	0x3e7c09a4	0.24613053
37	0x3ea63f72	0.3247028
38	0xbd17cc77	-0.037060227
39	0x3f05685c	0.52112365
40	0x3e62f2d0	0.22162938
41	0xbe9fd742	-0.31218916
42	0xbf321a9e	-0.69571865
43	0xbeb0561a	-0.3444069
44	0xbe341ca1	-0.17589046
45	0xbe0faf10	-0.14031625
46	0x3e93a234	0.2883469
47	0xbde5ccfb	-0.112207375
48	0x3ef72082	0.4826699
49	0xbe083233	-0.133004
50	0x3dec1f51	0.11529411
51	0x3cbe657f	0.023241756
52	0x3e763963	0.24045329
53	0x3dcfc2df	0.101445906
54	0x3e079e2a	0.13243929
55	0xbe1112c8	-0.1416732
56	0xbd885ca0	-0.06658292
57	0x3ede5373	0.43423042
58	0x3e55b853	0.20871095
59	0x3eb66acb	0.35628352
60	0xbed949f4	-0.42439234
61	0xbea72ecd	-0.32652894
62	0xbeace9c9	-0.33772114
63	0x3e809da4	0.2512027
64	0xbe87f755	-0.26555887
65	0x3de97abe	0.11400364
66	0x3e1b359f	0.15157174
67	0xbe527435	-0.20552142
68	0xbe99564d	-0.29948655
69	0x3e28abe5	0.16471823
70	0xbef93099	-0.4866989
71	0xbeb57872	-0.35443455
72	0xbec9e815	-0.39434877
73	0xbd87bbb3	-0.06627598
74	0x3f01810f	0.5058755
75	0xbd4709c3	-0.048593294
76	0xbc6f8fb7	-0.014621667
77	0x3e7ebf79	0.24877729
78	0x3f01832e	0.5059079
79	0x3cb278fb	0.021786204
80	0x3e850ee8	0.25987935
81	0xbeb0519d	-0.34437266
82	0xbd81dcbc	-0.0634093
83	0xbe8cf00b	-0.27526888
84	0xbccc7f0c	-0.024962924
85	0x3ead13fe	0.33804315
86	0x3d06b750	0.032889664
87	0xbe2ea248	-0.17054093
88	0x3eba27d2	0.36358505
89	0x3e360a70	0.17777419
90	0xbe49e4b6	-0.19716153
91	0xbca7e4ff	-0.020494936
92	0x3edd5b98	0.43233943
93	0x3e2552b6	0.16144833
94	0xbc673eae	-0.014114065
95	0xbe81edfb	-0.25376877
96	0x3e48db4d	0.19614907
97	0x3ef637af	0.48089358
98	0x3d27f1a5	0.041001935
99	0x3e0edab6	0.13950619
100	0xbd88596c	-0.06657681
101	0xbdea16c1	-0.11430121
102	0x3f2451af	0.6418714
103	0x3ecbabb3	0.39779434
104	0x3ee8f947	0.45502684
105	0xbe00d20c	-0.12580127
106	0xbe84fbf3	-0.25973472
107	0x3dec9bb5	0.11553136
108	0x3defc43f	0.11707353
109	0x3ce5e348	0.028062478
110	0xbed33d3d	-0.4125766
111	0x3d1d8501	0.03845692
112	0xbee25724	-0.44207108
113	0xbe8d08a0	-0.27545643
114	0x3f0173bd	0.5056723
115	0x3e8b4e68	0.27208257
116	0xbe9fdab8	-0.31221557
117	0x3e1bea81	0.15226175
118	0xbecfbfd3	-0.40576038
119	0x3e46189d	0.19345327
120	0xbe95074e	-0.29107136
121	0xbe012266	-0.12610778
122	0x3f3192d2	0.69364655
123	0x3ecd2f62	0.40075213
124	0x3eb51330	0.353662
125	0xbce74035	-0.028228858
126	0xbeb8a576	-0.36063737
127	0x3d65c872	0.056099363
128	0xbeb30d56	-0.34971112
129	0x3e3d5741	0.18490316
130	0x3e58e9c8	0.2118293
131	0x3dcc4ef0	0.09975994
132	0xbe7955e1	-0.24349166
133	0x3d8baa0a	0.06819542
134	0x3ecafbb2	0.39645153
135	0xbc75cf90	-0.0150031
136	0xbda5363d	-0.08066986
137	0xbec11279	-0.37709406
138	0xbe788dc4	-0.2427283
139	0x3d9b238f	0.07575142
140	0x3e345e28	0.17614043
141	0x3e81a1de	0.25318807
142	0x3e4a2435	0.19740374
143	0xbdcee4a1	-0.10102201
144	0xbd5a49ca	-0.053293027
145	0xbe45cb51	-0.1931584
146	0xbc322ef4	-0.010875452
147	0x3e42d9cd	0.19028397
148	0xbe520c23	-0.20512442
149	0xbe0b161c	-0.13582653
150	0xbd7e4fd6	-0.062087856
151	0x3d81ae47	0.06332069
152	0xbee950b5	-0.45569387
153	0xbefa9dcb	-0.4894851
154	0x3e847e8e	0.25877804
155	0xbe3abb7a	-0.18235579
156	0xbedf5aac	-0.43623865
157	0xbe7c189f	-0.24618767
158	0xbdbeb751	-0.093123086
159	0xbedd4dda	-0.4322346
160	0xbea2c7d5	-0.31793085
161	0x3e50cf76	0.2039164
162	0x3d97d491	0.07413591
163	0x3eff08d3	0.4981142
164	0xbec926d1	-0.39287427
165	0x3eff255c	0.4983319
166	0xbe9ca185	-0.3059198
167	0x3e88c8d5	0.26715723
168	0x3ef0f85c	0.47064483
169	0x3eedcebc	0.46446788
170	0xbe08c74d	-0.13357277
171	0x3eaa8b6c	0.33309495
172	0xbec128b3	-0.37726364
173	0x3e4b7ae6	0.19871101
174	0x3e8cb2d4	0.27480185
175	0x3e505ea7	0.20348607
176	0xbd3145ee	-0.04327958
177	0x3e96fccc	0.29489744
178	0x3f6a28c2	0.9146844
179	0x3ea807aa	0.32818347
180	0x3cad3014	0.02114109
181	0x3d7b67b5	0.0613782
182	0x3d872be2	0.06600167
183	0xbee29c1d	-0.4425973
184	0x3e4bf22c	0.199166
185	0xbece06a4	-0.4023944
186	0xbec6b5b2	-0.38810498
187	0x3ec57176	0.38563126
188	0x3d1980d1	0.037476365
189	0x3e2f172e	0.17098686
190	0x3d4e1d93	0.050321173
191	0xbee0017f	-0.4375114
192	0x3f0d5cad	0.55219537
193	0xbe45f57d	-0.19331928
194	0xbe481ce2	-0.19542268
195	0xbeaa2bda	-0.3323658
196	0xbda1357a	-0.07871528
197	0xbe9bca5c	-0.30427825
198	0xbdc8616c	-0.09784207
199	0xbe918be9	-0.28427055
200	0x3ea8619a	0.32886964
201	0x3e68e087	0.227419
202	0x3d1173df	0.035510894
203	0x3e1b2fe3	0.15154986
204	0xbd8bf295	-0.06833378
205	0xbe977da7	-0.29588053
206	0xbe8cc98d	-0.2749752
207	0xba8542ae	-0.0010166967
208	0x3e329989	0.17441382
209	0xbe7252ef	-0.23664449
210	0xbf114c3d	-0.56756955
211	0xbddece27	-0.10879164
212	0x3ccd0638	0.02502738
213	0x3dd08a42	0.101826206
214	0x3f585b05	0.84513885
215	0x3dec41ba	0.11535974
216	0xbea391b7	-0.3194711
217	0x3e8c767a	0.2743414
218	0x3f0bdff9	0.5463863
219	0xbe1e0902	-0.15433124
220	0xbec08cfe	-0.37607569
221	0x3e5192f0	0.20466208
222	0xbed4f900	-0.41596222
223	0xbc0fb65d	-0.008771506
224	0x3d39e43f	0.045383688
225	0xbd038c08	-0.032115966
226	0x3d9abb30	0.075552344
227	0xbe7a6136	-0.24451146
228	0xbefb6f0a	-0.49108154
229	0x3c543486	0.012951976
230	0xbea23bf7	-0.31686375
231	0xbe887747	-0.266535
232	0x3ea69a9f	0.32539842
233	0xbeabea9f	-0.3357744
234	0x3e589520	0.21150637
235	0xbe05a1ba	-0.13049975
236	0xbe38c83f	-0.18045138
237	0xbe8ced8a	-0.27524978
238	0x3ea91322	0.3302241
239	0xbe74eb9d	-0.23918004
240	0x3d47b8d9	0.04876027
241	0x3ef11de6	0.47093123
242	0x3e480494	0.19532996
243	0x3e2dfd16	0.16991076
244	0x3cc6c5c0	0.024264216
245	0xbeb69dc4	-0.3566724
246	0xbec8cec4	-0.3922025
247	0xbd341bba	-0.043971755
248	0x3ef1a425	0.47195545
249	0xbe94aa79	-0.2903631
250	0xbd3e50eb	-0.04646389
251	0xbe95c27c	-0.29249942
252	0xbf019de3	-0.5063154
253	0xbea41291	-0.32045415
254	0x3e0626b6	0.13100705
255	0x3ef6596c	0.48115098

layer1.bias f4 [128]
0	0x3ef7bfd5	0.48388544
1	0x3e5d8342	0.21632102
2	0xbea2f747	-0.31829283
3	0x3ee7206b	0.4514192
4	0x3eb30cc7	0.34970686
5	0xbe1bb82c	-0.15206975
6	0xbed28696	-0.41118306
7	0x3e8c5d0e	0.27414745
8	0xbea94687	-0.3306162
9	0xbe85acf6	-0.2610852
10	0xbe1f6c7b	-0.15568726
11	0x3f135c08	0.57562304
12	0x3e8966f1	0.2683635
13	0x3f0657c1	0.5247765
14	0x3edab4f3	0.42716178
15	0xbea587ae	-0.32330078
16	0x3eb0e1ae	0.3454718
17	0xbddd7712	-0.108137265
18	0xbe2702a2	-0.16309598
19	0x3edba1c3	0.42896852
20	0x3ea260f9	0.3171461
21	0x3ee83079	0.45349482
22	0x3ef73b75	0.4828755
23	0xbee284c1	-0.44241908
24	0xbefa39aa	-0.4887212
25	0xbdfed39b	-0.12442704
26	0x3f1188df	0.56849474
27	0x3e63d836	0.22250447
28	0xbeb2ad3b	-0.3489779
29	0x3f021436	0.5081209
30	0xbe65e893	-0.22452001
31	0xbecb4bbc	-0.39706218
32	0x3efa4c08	0.48886132
33	0x3e173e12	0.14769772
34	0xbe9dff2a	-0.30858737
35	0xbef60038	-0.48047042
36	0xbe61cc33	-0.22050552
37	0x3edc9f13	0.43090114
38	0xbe5ba76f	-0.2145059
39	0xbd673660	-0.05644834
40	0xbed0c239	-0.4077318
41	0x3defa8e1	0.11702133
42	0x3e5bbacc	0.21457976
43	0x3f0e4504	0.5557406
44	0xbedaa98d	-0.42707482
45	0x3e953cdf	0.29148003
46	0x3e3d288e	0.18472502
47	0x3e59fd89	0.21288122
48	0xbe99fc5a	-0.3007534
49	0xbe13d1f5	-0.14435561
50	0x3ebcef64	0.3690139
51	0x3ebd7ef9	0.37010935
52	0x3f1f5a0f	0.62246794
53	0xbe5a8fc7	-0.21343909
54	0x3eaa2644	0.3323232
55	0x3f1b8dcb	0.60763234
56	0x3f10d04e	0.5656785
57	0xbed4ee1f	-0.41587922
58	0x3f2635a8	0.6492562
59	0x3f031de3	0.5121748
60	0x3e3f9351	0.1870854
61	0x3f0467dc	0.51720977
62	0x3eeee4e3	0.46659002
63	0x3d2d7b3f	0.042353865
64	0xbee7543b	-0.4518145
65	0xbee59013	-0.44836482
66	0x3e934c61	0.2876921
67	0x3e58d2a5	0.21174105
68	0x3ef23fe0	0.47314358
69	0xbe88bc89	-0.2670634
70	0x3db4ac42	0.08821918
71	0x3ebe0a0f	0.3711705
72	0x3e918fb9	0.28429964
73	0xbe46c461	-0.1941085
74	0x3e525b91	0.20542742
75	0x3f0db442	0.55353177
76	0xbe4d7087	-0.20062457
77	0xbe8cdbdd	-0.27511492
78	0x3ec77f60	0.38964367
79	0x3e4d4c3b	0.20048611
80	0xbec4e7c9	-0.38458088
81	0xbe485a3f	-0.19565676
82	0x3e97c488	0.2964213
83	0x3e8c7c20	0.2743845
84	0x3e3d31d6	0.18476042
85	0x3f043b92	0.516534
86	0xbf033b55	-0.5126241
87	0x3eb94fd7	0.36193725
88	0xbe7fb1c3	-0.24970154
89	0x3f05b9e0	0.5223675
90	0x3ed5191a	0.41620713
91	0xbf0ac5ce	-0.54208076
92	0x3ef4eea8	0.4783833
93	0x3f04cdc7	0.5187649
94	0xbea4d222	-0.3219157
95	0x3ef1fd59	0.472636
96	0x3ebdbee0	0.3705969
97	0xbed2c4d8	-0.41165805
98	0x3f1a3622	0.6023885
99	0xbe8c53a7	-0.27407572
100	0xbe992aa6	-0.2991535
101	0x3eac2fdd	0.33630267
102	0x3f00f4c5	0.5037349
103	0x3e126948	0.14297974
104	0x3f111098	0.56665945
105	0x3e98133d	0.29702178
106	0xbdb2bb76	-0.087271616
107	0x3cd30524	0.025759287
108	0x3e81bd38	0.25339675
109	0xbddbcfb5	-0.10732976
110	0xbeb75dfc	-0.35813892
111	0x3ee9962e	0.4562239
112	0x3e423089	0.18963827
113	0xbed7fa89	-0.4218333
114	0x3f0fb80d	0.56140214
115	0x3e76469d	0.24050374
116	0xbeb5fc72	-0.35544163
117	0xbecfba08	-0.40571618
118	0x3f14b4da	0.5808846
119	0x3f0ec639	0.55771214
120	0xbe85a1c7	-0.2609999
121	0x3dc63b40	0.0967927
122	0x3ee2f382	0.44326407
123	0xbe79796f	-0.2436273
124	0x3e47035e	0.19434878
125	0x3ecae678	0.3962896
126	0x3f14a552	0.5806476
127	0x3f22809a	0.6347748

layer2.weight f4 [128, 128]
0	0x3da7588e	0.08171187
1	0x3dafadcf	0.08578073
2	0xbdeb2841	-0.11482287
3	0x3d3ae47a	0.04562805
4	0x3d1cbbb4	0.038264945
5	0xbd8d4f00	-0.06899834
6	0xbe481518	-0.19539297
7	0x3daf1ea0	0.08550763
8	0xbdd04ade	-0.1017053
9	0xbc9580f6	-0.01824997
10	0xbd999f53	-0.07501092
11	0x3e75cf20	0.24004793
12	0x3d94b48b	0.07260998
13	0x3cceba7b	0.025235405
14	0x3da5e0e8	0.08099538
15	0x3d51bffa	0.051208474
16	0x3d8942cb	0.06702193
17	0xbda4d3c2	-0.08048202
18	0x3d61ec67	0.05515709
19	0x3bbe187d	0.005801259
20	0x3e288a0b	0.16458909
21	0x3d8c67bc	0.06855723
22	0x3d00737d	0.03136014
23	0xbd5b1659	-0.05348811
24	0xbdb69bec	-0.089164585
25	0xbc80fed2	-0.015746508
26	0x3d306869	0.043068323
27	0x3e146913	0.14493208
28	0x3d111983	0.03542472
29	0x3e33e08b	0.17566125
30	0x3c11f034	0.008907367
31	0xbed3af9c	-0.41344917
32	0x3e5b06c4	0.213893
33	0x3d77c4ac	0.060490295
34	0xbc3365e8	-0.010949589
35	0xbed9e304	-0.42556012
36	0x3c703d04	0.014662985
37	0x3e335cd2	0.17515877
38	0xbd4774e7	-0.04869547
39	0x3cbc3f7f	0.022979496
40	0x3d69537f	0.056964394
41	0x3e9d3c38	0.30710006
42	0x3d4c14f0	0.049824655
43	0x3e65a99e	0.22427985
44	0xbeca3826	-0.39495963
45	0x3d822b8f	0.063559644
46	0xbd4b778d	-0.04967456
47	0x3da45b8e	0.08025275
48	0xbdb61c18	-0.08892077
49	0xbd377196	-0.04478606
50	0xbc4296ed	-0.011876804
51	0x3d75ba08	0.059991866
52	0x3d7a7ff6	0.06115719
53	0xbefed09e	-0.49768537
54	0x3d4d67f9	0.050147984
55	0x3e1bb41b	0.15205424
56	0x3e2a0866	0.16604766
57	0xbd8b474d	-0.06800709
58	0x3da1fc71	0.079094775
59	0x3daca344	0.08429578
60	0x3da61596	0.08109586
61	0x3cc8df16	0.024520438
62	0x3d5192f5	0.05116554
63	0xbce5bcfa	-0.028044213
64	0xbe9480c4	-0.2900449
65	0xbe247a8d	-0.16062374
66	0x3e129659	0.14315166
67	0x3dc24012	0.09484877
68	0xbb756c29	-0.0037448502
69	0xbe6e12de	-0.23249385
70	0x3d5f89b4	0.054574683
71	0x3dbbbfc0	0.09167433
72	0xbab269ee	-0.0013611892
73	0x3d5716c7	0.052511957
74	0x3c2f0aa4	0.010683689
75	0x3dc47e57	0.0959441
76	0xbdcccc2e	-0.09999882
77	0xbe968884	-0.29401028
78	0x3dbb4b7a	0.091452554
79	0x3e030d9c	0.1279816
80	0x3c8a2990	0.016865522
81	0xbe543eac	-0.20727032
82	0x3dd3aa5d	0.103352286
83	0x3dd6d46e	0.104897365
84	0x3dbc6690	0.0919925
85	0x3d0ab10b	0.033860248
86	0xbe41c784	-0.18923765
87	0x3e0c51c9	0.13703074
88	0xbe44ae99	-0.19207229
89	0x3e0fa0be	0.14026162
90	0x3cf8dd82	0.03037906
91	0xbe667330	-0.22504878
92	0x3c8d5fed	0.017257655
93	0x3dfcd1c3	0.123446964
94	0xbdf5a91d	-0.119951464
95	0x3d19a261	0.037508372
96	0x3d40141f	0.04689419
97	0xbee1e1c6	-0.44117564
98	0x3bab098a	0.005219643
99	0xbdb6d93e	-0.089281544
100	0x3c75da7f	0.015005707
101	0x3d421b96	0.04738959
102	0x3dcfb3f4	0.10141745
103	0xbc96f581	-0.018427612
104	0x3c32c7cd	0.010911894
105	0x3e29a1d5	0.1656564
106	0xbb085558	-0.0020802822
107	0xbd50b8d2	-0.05095751
108	0x3bb6d8ef	0.0055800597
109	0xbc53fb59	-0.012938344
110	0xbdf3527d	-0.11880968
111	0x3e32a85a	0.17447034
112	0xbcf096ac	-0.029368721
113	0xbd11f718	-0.035636038
114	0x3e116cf1	0.14201714
115	0x3df87811	0.12132276
116	0xbdf985d6	-0.1218373
117	0xbdd01b07	-0.10161405
118	0x3e53bb5f	0.20676945
119	0x3dd52b12	0.10408606
120	0xbc86cdc3	-0.016455537
121	0xbc1c1aeb	-0.009527902
122	0x3d10577e	0.03523969
123	0x3d151df1	0.036405507
124	0x3dcb80e8	0.09936696
125	0x3dd9bfb7	0.1063227
126	0x3db2aa9f	0.0872395
127	0x3dda73cf	0.1066662
128	0x3d0f6582	0.035008915
129	0x3c221e15	0.009894867
130	0xbd55ee1c	-0.052229032
131	0x3d61bb60	0.055110335
132	0xbd0ae7f8	-0.03391263
133	0x3b8697c2	0.0041074464
134	0x3da911dd	0.0825536
135	0xbd58ba9e	-0.052912347
136	0xbd6219a2	-0.055200227
137	0x3d7de869	0.06198922
138	0x3d93a301	0.07208825
139	0x3a1fea38	0.000610027
140	0xbc9d5520	-0.01920563
141	0x3bc63611	0.0060489257
142	0xbcfd0927	-0.030888153
143	0x3cc2d77e	0.023784395
144	0x3cedb9cd	0.02901926
145	0x3c42327a	0.011852855
146	0xbe03aed9	-0.12859668
147	0x3d516a16	0.051126562
148	0xbdc74803	-0.09730532
149	0x3d49a099	0.049225423
150	0xbd6fb9a9	-0.05852667
151	0x3cd672e8	0.026177838
152	0xbd98f68f	-0.07468902
153	0x3d32fa79	0.0436959
154	0x3d221625	0.0395719
155	0xbdb98bfc	-0.09059903
156	0x3d929f76	0.07159321
157	0xbc7383ff	-0.014863013
158	0xbda971a8	-0.08273631
159	0x3ea7a2ec	0.32741487
160	0xbd8544b2	-0.06507243
161	0xbe4d7380	-0.20063591
162	0xbd5885c9	-0.052861962
163	0x3e2f9d7f	0.17149924
164	0xbd05c09e	-0.032654397
165	0xbd479767	-0.048728373
166	0x3e7752c5	0.24152668
167	0x3bea5f91	0.0071525057
168	0xbb907b28	-0.0044092126
169	0x3d41c4e2	0.047306903
170	0x3b08e248	0.0020886827
171	0xbda6c04b	-0.08142146
172	0x3d6dfbf8	0.058101624
173	0x3ccdc3dc	0.025117807
174	0x3c812b65	0.015767762
175	0x39d91d2b	0.00041411197
176	0x3db37120	0.08761811
177	0xbe056aa8	-0.13028967
178	0x3d1049bb	0.035226565
179	0x3d2c0b82	0.042003162
180	0x3c8c77ef	0.017147033
181	0x3df62274	0.1201829
182	0x3d3f4fa1	0.0467068
183	0xbd9fd7fb	-0.07804867
184	0x3c564bcd	0.013079596
185	0xbe16f1f1	-0.14740731
186	0xbc3c960a	-0.0115103815
187	0x3cd631b0	0.02614674
188	0x3de2168d	0.110394575
189	0x3d8afb21	0.0678618
190	0xbaa98f31	-0.0012936351
191	0xbd1afb2f	-0.037837204
192	0x3d5b3a2d	0.053522278
193	0xbd7f7b56	-0.06237348
194	0x3d73f1b6	0.059556685
195	0x3ce8922d	0.028390015
196	0x3cfdfdda	0.031004835
197	0x3d45a6ba	0.048254706
198	0x3bb847be	0.0056237867
199	0x3cddc73c	0.027072541
200	0xbd0b9cf2	-0.03408522
201	0xbd6e8256	-0.058229767
202	0xbda3417c	-0.079714745
203	0x3d3e38f7	0.046441045
204	0xbd868902	-0.06569101
205	0x3d4c044d	0.04980879
206	0xbcfb87cd	-0.030704403
207	0xbceb3496	-0.028711598
208	0x3d159514	0.036519125
209	0x3de3e36a	0.1112736
210	0x3d2a9604	0.041646972
211	0xbcaca0e3	-0.02107281
212	0xbd564587	-0.0523124
213	0xbda946da	-0.08265467
214	0x3ce07939	0.027401553
215	0x3d353dd5	0.04424842
216	0x3d9913be	0.07474469
217	0xbd914507	-0.07093244
218	0x3a6decc5	0.0009076114
219	0x3d8931a0	0.06698918
220	0x3cf5c967	0.030003263
221	0xbd5b2fb3	-0.053512286
222	0xbe29e11b	-0.16589777
223	0x3a715c27	0.0009207152
224	0xbd6d48e9	-0.05793086
225	0x3ea3a3f1	0.31961015
226	0x3d494e87	0.049147155
227	0xbac5cc37	-0.0015090768
228	0x3ad4b95f	0.0016229561
229	0xbd046c40	-0.032329798
230	0xbd98474e	-0.07435475
231	0x3cfb3525	0.03066499
232	0x3d7d87df	0.061897155
233	0xbd22664e	-0.039648347
234	0x3b759b67	0.003747666
235	0x3d46d6dd	0.048544753
236	0xbd58c2e1	-0.052920226
237	0x3b8df0e0	0.004331693
238	0x3d2092d5	0.03920253
239	0xbd2e7fb4	-0.042602256
240	0x3c914e6e	0.017737594
241	0xbc52045e	-0.012818424
242	0x3cb269c8	0.021778956
243	0x3d92f0a3	0.07174804
244	0xbd069e37	-0.03286573
245	0x3dbdd436	0.09268992
246	0xbcb2f2db	-0.021844318
247	0x3cbebfff	0.02328491
248	0x3cf6e91a	0.030140448
249	0xbda385f4	-0.07984534
250	0x3d612cd6	0.0549744
251	0x3d207041	0.039169554
252	0x3dc17b23	0.094473146
253	0xbbbac56d	-0.0056998045
254	0x3c390974	0.011293758
255	0xbdc84bac	-0.09780058

layer2.bias f4 [128]
0	0x3dbbcc37	0.0916981
1	0xbb3487b4	-0.0027546706
2	0xbd82111f	-0.06350922
3	0x3df95621	0.12174631
4	0x3e7063cb	0.23475568
5	0xbdb36d11	-0.08761037
6	0x3df07998	0.11741942
7	0x3e541612	0.20711544
8	0xbc772bbf	-0.0150861135
9	0xbd28347e	-0.041065685
10	0x3e236f89	0.15960516
11	0x3e38f59e	0.18062446
12	0x3cb3e69e	0.021960553
13	0xbdf7ac42	-0.120934024
14	0x3e5f1f6f	0.21789335
15	0xbbb47ac8	-0.0055078007
16	0xbcc1054e	-0.0235621
17	0x3d8f126b	0.06985935
18	0xbd603415	-0.05473717
19	0x3e5e3b75	0.21702369
20	0x3e62d692	0.22152165
21	0x3e36fed8	0.17870653
22	0x3de104ec	0.10987267
23	0x3d95684f	0.07295286
24	0x3d372c5f	0.04472005
25	0x3d835634	0.06412926
26	0x3e5327e3	0.20620684
27	0xbd0f4e89	-0.034987006
28	0x3e25fcf9	0.16209783
29	0xbd85b12d	-0.06527934
30	0x3d8d6349	0.06903703
31	0x3e2b6ea3	0.16741423
32	0x3e541de9	0.20714535
33	0x3e132b9f	0.14372109
34	0xbd80e3c7	-0.06293445
35	0xbd3df19e	-0.046373002
36	0x3c86dcd5	0.016462723
37	0x3e040bda	0.12895146
38	0xbd1b0e95	-0.037855703
39	0xbda1ce24	-0.07900646
40	0x3e7c5df9	0.24645223
41	0x3e306d7e	0.17229268
42	0x3e10cd87	0.14140902
43	0xbe029baf	-0.12754701
44	0x3e7ae498	0.24501264
45	0xbda51347	-0.080603175
46	0xbd1243b7	-0.03570911
47	0xbd8a04d1	-0.067392
48	0xbdeedfdc	-0.116637915
49	0x3db70d8c	0.08938131
50	0xbdbd7497	-0.092507534
51	0x3e136cd1	0.14396979
52	0xbd0faae6	-0.03507509
53	0x3dfff43e	0.124977574
54	0xbcbc3494	-0.02297429
55	0x3e170d3d	0.14751144
56	0x3dd95ac2	0.10613014
57	0x3e2bb395	0.16767724
58	0x3e1f5df6	0.15563187
59	0x3d926f68	0.07150155
60	0x3d227561	0.039662722
61	0x3e7fa1ea	0.24964109
62	0xbdbe7f59	-0.093016334
63	0x3dc90300	0.09815025
64	0x3e1ae769	0.15127338
65	0x3e006808	0.12539685
66	0xbd0571d0	-0.032579243
67	0xbd312eb2	-0.043257423
68	0x3e299b11	0.1656306
69	0x3d2b1f1e	0.041777723
70	0xbd10019f	-0.035157796
71	0x3db1dfba	0.086852506
72	0x3e2b4a42	0.16727546
73	0x3d7182f7	0.05896279
74	0x3e328b9b	0.17436068
75	0x3e78660e	0.24257681
76	0x3e56b331	0.20966794
77	0xbda468c5	-0.08027796
78	0x3d7c82aa	0.06164805
79	0x3e0267ed	0.12734957
80	0x3e4df0b3	0.2011135
81	0x3e524a5f	0.20536183
82	0xbdc7b8e7	-0.09752064
83	0x3d3ddba0	0.04635203
84	0xbdf31496	-0.11869161
85	0xbc3b1f14	-0.011420984
86	0xbd6cf09c	-0.05784665
87	0x3def71e6	0.11691646
88	0xbd24009f	-0.040039655
89	0x3dc5c406	0.09656529
90	0x3dfe4ba5	0.12416772
91	0x3ccb27d4	0.024799265
92	0x3e543a25	0.20725305
93	0x3d57eab7	0.052714076
94	0xbd9691ef	-0.073520534
95	0xbcffc9a1	-0.031224074
96	0x3e1263ac	0.14295834
97	0xbdbcd128	-0.09219581
98	0xb876a3c5	-5.8803493e-05
99	0x3e39cd0d	0.18144627
100	0x3cc371a0	0.023857892
101	0x3e5cd6a3	0.21566252
102	0xbbb10f67	-0.0054034474
103	0xbc2a6e52	-0.010402279
104	0x3c25280d	0.01008035
105	0x3d1fd68d	0.03902297
106	0x3c915137	0.017738922
107	0x3e40a08b	0.18811242
108	0x3e1cd84b	0.15316884
109	0xbba87946	-0.00514141
110	0x3e4f672f	0.20254205
111	0xbe0cfebe	-0.13769051
112	0x3e6f3fdf	0.23364209
113	0x3e42e5ff	0.19033049
114	0x3db245b2	0.087046996
115	0x3e362e6a	0.17791143
116	0x3e5edbb3	0.21763496
117	0x3e4aaf6d	0.19793482
118	0x3dde20f7	0.10846131
119	0xbd9acd9a	-0.07558747
120	0xbd8214ac	-0.06351599
121	0x3e30aaf5	0.17252715
122	0x3df1fe25	0.11816052
123	0x3e4e8595	0.20168145
124	0xbd10f43b	-0.035389166
125	0x3e697960	0.22800207
126	0x3e5bad94	0.21452934
127	0xbcf0c466	-0.029390525

layer3.weight f4 [2, 128]
0	0x3e7acdfc	0.2449264
1	0xbd359ab6	-0.044336997
2	0xbd38d597	-0.04512557
3	0x3e4cc55a	0.19997159
4	0x3e76c37b	0.24098007
5	0xbe3d9714	-0.18514663
6	0x3e4c05df	0.19924115
7	0x3e38622f	0.18006204
8	0xbd6e7f28	-0.058226734
9	0xbef89590	-0.48551607
10	0x3df9c283	0.12195303
11	0x3e5ea412	0.21742275
12	0xbe3d1874	-0.1846636
13	0xbe7fa921	-0.24966861
14	0x3e80f2b6	0.25185174
15	0xbd2ad077	-0.041702714
16	0xbdc473e1	-0.09592415
17	0xbd832cc0	-0.0640502
18	0xbedb1abb	-0.4279383
19	0x3e6f7044	0.2338267
20	0x3e484a99	0.19559707
21	0x3e6e330f	0.23261665
22	0x3e7d4262	0.24732354
23	0xbe8a2adb	-0.2698582
24	0x3e43a576	0.19106087
25	0x3e7cf8eb	0.2470433
26	0x3e536133	0.20642547
27	0xbf436b14	-0.76335263
28	0x3e16e1ff	0.14734648
29	0x3d9b447b	0.07581421
30	0xbd224313	-0.03961475
31	0x3e484637	0.19558035
32	0x3e5dc00f	0.21655296
33	0x3e37ba4e	0.17942163
34	0xbf6db82e	-0.9285916
35	0x3d5b4219	0.053529833
36	0xbc5108c5	-0.0127584385
37	0x3e6b499d	0.229773
38	0xbda28208	-0.07934958
39	0xbf51df6a	-0.8198153
40	0x3e503aba	0.20334902
41	0x3e8fde39	0.2809923
42	0x3e62d802	0.22152713
43	0xbeba7fa7	-0.36425516
44	0x3e2e538c	0.17024058
45	0x3d9659a3	0.073413156
46	0x3d69e746	0.057105325
47	0x3d922463	0.071358465
48	0xbf0136a9	-0.5047403
49	0x3e416db0	0.18889499
50	0xbe1c1959	-0.15244044
51	0x3e4903bc	0.19630331
52	0xbd1c2a5f	-0.038126346
53	0x3e3c6d2f	0.18401025
54	0xbd8d42c4	-0.068975
55	0x3e83c13b	0.2573336
56	0x3e650e4e	0.22368738
57	0x3e937646	0.28801173
58	0x3e2d5051	0.1692517
59	0xbec5055b	-0.38480648
60	0xbea33629	-0.31877258
61	0x3e36953a	0.17830363
62	0xbf5ca901	-0.8619538
63	0x3e2dc65c	0.169702
64	0x3e653b4d	0.22385903
65	0x3e7fbd63	0.24974589
66	0xbf12f0a6	-0.5739845
67	0xbc25a9e9	-0.0101113105
68	0x3dfa2765	0.12214545
69	0xbd6d6b46	-0.057963632
70	0xbec4e6db	-0.3845738
71	0x3e676176	0.22595772
72	0x3e1474f7	0.14497744
73	0x3d12d8b0	0.03585118
74	0x3e4e3eee	0.20141193
75	0x3e70b265	0.23505552
76	0x3e61aae0	0.2203784
77	0xbf3248b5	-0.6964219
78	0x3e8e8319	0.27834395
79	0x3e2cc3f2	0.16871622
80	0x3e7d5158	0.24738061
81	0x3e569654	0.20955783
82	0xbf2b4f52	-0.6691791
83	0xbdbe9f5f	-0.093077414
84	0xbf10226a	-0.5630251
85	0xbe4398d5	-0.1910127
86	0x3bf1cfc8	0.007379506
87	0x3e84c7d9	0.25933722
88	0xbc824577	-0.015902264
89	0x3e38fa96	0.18064341
90	0x3e20fa3f	0.15720461
91	0x3d8a98ba	0.067674115
92	0x3e903799	0.28167418
93	0xbbc63c5e	-0.006049677
94	0xbf4828af	-0.7818708
95	0xbccf2fa7	-0.025291277
96	0x3e3c0eaf	0.18364976
97	0xbf22c22e	-0.63577545
98	0xbc44e7af	-0.012018128
99	0x3e2a043a	0.16603175
100	0xbdb31fe4	-0.08746317
101	0x3e0754a9	0.13215889
102	0xbdacb664	-0.08433226
103	0xbef81223	-0.48451337
104	0x3ae167cc	0.0017197072
105	0xbdf69d6e	-0.12041746
106	0xbed13862	-0.4086333
107	0x3e80b51b	0.25138173
108	0x3e8501c1	0.259779
109	0xbcb31d55	-0.021864573
110	0x3e811506	0.25211352
111	0xbec49183	-0.38392267
112	0x3e7cc55c	0.24684662
113	0x3e0cc997	0.13748775
114	0x3e6ddc75	0.23228629
115	0x3e2b2d2d	0.16716452
116	0x3e400fba	0.18755999
117	0x3e4244e7	0.18971597
118	0x3e67e19d	0.22644658
119	0xbcdd7e37	-0.027037723
120	0xbe0dde16	-0.1385425
121	0x3e817f4e	0.25292438
122	0x3e6313c3	0.22175507
123	0x3e6948b5	0.22781642
124	0x3d9aeb30	0.0756439
125	0x3e5986db	0.2124285
126	0x3e3da565	0.18520124
127	0xbe1342fd	-0.14381023
128	0x3df75d27	0.12078314
129	0xbca54328	-0.020173624
130	0xbdcbb00a	-0.09945686
131	0x3e82deed	0.25560704
132	0x3e2667ca	0.1625053
133	0xbedcbf32	-0.4311462
134	0x3e6986a8	0.22805274
135	0x3e503baf	0.20335267
136	0x3cc4f522	0.02404267
137	0xbec962db	-0.39333233
138	0x3e74e967	0.23917161
139	0x3e8a971f	0.2706842
140	0xbd7bfed0	-0.061522305
141	0xbeeaa44c	-0.45828474
142	0x3e639c71	0.22227646
143	0xbd4c8065	-0.049927134
144	0xbe716088	-0.2357198
145	0xbd85f88b	-0.065415464
146	0xbda35999	-0.07976074
147	0x3e20c2a9	0.15699257
148	0x3e43b094	0.19110328
149	0x3e1db6c3	0.1540175
150	0x3e4327db	0.19058172
151	0xbe8a0736	-0.26958627
152	0xbcb3752a	-0.021906454
153	0x3e6b3adc	0.22971672
154	0x3e7cd67c	0.24691194
155	0xbf277cdd	-0.654249
156	0x3e8d7c97	0.27634117
157	0x3d9dbf80	0.07702541
158	0xbc4a0d6e	-0.012332303
159	0x3e5e9fc1	0.21740629
160	0x3e3fc2d5	0.18726666
161	0x3e7fb86d	0.24972697
162	0xbf8117da	-1.0085404
163	0xbd888133	-0.06665268
164	0xbd6262d6	-0.05527004
165	0x3e6816c9	0.22664942
166	0xbc96183b	-0.0183221
167	0xbf60ca19	-0.87808377
168	0x3e335f52	0.1751683
169	0x3e37a3b6	0.17933545
170	0x3e56308d	0.20916958
171	0xbecd3e0a	-0.40086395
172	0x3e6cce14	0.23125488
173	0xbcfcf532	-0.030878637
174	0x3d80b89f	0.06285214
175	0x3c306bd2	0.010767894
176	0xbf267b46	-0.6503185
177	0x3e77b7cf	0.24191211
178	0xbe30dce8	-0.17271769
179	0x3e4c3be2	0.19944718
180	0xbb79d04f	-0.0038118546
181	0x3e86b5f7	0.26310703
182	0x3ba186c2	0.0049293945
183	0x3e01613b	0.12634747
184	0x3def9a44	0.11699346
185	0x3e5f207f	0.2178974
186	0x3e8cc562	0.2749434
187	0x3cb904ff	0.02258539
188	0xbd91153f	-0.070841305
189	0x3e639181	0.22223474
190	0xbf61ffbd	-0.8828085
191	0x3e5b0a4e	0.2139065
192	0x3e8041d3	0.2505022
193	0x3e125eb2	0.14293936
194	0xbef66bf9	-0.48129252
195	0xbd004bea	-0.031322397
196	0x3e8bb5d2	0.27287155
197	0xbdc74596	-0.09730069
198	0xbea56462	-0.32303149
199	0x3e6e167c	0.23250765
200	0x3e7429d0	0.23844075
201	0xbe14326a	-0.14472356
202	0x3e917e64	0.2841674
203	0x3e549a77	0.20762049
204	0x3e74801c	0.23876995
205	0xbf60a137	-0.87745994
206	0x3e090ea3	0.1338449
207	0x3d53cf31	0.051711265
208	0x3e8c93cb	0.27456507
209	0x3e48d338	0.19611824
210	0xbf0239a9	-0.5086923
211	0x3d2b89fe	0.041879646
212	0xbee6433c	-0.4497317
213	0xbd09fd1d	-0.033688653
214	0x3d0a8b8b	0.033824485
215	0x3e242ee6	0.16033515
216	0xbe883152	-0.26600128
217	0x3e82ac7e	0.25522226
218	0x3e7fbc6c	0.24974221
219	0x3c8a5d60	0.016890228
220	0x3e0d32db	0.13788931
221	0xbcb2b04d	-0.021812582
222	0xbf554e07	-0.83322185
223	0x3c6df648	0.01452405
224	0x3e62283c	0.2208566
225	0xbf22d18c	-0.63600993
226	0xbd2a2452	-0.041538544
227	0x3e88d3e7	0.2672417
228	0xbe25fea2	-0.16210416
229	0x3e7037b5	0.2345875
230	0xbdfa8b88	-0.12233645
231	0xbf0af758	-0.54283667
232	0x3d5dff24	0.0541984
233	0xbe1b2993	-0.15152578
234	0xbda76478	-0.0817346
235	0x3e32f905	0.17477806
236	0x3e969ab3	0.294149
237	0xbd036f0f	-0.032088336
238	0x3e0d5456	0.13801703
239	0xbe31fbed	-0.17381258
240	0x3e7420d4	0.23840648
241	0x3e82bc85	0.25534454
242	0x3d95749a	0.072976306
243	0x3e5b5e23	0.21422629
244	0x3e3d6603	0.18495946
245	0x3e7e8423	0.24855094
246	0x3dbe210c	0.09283647
247	0xbd9f3164	-0.077730924
248	0x3d4f086e	0.05054515
249	0x3e518608	0.20461285
250	0x3e7ad586	0.24495515
251	0x3df0112a	0.11722024
252	0xbd44534c	-0.047931
253	0x3e30ca75	0.17264731
254	0x3e83dfc8	0.2575667
255	0xbe99e2a4	-0.30055726

layer3.bias f4 [2]
0	0x3a91fb27	0.0011137471
1	0x3de98e5e	0.114041075
