model_weights/DQN/cartpole/cartpole_dqn_episode_899.pth (torch, 72498 bytes, 6 tensors)

layer1.weight f4 [128, 4]
0	0x3e18e890	0.14932466
1	0xbe908610	-0.28227282
2	0x3e095bd4	0.13413936
3	0xbe98007c	-0.2968787
4	0xbe1859bf	-0.14877985
5	0x3e52e281	0.20594217
6	0x3ebbd9a8	0.36689496
7	0xbce39cdb	-0.027784755
8	0x3e8ec5b3	0.27885208
9	0xbebac508	-0.36478448
10	0x3f3fb162	0.7488004
11	0x3eaced3b	0.33774742
12	0xbe497e7e	-0.19677159
13	0xbe957133	-0.29187927
14	0x3d84bc3c	0.06481215
15	0xbe42f9d8	-0.1904062
16	0xbc7bff68	-0.015380718
17	0xbed56336	-0.41677254
18	0xbeb9c6d3	-0.36284503
19	0xbe80654a	-0.25077277
20	0xbe8a8848	-0.270571
21	0x3db8e81a	0.09028645
22	0xbf30b3cf	-0.69024366
23	0xbe0a8c5c	-0.13530105
24	0x3f1b8e35	0.60763866
25	0xbe1403ca	-0.1445457
26	0xbee18cf4	-0.4405285
27	0xbe69891b	-0.22806208
28	0xbe7ab5a1	-0.24483348
29	0xbdd9acdd	-0.10628674
30	0xbd88ce6b	-0.06679996
31	0x3cb38869	0.021915631
32	0xbe8e1b19	-0.2775505
33	0xbe786a33	-0.24259262
34	0x3e301716	0.17196307
35	0x3e6f90fa	0.23395148
36	0x3e742978	0.23843944
37	0x3ea606ab	0.32426962
38	0x3d461ba0	0.04836619
39	0x3f06ee36	0.5270723
40	0x3e86861e	0.26274198
41	0xbe9d32ef	-0.30702922
42	0xbeec898a	-0.46198684
43	0xbe93e024	-0.28881943
44	0xbe2dabbf	-0.16960047
45	0xbe1caa51	-0.15299346
46	0x3e3d0e16	0.18462405
47	0xbdea1b6d	-0.11431012
48	0x3ef7397f	0.48286054
49	0xbddb4734	-0.1070694
50	0x3de990d1	0.11404575
51	0x3c6ae530	0.014336869
52	0x3e752c7a	0.23942748
53	0x3ddc9ff0	0.10772693
54	0x3de1d0a4	0.11026123
55	0xbe15f223	-0.14643149
56	0xbd75ae6a	-0.059980787
57	0x3eddd8d3	0.43329486
58	0x3e466e85	0.19378097
59	0x3eaad7cf	0.33367774
60	0xbed3c9ee	-0.41364998
61	0xbe98bbf0	-0.29830885
62	0xbea92b4a	-0.3304084
63	0x3e68d796	0.2273849
64	0xbeb24e4c	-0.3482536
65	0x3d1e9945	0.038720388
66	0x3ddbb015	0.10726944
67	0xbc1f32b6	-0.00971668
68	0xbeb1b019	-0.34704664
69	0x3de706e4	0.11280611
70	0xbef80714	-0.484429
71	0xbea3d43f	-0.31997868
72	0xbec44cda	-0.38339883
73	0xbd83da14	-0.064380795
74	0x3efb827f	0.49122998
75	0xbd416e88	-0.04722455
76	0xbc37b3b4	-0.011212278
77	0x3e80128d	0.25014153
78	0x3ef52187	0.47877142
79	0x3bed90b7	0.0072499174
80	0x3e6dfcbb	0.2324094
81	0xbebe2b0d	-0.3714222
82	0xbdff921d	-0.12479041
83	0xbe8e1896	-0.27753133
84	0xbca40622	-0.020022456
85	0x3ead0d8f	0.33799407
86	0x3c939b0f	0.018018274
87	0xbe358616	-0.17726931
88	0x3eb919d1	0.3615251
89	0x3e405527	0.18782483
90	0xbe4de855	-0.20108159
91	0xbd117f62	-0.035521872
92	0x3ed825a9	0.42216232
93	0x3e25e50c	0.16200656
94	0x3d2d2b59	0.042277668
95	0xbe5bcd0b	-0.21464936
96	0x3e4203d3	0.18946771
97	0x3ef1c2fb	0.4721907
98	0x3de861d9	0.11346788
99	0x3e26b712	0.16280773
100	0xbd90310e	-0.070406064
101	0xbdea68e5	-0.11445788
102	0x3f21177a	0.6292645
103	0x3ec256b6	0.3795678
104	0x3ee5ee48	0.44908357
105	0xbde1801f	-0.11010765
106	0xbe88b8d3	-0.2670351
107	0x3dc643bc	0.09680888
108	0x3df8712c	0.12130961
109	0x3d0fb809	0.03508762
110	0xbede18b8	-0.43378234
111	0x3ceed56d	0.029154504
112	0xbedc2c1d	-0.43002406
113	0xbe861b20	-0.2619257
114	0x3efaf7fc	0.49017322
115	0x3e848651	0.25883725
116	0xbeba7661	-0.3641844
117	0x3dc62fe3	0.096771024
118	0xbeeb01af	-0.45899722
119	0x3e167e5e	0.14696643
120	0xbe91d6e8	-0.28484273
121	0xbdfefef2	-0.12450971
122	0x3f280c2b	0.65643567
123	0x3ec3bfdd	0.38232318
124	0x3ebf275d	0.3733472
125	0x3cf9e23e	0.030503388
126	0xbe8af86b	-0.27142653
127	0x3d742bbf	0.059612032
128	0xbec66568	-0.38749242
129	0x3e1028bf	0.14078043
130	0x3e279b19	0.16367759
131	0x3da101df	0.07861685
132	0xbe9fe1a4	-0.31226838
133	0x3d97305c	0.07382271
134	0x3ee2e938	0.44318557
135	0x3d298980	0.041390896
136	0xbda02aae	-0.078206405
137	0xbeb83672	-0.35979038
138	0xbe72307c	-0.23651308
139	0x3d883e66	0.066525266
140	0x3e2caaac	0.16861981
141	0x3e7e38b0	0.24826312
142	0x3e82308e	0.2542767
143	0xbd936478	-0.07196897
144	0xbd560658	-0.052252144
145	0xbe25b711	-0.16183116
146	0xbc3701bf	-0.01116985
147	0x3e20636a	0.15662923
148	0xbeaf3162	-0.34217364
149	0xbe239159	-0.15973414
150	0xbc0f254a	-0.008736918
151	0x3dbdce75	0.09267894
152	0xbee2d879	-0.4430578
153	0xbef39546	-0.47574824
154	0x3e809d28	0.251199
155	0xbe35927e	-0.17731664
156	0xbed9902d	-0.4249281
157	0xbe73029f	-0.23731469
158	0xbdb1fbb7	-0.08690589
159	0xbed7dbd1	-0.42159894
160	0xbe9dfa50	-0.30855036
161	0x3e4cf669	0.20015873
162	0x3d92a237	0.07159846
163	0x3ef6c117	0.4819419
164	0xbed2d242	-0.4117604
165	0x3eeba7b2	0.4602638
166	0xbea608e6	-0.32428664
167	0x3e812f94	0.25231612
168	0x3ef1dc1e	0.4723825
169	0x3efb6ea6	0.49107856
170	0xbdc5798a	-0.09642322
171	0x3ea33922	0.31879526
172	0xbed0bac2	-0.40767485
173	0x3e254995	0.1614135
174	0x3e66c073	0.22534351
175	0x3e25c294	0.16187507
176	0xbcdb0c9e	-0.026739415
177	0x3e9dac0a	0.30795318
178	0x3f75aac2	0.9596368
179	0x3e8bc107	0.27295706
180	0x3ccec75a	0.025241543
181	0x3d87c202	0.06628801
182	0x3d0905b5	0.03345271
183	0xbee5de73	-0.44896278
184	0x3e4baf6f	0.19891141
185	0xbec11e1a	-0.37718278
186	0xbe949c78	-0.29025626
187	0x3ed024bc	0.40653026
188	0x3d35225c	0.04422222
189	0x3e3630d8	0.1779207
190	0x3cda98c1	0.026684167
191	0xbee20e23	-0.4415141
192	0x3f103ceb	0.56342953
193	0xbe1289d1	-0.14310385
194	0xbdeb909d	-0.11502192
195	0xbe873388	-0.26406503
196	0xbd9c9d82	-0.0764723
197	0xbe977a56	-0.29585522
198	0xbdc2c631	-0.09510458
199	0xbe8d6a9a	-0.27620393
200	0x3ea64eb5	0.32481924
201	0x3e6dc7f9	0.23220815
202	0x3cc5b8b8	0.024135932
203	0x3e0c4499	0.13698043
204	0xbdf4ddff	-0.11956405
205	0xbe840209	-0.25782803
206	0xbe66f169	-0.22553028
207	0x3c902173	0.017594075
208	0x3e32f908	0.1747781
209	0xbe66ba7b	-0.22532074
210	0xbf16d6cd	-0.5892151
211	0xbdec4ebf	-0.11538457
212	0x3d385d0a	0.045010604
213	0x3e020c6b	0.1270005
214	0x3f687af8	0.90812635
215	0x3df8dcd1	0.121514924
216	0xbe8cd955	-0.2750956
217	0x3e920a51	0.28523496
218	0x3f02b234	0.51053166
219	0xbe3072f8	-0.17231357
220	0xbed5e5b0	-0.417768
221	0x3e170efd	0.14751811
222	0xbef264c4	-0.47342503
223	0xbc0b39a0	-0.008497626
224	0x3d4974df	0.049183723
225	0xbcce8253	-0.025208628
226	0x3d2d9933	0.04238243
227	0xbe7c59b4	-0.24643594
228	0xbef45bfa	-0.47726423
229	0x3c4e2ae4	0.012583468
230	0xbe9d8c23	-0.30770978
231	0xbe8495a8	-0.2589543
232	0x3ea470d1	0.32117322
233	0xbea381f2	-0.31935078
234	0x3e38876b	0.18020408
235	0xbe0dda92	-0.13852909
236	0xbdf4f5e7	-0.11960965
237	0xbe60a118	-0.21936452
238	0x3eb6cb23	0.35701856
239	0xbe423524	-0.18965584
240	0x3d5a50bd	0.053299654
241	0x3ef3b66d	0.47600117
242	0x3e4981b7	0.19678389
243	0x3e1a7281	0.15082742
244	0xbc5bfb99	-0.013426685
245	0xbec32903	-0.38117227
246	0xbec3999a	-0.38203126
247	0xbd9116a0	-0.070843935
248	0x3eeebd39	0.4662874
249	0xbe8b52bf	-0.27211568
250	0xbd934452	-0.071907654
251	0xbe97f8ff	-0.29682156
252	0xbf02cc71	-0.510932
253	0xbea4b427	-0.32168695
254	0x3d33c464	0.043888465
255	0x3ed2dc0c	0.41183507

layer1.bias f4 [128]
0	0x3ef5558d	0.47916833
1	0x3e668b60	0.22514105
2	0xbead9101	-0.33899692
3	0x3ef2d9a2	0.47431666
4	0x3eb9ba0f	0.36274764
5	0xbe176826	-0.14785823
6	0xbea448b3	-0.32086715
7	0x3e9998c7	0.29999372
8	0xbeac3bec	-0.33639467
9	0xbe67e065	-0.22644193
10	0xbe46a02e	-0.19397041
11	0x3f18c103	0.5966951
12	0x3e9637b7	0.29339382
13	0x3f0792ac	0.5295818
14	0x3ee01219	0.43763807
15	0xbeac6888	-0.336735
16	0x3e9c1c11	0.30490163
17	0xbe1112c2	-0.14167312
18	0xbe224435	-0.15846331
19	0x3edf6792	0.43633705
20	0x3e875581	0.26432422
21	0x3eec1af9	0.46114329
22	0x3efd883f	0.4951801
23	0xbecf5c04	-0.4049989
24	0xbee6cacd	-0.450766
25	0xbde41c8d	-0.11138258
26	0x3f13036d	0.574271
27	0x3e6dd4dd	0.23225732
28	0xbeb1006e	-0.3457064
29	0x3ee21085	0.44153228
30	0xbe6a0693	-0.2285407
31	0xbe92ebee	-0.28695625
32	0x3edc7acb	0.43062434
33	0x3e35df8d	0.17761059
34	0xbea057a6	-0.3131687
35	0xbee4aecc	-0.4466461
36	0xbe822f86	-0.25426883
37	0x3edb0daf	0.42783877
38	0xbe558bef	-0.20854162
39	0xbd4791fa	-0.0487232
40	0xbecc30f3	-0.39881095
41	0x3daed3a0	0.08536458
42	0x3e7ccf0a	0.24688354
43	0x3f00cfe6	0.5031723
44	0xbebc6de0	-0.36802578
45	0x3e974801	0.29547122
46	0x3e5898b0	0.21151996
47	0x3e6bd44c	0.23030204
48	0xbe523944	-0.20529658
49	0xbe0f81ef	-0.1401441
50	0x3ec3515a	0.38148004
51	0x3ecce86f	0.40021083
52	0x3f1d8c3d	0.6154211
53	0xbe144939	-0.14481057
54	0x3eb3ddb9	0.35130098
55	0x3f0b4804	0.5440676
56	0x3f0fea66	0.5621704
57	0xbecee47d	-0.40408698
58	0x3f258ccd	0.6466797
59	0x3f0f8174	0.56056905
60	0x3e56b5be	0.20967767
61	0x3f0410d8	0.515882
62	0x3ef1d6a3	0.47234067
63	0x3b87f1d3	0.0041487007
64	0xbed0a301	-0.40749362
65	0xbee8ae79	-0.45445612
66	0x3e98d043	0.2984639
67	0x3e6815f8	0.2266463
68	0x3ef85d0d	0.48508492
69	0xbe595a4c	-0.21225852
70	0x3dc94619	0.09827823
71	0x3ec52e69	0.3851197
72	0x3e9647da	0.29351693
73	0xbe4c5bba	-0.19956866
74	0x3e846fb0	0.2586646
75	0x3f0c26c7	0.5474667
76	0xbe1228d6	-0.1427339
77	0xbe7d9969	-0.24765553
78	0x3eceb063	0.40368947
79	0x3e216481	0.15760995
80	0xbec1fa60	-0.37886333
81	0xbe394859	-0.18094005
82	0x3e961f1d	0.29320613
83	0x3e941fad	0.28930417
84	0x3e6e9f19	0.23302878
85	0x3f04f1d3	0.51931494
86	0xbef6ef1d	-0.48229304
87	0x3ebb14fa	0.3653944
88	0xbe785e8a	-0.24254814
89	0x3f06595a	0.5248009
90	0x3ede9473	0.43472633
91	0xbeeb0248	-0.45900178
92	0x3ef92366	0.4865982
93	0x3f062ad4	0.524091
94	0xbea013b5	-0.31265035
95	0x3ef37b57	0.47555038
96	0x3ec67f8e	0.38769192
97	0xbeba352e	-0.36368698
98	0x3f1a7b4a	0.60344374
99	0xbe55a071	-0.20861985
100	0xbe9605f4	-0.29301417
101	0x3eb45f09	0.35228756
102	0x3efabe16	0.4897315
103	0x3df870b6	0.12130873
104	0x3f127293	0.57206076
105	0x3eaab32c	0.33339822
106	0xbdad8ea2	-0.08474471
107	0xbcc42790	-0.023944646
108	0x3e8ece31	0.27891687
109	0xbdbef355	-0.09323756
110	0xbe9cd837	-0.3063371
111	0x3ed2e547	0.4119055
112	0x3e6e7915	0.23288377
113	0xbed743d5	-0.4204394
114	0x3f11e727	0.56993335
115	0x3e85da06	0.261429
116	0xbeb0cf9e	-0.345334
117	0xbec06524	-0.37577164
118	0x3f192048	0.5981488
119	0x3f0eb3f9	0.55743366
120	0xbe6ae761	-0.22939827
121	0x3e05229a	0.1300148
122	0x3edf35fa	0.43595868
123	0xbe79010f	-0.2431681
124	0x3e5e63e0	0.21717787
125	0x3ed3d883	0.41376123
126	0x3f1d696f	0.61489004
127	0x3f1a8997	0.60366195

layer2.weight f4 [128, 128]
0	0x3dc28e1c	0.094997615
1	0x3dc77e36	0.0974087
2	0xbdc3d5fd	-0.095622994
3	0x3dbd99e9	0.09257872
4	0x3d4f07da	0.050544597
5	0xbd896d61	-0.067103155
6	0xbddd0c06	-0.10793309
7	0x3e03a0fe	0.12854382
8	0xbdbf152e	-0.093302116
9	0xbc9bd11b	-0.019020608
10	0xbe59ee3d	-0.21282287
11	0x3e92a0eb	0.28638396
12	0x3da3a011	0.079895146
13	0x3d1bebb1	0.03806657
14	0x3dbeb4e8	0.09311849
15	0x3d5b8bad	0.053600002
16	0x3dc8bcce	0.09801637
17	0xbd7fe891	-0.062477652
18	0x3d5b745e	0.053577773
19	0x3c9c4c76	0.019079428
20	0x3e320cfa	0.17387763
21	0x3da7304d	0.081635095
22	0x3d321b51	0.043483082
23	0xbd145de3	-0.03622235
24	0xbd9f8f15	-0.077909626
25	0x3b00cb4d	0.0019652427
26	0x3d665b43	0.056239378
27	0x3e22d6f8	0.15902317
28	0x3d1d806c	0.03845255
29	0x3e3bd0a5	0.1834131
30	0x3d552548	0.052037507
31	0xbea2af57	-0.317744
32	0x3e5a6636	0.21328053
33	0x3e021148	0.12701905
34	0xbc1097a4	-0.008825216
35	0xbec8b62c	-0.39201486
36	0x3ce58c9d	0.028021151
37	0x3e5e2b23	0.21696143
38	0xbd41d97b	-0.047326546
39	0x3c9e6500	0.01933527
40	0x3d665c33	0.05624027
41	0x3e9aac2f	0.3020949
42	0x3d702dc5	0.0586374
43	0x3e623792	0.22091511
44	0xbebb54ad	-0.3658804
45	0x3d9e90a7	0.07742434
46	0xbc8cd22e	-0.017190065
47	0x3dbc2fe0	0.09188819
48	0xbd19bcc1	-0.037533525
49	0xbd3244c2	-0.043522604
50	0x39340c5d	0.00017170743
51	0x3dcc2dc1	0.09969664
52	0x3da7d96b	0.08195766
53	0xbf076780	-0.52892303
54	0x3d7875ea	0.060659327
55	0x3e1c7a8e	0.15281126
56	0x3e36e23a	0.17859736
57	0xbd8765ae	-0.06611191
58	0x3dbe0656	0.09278552
59	0x3e0b8f62	0.13628915
60	0x3db91331	0.090368636
61	0x3d9905fb	0.07471844
62	0x3d809449	0.06278283
63	0xba7d051e	-0.00096519466
64	0xbe8997e2	-0.2687369
65	0xbe1b4028	-0.15161192
66	0x3e1d6d97	0.15373836
67	0x3dd32151	0.10309089
68	0x3c02a061	0.007972808
69	0xbe515ed2	-0.20446327
70	0x3de48e11	0.111599095
71	0x3dd0d1a2	0.10196234
72	0x3c38e52e	0.011285109
73	0x3d88e0c0	0.06683493
74	0x3d67cf97	0.056594457
75	0x3de39bee	0.111137256
76	0xbc690dc3	-0.014224472
77	0xbe6b1ef4	-0.22961026
78	0x3dcbfdd3	0.099605225
79	0x3e083630	0.13301921
80	0x3c9e1e65	0.019301603
81	0xbe49a146	-0.19690427
82	0x3e14a974	0.14517766
83	0x3deeca80	0.116597176
84	0x3e02b311	0.12763621
85	0x3d4b56c6	0.0496433
86	0xbe2d5def	-0.16930364
87	0x3e1e8d23	0.15483527
88	0xbe3f135e	-0.18659732
89	0x3e37f0e7	0.1796299
90	0x3da2a9e0	0.07942557
91	0xbe39ef64	-0.18157727
92	0x3cf8f3c7	0.03038968
93	0x3e0aa9cc	0.13541335
94	0xbdeec2ad	-0.11658225
95	0x3d4f76d8	0.050650448
96	0x3d6b30d9	0.05741963
97	0xbed95e38	-0.42454696
98	0x3ca65d8a	0.020308275
99	0xbda6b35f	-0.08139681
100	0x3cfd0674	0.030886866
101	0x3d66443a	0.05621741
102	0x3df8a2d3	0.12140431
103	0xbd895aa2	-0.0670674
104	0x3ccfcf9c	0.02536755
105	0x3e5d5c36	0.21617207
106	0xbb0473b9	-0.0020210578
107	0xbe89215c	-0.26783264
108	0x3c90737e	0.017633196
109	0x39d95055	0.00041449317
110	0xbdd8cd76	-0.105860636
111	0x3e2fc911	0.17166544
112	0xbc9102dc	-0.017701559
113	0xbcf36c36	-0.029714685
114	0x3e30028f	0.17188476
115	0x3e070637	0.13185965
116	0xbdf28f8d	-0.118437864
117	0xbdcf9b64	-0.1013706
118	0x3e61e411	0.22059657
119	0x3df1a727	0.1179946
120	0xbbd87e17	-0.006606828
121	0x3c16aa26	0.00919584
122	0x3d566467	0.052341845
123	0x3d00624d	0.031343747
124	0x3ddcc7a2	0.107802644
125	0x3deb5b88	0.114920676
126	0x3e115fe1	0.14196731
127	0x3e12b4f1	0.14326836
128	0x3d1acaff	0.03779125
129	0x3c95a153	0.018265402
130	0xbd5669d7	-0.05234703
131	0x3d59fc63	0.05321921
132	0xbd070683	-0.032965194
133	0x3b82b623	0.0039889975
134	0x3b58501d	0.0033006736
135	0xbd5565ca	-0.052099027
136	0xbd5ba199	-0.05362091
137	0x3d66fb52	0.05639202
138	0x3dd928f2	0.10603513
139	0xbbd89a53	-0.0066101938
140	0xbc8f0e84	-0.017462976
141	0x3bd7da45	0.006587299
142	0xbce06bb8	-0.027395114
143	0x3cbd3c43	0.023100024
144	0x3cc43ac9	0.023953812
145	0x3c2b8b0f	0.010470166
146	0xbdffa019	-0.12481708
147	0x3d5f2ea5	0.054487843
148	0xbdbe2ab4	-0.09285489
149	0x3d40714c	0.04698305
150	0xbd707222	-0.058702596
151	0x3c0dd119	0.00865581
152	0xbda9de64	-0.08294371
153	0x3d2d515e	0.042313926
154	0x3d20d71c	0.039267644
155	0xbdbfb821	-0.09361292
156	0x3d8e6299	0.069524
157	0xbc1095df	-0.008824795
158	0xbda4b33b	-0.08041998
159	0x3e728af6	0.23685822
160	0xbd5340ed	-0.05157559
161	0xbeae82ff	-0.34084317
162	0xbd527c27	-0.051387932
163	0x3e14b982	0.1452389
164	0xbd01deff	-0.031706806
165	0xbd46056b	-0.04834501
166	0x3e706c55	0.23478825
167	0x3be3d825	0.0069532567
168	0xbb8c7520	-0.0042864233
169	0x3d6a1108	0.05714515
170	0xba20850b	-0.00061233406
171	0xbd863bff	-0.06554412
172	0x3d2a1b39	0.041529868
173	0x3cb8fc6c	0.022581302
174	0x3c95faa1	0.018307986
175	0xbb81fd17	-0.0039669382
176	0x3d1f3d0a	0.03887657
177	0xbe018909	-0.12649931
178	0x3d0a6007	0.033782985
179	0x3d25ad8f	0.04044872
180	0x3c8b1a37	0.016980274
181	0x3e16361e	0.14669082
182	0x3d5fdca2	0.05465377
183	0xbd8d69aa	-0.069049194
184	0x3c6d717d	0.01449239
185	0xbe12a1eb	-0.1431958
186	0xbbeca9ec	-0.0072224047
187	0x3cc23b0e	0.0237098
188	0x3dd9c2c4	0.10632852
189	0x3d82cfef	0.063873164
190	0xba4f780b	-0.0007914311
191	0xbd16ab29	-0.036784325
192	0x3d2f4d7c	0.042798504
193	0xbd782b51	-0.060588185
194	0x3d8fe544	0.07026151
195	0x3d0f3bdf	0.034969207
196	0x3cee39b8	0.029080257
197	0x3cd73e4a	0.026274819
198	0x3bb30905	0.0054637217
199	0x3ced7f6d	0.028991425
200	0xbd01434e	-0.031558327
201	0xbd67b8be	-0.05657267
202	0xbda00e9c	-0.078152865
203	0x3d506cc3	0.050884973
204	0xbda789a4	-0.0818055
205	0x3c083590	0.008313552
206	0xbce1aa0b	-0.027546903
207	0xbc945217	-0.01810555
208	0x3d11450e	0.035466246
209	0x3def7f69	0.116942234
210	0x3d25d1c1	0.04048324
211	0xbcb89a57	-0.022534532
212	0xbd25a8c4	-0.04044415
213	0xbda3acfb	-0.07991978
214	0x3c339bf1	0.010962472
215	0x3d55d392	0.052203722
216	0x3d94c3b8	0.07263893
217	0xbd8db304	-0.0691891
218	0xbac509f8	-0.0015032878
219	0x3d0a13ff	0.033710476
220	0x3d0b7a92	0.03405244
221	0xbd4229ac	-0.047403023
222	0xbe2522ae	-0.1612651
223	0x3c0d808d	0.008636606
224	0xbd6c2fd1	-0.05766279
225	0x3e9cd82d	0.3063368
226	0x3d50fee3	0.05102433
227	0xbc057191	-0.008144752
228	0x3aceafbd	0.0015768927
229	0xbced85ee	-0.028994527
230	0xbd924663	-0.071423315
231	0x3cf42b40	0.02980578
232	0x3d811268	0.06302339
233	0xbd240797	-0.0400463
234	0x3b6eb4f7	0.0036423781
235	0x3e0248e4	0.12723118
236	0xbd53fea1	-0.051756505
237	0x3b404702	0.00293392
238	0x3cec9fdb	0.028884819
239	0xbcc4890d	-0.023991132
240	0x3c879883	0.016552215
241	0xbc4bfabc	-0.012449916
242	0x3cc3d0e0	0.02390331
243	0x3d83ddb6	0.064387724
244	0xbd02bc98	-0.03191814
245	0x3db79ddc	0.08965656
246	0xbc8f499f	-0.01749116
247	0x3ce24598	0.027621076
248	0x3c9eb69d	0.019374186
249	0xbdb01201	-0.08597184
250	0x3d597503	0.053090107
251	0x3d2d14ab	0.04225604
252	0x3dbd6623	0.09247997
253	0xbbf841ff	-0.0075762267
254	0x3b3366bb	0.0027374465
255	0xbdcd67cb	-0.100295626

layer2.bias f4 [128]
0	0x3ddc80e9	0.10766775
1	0xba09eea4	-0.00052616955
2	0xbd821449	-0.06351525
3	0x3e079a41	0.13242437
4	0x3e7c7770	0.24654937
5	0xbd7ceb60	-0.06174791
6	0x3e075298	0.13215101
7	0x3e611c85	0.21983536
8	0xbc70454f	-0.014664962
9	0xbbfd29c6	-0.007725927
10	0x3e324a23	0.17411093
11	0x3e410053	0.1884778
12	0x3cd65dfe	0.026167866
13	0xbdc267e1	-0.094924696
14	0x3e68b34a	0.22724643
15	0xbbaf4df4	-0.005349869
16	0xbbbf9053	-0.005846062
17	0x3d8b3076	0.067963526
18	0xbcf70606	-0.03015424
19	0x3e699ef8	0.22814548
20	0x3e6ec9e4	0.23319203
21	0x3e44f94e	0.19235727
22	0x3dfcd67c	0.12345597
23	0x3d911849	0.0708471
24	0x3d81b8f3	0.063341044
25	0x3d9946fa	0.07484241
26	0x3e5f21e0	0.21790266
27	0x3cf6932a	0.03009947
28	0x3e33a4be	0.17543313
29	0xbd81cf8e	-0.06338416
30	0x3d8981aa	0.067141846
31	0x3e389733	0.18026428
32	0x3e5fff53	0.21874742
33	0x3e21636f	0.15760587
34	0xbcbd690a	-0.023121376
35	0xbd38a324	-0.045077458
36	0x3c82fb36	0.015988927
37	0x3e11ce93	0.14238958
38	0xbd16be8f	-0.036802825
39	0xbc1285db	-0.008943046
40	0x3e83e26e	0.2575869
41	0x3e3d343e	0.1847696
42	0x3e1ebcaa	0.15501657
43	0xbdd7025a	-0.104984954
44	0x3e8340b1	0.25635293
45	0xbda054da	-0.07828684
46	0xbd0e1007	-0.034683254
47	0xbd862332	-0.06549682
48	0xbdfd8605	-0.12379078
49	0x3dd04272	0.101689234
50	0xbdad0754	-0.08448663
51	0x3e21f230	0.15815043
52	0xbd0bb9b1	-0.034112636
53	0x3e0baa30	0.1363914
54	0xbcb707c0	-0.022342563
55	0x3e25510e	0.16144201
56	0x3dfa025a	0.1220748
57	0x3e365bfd	0.17808528
58	0x3e2cd321	0.16877414
59	0x3d8d613a	0.0690331
60	0x3d925e8e	0.07146941
61	0x3e8564cc	0.26053464
62	0xbda31e25	-0.07964734
63	0x3de9130b	0.11380585
64	0x3e26ac14	0.1627658
65	0x3e0ef497	0.13960491
66	0xbbc6825d	-0.006058021
67	0xbd2c1acf	-0.042017754
68	0x3e38350a	0.17988983
69	0x3d32819c	0.043580636
70	0xbc98710b	-0.01860859
71	0x3dcde42f	0.10053288
72	0x3e397e4f	0.18114589
73	0x3d812638	0.06306118
74	0x3e3f2f05	0.1867028
75	0x3e81883b	0.25299248
76	0x3e61f9a1	0.22067882
77	0xbdb05462	-0.08609845
78	0x3da0b15d	0.07846329
79	0x3e0d714b	0.13812749
80	0x3e586d82	0.21135524
81	0x3e5f8493	0.21827917
82	0xbd73df7f	-0.059539314
83	0x3d388ed8	0.0450581
84	0xbdbdb657	-0.09263294
85	0x3c3fb35e	0.011700479
86	0xbd66401f	-0.056213494
87	0x3e05b808	0.13058484
88	0xbd130d69	-0.03590146
89	0x3de4e38c	0.111762136
90	0x3e0d44f4	0.13795835
91	0x3cc58c99	0.024114894
92	0x3e5fb860	0.21847677
93	0x3d51e115	0.051240046
94	0xbd8a66f3	-0.06757917
95	0xbcf87501	-0.03032923
96	0x3e2070f9	0.15668096
97	0xbd875a71	-0.06609047
98	0xb86fbd55	-5.715837e-05
99	0x3e473f90	0.19457841
100	0x3cf97151	0.030449541
101	0x3e69db35	0.22837527
102	0xbb6c9a6d	-0.0036102787
103	0x3c51f220	0.012814075
104	0x3c2069a0	0.009790808
105	0x3d2e4a02	0.042551048
106	0x3c58c5a4	0.013230715
107	0x3e4c55a8	0.1995455
108	0x3e2778f4	0.16354734
109	0xbba3bad9	-0.004996639
110	0x3e5b9d7a	0.21446791
111	0xbdb350c4	-0.08755639
112	0x3e795f7f	0.24352835
113	0x3e50a54f	0.2037556
114	0x3dd3ec0c	0.10347757
115	0x3e446ae7	0.19181405
116	0x3e6bcf53	0.23028307
117	0x3e559eeb	0.20861404
118	0x3dfdeb09	0.12398345
119	0xbd967d94	-0.07348171
120	0xbd7c4183	-0.061585914
121	0x3e3a1941	0.18173696
122	0x3e06cf94	0.13165122
123	0x3e5bdd16	0.21471056
124	0xbd0ce217	-0.034395304
125	0x3e75494b	0.2395374
126	0x3e67375e	0.22579715
127	0xbc59852a	-0.013276378

layer3.weight f4 [2, 128]
0	0x3e83c5f0	0.25736952
1	0xbd0c7764	-0.034293547
2	0xbd3253d0	-0.04353696
3	0x3e56fbf5	0.20994551
4	0x3e8035b7	0.2504098
5	0xbe1e761f	-0.15474747
6	0x3e583230	0.21112895
7	0x3e4441b4	0.19165689
8	0xbd67b5c3	-0.056569826
9	0xbee28fa1	-0.44250205
10	0x3e0ba458	0.13636911
11	0x3e682ee5	0.22674139
12	0xbe24c4c3	-0.16090684
13	0xbe60d45e	-0.21956012
14	0x3e84c62f	0.25932452
15	0xbd26120a	-0.040544547
16	0xbdb554a0	-0.088540316
17	0xbd7eaa5b	-0.062174182
18	0xbed731ca	-0.42030174
19	0x3e787940	0.24265003
20	0x3e530405	0.20607002
21	0x3e78102a	0.24224916
22	0x3e831211	0.2559972
23	0xbe86493c	-0.26227748
24	0x3e5e61b3	0.21716957
25	0x3e82019e	0.2539186
26	0x3e5f1644	0.21785837
27	0xbf36999b	-0.71328133
28	0x3e23dfe6	0.16003379
29	0x3d96f475	0.07370845
30	0xbd1d9299	-0.038469885
31	0x3e525181	0.20538904
32	0x3e67594c	0.22592658
33	0x3e44b3dd	0.19209237
34	0xbf627107	-0.88453716
35	0x3d552903	0.052041065
36	0xbc4b0493	-0.012391227
37	0x3e75370f	0.23946784
38	0xbd9dcbd5	-0.077048935
39	0xbf44790e	-0.76747215
40	0x3e5a47dc	0.21316475
41	0x3e93d8ce	0.28876346
42	0x3e6db182	0.23212245
43	0xbeae2f62	-0.34020525
44	0x3e3a941e	0.18220565
45	0x3d92099d	0.0713074
46	0x3d63675f	0.055518504
47	0x3d8df3d5	0.06931273
48	0xbefaf5f7	-0.4901578
49	0x3e4b6d37	0.19865881
50	0xbe0bd35c	-0.13654846
51	0x3e539938	0.20663917
52	0xbd17da59	-0.037073467
53	0x3e47125e	0.194406
54	0xbd896125	-0.06707982
55	0x3e88a52c	0.26688516
56	0x3e70a1c5	0.2349921
57	0x3e973b03	0.2953721
58	0x3e39ec25	0.18156488
59	0xbec09e2a	-0.3762067
60	0xbeaeb9cc	-0.34126127
61	0x3e431914	0.19052535
62	0xbf527b59	-0.82219464
63	0x3e396990	0.18106675
64	0x3e6f1a6c	0.23349923
65	0x3e843cbe	0.25827593
66	0xbf083d4d	-0.5321854
67	0xbc20eb7c	-0.009821769
68	0x3e0cdd36	0.1375626
69	0xbd45cf88	-0.04829362
70	0xbeb9a690	-0.3625989
71	0x3e70e72c	0.23525685
72	0x3e20ff1a	0.15722314
73	0x3e1b7972	0.15183046
74	0x3e59ed71	0.21281983
75	0x3e7a4a2c	0.24442357
76	0x3e6b7336	0.22993168
77	0xbf28c3c9	-0.65923744
78	0x3e9442b9	0.28957155
79	0x3e5a25a9	0.21303429
80	0x3e832faf	0.25622317
81	0x3e645ab1	0.22300221
82	0xbf220d73	-0.6330177
83	0xbdb94388	-0.09046084
84	0xbf0a3f24	-0.54002595
85	0xbe454bcc	-0.19267195
86	0x3beae958	0.00716893
87	0x3e889c08	0.26681542
88	0xbc63f6ec	-0.013913851
89	0x3e45220b	0.19251268
90	0x3e2cc182	0.16870692
91	0x3d86b71b	0.06577893
92	0x3e941d0a	0.28928405
93	0xbbc0a123	-0.005878584
94	0xbf3e2219	-0.7427078
95	0xbcc94d40	-0.024572968
96	0x3e478ad9	0.1948656
97	0xbf199343	-0.5999033
98	0xbc3f4c74	-0.011675943
99	0x3e375386	0.17902955
100	0xbda26f6a	-0.07931407
101	0x3e13d6ea	0.14437452
102	0xbd916b3d	-0.07100532
103	0xbeeb1521	-0.45914558
104	0x3adaefc3	0.0016703535
105	0xbdd15715	-0.10221688
106	0xbec0a22d	-0.3762373
107	0x3e8571cf	0.26063392
108	0x3e891058	0.26770282
109	0xbcadf081	-0.021232845
110	0x3e8550e6	0.26038283
111	0xbeb38529	-0.3506253
112	0x3e82d1db	0.25550732
113	0x3e1a1fe9	0.15051235
114	0x3e78d379	0.2429942
115	0x3e37d1c8	0.17951119
116	0x3e4ad93a	0.19809428
117	0x3e4ea2b8	0.2017926
118	0x3e73eb28	0.23820174
119	0xbcd73efd	-0.026275152
120	0xbe18775c	-0.14889282
121	0x3e856dc3	0.26060304
122	0x3e6bc2dc	0.23023552
123	0x3e73a7cf	0.23794483
124	0x3d969b2a	0.07353814
125	0x3e647f62	0.22314218
126	0x3e48b53b	0.19600384
127	0xbe0a0165	-0.13477094
128	0x3e08dae3	0.13364749
129	0xbc73309b	-0.014843131
130	0xbda4c633	-0.08045616
131	0x3e86a015	0.26294008
132	0x3e34c78f	0.1765425
133	0xbec51acc	-0.38497007
134	0x3e741647	0.23836623
135	0x3e5cb601	0.21553804
136	0x3cbf59e7	0.023358298
137	0xbeafdced	-0.3434824
138	0x3e8009d0	0.25007486
139	0x3e8dff2f	0.27733752
140	0x3d0c015c	0.034180984
141	0xbed91d1d	-0.42405024
142	0x3e6d01e2	0.2314525
143	0xbd46cf15	-0.048537333
144	0xbe5b4282	-0.2141209
145	0xbd8216ec	-0.06352028
146	0xbd9797ce	-0.07402001
147	0x3e2d9099	0.16949691
148	0x3e4ef5e1	0.20210983
149	0x3e2bcbca	0.16776958
150	0x3e4ef957	0.20212303
151	0xbe862597	-0.26200554
152	0x3c68f474	0.014218438
153	0x3e72f737	0.23727117
154	0x3e82f290	0.25575686
155	0xbf1a1e80	-0.6020279
156	0x3e9251f9	0.28578165
157	0x3d996f7a	0.074919656
158	0xbc447233	-0.011990118
159	0x3e683b91	0.22678973
160	0x3e4a934d	0.19782753
161	0x3e8476cd	0.25871888
162	0xbf727b68	-0.94719553
163	0xbd849f94	-0.064757496
164	0xbd5beacd	-0.05369072
165	0x3e715ccb	0.23570554
166	0xbc91c835	-0.017795661
167	0xbf531630	-0.8245573
168	0x3e406b7c	0.18791002
169	0x3e4448bb	0.1916837
170	0x3e614532	0.21999052
171	0xbebea8e7	-0.37238237
172	0x3e780e71	0.24224259
173	0xbcf5cb2f	-0.030004112
174	0x3d7a07e4	0.06104268
175	0x3c2b682c	0.010461848
176	0xbf219736	-0.63121355
177	0x3e80769b	0.2509049
178	0xbe15f389	-0.14643683
179	0x3e581df6	0.21105179
180	0xbb72d5a5	-0.0037053612
181	0x3e8b3083	0.2718545
182	0x3b9ce767	0.0047883275
183	0x3e132229	0.143685
184	0x3e0ae197	0.13562618
185	0x3e6832d4	0.2267564
186	0x3e918622	0.28422648
187	0x3ccee9d2	0.025257979
188	0xbdd544b2	-0.10413493
189	0x3e6f209c	0.23352283
190	0xbf552dfd	-0.832733
191	0x3e668f62	0.22515634
192	0x3e8450bd	0.25842848
193	0x3e212642	0.1573725
194	0xbee2f197	-0.44324943
195	0xbcf93a8e	-0.030423429
196	0x3e90ce1c	0.2828225
197	0xbda4ac69	-0.08040697
198	0xbe95426a	-0.29152232
199	0x3e77de05	0.24205787
200	0x3e7e5aa3	0.24839263
201	0xbe5b16fd	-0.21395488
202	0x3e95a24f	0.29225394
203	0x3e5f0b68	0.21781695
204	0x3e7f1e38	0.24913871
205	0xbf552dba	-0.832729
206	0x3e18fcba	0.14940158
207	0x3dd7f6ed	0.10545144
208	0x3e90e1b2	0.28297192
209	0x3e53455e	0.2063193
210	0xbef577b5	-0.47942892
211	0x3d26cb91	0.04072148
212	0xbed97d35	-0.42478338
213	0xbd015131	-0.03157157
214	0x3d06a9ec	0.032876894
215	0x3e306d0c	0.17229098
216	0xbea7a584	-0.32743466
217	0x3e88031b	0.2656487
218	0x3e849ecd	0.25902405
219	0x3c867bc1	0.016416432
220	0x3e1cbf76	0.15307412
221	0xbcad8379	-0.021180855
222	0xbf490a18	-0.78531027
223	0x3c673571	0.0141118625
224	0x3e6deec1	0.23235609
225	0xbf1a1851	-0.60193354
226	0xbd2565e5	-0.040380377
227	0x3e8deddb	0.27720532
228	0xbe10b1aa	-0.14130273
229	0x3e7b4007	0.24536143
230	0xbdcc2b04	-0.09969142
231	0xbf0252cc	-0.5090759
232	0x3d57b752	0.052665062
233	0xbdfaff83	-0.12255766
234	0xbcba6f4b	-0.022758147
235	0x3e4086ec	0.18801469
236	0x3e99fb65	0.3007461
237	0xbcff279b	-0.031146815
238	0x3e1c58f6	0.15268311
239	0xbe017c4a	-0.12645069
240	0x3e7e0d8a	0.24809852
241	0x3e873215	0.26405397
242	0x3dc180b4	0.09448376
243	0x3e677e76	0.22606835
244	0x3e492613	0.1964343
245	0x3e83683e	0.25665468
246	0x3ddb1bf4	0.10698691
247	0xbd9ac857	-0.07557743
248	0x3da41747	0.08012252
249	0x3e59faf8	0.21287143
250	0x3e810d55	0.25205484
251	0x3e08f290	0.1337378
252	0xbd3eb811	-0.04656226
253	0x3e3e299b	0.18570559
254	0x3e884f06	0.2662279
255	0xbe8e5612	-0.2780004

layer3.bias f4 [2]
0	0x3b8692e0	0.0041068643
1	0x3dea3279	0.11435408
