model_weights/DQN/cartpole/cartpole_dqn_episode_2399.pth (torch, 72508 bytes, 6 tensors)

layer1.weight f4 [128, 4]
0	0x3e1ba79f	0.15200661
1	0xbe6f0b72	-0.2334421
2	0x3e10c5b0	0.14137912
3	0xbe7b1a96	-0.2452186
4	0xbe0c25f0	-0.13686347
5	0x3e21e544	0.15810114
6	0x3ec032e8	0.37538838
7	0x3d78220a	0.060579337
8	0x3e993360	0.2992201
9	0xbe91ebef	-0.28500316
10	0x3f18a1db	0.5962197
11	0x3e710afe	0.2353935
12	0xbe690564	-0.22755963
13	0xbe85c6c9	-0.26128224
14	0x3dcbbec8	0.09948498
15	0xbe0d5529	-0.13802017
16	0x3d68e546	0.056859277
17	0xbeb29b64	-0.3488418
18	0xbed9b863	-0.42523488
19	0xbe589e19	-0.2115406
20	0xbe9fab26	-0.31185263
21	0xbce0251a	-0.027361441
22	0xbf751d5b	-0.9574792
23	0xbdf107a8	-0.117690384
24	0x3f06de46	0.5268291
25	0xbdffaa5a	-0.12483664
26	0xbee0b686	-0.43889254
27	0xbe4a6dd0	-0.19768453
28	0xbe8d5b43	-0.2760869
29	0xbd94bb82	-0.07262327
30	0xbc358609	-0.01107932
31	0x3c9a22c2	0.018815402
32	0xbe933a88	-0.28755593
33	0xbe7cf26c	-0.24701852
34	0xbdb505c1	-0.08838988
35	0xbe1a8a38	-0.15091789
36	0x3e54a9fb	0.20767967
37	0x3e92d6fb	0.28679642
38	0x3dc30ecc	0.09524307
39	0x3ee56ace	0.44808048
40	0x3e7ac598	0.24489439
41	0xbea2865a	-0.31743127
42	0xbea1d863	-0.31610402
43	0xbe871bdc	-0.26388443
44	0xbe00817b	-0.12549393
45	0xbe02cbfa	-0.12773123
46	0x3e269aab	0.16269939
47	0xbdbd9afb	-0.09258076
48	0x3ef949f9	0.4868925
49	0x3d8e55ca	0.06949957
50	0x3ccacf73	0.024757123
51	0xbddbf825	-0.10740689
52	0x3e8e8ba3	0.2784091
53	0x3dce07fd	0.100601174
54	0xbd4111df	-0.047136184
55	0xbdc10ccd	-0.0942627
56	0xbe493272	-0.1964815
57	0x3e95b4e4	0.2923957
58	0x3e5c97bc	0.21542257
59	0x3ea1ab9f	0.3157625
60	0xbedb631b	-0.4284905
61	0xbea2a853	-0.31769046
62	0xbf76f722	-0.96470845
63	0xbe7dd59d	-0.24788518
64	0xbe9c2d7a	-0.30503446
65	0x3ca72968	0.020405486
66	0x3e193831	0.14962842
67	0x3bd1bf03	0.006400944
68	0xbeca92a5	-0.39565006
69	0xbd51e899	-0.051247213
70	0xbf849818	-1.0358915
71	0xbe2185d5	-0.15773709
72	0xbea667c1	-0.32501033
73	0xbe4b2bba	-0.19840899
74	0xbcfd82da	-0.030946184
75	0xbdd7f723	-0.105451845
76	0xbce75a6f	-0.028241364
77	0x3e3325c6	0.17494878
78	0x3ee7f6fc	0.45305622
79	0x3d884cbc	0.06655261
80	0x3e7f7a16	0.24948916
81	0xbea17266	-0.31532592
82	0xbdb9b1f6	-0.090671465
83	0xbe6adf0a	-0.22936645
84	0xbdd85b0c	-0.10564241
85	0x3e5d2219	0.21595038
86	0x3beac6cb	0.0071648112
87	0xbdb1d9ac	-0.08684096
88	0x3ec2582a	0.3795789
89	0x3e3ff746	0.18746671
90	0xbec616f2	-0.3868938
91	0xbd4058b7	-0.046959605
92	0x3eb88c0a	0.3604434
93	0x3e1aa6e6	0.15102729
94	0x3daa35f3	0.08311071
95	0xbe6d16fd	-0.231533
96	0x3e2f63e4	0.17127949
97	0x3ed549bf	0.41657826
98	0x3e11a220	0.14222002
99	0x3e38759d	0.18013616
100	0xbe295d59	-0.16539516
101	0xbe36ae73	-0.17839985
102	0x3e4f811b	0.20264094
103	0x3d8d0115	0.06884972
104	0x3f1b951d	0.60774404
105	0x3d3ad850	0.045616448
106	0xbe8f7ab5	-0.28023306
107	0x3cb6f870	0.022335261
108	0x3e62f297	0.22162853
109	0x3daad491	0.08341325
110	0xbeee6e90	-0.46568727
111	0x3c5aa07e	0.013343928
112	0xbecb8f3f	-0.39757726
113	0xbe7c424a	-0.24634662
114	0x3e4b27d8	0.19839418
115	0xbd51e34a	-0.05124215
116	0xbea72013	-0.32641658
117	0x3d9879dd	0.074451186
118	0xbeb9ddb0	-0.36301947
119	0x3ded0d7f	0.1157484
120	0xbea9bfa1	-0.33154014
121	0xbe815d75	-0.25266615
122	0x3e524648	0.20534623
123	0xbdd2edf0	-0.10299289
124	0x3ea89833	0.3292862
125	0x3d38ee3c	0.045149073
126	0xbe444bef	-0.19169591
127	0x3d54b24d	0.051927853
128	0xbeb38b32	-0.35067135
129	0x3de04508	0.10950667
130	0x3e329007	0.17437755
131	0x3d66e71a	0.05637274
132	0xbe8e0f2f	-0.2774596
133	0x3d9d1c83	0.07671454
134	0x3f0abd2d	0.5419491
135	0x3dff5294	0.124669224
136	0xbe38cf06	-0.18047723
137	0xbefa1445	-0.4884359
138	0xbf9f69fd	-1.245422
139	0xbe7d668c	-0.2474615
140	0x3e156336	0.14588627
141	0x3e5615da	0.20906773
142	0x3e7c2844	0.24624735
143	0xbcb04d70	-0.0215213
144	0xbe39197e	-0.18076131
145	0xbe907bb2	-0.28219372
146	0xbf09ea84	-0.5387347
147	0xbe9800cd	-0.2968811
148	0xbeb0b6c3	-0.34514436
149	0xbdfde2ca	-0.12396772
150	0x3d59c0a7	0.053162243
151	0x3d5e17e9	0.05422202
152	0xbed8edf6	-0.4236905
153	0xbeee9594	-0.46598494
154	0x3d743ec5	0.059630174
155	0xbe6fb4cf	-0.23408817
156	0xbedf6a1f	-0.4363565
157	0xbe976613	-0.29570064
158	0xbf1cad27	-0.6120171
159	0xbec61cba	-0.38693792
160	0xbed32b1e	-0.41243833
161	0x3c65ece2	0.014033528
162	0xbedac4cc	-0.4272827
163	0x3dcc4b44	0.09975293
164	0xbef48e3b	-0.47764763
165	0x3e927b53	0.28609714
166	0xbd5d55cf	-0.05403691
167	0x3e946683	0.2898446
168	0x3eb8f9b1	0.36128
169	0x3f06ac32	0.526065
170	0x3e965849	0.2936423
171	0x3ea93310	0.3304677
172	0xbeba02a1	-0.3633013
173	0x3e04cc3a	0.12968531
174	0x3e694496	0.2278007
175	0x3e156a77	0.14591394
176	0xbcbcafcd	-0.023033047
177	0x3e878760	0.2647047
178	0x3f530653	0.82431525
179	0x3e6f8aea	0.23392835
180	0x3c62d2a5	0.013844167
181	0x3ce4f43a	0.027948488
182	0x3c4adec4	0.012382213
183	0xbea5ac11	-0.3235784
184	0x3e8593b7	0.2608926
185	0xbe7f3e7d	-0.24926181
186	0xbedd93dc	-0.4327687
187	0x3d4e67e8	0.05039206
188	0x3e48d8de	0.19613978
189	0x3e3d4712	0.18484142
190	0xbe88169b	-0.26579747
191	0xbe931415	-0.2872626
192	0x3efd8b96	0.49520558
193	0xbddde6cf	-0.10835039
194	0xbdf0e0ac	-0.11761603
195	0xbe3cf438	-0.18452537
196	0xbe00595a	-0.12534085
197	0xbe9c76b7	-0.30559322
198	0xbf118f18	-0.5685897
199	0xbe892210	-0.267838
200	0x3e9d7e83	0.30760583
201	0x3e85c280	0.26124954
202	0xbd5a8e95	-0.053358633
203	0x3de992d8	0.11404961
204	0xbdb39c79	-0.08770079
205	0xbe6d3ebe	-0.23168465
206	0xbe34589d	-0.17611928
207	0x3d2fcec7	0.042921808
208	0x3e33a5bf	0.17543696
209	0xbe3c0986	-0.18363008
210	0xbefc6da9	-0.49302414
211	0xbdb3487c	-0.0875406
212	0x3d654952	0.055978127
213	0x3def363e	0.11680268
214	0x3f5594dc	0.83430266
215	0x3e1e1b80	0.15440178
216	0xbe773e99	-0.24144973
217	0x3e670876	0.22561821
218	0x3ef1582e	0.47137588
219	0xbdd1f22b	-0.10251268
220	0xbebfb63a	-0.37443715
221	0x3dea51ac	0.11441359
222	0xbec6f50d	-0.38858834
223	0x3b625662	0.0034536351
224	0x3d8a99b0	0.06767595
225	0xbc6120ad	-0.013740701
226	0x3d618ba9	0.05506483
227	0xbe49230c	-0.19642276
228	0xbf020a3e	-0.5079688
229	0xbdd7f25e	-0.10544275
230	0xbf33ff3f	-0.7031135
231	0xbe4b4ff2	-0.19854715
232	0x3e9ba8ef	0.30402324
233	0xbe8804d1	-0.26566175
234	0x3e358819	0.17727698
235	0xbde4ac11	-0.111656316
236	0xbd98f174	-0.074679285
237	0xbe3b7e59	-0.18309917
238	0x3e918417	0.2842109
239	0xbe2ef8d2	-0.17087105
240	0xbc4265ee	-0.011865122
241	0x3ee258f9	0.44208506
242	0x3eb4cd44	0.35312855
243	0x3e952cc4	0.29135716
244	0x3c95a8ea	0.018269021
245	0xbeadc3bb	-0.33938393
246	0xbec1437e	-0.37746805
247	0xbd069045	-0.03285243
248	0x3f21b1ad	0.63161737
249	0xbda00a40	-0.07814455
250	0xbdd561e4	-0.10419062
251	0xbe57f078	-0.21087825
252	0xbf01e2a8	-0.50736475
253	0xbea921d8	-0.33033633
254	0x3e364aa2	0.17801908
255	0x3dde6eb6	0.1086096

layer1.bias f4 [128]
0	0x3ef8617f	0.48511884
1	0x3e8c5c30	0.27414083
2	0xbe949500	-0.29019928
3	0x3ef700e7	0.48242876
4	0x3ecdff7d	0.40233985
5	0xbe7aaac2	-0.24479201
6	0xbe644dbd	-0.2229528
7	0x3eafb8e7	0.34320757
8	0xbebf9ad4	-0.37422812
9	0xbe427cdc	-0.18992943
10	0xbe13e7fc	-0.14443964
11	0x3f157b14	0.5839093
12	0x3dbd6df8	0.092494905
13	0x3ee75127	0.45179102
14	0x3ef6282f	0.48077533
15	0xbea26a5b	-0.31721768
16	0x3ea1701c	0.31530845
17	0xbe0eb630	-0.13936687
18	0xbc26a5a6	-0.01017133
19	0x3ef8226c	0.48463762
20	0x3e8cfdce	0.27537388
21	0x3efeae5a	0.49742395
22	0x3ec5264c	0.3850578
23	0xbeab062f	-0.33403155
24	0xbeba625f	-0.36403176
25	0xbe579724	-0.2105375
26	0x3edf60cf	0.43628547
27	0x3e89492e	0.26813644
28	0xbece7063	-0.4032012
29	0x3ed078f2	0.40717274
30	0xbd7fb3f0	-0.06242746
31	0xbe58f06d	-0.21185465
32	0x3eca992a	0.3956998
33	0x3e7abcf4	0.24486142
34	0xbcac080b	-0.020999929
35	0xbeca4a6a	-0.39509898
36	0xbe8ba401	-0.27273563
37	0x3ee4bd7b	0.44675812
38	0xbe3c8389	-0.18409552
39	0xbe24a36c	-0.16077965
40	0xbed31287	-0.41225073
41	0xbbde16b9	-0.006777611
42	0xbd22cca1	-0.03974593
43	0x3eec3c0a	0.46139556
44	0xbea22301	-0.3166733
45	0x3eb73e48	0.35789704
46	0x3e92b2c3	0.2865201
47	0x3e52a593	0.20570974
48	0xbe1d0001	-0.15332033
49	0xbe0dfe34	-0.13866502
50	0x3e2c614e	0.16833994
51	0x3ed8342d	0.42227307
52	0x3f1af7c2	0.605343
53	0xbdbf9cd2	-0.09356083
54	0x3ec33aa5	0.3813068
55	0x3efbb87c	0.49164188
56	0x3f0efcdc	0.5585458
57	0xbecb890c	-0.39752996
58	0x3f22c705	0.6358493
59	0x3f126376	0.57183015
60	0xbc7e4c59	-0.015521132
61	0x3f06cd13	0.5265667
62	0x3e9db4df	0.30802056
63	0xbd406998	-0.046975702
64	0xbeb567a2	-0.35430628
65	0xbf13d80d	-0.5775154
66	0x3eab4631	0.3345199
67	0x3e2494d0	0.16072392
68	0x3ed0058d	0.40629235
69	0xbe447096	-0.19183573
70	0x3e35ff32	0.1777313
71	0x3eb983f8	0.36233497
72	0x3eb0e634	0.3455063
73	0xbe852760	-0.26006603
74	0x3e9eb30c	0.30995977
75	0x3f0bb82a	0.5457789
76	0x3e1a18f6	0.15048584
77	0xbe718673	-0.23586445
78	0x3eadd6cd	0.33952942
79	0x3e3c428f	0.18384765
80	0xbeb0a866	-0.34503478
81	0xbdefbf9e	-0.1170647
82	0x3eb2c710	0.34917498
83	0x3dd3c73e	0.10340737
84	0x3ea4f76b	0.32220015
85	0x3f0c1f88	0.5473561
86	0xbec1b85f	-0.37835976
87	0x3ec92ccd	0.39291993
88	0xbedf827d	-0.43654242
89	0x3f0638c2	0.52430356
90	0x3eeac494	0.45853102
91	0xbecdeec0	-0.40221214
92	0x3ed46cc9	0.41489246
93	0x3f060f48	0.5236707
94	0xbec763f6	-0.38943452
95	0x3ef9f769	0.4882157
96	0x3eb810a6	0.35950202
97	0xbe97f3cb	-0.29678187
98	0x3f1bfe12	0.60934556
99	0xbe1d6b48	-0.15372956
100	0xbea2227e	-0.3166694
101	0x3e9958c3	0.29950532
102	0x3ef9e9e8	0.4881127
103	0x3e30f9ee	0.1728284
104	0x3f115e63	0.5678465
105	0x3eb39278	0.35072684
106	0xbe2fd858	-0.17172372
107	0xbd7069a6	-0.058694504
108	0x3e853324	0.2601558
109	0xbc340a3d	-0.010988769
110	0xbe7124e1	-0.23549224
111	0x3ec0cb27	0.37654993
112	0x3e1bc22c	0.1521079
113	0xbe945231	-0.28968957
114	0x3f12102b	0.5705592
115	0x3d98ab9a	0.074546054
116	0xbe871cf0	-0.26389265
117	0xbe93bb6f	-0.28853938
118	0x3f177601	0.59164435
119	0x3f0d8c8e	0.55292594
120	0xbe656f7e	-0.22405812
121	0x3e21c610	0.15798211
122	0x3ee538a0	0.44769764
123	0xbe5bccf4	-0.21464902
124	0xbd111129	-0.035416756
125	0x3ebb821f	0.36622712
126	0x3f1c4618	0.61044455
127	0x3f0f0f0c	0.55882335

layer2.weight f4 [128, 128]
0	0x3e1ca9ad	0.15299101
1	0x3e2bfc79	0.1679553
2	0xbd137b23	-0.036006104
3	0x3dfa96ea	0.12235816
4	0x3dee6be9	0.11641676
5	0xbec3e489	-0.38260296
6	0xbdb44f2c	-0.08804163
7	0x3e200212	0.1562579
8	0xbe7787cf	-0.241729
9	0xbcb1d21e	-0.021706637
10	0xbf0fd42d	-0.5618313
11	0x3e9a892f	0.30182788
12	0x3d871267	0.06595307
13	0x3d62db1c	0.05538474
14	0x3e1322bf	0.14368723
15	0xbd0fa962	-0.035073645
16	0x3df3ee4a	0.119106844
17	0xbe7b446f	-0.24537824
18	0xbc28d3c8	-0.010304399
19	0x3db84e05	0.08999256
20	0x3e674816	0.22586092
21	0x3dea6126	0.11444311
22	0x3d5e968c	0.05434279
23	0xbd06e67c	-0.03293465
24	0xbd8e0ce2	-0.06936051
25	0xbde372d6	-0.111058876
26	0x3dfdd732	0.12394561
27	0x3e8ac9cc	0.27107084
28	0xbdeb1b76	-0.11479847
29	0x3e45cdac	0.19316739
30	0xbd52126e	-0.051287107
31	0xbe84c130	-0.2592864
32	0x3e625a1e	0.2210469
33	0x3e2a2b55	0.16618092
34	0x3d0a0c14	0.033702925
35	0xbeb0bace	-0.3451752
36	0xbf3c033e	-0.7344245
37	0x3e68f6df	0.22750424
38	0xbdb71196	-0.08938901
39	0xbd5d033d	-0.053958166
40	0xbf0ad170	-0.54225826
41	0x3ea5ae51	0.32359555
42	0x3d610941	0.054940466
43	0x3e6c1046	0.23053083
44	0xbea0f663	-0.31437978
45	0x3df18ff0	0.11795032
46	0x3d2dc666	0.042425536
47	0x3dd11a64	0.10210112
48	0xbd2cc218	-0.04217729
49	0xbdbb9930	-0.091600776
50	0xbcb91686	-0.022593748
51	0x3e082e2e	0.13298866
52	0x3e229c58	0.15879953
53	0xbf012274	-0.50443196
54	0x3df16e16	0.11788575
55	0x3e27d1e7	0.16388665
56	0x3e6c547e	0.23079106
57	0xbec78f2b	-0.38976416
58	0x3e2bc717	0.16775165
59	0x3e32d0a5	0.17462404
60	0x3db408a7	0.08790713
61	0x3e0c19fc	0.13681787
62	0x3e05fa9e	0.13083884
63	0xbd3fff09	-0.04687408
64	0xbe77b5d8	-0.24190462
65	0xbedfbefe	-0.43700403
66	0x3e63db72	0.2225168
67	0x3d8a1f51	0.067442544
68	0x3c6a50ea	0.014301518
69	0xbe3b5cdf	-0.18297146
70	0x3dafb162	0.08578755
71	0x3ddd40d2	0.10803379
72	0x3db8784c	0.0900732
73	0xbd5c983a	-0.053856112
74	0x3dd2abd1	0.10286678
75	0x3e29a79c	0.16567844
76	0xbe5bd3f0	-0.21467566
77	0xbe477009	-0.19476332
78	0x3daf06cc	0.08546218
79	0x3e1a0224	0.15039879
80	0xbe68bcd8	-0.22728288
81	0xbe888678	-0.26665092
82	0x3e1ef54b	0.1552326
83	0x3dde7bf7	0.10863488
84	0x3e3203f9	0.17384328
85	0x3de7237b	0.11286064
86	0xbe169644	-0.1470576
87	0x3e49ffc8	0.19726479
88	0xbf21ac67	-0.6315369
89	0x3e48f232	0.1962364
90	0x3e094add	0.13407464
91	0xbe1472eb	-0.14496963
92	0x3d1eadd7	0.038740005
93	0x3e3566f6	0.17715058
94	0xbf127e07	-0.5722355
95	0x3e033f1c	0.12817043
96	0x3d943086	0.072358176
97	0xbec0cc78	-0.37655997
98	0x3de1b7a7	0.11021357
99	0xbd9ecc93	-0.07753863
100	0xbe07a60f	-0.1324694
101	0x3d98ea0d	0.07466517
102	0x3e372086	0.178835
103	0x3cc3c193	0.023896014
104	0x3d4f347a	0.050587155
105	0x3e600f3b	0.2188081
106	0xbd38cd93	-0.045117926
107	0xbee14f63	-0.4400588
108	0x3db173d8	0.086646736
109	0x3c308707	0.0107743805
110	0xbdc204a3	-0.09473541
111	0x3e48c2c0	0.19605541
112	0xbdb16243	-0.0866132
113	0xbeab6da0	-0.33482075
114	0x3e41efda	0.18939152
115	0x3e15d05d	0.14630266
116	0xbf31e8bc	-0.6949575
117	0xbdc70fdd	-0.097198226
118	0x3e8f47cf	0.27984473
119	0x3e433292	0.1906226
120	0x3bd5c378	0.006523546
121	0x3cfa471c	0.030551486
122	0x3e03c660	0.12868643
123	0xbe0c5368	-0.13703692
124	0x3daa59dc	0.083179206
125	0x3de355d9	0.111003585
126	0x3e3bb297	0.18329845
127	0x3e20aa47	0.15689956
128	0x3cfbb141	0.03072417
129	0x3cba4b81	0.022741081
130	0xbd39cba8	-0.045360237
131	0x3d2cd3b9	0.042194102
132	0xbd0d46ae	-0.034491234
133	0x3b605b5c	0.0034234142
134	0xbca6aa97	-0.020345015
135	0xbd5b57b2	-0.05355043
136	0xbd3ca0c1	-0.046051744
137	0x3d588329	0.05285946
138	0x3ddab832	0.10679664
139	0xbbc7b20c	-0.006094223
140	0xbc64571a	-0.013936782
141	0x3be23c25	0.0069041424
142	0xbc955869	-0.018230634
143	0x3ca2a5bf	0.019854425
144	0x3c8ec442	0.017427567
145	0x3c12c43b	0.008957918
146	0xbddb81d7	-0.10718124
147	0x3d5827af	0.05277222
148	0xbdb39980	-0.08769512
149	0x3d2cc95b	0.042184215
150	0xbd4c3228	-0.04985252
151	0x3b9e20c6	0.0048256842
152	0xbd8c7229	-0.06857712
153	0x3d13058c	0.03589396
154	0x3d057598	0.03258285
155	0xbdb01996	-0.0859863
156	0x3d7481a5	0.05969395
157	0xbbc3357c	-0.0059573036
158	0xbd8d6571	-0.06904114
159	0x3e41c1e3	0.18921618
160	0xbd2c1dd4	-0.042020634
161	0xbeb53ed4	-0.35399497
162	0xbd34d4c4	-0.04414822
163	0x3e07740d	0.13227864
164	0xbcdef4ca	-0.027216334
165	0xbd3977c5	-0.045280237
166	0x3e4e7f20	0.20165682
167	0x3bc3bef6	0.005973692
168	0xbb71145c	-0.0036785817
169	0x3d603a7c	0.054743275
170	0x3b1a90f9	0.0023584946
171	0xbd523005	-0.051315326
172	0x3d1216b3	0.03566618
173	0x3c96f639	0.018427955
174	0x3c1b8f4f	0.009494617
175	0xbb527f3f	-0.0032119302
176	0x3cbccaa2	0.023045842
177	0xbdde6586	-0.10859208
178	0x3d0065f4	0.03134723
179	0x3d079052	0.03309662
180	0x3c322604	0.010873321
181	0x3e2e1639	0.17000665
182	0x3d546b65	0.051860232
183	0xbd666bf1	-0.056255285
184	0x3c468036	0.012115529
185	0xbdfb9b3c	-0.12285468
186	0xbbe2127f	-0.0068991776
187	0x3ca6fe67	0.02038498
188	0x3dc564b5	0.09638349
189	0x3d4d0ace	0.050059132
190	0xbb5847ad	-0.0033001706
191	0xbd024037	-0.03179952
192	0x3d3625d4	0.04446967
193	0xbd55463c	-0.052068934
194	0x3d8a3018	0.067474544
195	0x3cebbae7	0.028775645
196	0x3cdab242	0.026696328
197	0x3cdf3962	0.027249042
198	0x3b744fed	0.0037279085
199	0x3cd97a79	0.026547657
200	0xbd04bb6d	-0.032405306
201	0xbd471bfe	-0.04861068
202	0xbd878b38	-0.06618351
203	0x3d2fd9e7	0.042932417
204	0xbd878dc6	-0.06618838
205	0xbc046014	-0.008079547
206	0xbcaa40b4	-0.020782806
207	0xbc4fd32e	-0.0126846265
208	0x3cf94a2b	0.030430874
209	0x3db70608	0.08936697
210	0x3d0567c9	0.03256968
211	0xbcb3e9c8	-0.021962062
212	0xbc60b256	-0.013714394
213	0xbd87db5f	-0.066336386
214	0x3bf670dc	0.007520778
215	0x3d38f79c	0.045158014
216	0x3d7f3b1a	0.062312223
217	0xbd803720	-0.06260514
218	0xbbc2e7cb	-0.005948042
219	0x3ca9c70c	0.020724796
220	0x3ce47533	0.027887916
221	0xbd1c3c91	-0.038143698
222	0xbe0dc0a1	-0.13843013
223	0x3c10eda9	0.008845725
224	0xbd485efe	-0.048918717
225	0x3e8b379b	0.2719086
226	0x3d2fd4f8	0.042927712
227	0xba411f42	-0.00073670235
228	0x3aaf6f29	0.0013384569
229	0xbcbacb62	-0.022802059
230	0xbd854ca2	-0.06508757
231	0x3c763743	0.015027824
232	0x3d5d9aaa	0.054102577
233	0xbd16b826	-0.03679671
234	0x3b4cfeae	0.003127973
235	0x3e189d55	0.14903767
236	0xbd379efc	-0.044829354
237	0x3b606270	0.003423836
238	0x3cdd7bb9	0.027036535
239	0xbc8615c2	-0.016367797
240	0x3ca0f2f8	0.019647107
241	0xbc2f4144	-0.010696713
242	0x3cb1b8aa	0.0216945
243	0x3d575338	0.052569598
244	0xbce0661e	-0.027392443
245	0x3dac471a	0.08411999
246	0xbc65c7ea	-0.014024714
247	0x3ce4b599	0.027918624
248	0x3c8fe726	0.017566275
249	0xbd9e3330	-0.07724607
250	0x3d23686a	0.0398945
251	0x3e4cfe01	0.2001877
252	0x3dad2d6b	0.084559284
253	0xbb95e922	-0.0045749107
254	0x3a6c8357	0.00090222567
255	0xbdaadbf3	-0.08342733

layer2.bias f4 [128]
0	0x3e3161f8	0.17322528
1	0xb97312a1	-0.00023181226
2	0xbd175a55	-0.03695138
3	0x3e31f881	0.17379953
4	0x3e9380e0	0.2880926
5	0xbd8e0ef4	-0.06936446
6	0x3e3e781b	0.18600504
7	0x3e86b021	0.2630625
8	0xbc4e5cfa	-0.0125954095
9	0xbd211733	-0.039328765
10	0x3e634e89	0.22197928
11	0x3e59bf1e	0.21264312
12	0x3c9e7241	0.01934159
13	0xbddf4543	-0.109018825
14	0x3e7f055f	0.24904393
15	0x3c8c0b8d	0.017095352
16	0xbcbeef4b	-0.023307463
17	0x3d6ed32d	0.05830686
18	0xbbaf3b10	-0.005347617
19	0x3e8a2279	0.26979426
20	0x3e8c644e	0.27420276
21	0x3e797097	0.24359356
22	0x3e354e50	0.17705655
23	0x3d9db1cf	0.0769993
24	0x3e175f77	0.1478251
25	0x3dfab5ce	0.12241708
26	0x3e838c29	0.2569287
27	0x3d25f8a3	0.04052032
28	0x3e607bcd	0.21922226
29	0xbd5edb0f	-0.05440813
30	0x3d6bd551	0.05757648
31	0x3e67ac43	0.22624306
32	0x3e852ee2	0.2601233
33	0x3e52d3e1	0.20588638
34	0xbb191ca3	-0.0023363016
35	0xbd26c755	-0.04071744
36	0x3c60ce7b	0.013721104
37	0x3e452670	0.19252944
38	0xbd015fea	-0.03158561
39	0x3c169c02	0.009192469
40	0x3e97ebfd	0.29672232
41	0x3e6e449e	0.23268363
42	0x3e525eaf	0.20543931
43	0xbe0f6c5b	-0.14006178
44	0x3e95c551	0.29252103
45	0xbd89d268	-0.06729585
46	0xbd02fe06	-0.031980537
47	0xbd66111f	-0.05616867
48	0xbdd9b304	-0.10629848
49	0x3e1994a8	0.14998114
50	0xbd90fcc6	-0.07079463
51	0x3e571d93	0.21007375
52	0xbcefc725	-0.029269764
53	0x3e37d9a6	0.1795412
54	0xbc9d20fa	-0.019180764
55	0x3e5e10dc	0.21686119
56	0x3e3eb1a1	0.18622448
57	0x3e4f68bc	0.20254797
58	0x3e5a4e91	0.21319033
59	0xbbf05890	-0.007334776
60	0xbd9a46cf	-0.07533037
61	0x3e97dda2	0.2966128
62	0xbdb55153	-0.08853402
63	0x3e2f0514	0.17091781
64	0x3e52637a	0.2054576
65	0x3e492dd4	0.19646388
66	0xb9c00388	-0.00036623725
67	0xbd13f168	-0.036118895
68	0x3e669bbf	0.2252035
69	0x3d49ceef	0.049269613
70	0xbd75881f	-0.05994427
71	0x3e1d54ad	0.15364332
72	0x3e68feb1	0.22753407
73	0x3d81c6ed	0.0633677
74	0x3e69995c	0.22812408
75	0x3e9400e5	0.28906932
76	0x3e8419f2	0.25801045
77	0xbdad9017	-0.084747486
78	0x3e1724ff	0.14760207
79	0x3e3c2226	0.18372402
80	0x3e7cf0b5	0.24701197
81	0x3e87061e	0.26371855
82	0xbd159c51	-0.036526028
83	0x3d1e6e2a	0.03867928
84	0xbd6a3bff	-0.057186123
85	0x3cc7afb6	0.024375778
86	0xbccc1217	-0.02491097
87	0x3e3e2400	0.1856842
88	0xbcfb79fd	-0.030697817
89	0x3e2a76ae	0.16646835
90	0x3e3efe9f	0.18651818
91	0x3ca9aea5	0.02071316
92	0x3e86514d	0.26233903
93	0x3d34d199	0.0441452
94	0xbda1fa6b	-0.079090916
95	0xbcd586b6	-0.026065212
96	0x3e52f6c4	0.20601946
97	0xbd4e7a2d	-0.050409485
98	0xb84de600	-4.9090013e-05
99	0x3e735d54	0.2376607
100	0xbc0fcce8	-0.008776881
101	0x3e8952c3	0.26820955
102	0x3cbaa406	0.02278329
103	0x3c6d2671	0.014474497
104	0x3c09e367	0.008416033
105	0x3d129501	0.035786632
106	0xbb166a24	-0.0022951448
107	0x3e796d9f	0.24358223
108	0x3e4ef2b5	0.20209773
109	0xbb584cb2	-0.0033004698
110	0x3e8522e2	0.26003176
111	0xbd92b008	-0.071624815
112	0x3e8e5060	0.27795696
113	0x3e7c4d33	0.24638824
114	0x3e302758	0.17202508
115	0x3e7551f9	0.23957051
116	0x3e8c55b6	0.27409142
117	0x3e7b9879	0.24569882
118	0x3e511b02	0.20420459
119	0xbd81256e	-0.06305967
120	0x3de31791	0.11088479
121	0x3e55fa1a	0.20896187
122	0x3e3a7137	0.1820725
123	0x3e8784a8	0.26468396
124	0xbcf1d613	-0.029521024
125	0x3e8f9af7	0.28047916
126	0x3e866620	0.2624979
127	0xbd4815a3	-0.04884876

layer3.weight f4 [2, 128]
0	0x3ea7e45f	0.3279142
1	0xbd124920	-0.03571427
2	0xbee271b3	-0.4422737
3	0x3e8e88a7	0.27838632
4	0x3e9bbdf2	0.30418354
5	0xbec6b3f1	-0.3880916
6	0x3e900833	0.28131256
7	0x3e865e37	0.26243755
8	0xbd4718a1	-0.048607472
9	0xbf220589	-0.63289696
10	0x3e5da402	0.21644595
11	0x3e9bb083	0.30408105
12	0xbe95e49c	-0.29275978
13	0xbefae6df	-0.49004266
14	0x3ea69017	0.32531807
15	0xbebb90b8	-0.3663385
16	0xbe470850	-0.19436765
17	0xbd5aa903	-0.05338384
18	0xbec378a4	-0.3817798
19	0x3e9af8f5	0.30268064
20	0x3e8c843d	0.2744464
21	0x3e993fba	0.29931432
22	0x3ea07894	0.31341994
23	0xbe69736d	-0.22797938
24	0x3e9f79ae	0.31147522
25	0x3ea5c5c0	0.32377434
26	0x3e9381c1	0.28809932
27	0xbf1e3dc6	-0.6181301
28	0x3e72f5c2	0.23726562
29	0x3d81906c	0.063263744
30	0xbd078526	-0.033085965
31	0x3e8bb44d	0.27285996
32	0x3e9207ae	0.28521484
33	0x3e870483	0.2637063
34	0xbf43ee94	-0.76535916
35	0x3d475cce	0.04867249
36	0xbc2e699c	-0.010645296
37	0x3e9bc1d4	0.30421317
38	0xbd87b8a9	-0.06627018
39	0xbf2a59fa	-0.66543543
40	0x3e8e0fa0	0.27746296
41	0x3eb17a5b	0.34663662
42	0x3e96a7a0	0.29424763
43	0xbef51630	-0.4786849
44	0x3e8180f6	0.25293702
45	0x3d7a9851	0.061180416
46	0x3d638369	0.055545244
47	0x3d73bcba	0.059506156
48	0xbed796be	-0.42107195
49	0x3e8bdfe2	0.27319247
50	0xbe9a366e	-0.30119652
51	0x3e8b8cdb	0.27255902
52	0xbd025f53	-0.03182919
53	0x3e8b1cd8	0.27170444
54	0xbd6b9b81	-0.057521347
55	0x3ea13e62	0.31492907
56	0x3e98b59d	0.2982606
57	0x3eb72105	0.3576738
58	0x3e81b008	0.25329614
59	0xbf29cba9	-0.66326386
60	0xbf439e23	-0.7641317
61	0x3e8650b4	0.26233447
62	0xbf39c6b8	-0.72568846
63	0x3e80bb79	0.2514303
64	0x3e9a9cef	0.30197856
65	0x3ea04942	0.3130589
66	0xbf0b692b	-0.5445735
67	0xbc0a4da6	-0.008441364
68	0x3e5af016	0.21380648
69	0xbea1e156	-0.3161723
70	0xbefb2316	-0.49050206
71	0x3e98414e	0.29737324
72	0x3e6c8abf	0.23099802
73	0x3e560547	0.2090045
74	0x3e8f8cef	0.2803721
75	0x3e9c149b	0.3048447
76	0x3e94e0b7	0.29077694
77	0xbf184e68	-0.5949464
78	0x3eb2deea	0.34935695
79	0x3e8d8480	0.27640152
80	0x3ea3ea14	0.32014525
81	0x3e975da0	0.29563618
82	0xbf0be02d	-0.5463894
83	0xbd9f13cc	-0.07767448
84	0xbef06539	-0.46952227
85	0xbe2e24b5	-0.1700619
86	0x3cc6b25c	0.02425497
87	0x3ea3ca93	0.3199049
88	0xbc43d9a2	-0.011953743
89	0x3e8708c0	0.26373863
90	0x3e790540	0.24318409
91	0x3d6707a3	0.056403767
92	0x3eae4577	0.34037372
93	0xbbc851b4	-0.0061132554
94	0xbf2952c1	-0.661419
95	0xbcacdb80	-0.02110076
96	0x3e8764c8	0.26444077
97	0xbf0475ef	-0.5174245
98	0xbc2464ac	-0.010033768
99	0x3e80b240	0.25135994
100	0xbe5968c0	-0.21231365
101	0x3e61e2ef	0.22059225
102	0xbebebc2f	-0.37252948
103	0xbed64244	-0.41847432
104	0x3abc0ac0	0.0014346465
105	0xbeb0c57c	-0.3452567
106	0xbeb261ac	-0.34840143
107	0x3ea3197b	0.31855378
108	0x3eaa9ce6	0.3332283
109	0xbeb7e44b	-0.3591636
110	0x3ea18b55	0.31551614
111	0xbe9a0af2	-0.30086476
112	0x3ea47025	0.3211681
113	0x3e69f0be	0.22845742
114	0x3e9645a8	0.29350019
115	0x3e7f50cf	0.2493317
116	0x3e87f752	0.26555878
117	0x3e8c3cd8	0.2739017
118	0x3eb19796	0.34685963
119	0xbcb8e97c	-0.022572272
120	0xbed957b2	-0.4244972
121	0x3ea715ed	0.32633916
122	0x3e99e8ec	0.30060518
123	0x3e96ba2a	0.29438907
124	0x3d81400f	0.06311046
125	0x3e929576	0.28629655
126	0x3e88af10	0.26696062
127	0xbe2b478f	-0.16726516
128	0x3e529e50	0.20568204
129	0xbc7786c5	-0.015107815
130	0xbf063d30	-0.52437115
131	0x3ea0472f	0.3130431
132	0x3e6f9d15	0.23399766
133	0xbf1f37c0	-0.6219444
134	0x3e961b29	0.29317597
135	0x3e8ce9e2	0.27522188
136	0x3ca4700e	0.020072963
137	0xbf1c35ac	-0.61019397
138	0x3e9abe46	0.30223292
139	0x3ebd5276	0.36976975
140	0xbc0b1554	-0.008488972
141	0xbf2c56b9	-0.6731983
142	0x3ea39526	0.3194973
143	0xbeeaa46f	-0.45828578
144	0xbea2af4c	-0.31774366
145	0xbd5f5201	-0.054521564
146	0xbd9935ec	-0.07480988
147	0x3e6d28b4	0.23160058
148	0x3e85a2e4	0.26100838
149	0x3e697400	0.22798157
150	0x3e8542b6	0.2602746
151	0xbe980259	-0.2968929
152	0x3e4e888e	0.20169279
153	0x3eb1348d	0.34610406
154	0x3e9e4f19	0.30919722
155	0xbf05635e	-0.5210475
156	0x3eaa00f1	0.33203843
157	0x3d83cbf0	0.06435382
158	0xbc28bfb1	-0.010299609
159	0x3e8ea0ba	0.27857
160	0x3e82c20b	0.25538668
161	0x3e9de7c8	0.30840898
162	0xbf522d26	-0.8210014
163	0xbd4af85e	-0.049553268
164	0xbd3ce032	-0.046112247
165	0x3e93d061	0.28869918
166	0xbc7a2921	-0.015268595
167	0xbf365c34	-0.7123444
168	0x3e7cc5fa	0.24684897
169	0x3e81c59c	0.25346076
170	0x3e8bb071	0.27283052
171	0xbef64f2f	-0.48107287
172	0x3e966cc6	0.29379863
173	0xbcd3321e	-0.025780734
174	0x3d2be003	0.04196168
175	0x3c134f02	0.008991005
176	0xbf0ada27	-0.54239124
177	0x3e9c9a68	0.30586553
178	0xbea89ee7	-0.32933733
179	0x3e8a3094	0.26990187
180	0xbb509b46	-0.0031830831
181	0x3ea85510	0.32877398
182	0x3b86eb12	0.004117378
183	0x3e4f000e	0.20214865
184	0x3e53a5c3	0.20668702
185	0x3ea19ed5	0.31566492
186	0x3ea88ce1	0.32919982
187	0xbe8191a9	-0.25306442
188	0xbec38be0	-0.38192654
189	0x3e92cab6	0.2867028
190	0xbf3c02ce	-0.7344178
191	0x3e8e84fd	0.27835837
192	0x3e9e5763	0.30926046
193	0x3e642016	0.22277865
194	0xbee611fa	-0.4493559
195	0xbcd62994	-0.026142873
196	0x3ea60725	0.32427326
197	0xbebd472d	-0.36968365
198	0xbee74f89	-0.45177868
199	0x3e977d7f	0.29587933
200	0x3e9864be	0.2976436
201	0xbe0bcbe0	-0.13651991
202	0x3eabc284	0.3354684
203	0x3e8a3cd1	0.26999524
204	0x3e9b1093	0.30286083
205	0xbf3e30bc	-0.7429311
206	0x3e5f567d	0.21810336
207	0x3ea42055	0.32055917
208	0x3eaa4016	0.3325202
209	0x3e8837bf	0.2660503
210	0xbed55b1c	-0.41671073
211	0x3d0f1dbb	0.034940463
212	0xbec07f35	-0.3759705
213	0xbd9ad5a7	-0.07560282
214	0x3dbbee30	0.0917629
215	0x3e6e68e1	0.23282196
216	0xbe8fe3de	-0.28103536
217	0x3ea164e4	0.31522286
218	0x3e9e6de0	0.30943203
219	0x3c66a4b8	0.014077358
220	0x3e62399d	0.2209229
221	0xbc9462cb	-0.018113514
222	0xbf32c747	-0.69835323
223	0x3c46a96b	0.012125353
224	0x3e9236c6	0.28557414
225	0xbf0432a2	-0.5163976
226	0xbd0df79f	-0.034659978
227	0x3ea81e66	0.32835692
228	0xbea362dd	-0.31911364
229	0x3e97c68e	0.29643673
230	0xbf017bbb	-0.5057942
231	0xbef1d261	-0.4723082
232	0x3d3950a0	0.045242906
233	0xbeb4fdc0	-0.35349846
234	0xbd5937fe	-0.053031914
235	0x3e7c24a4	0.24623352
236	0x3eb28bff	0.34872434
237	0xbe3b882d	-0.18313666
238	0x3e5d5c0f	0.21617149
239	0xbdd6f4b9	-0.10495896
240	0x3e9def5b	0.30846676
241	0x3e9f0c60	0.3106413
242	0x3e286ead	0.1644847
243	0x3e8fe6ff	0.28105924
244	0x3e81dc7d	0.25363532
245	0x3e9ca0e1	0.3059149
246	0x3e8d6182	0.27613455
247	0xbd850251	-0.064945824
248	0x3ed60a90	0.41804934
249	0x3e9f02db	0.31056866
250	0x3e9d9ea6	0.30785102
251	0x3e4d32cd	0.2003891
252	0xbd23e71e	-0.040015332
253	0x3e784592	0.24245289
254	0x3ea23477	0.31680652
255	0xbeb0cd05	-0.34531417

layer3.bias f4 [2]
0	0x3cbc521e	0.022988375
1	0x3ddbbfd9	0.107299514
