model_weights/DQN/cartpole/cartpole_dqn_episode_3499.pth (torch, 72508 bytes, 6 tensors)

layer1.weight f4 [128, 4]
000000 41 8e af 3d 70 e5 18 be 3f 46 82 3d 3d 00 1f be
       0.08572055 -0.14931273 0.06361055 -0.15527435
000010 66 52 c0 bd 57 02 a8 3d 61 41 54 3e a1 95 12 3d
       -0.09390716 0.08203571 0.20728065 0.03578723
000020 9a 5a 3f 3e cb 1f 2a be d5 44 00 3f 36 de 26 3e
       0.18686906 -0.1661369 0.5010503 0.16295704
000030 ac 00 16 be 2e 6a 2b be 5e 30 28 3d d1 35 b6 bd
       -0.14648694 -0.16739723 0.04106175 -0.088969834
000040 bf a9 e4 3c 2a c6 5e be cb da 92 be 59 56 10 be
       0.027912972 -0.21755281 -0.2868255 -0.14095439
000050 0a 08 2a be ae 46 97 bc 77 69 0d bf c2 4b 2a bd
       -0.16604629 -0.01846632 -0.5523905 -0.041576155
000060 78 a8 a3 3e ad ba 9b bd 6c 5b 89 be 35 a0 ed bd
       0.3196447 -0.07603965 -0.26827562 -0.11602823
000070 5e 05 34 be f2 14 58 bd a0 5c f1 bc e8 0b 8b 3b
       -0.17580172 -0.05275435 -0.029463112 0.0042433627
000080 2d 9d 30 be 99 33 18 be e9 97 65 bd 10 ac cc bd
       -0.17247458 -0.14863433 -0.056053076 -0.09993756
000090 b2 3b ee 3d 97 7d 26 3e 61 3a 64 3e a4 9b 9a 3e
       0.1163248 0.16258846 0.22287895 0.3019687
0000a0 2d a2 1a 3e d2 78 3f be 8e dd 42 be 79 a0 0e be
       0.15100928 -0.18698433 -0.19029829 -0.13928403
0000b0 0c a0 a6 bd 00 91 ab bd 9f 4f 89 3d 50 49 89 bd
       -0.08135995 -0.08377266 0.0670464 -0.067034364
0000c0 18 5e 95 3e 42 13 4b 3d 6b 13 0e 3e 37 10 95 bd
       0.2917335 0.049578913 0.13874595 -0.07278483
0000d0 1c ea 13 3e ec 26 51 3c a9 55 45 bd 03 59 de bc
       0.14444774 0.012765627 -0.048177395 -0.027142053
0000e0 56 88 04 be 53 42 29 3e ec 81 ec 3d 5b fe 42 3e
       -0.12942633 0.16529207 0.11548218 0.19042341
0000f0 d8 65 76 be 20 ae 45 be 98 91 10 bf d1 59 15 be
       -0.24062288 -0.19304705 -0.5647216 -0.14585043
000100 88 63 46 be c4 88 37 3b 89 ff 93 3d 43 cc 5c ba
       -0.19373906 0.0028005103 0.07226474 -0.00084227714
000110 f1 c8 76 be 36 d7 09 bd 1e 27 0d bf 16 57 cf bd
       -0.2410009 -0.033652507 -0.55137813 -0.10124032
000120 79 cc 4b be 52 fc ee bd 1e dd dd 39 2f c0 9d bd
       -0.19902219 -0.1166922 0.0004231715 -0.07702672
000130 b1 7d e6 bc b6 e0 bd 3d 3b c4 83 3e 24 2d 23 3d
       -0.028136106 0.09271376 0.2573565 0.03983797
000140 82 07 17 3e 24 fe 48 be 75 6b ac bd da 95 1e be
       0.14748958 -0.19628197 -0.08418933 -0.15486851
000150 a9 e9 a3 bd de 02 ed 3d 30 0e b4 3c e8 28 95 bc
       -0.080035515 0.115728125 0.021979421 -0.018207982
000160 ed ce 4d 3e 03 ab 91 3d fe 88 38 be 38 9f 66 3c
       0.20098467 0.07112696 -0.18021008 0.014076047
000170 43 d5 5e 3e fc fc b7 3d 76 7b 72 3d 56 26 e7 bd
       0.2176104 0.089838 0.059199773 -0.11286609
000180 c2 f1 d4 3d ee c9 82 3e e9 ac af 3d 41 6e b7 3d
       0.10397674 0.25544685 0.08577902 0.08956576
000190 8b a0 ca bd 2f 55 c9 bd 6a 18 34 3e 33 f8 59 3d
       -0.098939024 -0.098307006 0.17587438 0.053215217
0001a0 0b 13 ab 3e 01 ce 4e 3d 03 c7 b9 bd aa 52 14 bd
       0.33412966 0.05048943 -0.090711616 -0.036211647
0001b0 f6 64 ff 3d 45 24 05 3d 7b 94 9d be e2 ca 9e 3c
       0.12470429 0.032505292 -0.30777344 0.019383851
0001c0 b9 34 69 be 9b da 0b be 86 37 2a 3e b9 f9 19 bd
       -0.22774018 -0.1365761 0.16622743 -0.03759167
0001d0 3c ff 52 be 82 bc 18 3d 24 9c 7a be 15 cf 79 3d
       -0.20605177 0.03728915 -0.24473625 0.060988504
0001e0 5a 32 4c be eb 0a 1a be 45 f8 2a 3e d7 cc 4f bd
       -0.19941083 -0.15043227 0.1669627 -0.05073246
0001f0 f6 80 4c 3e 8e 74 e0 3c a3 2f ee bd 1b 1e 01 3d
       0.1997107 0.027399328 -0.1163018 0.03152285
000200 2d 6b 63 be 80 a2 64 3d 50 e3 ae 3d bb 45 f6 3c
       -0.22208853 0.055819035 0.0853945 0.030062547
000210 65 ff 32 be d9 f9 17 3d 70 2c 9c 3e 0b 7c 95 3d
       -0.17480238 0.037103508 0.30502653 0.0729905
000220 25 ac d5 bd c8 26 93 be 57 e6 49 bf 1f f5 4c be
       -0.104332246 -0.28740525 -0.78867096 -0.20015381
000230 53 2f b5 3d 69 4f 05 3e 57 74 18 3e 25 33 18 bd
       0.08846917 0.13018574 0.1488813 -0.03715815
000240 e3 fb da bd 94 b3 2d be 48 db a7 be 28 98 28 be
       -0.10692575 -0.16963035 -0.32784486 -0.16464293
000250 a2 67 5e be dc 60 ab bd 83 fb 3c 3c 46 93 dc 3c
       -0.2171922 -0.08368084 0.011534574 0.026925694
000260 85 44 84 be 4f 6e 8c be b3 60 b8 3d c4 ad 0f be
       -0.25833526 -0.2742791 0.09002819 -0.1403113
000270 47 4d 86 be f1 4e 2a be 15 93 b1 be 6a 59 94 be
       -0.26230833 -0.16631676 -0.34682527 -0.28974468
000280 56 4a 7b be 59 ae 22 3c e8 90 85 be ee 7b 1f 3d
       -0.24540076 0.009929263 -0.26087117 0.038936548
000290 d0 5d 97 be 9d 01 20 3e f2 e6 25 be 5a 9a 32 3e
       -0.2956376 0.15625615 -0.1620138 0.17441693
0002a0 b9 99 4d 3e bb 90 a6 3e 68 ce 9f 3e 1b 0e 6c 3e
       0.20078172 0.32532296 0.31212163 0.23052256
0002b0 6f f8 6a be 57 83 8a 3d 3a c6 f2 3d 3b fb ae 3d
       -0.22946332 0.06763332 0.11854215 0.08544012
0002c0 7f 95 b4 bc de ac 1e 3e e1 7d 28 3f 56 ee 4d 3e
       -0.022043942 0.15495631 0.65817076 0.20110449
0002d0 5c f5 86 bb 35 a5 21 3c ae f0 fd 3c e5 34 41 be
       -0.0041186046 0.009866049 0.030998554 -0.18867834
0002e0 fc 63 0b 3e 8f 75 17 be 5c 44 84 be 45 88 f3 bc
       0.1361236 -0.14790939 -0.25833404 -0.029728064
0002f0 61 78 24 3e 67 dc cd 3d 31 66 d3 bd ac 61 ca bd
       0.16061546 0.10051804 -0.10322226 -0.09881911
000300 c0 ea 99 3e 98 b8 89 bd d0 a2 8a bd 73 5f c4 bd
       0.30061913 -0.067246616 -0.06769335 -0.09588518
000310 92 66 91 bd 26 d4 38 be 8f 98 ad be c9 53 12 be
       -0.07099642 -0.18049678 -0.33905455 -0.14289774
000320 40 27 39 3e 43 86 eb 3d 99 65 7a 3b 6a ab d1 3d
       0.18081379 0.11500218 0.003820753 0.10237773
000330 ae 9e 7c bd 48 51 18 be ac 3b f6 bd 87 03 9d 3c
       -0.061674766 -0.14874756 -0.120231 0.019166721
000340 40 f7 cb 3d 9b d9 f1 bd d1 c3 a4 be 96 50 80 bd
       0.099592686 -0.11809083 -0.32180646 -0.062653705
000350 db 8d 2b 3d e1 8b 76 3d 25 24 27 3f 0b 64 01 3e
       0.04188333 0.060191993 0.6528953 0.1263582
000360 9f a7 26 be 08 63 05 3e 03 13 a6 3e 82 f3 b4 bd
       -0.1627488 0.13026059 0.3243638 -0.08835508
000370 0d 4c 71 be 6b 21 7c 3d 13 78 86 be aa 2d 10 bc
       -0.23564167 0.061555307 -0.26263484 -0.00879995
000380 3a eb 04 3d e2 24 a7 bc 3f 62 74 3c ef a9 d9 bd
       0.032450892 -0.02040333 0.014916002 -0.106281154
000390 25 04 9f be 9e e1 8a bd cd 7c c3 be 74 39 93 bd
       -0.3105785 -0.06781314 -0.38181153 -0.07188693
0003a0 01 d1 35 3e 70 d2 2d be 7f f8 b8 3d fb 93 8f bd
       0.1775551 -0.16974807 0.09031772 -0.07010647
0003b0 1c 0a 5c bd 4b df f6 bd f1 f0 1e 3e e6 14 da bd
       -0.05372058 -0.120543085 0.155216 -0.10648517
0003c0 9d 15 94 bc 9c 46 ab 3e 96 6c 80 3e 5d e4 59 3e
       -0.018076712 0.33452308 0.25082844 0.2127852
0003d0 28 94 83 3b 0f f8 58 be 03 38 81 be 82 6f 07 bd
       0.0040154643 -0.21188377 -0.25238046 -0.033065327
0003e0 55 cf ee 3e 9f 7f 3d bd b0 30 7d bc a5 39 f6 bd
       0.46642557 -0.046264287 -0.015453503 -0.120227136
0003f0 e6 2a 9c be 52 0b 4a be 87 bb 18 3e 90 d6 96 3d
       -0.3050148 -0.19730881 0.14915286 0.07365143

layer1.bias f4 [128]
000000 64 30 c3 3e 72 49 90 3e 98 0c 64 be 35 66 c6 3e
       0.38122857 0.28181034 -0.22270429 0.38749853
000010 3e f7 ac 3e 12 7a 41 be 87 20 0c be da 99 9d 3e
       0.3378238 -0.18894222 -0.13684283 0.30781442
000020 a3 30 6c be 8b ac 03 be a4 c2 da bd ea c7 df 3e
       -0.23065428 -0.12858789 -0.10681656 0.4370721
000030 26 7c 1c 3e fe 74 f5 3e 33 a4 cb 3e 0a c4 65 be
       0.15281734 0.4794082 0.39773712 -0.22438064
000040 c7 76 97 3e c9 e4 fd bd 9c b3 5f bc 63 2d d2 3e
       0.29582807 -0.12397153 -0.013653662 0.41050252
000050 b5 f1 79 3e 54 d2 d7 3e a2 7e e8 3e 51 ee 58 be
       0.2440861 0.42152655 0.45409113 -0.2118466
000060 23 eb 5f be a8 9e 25 be 2e 57 d0 3e b7 2c 97 3e
       -0.21867041 -0.16173804 0.40691513 0.29526302
000070 58 7f 93 be 91 0d b0 3e 07 7c 6b bd 54 d8 03 be
       -0.28808093 0.3438535 -0.05749133 -0.12875491
000080 5e 9d b1 3e c1 49 6d 3e 76 f6 3c bc 3c 86 72 be
       0.34690374 0.23172666 -0.01153337 -0.23684019
000090 3b 54 31 be 09 09 ba 3e 49 a4 0a be e4 ee 03 be
       -0.17317288 0.36335018 -0.13539232 -0.12884098
0000a0 40 d4 84 be 53 ba 49 3e c3 f6 ed 3d 02 d6 c5 3e
       -0.25943184 0.19699983 0.11619332 0.38639838
0000b0 10 7a 54 be 31 41 a1 3e 8c e6 8d 3e 98 ad f0 3d
       -0.20749688 0.3149505 0.27714956 0.117518604
0000c0 ae 49 cc bd 6b 4e d2 bd e9 2c 97 3e b6 c5 b3 3e
       -0.09974991 -0.10268863 0.2952645 0.3511178
0000d0 7f ed e7 3e 64 58 dd bd 30 9a ac 3e bc 45 cd 3e
       0.45298383 -0.10807875 0.33711386 0.40092266
0000e0 ed c2 e0 3e 1b 09 75 be 37 0b f3 3e 3e 1a e2 3e
       0.43898717 -0.23929255 0.47469494 0.44160646
0000f0 f2 7b 4d 3e 1a bc d0 3e 7d 85 82 3e 97 2b 4f bd
       0.20066813 0.4076851 0.25492468 -0.05057868
000100 4e 0c 5c be ff b4 b6 be 27 6c 9e 3e 2a 67 f8 3d
       -0.21489069 -0.35684964 0.3094189 0.12129052
000110 18 ea e1 3e 83 75 0b be 71 7e 7a 3e bd a5 c5 3e
       0.44123912 -0.13619046 0.24462296 0.3860301
000120 e7 d1 96 3e 9b e5 2a be ae 24 9b 3e dd e0 d5 3e
       0.29457018 -0.1668915 0.30301422 0.4177312
000130 22 e4 20 3e 64 f7 16 be 31 c3 d6 3e 50 35 81 3e
       0.15712026 -0.1474281 0.41945794 0.25235987
000140 7e 04 83 be e5 a0 02 be f0 fe a3 3e a8 13 ee 3d
       -0.25589365 -0.12756689 0.3203044 0.11624843
000150 df 49 a9 3e a4 92 e6 3e 51 5f 74 be 73 2d ac 3e
       0.33064172 0.45033753 -0.23864485 0.33628425
000160 14 d9 87 be cb ef d1 3e 9e 1d bd 3e a1 ee 76 be
       -0.26532805 0.4100326 0.3693666 -0.24114467
000170 35 2d c9 3e f2 4f d4 3e 6b ff 7d be 6d 0e c6 3e
       0.39292303 0.41467243 -0.24804465 0.3868288
000180 7d 1f de 3e 48 58 38 be d6 8d eb 3e cb cb bb bd
       0.433834 -0.18002427 0.4600665 -0.0916973
000190 d9 d3 75 be 88 a1 e2 3e a2 24 c4 3e d6 28 4b 3e
       -0.24006595 0.44263864 0.383092 0.19839796
0001a0 00 f5 e8 3e e9 67 9b 3e e0 5f 01 be 93 64 db bb
       0.4549942 0.30352715 -0.1263423 -0.006695339
0001b0 ab db 90 3e 80 3d b4 bc 6e 8b 21 be 56 10 ad 3e
       0.28292593 -0.022001982 -0.15775844 0.33801526
0001c0 80 af c8 3e d6 ef 51 be 25 e8 e2 3e 5f 29 e7 3d
       0.39196396 -0.20501646 0.44317737 0.11287188
0001d0 37 a0 53 be 7b fa 3a be a9 df ee 3e 02 4f e3 3e
       -0.20666586 -0.18259613 0.46655014 0.44396216
0001e0 59 6e 07 be 51 02 11 3f 71 f2 b6 3e 5b 9f 05 be
       -0.13225688 0.5664416 0.35731843 -0.1304907
0001f0 6b 28 95 3d a0 0f cc 3e 6a 06 eb 3e 54 e2 da 3e
       0.072831 0.3985567 0.4590333 0.427508

layer2.weight f4 [128, 128]
000000 93 76 20 3e 40 a2 84 3e e3 b5 8c bd 35 38 f2 3d
       0.15670232 0.25905037 -0.0687063 0.11827127
000010 f3 4a ec 3d e8 a2 61 be 81 72 5d bd eb 64 15 3e
       0.11537733 -0.220348 -0.054064278 0.14589278
000020 18 76 16 be ba f6 77 bd 92 b6 ac be 12 dd 77 3e
       -0.14693487 -0.06053803 -0.3373304 0.24205425
000030 2f 37 90 3d eb 21 34 3e f9 95 4e 3e cb c0 84 bc
       0.070417754 0.17591064 0.20174398 -0.016205212
000040 91 26 06 3e 48 27 0c be 45 cf dd 3a 63 c8 4f 3e
       0.1310065 -0.1368686 0.0016922733 0.20291285
000050 29 71 3e 3e 37 2a 52 3e 3e 99 f6 3d d6 1f 99 bc
       0.18597855 0.20523916 0.120409474 -0.018691938
000060 a2 47 2e bd 59 1b c0 bd 37 cf 3b 3e 11 68 97 3e
       -0.042548783 -0.09380216 0.18340765 0.29571584
000070 fc 48 a5 bd ca c1 37 3e 77 a0 de bc 8d 09 21 be
       -0.08070561 0.17945018 -0.027176125 -0.157263
000080 ac 0c 54 3e e6 fb 2e 3e 41 98 f4 3c 8a 39 58 be
       0.20707959 0.17088279 0.029857757 -0.211157
000090 c2 3f e4 be bd 5a 3b 3e 21 33 4a bd ba e0 c0 bc
       -0.44579893 0.18296333 -0.049365167 -0.023544658
0000a0 0c 3a a8 be 78 dc 85 3e fd ff 3d 3d 63 72 5b 3e
       -0.32856786 0.26144767 0.046386708 0.21430354
0000b0 d4 27 c4 be 20 17 22 3e ac 7e 9b 3d 3c 68 27 3d
       -0.38311636 0.15829134 0.0759252 0.04087089
0000c0 f7 15 cd bc 73 a4 4a bd 2b 7f 22 3d 6b 20 ff 3d
       -0.025034888 -0.049473237 0.039672058 0.12457355
0000d0 d6 82 28 3e 59 3e e2 be 51 51 49 3e 88 0c 2b 3e
       0.1645616 -0.44188192 0.19659926 0.16703999
0000e0 ee 8d 73 3e 1b a2 61 be a5 d8 2f 3e 88 9f 28 3e
       0.2378461 -0.22034495 0.17172487 0.16467106
0000f0 ad f4 db 3d 14 ea 03 3e f6 f1 37 3e d4 7c c7 bc
       0.107400276 0.12882262 0.17963395 -0.024351515
000100 b0 95 16 be 3c 59 88 be e0 da 8c 3e 8b db 86 3d
       -0.14705539 -0.2663058 0.27510738 0.06584843
000110 ce c0 b4 3d bd 4e 5c be b4 66 b6 3d c5 35 47 3e
       0.08825837 -0.21514411 0.08906308 0.19454105
000120 a2 c9 0a 3e 44 73 02 bd 65 a9 ed 3d c8 d6 26 3e
       0.1355348 -0.031848207 0.11604575 0.1629287
000130 c1 cb 17 bd 09 de cd bd 86 9b 33 3e b6 8a 6a 3e
       -0.03705955 -0.100521155 0.17539796 0.22904477
000140 08 0d 1c be 7c bc 1b be be cd 0e 3e 61 9c a7 3d
       -0.15239346 -0.1520862 0.13945672 0.08184124
000150 51 32 52 3e 11 45 5d 3e eb 47 ab bd f6 dd 42 3e
       0.20527007 0.21608378 -0.08363327 0.19029984
000160 e6 3c c4 be 6d 8c 26 3e 98 c4 04 3e 50 ac b6 bd
       -0.38327712 0.16264506 0.1296562 -0.08919585
000170 18 4c e4 3d f2 93 54 3e cb bb b1 be 30 d9 1e 3e
       0.11147326 0.20759562 -0.34713587 0.15512538
000180 d8 84 24 3e 85 e1 69 be 04 60 16 3e 03 85 a3 bd
       0.16066301 -0.22839935 0.14685065 -0.07984354
000190 8d 9d a3 bd 8e ed 47 3e 61 a5 32 3e b6 4f 3e 3d
       -0.07989035 0.19524214 0.174459 0.046462737
0001a0 04 b2 f4 3d 6e 9f 32 3e 74 13 bf bc ea 7b 47 be
       0.11948016 0.1744363 -0.023324706 -0.19480863
0001b0 75 be 4d 3e 88 0e 42 bc d3 b7 ee bd 70 60 54 3e
       0.20092185 -0.011844285 -0.116561554 0.20739913
0001c0 8e 6f 40 3d fb 2d 4b be 3f 39 29 3e b7 eb c8 3d
       0.046981387 -0.19841759 0.16525744 0.09810584
0001d0 8e 28 d5 be 6d 60 e6 bd 64 1c 9e 3e d1 f1 84 3e
       -0.41632503 -0.112488605 0.30881035 0.2596574
0001e0 84 49 7a 3c 43 51 8b 3e 9a 7e 0f 3e 7c 4a aa bd
       0.015276317 0.27210435 0.14013138 -0.08314988
0001f0 50 0e 8e 3d 88 69 fe 3d 3e b5 34 3e e1 dc 19 3e
       0.06936324 0.12422472 0.17647263 0.15025665
000200 5a 90 e5 3c 81 dd 05 bc ce c0 db 3d 00 5f 88 3d
       0.028022934 -0.008170486 0.10730134 0.06658745
000210 77 3e 7f bc 46 fe 5e 3a 84 23 4a bc 88 23 28 3b
       -0.015578858 0.00085065176 -0.012337569 0.0025655944
000220 7c 0b e5 bc 8b d7 0c 3e f5 21 5a 3d 20 34 0f 3c
       -0.027959578 0.13754098 0.05325504 0.008740455
000230 93 86 2d bc bd 7e 6c bd 43 39 4e bb a8 f6 2f 3d
       -0.010591167 -0.057738055 -0.0031467236 0.04295984
000240 d7 87 c2 3c 1a 26 a9 bc bd 18 8a 3e c1 94 63 3c
       0.023746414 -0.020648051 0.26972 0.013890446
000250 6f f3 ae bc 15 89 3e bd 0c 30 c8 bd 3f 0c 40 3b
       -0.021356313 -0.04651745 -0.09774789 0.0029304174
000260 13 70 2a bd da 83 44 3e 5f cc 7b bc 05 a4 94 be
       -0.04161079 0.19190922 -0.01536855 -0.29031387
000270 3c 5b 93 3e 3c 32 f6 bc 0b 79 27 3e 93 0f eb 3d
       0.28780544 -0.03005325 0.16354768 0.1147758
000280 76 b8 07 bd 58 06 e3 bd 0c c2 78 bd f0 55 a4 3d
       -0.0331349 -0.11085194 -0.060731933 0.08024204
000290 58 64 94 bc fe 55 8f 3c 7b 71 ce 3e 3b 9c 0a bd
       -0.018114254 0.017497059 0.40320954 -0.0338404
0002a0 9a 7b 72 3d 6a 3f c5 3c 99 9d bb 3a 0e d3 82 bc
       0.059199907 0.02407809 0.0014313936 -0.01596978
0002b0 84 80 47 3e c6 7a 93 3a 95 6d 2d 3d 8a 9f 41 bb
       0.19482619 0.0011251799 0.042340834 -0.0029544556
0002c0 4f 3a 65 3c 98 1c 14 3f 24 97 e0 bc df 9a 89 3d
       0.013990953 0.5785613 -0.02741582 0.067189924
0002d0 ad 6f 7e bc 6c a2 88 3e 92 e7 97 3c 42 05 d0 bd
       -0.015529555 0.26686418 0.018543039 -0.10157253
0002e0 df 2b 20 bd 6b 42 0c be 65 53 d1 3c 71 0b 24 3d
       -0.03910434 -0.13697211 0.02555246 0.040049974
0002f0 d4 2d 39 3b 0e 64 80 3d 6e e9 7a bc 82 97 e9 3d
       0.0028256075 0.06269084 -0.015314443 0.11405851
000300 0c fa dc 3c 35 7d 01 bd 14 b9 a5 3d 87 0e c7 3d
       0.0269747 -0.031613547 0.080919415 0.09719568
000310 31 e8 40 bd 95 52 29 3e a6 ff ed 3d 63 80 90 3c
       -0.047096435 0.16535409 0.11621027 0.017639345
000320 9d 43 c3 bc a3 f9 b3 bc 14 82 d3 bc e4 4e 7a 3d
       -0.023835951 -0.021969622 -0.025818862 0.061110392
000330 1c 5f 6c bd dc 92 a0 bb 0e 4e 0f bd 7a 05 c5 be
       -0.05770789 -0.0049003195 -0.034986548 -0.3848074
000340 ee 7c 7a 3e 5e 84 4b 3d a8 1a cf 3d b0 06 0f bd
       0.2446172 0.049686782 0.10112506 -0.034918487
000350 78 a5 44 3d 4e 0e 20 be 92 ca 95 3b 78 d4 8a 3d
       0.048009366 -0.15630457 0.0045712674 0.067788064
000360 58 09 1b 3d 93 1b ba bb 7b f8 17 3c 67 02 4e 3c
       0.037850708 -0.0056795566 0.009275551 0.012573815
000370 ab 93 2e 3d 06 ab 68 bd de 08 ac bd 86 82 54 3d
       0.042621296 -0.056803726 -0.08400129 0.05188229
000380 56 f3 8a bd 9e ef 28 3e 38 08 45 3d 51 3b bd 3d
       -0.06784694 0.16497657 0.04810354 0.09239829
000390 95 6b 1b 3e 84 7b 19 ba 85 a0 b3 bd e1 09 f0 3d
       0.15177758 -0.0005854892 -0.08770851 0.11720634
0003a0 f6 6d 80 3d 51 7e 46 3d 80 41 8e ba f1 ea c5 3c
       0.062709734 0.04846031 -0.0010853261 0.02415988
0003b0 ab 93 95 bd 44 a0 fa 3d d0 6c 00 3e b4 88 28 3c
       -0.07303556 0.122375995 0.12541509 0.010286499
0003c0 04 63 41 bc 31 63 68 3e 33 30 4e 3d 6e be ed 3c
       -0.011803392 0.22694089 0.050338935 0.029021468
0003d0 85 eb 8d 3e 8a c4 18 3e 39 6e 97 bd 7f a6 b7 3c
       0.2771875 0.14918724 -0.0739407 0.022418259
0003e0 82 af 2e 3c 1a 6c 17 be 9a c2 9f bc 7f c1 f8 3d
       0.0106619615 -0.14787331 -0.019501973 0.121462815
0003f0 ae cd 75 3d 98 e1 0f bd 4a dd c5 bc 00 30 9c bd
       0.060010605 -0.035127252 -0.02415337 -0.07626343

layer2.bias f4 [128]
000000 ea d6 50 3e fb 50 0a bc 9d 0d 06 bd 14 88 4e 3e
       0.20394483 -0.008442159 -0.032727826 0.20169097
000010 51 f5 8a 3e 5a 89 67 bd bb 70 56 3e 8e 5d 83 3e
       0.27140287 -0.056527473 0.20941441 0.25657314
000020 ad 6b fa bb 24 fa 19 bd da 10 70 3e 2b d9 70 3e
       -0.0076422305 -0.03759207 0.23443928 0.23520343
000030 45 06 46 3c 8c 04 a4 bd f8 05 7e 3e c0 eb 06 3c
       0.012086456 -0.0800868 0.24806964 0.008234918
000040 d3 92 ad bc 05 08 11 3d 7e b0 75 bc 11 39 86 3e
       -0.021188175 0.03540804 -0.014995692 0.26215413
000050 70 f1 88 3e e3 39 78 3e 81 41 4f 3e 25 46 64 3d
       0.26746702 0.24240832 0.20239832 0.055730958
000060 df 1d 74 3e f4 e3 44 3e 80 1f 7e 3e 25 a2 92 3c
       0.2383952 0.19227582 0.24816704 0.017899582
000070 c0 58 6b 3e 9e 74 07 bd 5c 29 0f 3d ee 97 6f 3e
       0.22983074 -0.0330702 0.034951553 0.233978
000080 ff 42 80 3e 9b 84 63 3e 74 35 89 bc 72 45 ca bc
       0.25051114 0.22218554 -0.016749121 -0.024691317
000090 f3 97 08 3c e0 d5 59 3e 2f 04 9d bc 5e 8f 07 bc
       0.008337009 0.21272993 -0.019167034 -0.0082739275
0000a0 e8 8f 8d 3e 84 52 70 3e 95 f4 60 3e b9 42 b7 bd
       0.27648854 0.23468977 0.219683 -0.08948273
0000b0 4f 75 8c 3e 0a 3b 27 bd 21 e2 9e bc 42 c8 0b bd
       0.2743325 -0.04082779 -0.019394936 -0.034126528
0000c0 6d 55 84 bd 6a a5 41 3e ea 87 4f bd c9 af 66 3e
       -0.06461606 0.18910757 -0.050666727 0.22527994
0000d0 80 a0 91 bc dd 51 53 3e 05 c0 3e bc 9a 67 69 3e
       -0.017776728 0.20636697 -0.011642461 0.22793427
0000e0 80 b9 59 3e 45 dc 5f 3e 65 7a 67 3e c1 f3 ed bb
       0.21262169 0.2186137 0.22605284 -0.0072617237
0000f0 67 6e 37 bd 97 ad 8d 3e fa b4 61 bd 02 da 4d 3e
       -0.044783022 0.276715 -0.055104233 0.20102695
000100 76 cc 62 3e d5 90 5b 3e 0d 2c f3 3b 9e 88 b3 bc
       0.22148308 0.21441968 0.0074210227 -0.02191573
000110 90 42 6f 3e 70 bc fa 3c 03 f6 25 bd a5 e5 41 3e
       0.23365235 0.030607432 -0.04051782 0.18935259
000120 09 07 72 3e 9a e0 26 3d 1a 7e 6d 3e b2 3a 8b 3e
       0.23635496 0.04074154 0.23192635 0.27193218
000130 1b 00 7e 3e 3c c9 52 bd ee ee 3c 3e 58 55 85 3e
       0.24804728 -0.051461443 0.1845052 0.26041675
000140 8a b6 77 3e c8 5a 84 3e 34 eb c9 bc b5 67 c0 3c
       0.24190727 0.2585051 -0.024648286 0.023486951
000150 34 e0 17 bd 1a 24 ad 3b 93 af 77 bc 1c 23 54 3e
       -0.03707905 0.0052838447 -0.015117544 0.20716518
000160 fc d3 98 bc c7 69 49 3e d4 51 59 3e 58 e3 4d 3c
       -0.01865577 0.19669257 0.21222621 0.01256641
000170 a8 7a 80 3e 7e 2b a3 3c 19 99 44 bd a8 a6 81 bc
       0.2509358 0.0199182 -0.047997568 -0.015826538
000180 91 15 63 3e 1c 76 2c bd 33 db f9 b7 81 71 77 3e
       0.22176196 -0.042104825 -2.9785186e-05 0.24164392
000190 a9 36 94 bc 82 be 86 3e dc d9 d4 3b 0b 6a 18 3b
       -0.01809247 0.2631722 0.0064956974 0.0023256566
0001a0 d0 4f a7 3b 52 2a 5a 3c e6 7f b6 ba d3 96 77 3e
       0.00510595 0.013315754 -0.0013923615 0.24178629
0001b0 e5 11 5d 3e 2e 25 4f bc 3e 6c 80 3e f8 06 32 bd
       0.21588857 -0.012643142 0.25082582 -0.043463677
0001c0 41 8e 88 3e ba 31 7d 3e 18 e8 4f 3e eb ef 77 3e
       0.2667103 0.24726 0.2030338 0.24212615
0001d0 fa 35 88 3e 1f 1a 7b 3e ab d0 85 3e 34 c3 1c bd
       0.2660368 0.24521683 0.26135764 -0.038272098
0001e0 9c cf c6 3d e4 7a 6c 3e 0f c9 53 3e b0 87 83 3e
       0.09707567 0.23093754 0.20682167 0.2568946
0001f0 d5 e9 92 bc 75 41 8a 3e 85 cb 81 3e 9e 44 3f bd
       -0.017933765 0.27003065 0.25350586 -0.046696298

layer3.weight f4 [2, 128]
000000 f4 88 a5 3e aa 09 1b be 4a 30 8a be 71 0f 8f 3e
       0.3233105 -0.15140405 -0.26989967 0.27941468
000010 41 0d 92 3e dc f4 73 be 81 7f 8e 3e e0 10 89 3e
       0.28525737 -0.23823875 0.27831653 0.26770687
000020 b8 a1 f1 bc 24 9f c8 be a2 9d 6c 3e 2f 1e 9e 3e
       -0.029496059 -0.39183915 0.23107007 0.30882403
000030 e0 55 36 be 94 22 99 be 7c dc 9e 3e 85 dc 62 be
       -0.17806196 -0.29909194 0.3102759 -0.22154434
000040 53 93 01 be 31 f0 04 bd 6a 11 a4 be 1d 8f 99 3e
       -0.12653856 -0.032455627 -0.32044536 0.29992
000050 7c cc 8e 3e 68 c9 94 3e 3a 0f 9a 3e 76 53 99 be
       0.27890384 0.2905991 0.30089742 -0.29946488
000060 70 4e bd 3e a1 2e ad 3e c6 46 90 3e 75 cb e9 be
       0.36973906 0.33824638 0.28178996 -0.45663038
000070 1d 17 7b 3e 15 3a 1d 3d d6 6a a4 bc e6 54 8d 3e
       0.24520536 0.03838547 -0.020070475 0.27603835
000080 3a 61 8e 3e 84 56 88 3e b9 fe 0e bf a1 f5 f1 3c
       0.27808553 0.26628506 -0.55857426 0.02953607
000090 03 c7 d3 bb 57 6a 97 3e cb a9 24 bd 9d 0d f7 be
       -0.006462933 0.29573318 -0.04020099 -0.48252574
0000a0 5c c7 8d 3e 4a 6c a5 3e 03 de 8e 3e 85 1c 9d be
       0.27691162 0.3230918 0.27903756 -0.3068582
0000b0 81 1d 80 3e 3d 4f 18 3d 08 40 0a 3d fd 19 14 3d
       0.2502251 0.037184943 0.03375247 0.036157597
0000c0 1a fa 82 be da 0f 8f 3e c2 41 43 be ad 2e 8c 3e
       -0.25581437 0.2794178 -0.19068053 0.2737936
0000d0 29 20 9e bc 25 10 8f 3e 35 06 0f bd 07 1d 97 3e
       -0.019302445 0.27942005 -0.03491803 0.29514334
0000e0 ba 57 99 3e 90 f8 a7 3e ff e7 80 3e ad a7 d3 be
       0.29949743 0.32806826 0.25177 -0.41338864
0000f0 4a 11 ef be ab 9c 86 3e ed 9e f3 be 5e 28 81 3e
       -0.46692878 0.26291403 -0.47582188 0.2522611
000100 a3 0c 9b 3e 53 80 99 3e c9 1d aa be ab d1 a7 bb
       0.3028308 0.29980716 -0.3322585 -0.00512143
000110 1f d5 64 3e 9c b7 40 be 29 80 a6 be 5d fa 97 3e
       0.22346924 -0.18820041 -0.32519653 0.296832
000120 32 5a 77 3e 1d cd 7d 3e fe 50 8c 3e 63 52 95 3e
       0.241555 0.24785276 0.27405542 0.2916442
000130 2e 7f 8e 3e 03 c5 b8 be 25 14 a8 3e 60 11 c0 3e
       0.27831405 -0.36087808 0.3282787 0.37513256
000140 97 39 9a 3e 0d 84 9d 3e 19 c0 cf be 73 2b 41 bd
       0.30122063 0.3076481 -0.40576246 -0.047160577
000150 e5 b6 c2 be ee d7 52 be da 23 71 3c 9d 6e 9a 3e
       -0.38030162 -0.20590183 0.01471802 0.30162516
000160 f5 a2 ed bb c1 06 86 3e 73 36 80 3e 2b 5c 0c 3d
       -0.007252092 0.26177028 0.2504154 0.034267586
000170 1d 71 a3 3e ca ae 6a 3e 66 6e cd be e4 ed 51 bc
       0.31922236 0.22918239 -0.4012329 -0.012813065
000180 b6 fd 86 3e 7b de b8 be c3 73 c7 bb e1 64 7e 3e
       0.2636544 -0.3610724 -0.006086798 0.2484317
000190 e1 9e 1b be 1a 6c 6f 3e ed 48 6b be 1c 98 9f be
       -0.15197326 0.23381081 -0.22977038 -0.31170738
0001a0 33 58 64 3a ef 2b 5b be 6b 68 58 be ec 51 9b 3e
       0.00087106525 -0.21403478 -0.21133582 0.3033594
0001b0 51 c8 a2 3e 1f b7 67 be ba 4c 9b 3e 77 da 3a be
       0.31793454 -0.22628449 0.30331975 -0.182474
0001c0 ed ae 9c 3e 03 69 75 3e 3f 88 95 3e 78 ea 7c 3e
       0.30602208 0.2396584 0.2920551 0.24698818
0001d0 1c c2 86 3e 8e d6 8e 3e 34 81 bf 3e 9d 6e 60 bc
       0.2631997 0.27898067 0.37403262 -0.013698247
0001e0 c2 00 4b be 68 ad a1 3e a8 cf 99 3e 9f 46 93 3e
       -0.19824508 0.3157761 0.30041242 0.28764817
0001f0 ca e0 1c 3d 40 e8 8d 3e d8 a3 89 3e 8b 25 02 be
       0.038300313 0.27716255 0.26882815 -0.12709634
000200 db 7b 79 3e 40 f3 e3 3d 20 38 a4 be 30 b3 9c 3e
       0.24363653 0.11130381 -0.3207407 0.3060546
000210 21 20 78 3e 71 67 c1 be c2 bb 92 3e 98 f8 8d 3e
       0.24231006 -0.37774232 0.28658873 0.27728724
000220 37 81 47 3c 0b 12 bd be 96 e2 95 3e 72 7d b1 3e
       0.012176803 -0.36927828 0.29274434 0.3466602
000230 b9 c5 a8 bb 2a 9e d1 be 63 21 9d 3e ea 83 91 be
       -0.0051505235 -0.40940982 0.30689535 -0.28420955
000240 9d 3d 44 be fc bb 07 bd ca b7 5e 3a c6 65 80 3e
       -0.19164129 -0.03313826 0.00084960146 0.25077647
000250 0b 40 89 3e f7 88 77 3e fb b3 89 3e a2 e4 04 be
       0.26806673 0.24173342 0.26895127 -0.12977841
000260 32 b9 9b 3e d0 07 af 3e 56 49 9a 3e 3d ee 99 be
       0.3041473 0.34185648 0.30134076 -0.30064574
000270 32 09 9e 3e cd dd 1f 3d 39 b3 cc bb 4e 36 8e 3e
       0.3086639 0.039029885 -0.006246951 0.27775806
000280 09 ae 84 3e 2b d6 98 3e 9f 27 ff be 53 66 f6 bc
       0.25914028 0.29850897 -0.49834916 -0.030078089
000290 3d 53 e5 bc fe 31 8f 3e d5 0d 18 bc 68 8c db be
       -0.027993793 0.2796783 -0.009280642 -0.4288056
0002a0 09 d5 7f 3e b6 cd 84 3e fe c9 8b 3e 27 2b 98 be
       0.2498361 0.25938195 0.27302545 -0.29720423
0002b0 21 ae 8f 3e 22 27 80 bc d0 ad d0 3c bd c5 b2 3b
       0.28062537 -0.01564366 0.025473505 0.005455701
0002c0 65 7d a8 be 28 d5 9c 3e cc 53 4e be ed bf 8a 3e
       -0.32908168 0.30631375 -0.20149153 0.27099553
0002d0 08 25 fd ba 4e d5 a3 3e 85 ae 23 3b 69 e3 64 3e
       -0.0019313404 0.31998676 0.0024975848 0.22352375
0002e0 52 32 71 3e b0 ab 99 3e 11 76 9c 3e 86 f6 20 be
       0.23554352 0.300138 0.30558828 -0.15719041
0002f0 f5 96 6d be 9b f7 8e 3e 8a 63 e8 be 2a 00 8e 3e
       -0.23202117 0.27923283 -0.45388442 0.277345
000300 a8 5b 9c 3e 16 8f 78 3e 51 4b 8c be 5b 0f 82 bc
       0.30538678 0.24273333 -0.27401212 -0.015876463
000310 8c 7f 99 3e 04 60 6c be 38 3e 8d be a9 76 95 3e
       0.29980123 -0.23083502 -0.27586532 0.29192093
000320 71 2f 93 3e 9f 3d 1c be 5b 11 9d 3e 16 c5 89 3e
       0.28747132 -0.15257882 0.30677304 0.26908177
000330 45 c0 94 3e 8e d7 e6 be 7a 49 75 3e e6 58 cb 3e
       0.2905294 -0.4508633 0.2395381 0.39716262
000340 b1 ea 9d 3e 11 0d 8f 3e 0f 93 72 be cf bd ad 3c
       0.30843118 0.27939656 -0.23688911 0.021208672
000350 12 03 5d be 7d 00 b0 3c 7f 34 64 3d 00 81 7a 3e
       -0.21583202 0.021484608 0.055714127 0.24463272
000360 92 ab 2e be c4 87 97 3e 00 b5 99 3e d1 20 0c 3c
       -0.17057636 0.29595768 0.30020905 0.008552746
000370 64 e5 77 3e f8 81 00 be f4 de d8 be d8 18 f1 3b
       0.242086 -0.12549579 -0.423576 0.007357698
000380 9a cd 8d 3e a3 b2 9d be 15 4c ac bc 24 57 9b 3e
       0.27695924 -0.30800352 -0.021032372 0.3033992
000390 20 fe 4b be b1 00 92 3e 6e 31 9d be 5c 58 96 be
       -0.1992116 0.28516153 -0.30701774 -0.29364288
0003a0 8b ef e0 3c ef c4 5d be 56 06 04 bd 3b ef 80 3e
       0.027457973 -0.21657155 -0.032232605 0.25182518
0003b0 65 2c a6 3e 9a 24 d7 bd f3 5b 75 3e f3 91 82 bd
       0.32455745 -0.10505028 0.23960857 -0.06375494
0003c0 28 ee 99 3e cb 37 98 3e 6a ef 50 3e 86 3d 8b 3e
       0.3006451 0.29730067 0.20403829 0.27195376
0003d0 ab 03 81 3e 93 3a 99 3e cf 66 ab 3e 27 59 21 bd
       0.2519811 0.299275 0.33476874 -0.039391663
0003e0 15 14 e9 3e f5 d6 9d 3e e0 bd 9c 3e a1 b3 68 3e
       0.45523134 0.30828062 0.30613613 0.22724773
0003f0 61 df c6 bc 3a 9a 7f 3e 9e ac 99 3e e9 75 5c be
       -0.024276437 0.24961177 0.3001451 -0.21529354

layer3.bias f4 [2]
000000 b5 37 4f 3d b6 1d c0 3d
       0.050590236 0.09380667
