model_weights/DQN/cartpole/cartpole_dqn_episode_3299.pth (torch, 72508 bytes, 6 tensors)

layer1.weight f4 [128, 4]
00000000: df0c c53d a3ba 26be 50b0 923d 5b9a 2fbe
00000010: 2079 cfbd 072d c03d 6615 6c3e 4c7f 213d
00000020: c74a 533e 5a12 3cbe 87bd 0d3f 7b76 383e
00000030: 1dce 23be 7ee7 3abe eb71 3f3d 30f1 c8bd
00000040: 445f 053d 3a9c 73be 8b5c a1be 1c2c 1fbe
00000050: b5b7 3bbe 4007 a7bc 2131 1cbf e447 3cbd
00000060: d1aa b43e ff05 abbd 40f5 96be fba3 05be
00000070: 26d0 44be c25a 64bd 38c7 febc 47cc 9c3b
00000080: eb18 43be b511 28be 8194 7dbd aa23 e2bd
00000090: 6348 033e fa86 373e 9c04 7c3e 6ee2 aa3e
000000a0: 0f36 2a3e fb63 54be 8395 54be a9a2 1fbe
000000b0: 513e b5bd 0287 b9bd 910c 9a3d 69af 97bd
000000c0: 834d a13e 4d25 533d 50b0 0c3e 370a a8bd
000000d0: 761e 293e df24 ca3c 243b 4bbd 433e f4bc
000000e0: 1d1c 10be 1bc8 3d3e 9448 043e e12b 573e
000000f0: 6dec 88be 3908 5abe 5ea1 1fbf c038 23be
00000100: 3d15 59be c05a bd3b c489 a63d 68f9 69ba
00000110: 7eb8 88be 1735 17bd 6b33 1dbf 7d3e 05be
00000120: e441 60be 1dc6 03be 3b60 863a 048b abbd
00000130: 1165 eabc c156 d83d 7e6e 923e 7a9e 333d
00000140: 2a1a 283e 8115 5cbe 79de bbbd cd0d 2fbe
00000150: 3645 afbd e9d5 063e 0fc4 d73c c5b6 a1bc
00000160: 052e 693e 0464 ba3d 5c3e 47be e34e 7d3c
00000170: 8c11 763e b75c cb3d 740e 863d e0ec 00be
00000180: c51b eb3d 6d63 903e a114 c23d 6b7b ca3d
00000190: 5e96 dfbd 4d02 e0bd f3a6 473e c1cd 763d
000001a0: 70ef be3e 8b98 7a3d 4f43 c8bd e7ae 1dbd
000001b0: f24d 103e 5792 253d 8e0f adbe 747d b13c
000001c0: 0d0d 81be 66a1 1abe fd2e 3c3e 9cd1 28bd
000001d0: 1226 67be ca91 323d c5e5 89be b67a 8a3d
000001e0: be13 62be 0f19 2bbe 6169 3b3e 49c5 64bd
000001f0: 7bf5 613e 83cc f73c 08b2 03be 9095 0e3d
00000200: 76fb 78be 4ffc 833d 543e c43d 4f40 083d
00000210: 8c3b 44be c6da 2f3d 5ddf ac3e 5683 a43d
00000220: 0fcc eabd a85b a2be c19f 5ebf 28a2 60be
00000230: 940c c83d a030 133e ec58 283e 3511 28bd
00000240: e728 f2bd d6ec 3fbe be52 b9be 6b3f 3bbe
00000250: 97f1 73be 8dbb b8bd 17b7 653c 65fd f33c
00000260: 0334 92be fd11 9cbe 4af2 c33d d305 1dbe
00000270: d9b2 94be df2b 3bbe f228 c5be 553f a8be
00000280: d61f 8bbe 8b3b 2f3c a782 93be b129 3e3d
00000290: 0510 a6be bec2 353e 59a8 33be 7075 453e
000002a0: 4244 653e 1134 b63e 2400 a53e 6df9 823e
000002b0: 2fd1 80be 177a 9e3d 41d5 073e 2354 c13d
000002c0: ee65 c7bc ff4f 2f3e 7705 3a3f f57c 633e
000002d0: af13 27bb 51a3 643c ac40 133d 798d 55be
000002e0: 079c 1b3e 62eb 24be c166 91be a889 09bd
000002f0: f0bd 2a3e 897e e73d 59ee dfbd c59c f2bd
00000300: cdf4 a93e 109c 97bd 03eb 9bbd a37c debd
00000310: 6298 a2bd 9a45 4cbe 4f90 bebe 9769 2ebe
00000320: 3b47 503e 4abe 0a3e dd0e 003c 086d e73d
00000330: 5e50 88bd 94d4 25be f7f1 06be c303 ad3c
00000340: ec80 e43d 9e9b 03be 024d b5be ec82 8dbd
00000350: c174 3d3d eb65 883d 4c8c 383f 80db 0e3e
00000360: 2494 35be 6ed9 163e 4447 b83e c263 c9bd
00000370: cb71 84be d3a9 903d dc8e 93be 5a9d 1abc
00000380: 0e2f 1a3d 2cfb a3bc d8e1 933c c311 f0bd
00000390: 9ff3 adbe 2f55 97bd 040b dbbe 582d bdbd
000003a0: be49 4a3e ebbe 3dbe 6d05 cf3d 01cd 9ebd
000003b0: 01ca 6bbd bf31 06be 0323 313e b6bd f0bd
000003c0: f73e c8bc 9ec2 b13e 663a 8e3e c263 7b3e
000003d0: 14f5 c53b 3886 6dbe 6209 8ebe 74cf 14bd
000003e0: fd6f fa3e f3f6 7dbd ec39 a5bc 9025 01be
000003f0: fdeb acbe 08a3 5fbe e992 273e c83c a43d
0.096215956 -0.16282134 0.07162535 -0.17148726 -0.10130525 0.09383588 0.23055038 0.03942804
0.20633994 -0.18366376 0.5536732 0.18013947 -0.15996595 -0.1825237 0.0467395 -0.09811628
0.032561556 -0.23790064 -0.31515917 -0.1554417 -0.18331797 -0.0203892 -0.61012465 -0.045966998
0.35286573 -0.08350753 -0.29483986 -0.13050835 -0.19220027 -0.055750616 -0.031100854 0.004785094
-0.19052474 -0.16413005 -0.061909202 -0.11041959 0.12820582 0.17922583 0.24611133 0.33375877
0.16622184 -0.20741265 -0.20760159 -0.15589394 -0.088497765 -0.09058954 0.07521928 -0.07406504
0.3150445 0.051549245 0.13739133 -0.08205073 0.16515526 0.024675785 -0.049616948 -0.029814845
-0.14073224 0.18533365 0.12918311 0.21012832 -0.2674288 -0.21292199 -0.623556 -0.15939617
-0.21199508 0.0057786405 0.081317455 -0.0008925409 -0.26703256 -0.036915865 -0.6140658 -0.13012119
-0.21900135 -0.12868543 0.0010252068 -0.083761245 -0.028612645 0.10563422 0.28599924 0.043852307
0.16416231 -0.21492578 -0.09173293 -0.17095108 -0.08558123 0.13167538 0.026338605 -0.019740472
0.22771461 0.09101108 -0.19457382 0.015460703 0.24030131 0.09929793 0.065457255 -0.1259036
0.11479906 0.28200856 0.09476591 0.09886821 -0.10917352 -0.10937939 0.1949728 0.060254816
0.3729205 0.061180633 -0.09778463 -0.038496878 0.14092234 0.040422764 -0.3380093 0.021666266
-0.2520527 -0.15100631 0.183773 -0.041215524 -0.22573116 0.043596067 -0.26933113 0.067616865
-0.22077844 -0.16708778 0.18301918 -0.05585221 0.220663 0.030248886 -0.12860882 0.034810603
-0.24314675 0.064446084 0.09582201 0.033264454 -0.1916334 0.042933248 0.33764163 0.08032863
-0.11464702 -0.31710553 -0.86962515 -0.21936858 0.09768024 0.14374018 0.16440171 -0.041032035
-0.11824208 -0.1874269 -0.3619594 -0.18285911 -0.23822628 -0.090201475 0.014020703 0.029783914
-0.28555307 -0.30482474 0.09567697 -0.15334253 -0.290427 -0.18278454 -0.385078 -0.32860819
-0.27172726 0.0106953485 -0.28810617 0.04642648 -0.32434097 0.1775007 -0.17544688 0.1928308
0.2238932 0.355866 0.3222667 0.25580922 -0.25159594 0.077381305 0.13264944 0.09439876
-0.024340596 0.1712036 0.7266459 0.22215636 -0.002549391 0.013954953 0.035950348 -0.20854749
0.15196238 -0.16105416 -0.28398708 -0.033578545 0.16674018 0.113034315 -0.10934133 -0.11846308
0.3319458 -0.074028134 -0.07613184 -0.10863616 -0.07939221 -0.19948426 -0.37219474 -0.17032467
0.20339672 0.13549152 0.007816044 0.11300093 -0.06655954 -0.16194373 -0.1317824 0.021119958
0.111574024 -0.12852332 -0.35410315 -0.06909737 0.046253923 0.06660064 0.72089076 0.1395092
-0.17732292 0.1473138 0.3599187 -0.098334804 -0.25868067 0.070636414 -0.2881993 -0.00943693
0.03764253 -0.020017229 0.018052027 -0.11722138 -0.3397493 -0.07389294 -0.42781842 -0.09237164
0.19754693 -0.1852986 0.10108457 -0.07753945 -0.057565693 -0.13104914 0.17298512 -0.117549345
-0.024444086 0.34718794 0.2777893 0.24549773 0.0060411785 -0.23195732 -0.27741534 -0.036330655
0.48913565 -0.062003087 -0.02016922 -0.12611985 -0.33773795 -0.21839535 0.16364636 0.080194056

layer1.bias f4 [128]
00000000: ecd9 cc3e b2cb 8f3e d352 7bbe 7177 cf3e
00000010: 32b5 b33e bca1 55be 7c45 1bbe 8e04 a23e
00000020: 9892 82be 5d9a 10be 50b0 eebd cf64 ed3e
00000030: a0b1 103e 0525 f13e fefc d23e 7cd1 7cbe
00000040: eef9 993e 29a2 09be a977 91bc 47e3 d73e
00000050: 5d0b 813e f90f dc3e 5a3f df3e f44b 6fbe
00000060: ef39 77be 78a4 36be 6d16 d13e 6c33 953e
00000070: c5a3 a2be fab6 b63e 012c 7fbd de8f 11be
00000080: 0cc9 b63e b73e 723e 1bc5 82bc be22 86be
00000090: beaf 43be ef7a c23e acd6 15be 8d07 11be
000000a0: 7c4d 92be 5d03 2d3e aa8b c43d fbb3 cc3e
000000b0: fa92 6abe 3ead a33e cfd3 903e c771 033e
000000c0: 81fe debd aab9 e3bd c0c5 8a3e 64a3 ba3e
000000d0: d7a2 f53e 457b f4bd bd22 ad3e 6607 d63e
000000e0: 5c67 eb3e 5312 8abe 00ad 003f 36c4 ed3e
000000f0: 8c2e 3e3e 1ba5 db3e b74d 873e 699f 5dbd
00000100: 0c19 73be 7415 cabe 1595 a03e dd68 f53d
00000110: ce79 d63e a105 1abe 495b 6c3e 0138 c13e
00000120: 8a3a 9b3e 6d6a 3bbe 2b17 9c3e fca3 e13e
00000130: 68c6 1b3e 922d 26be df7c c73e 8f4e 763e
00000140: fd60 90be dcea 0fbe 5e69 a73e 2ae7 b73d
00000150: 9302 a73e 437b ee3e 9f44 86be e819 b23e
00000160: 7b02 96be 736f dc3e b50b c63e 779d 88be
00000170: 8d98 cd3e ec6c dc3e 1768 8cbe b03d cf3e
00000180: 4264 cf3e 767c 4bbe d188 f83e da6d cfbd
00000190: 3a20 87be 79d5 ce3e 6a0c ce3e 656b 473e
000001a0: 53b4 f23e 90dd 9f3e f279 0cbe a38e ecbb
000001b0: a956 8c3e 1bd3 9abc 5671 32be 4b58 b13e
000001c0: 0226 9f3e b4dd 5fbe de6c ee3e 617a d43d
000001d0: 4c42 65be 068f 4ebe a466 f93e 2a3e ec3e
000001e0: d133 16be 3bea e93e 4197 bf3e 7489 13be
000001f0: b8d1 5d3d dc6d c23e e0c3 f83e 3557 e73e
0.4001001 0.28085095 -0.24543314 0.40520814 0.3509918 -0.20862478 -0.15163225 0.316441
-0.25502467 -0.14121385 -0.11654723 0.46365973 0.14130259 0.47098556 0.41208643 -0.24689287
0.30073494 -0.13440765 -0.017757254 0.42165586 0.25203982 0.42980936 0.4360302 -0.23368818
-0.24143194 -0.17836177 0.40837422 0.29140794 -0.3176557 0.35686475 -0.062297825 -0.14215037
0.35700262 0.23656736 -0.015963128 -0.2619838 -0.19110009 0.37984416 -0.14632672 -0.14163037
-0.2857474 0.16895814 0.09596951 0.39981064 -0.2290763 0.3196811 0.28286597 0.12836371
-0.108883865 -0.11119397 0.27103996 0.36452782 0.479758 -0.11937574 0.33815566 0.4180252
0.45977294 -0.26967105 0.5026398 0.4643876 0.18572444 0.42899403 0.2642648 -0.054107103
-0.23740023 -0.39469492 0.3136374 0.11982892 0.41889805 -0.1504121 0.23081698 0.3773804
0.303181 -0.18302317 0.30486426 0.44070423 0.15212405 -0.16228321 0.38962457 0.24053405
-0.28198996 -0.14054435 0.32697576 0.08979638 0.3261915 0.46578416 -0.2622423 0.3478539
-0.29298767 0.4305378 0.38680807 -0.26682636 0.4015545 0.4305185 -0.27423164 0.4047675
0.40506178 -0.19871697 0.48541883 -0.101283744 -0.26391774 0.40397242 0.40243846 0.19474562
0.474032 0.31223726 -0.13718393 -0.007219152 0.27409866 -0.018899491 -0.17426047 0.34637675
0.31083685 -0.21861917 0.46567434 0.103749044 -0.22388572 -0.20171747 0.4871112 0.46141177
-0.14668204 0.45686516 0.37420085 -0.14407903 0.05415508 0.3797444 0.4858694 0.4518372

layer2.weight f4 [128, 128]
00000000: ff52 223e e113 7a3e c5e7 9bbd d616 f63d
00000010: 5643 f03d 6e18 79be 2eba 74bd 4094 183e
00000020: a727 26be 1938 89bd 19cf bebe da3a 823e
00000030: 51f8 823d 0ce1 1f3e 2910 463e 8c50 94bc
00000040: 8218 053e bd34 1dbe e34a a439 de30 3f3e
00000050: ccb6 463e be83 433e 1e25 d53d 1a5e a8bc
00000060: 9491 40bd 904c d7bd 9b6b 2f3e f894 953e
00000070: 2d87 b6bd db92 3b3e 70df 00bd a7e3 31be
00000080: f7ac 573e 4b2a 2e3e fc1c fe3c 85db 6ebe
00000090: 760e fcbe 5b24 443e 1fdf 64bd 09a8 e0bc
000000a0: 77bb b9be 59a2 863e 10f5 403d 632a 603e
000000b0: f88d d8be 32fa 173e e98a 8e3d cdfe 1a3d
000000c0: 4029 e3bc 92d3 61bd e744 d73c 8a2c 023e
000000d0: e14e 2a3e 99c8 f9be f20c 3c3e 728a 2c3e
000000e0: 8002 763e 462a 7abe f89b 313e b9b3 2b3e
000000f0: 6112 db3d 021d 073e 40c3 313e 68b3 e5bc
00000100: 684a 26be e090 96be f914 883e db0f 833d
00000110: 5eb6 973d e85f 73be 3ac0 b23d 71d6 363e
00000120: f82a 053e f416 10bd 5339 eb3d 8232 293e
00000130: c9f4 6bbd 9cee e5bd 0237 203e 0be4 5c3e
00000140: c84d 2cbe 9077 2bbe 86e5 113e fef6 a33d
00000150: 165c 4a3e 6a2f 503e bdb7 bebd 660c 453e
00000160: a8a4 d8be a239 2d3e 03ac 073e 50a9 c9bd
00000170: 966a cc3d deba 503e 6b4f c4be c9e9 1b3e
00000180: ccea 0c3e 1746 81be 0bdc 123e bd94 b4bd
00000190: 72c3 b4bd d372 253e 9d82 363e f512 323d
000001a0: 8d99 e03d 7536 3a3e 1879 d4bc 5e7e 62be
000001b0: 1cb3 3d3e 4ae2 5dbc a3fe 03be 6e39 533e
000001c0: 2e9b a53c d745 62be c06c 2e3e ffd3 cd3d
000001d0: 755a ebbe c177 febd ea7c 9d3e 15a3 803e
000001e0: 8695 6e3c 9a7f 4b3e ddaf 103e f1fb bbbd
000001f0: 7a9b 913d 9fcc e33d 138c 383e e0c5 1c3e
00000200: 6105 123d ef78 c6bc 6956 f23d dad0 8f3d
00000210: 4f67 86bc 473d 763a 6a54 5fbc 5b3f 90bb
00000220: 5af5 fcbc 4a8d 1b3e e3bc 763d 1f92 cc3b
00000230: 94ed 2fbc ef32 84bd fc9d 5abc 1778 4b3d
00000240: 3c21 813c bdd5 c6bc 7996 943e 08e7 f53b
00000250: db07 33bc 1d04 63bd e9b4 debd 7e21 543b
00000260: f324 3cbd 0798 553e 3fd7 3dbc d281 a7be
00000270: 6aa9 a23e 42a1 33bd 70a1 353e ffef 013e
00000280: 9242 47bd 2263 06be d9c3 37bd cd7c b53d
00000290: 79d5 a3bc c00e 553c 0a5e e43e 02a7 05bc
000002a0: 1555 733d 0ef3 803a 544d cf3a d07a dfbc
000002b0: 9249 5c3e 8c1a 613c 2435 3c3d e559 5cbb
000002c0: 6b2a 7d3c 2d2a 6e3f 2788 0abd e021 8f3d
000002d0: baa9 9abc 32e2 963e 43bd b13c 9ecf f5bd
000002e0: f328 2cbd d054 47be 2fbf e43c 5ab5 2e3d
000002f0: c4ff 08bc 9a96 873d 320b 96bc a6d8 f53d
00000300: a316 f43c aaf4 0ebd daf1 ab3d 826c d83d
00000310: a8ca 57bd 81ed 3a3e 187b f73d f6e6 793c
00000320: 280d b3bc 6067 d2bc 05b9 10bd 89fa 863d
00000330: 014a abbd 2b62 b1bb e279 0fbd e2ca f3be
00000340: 7385 8a3e d9e6 603d 1d58 d93d 479a 1abd
00000350: 48c1 2d3d 7c24 3cbe fa6a a53b 8064 8e3d
00000360: 0730 2b3d 2107 42bc e63d 6b3c 7592 633c
00000370: 7909 433d fba4 82bd 2106 bebd b6d2 643d
00000380: 624f 8dbd 8b81 3a3e 548d 583d fc1f d13d
00000390: 7842 2b3e d39b 643c a2d3 c2bd ac4b 113e
000003a0: 0cbb 853d c334 3c3d b11e 3b3b 078b 403d
000003b0: 729b abbd 0866 073e 45e4 0d3e fca7 57ba
000003c0: 4480 f2bb e3fc 653e 67c4 493d 982a 023d
000003d0: 82c6 aa3e 24b1 283e ea2c c4bd b43f 823c
000003e0: 1c02 413c cf9d 3bbe 1aef 84bc a9a1 093e
000003f0: a45e 873d 26f7 f8bc f555 01bd 3f92 babd
0.15851973 0.24421646 -0.07612566 0.12016074 0.11731593 -0.24325725 -0.059747867 0.14900303
-0.16226064 -0.06700153 -0.37267378 0.25435525 0.06395019 0.15613192 0.19342102 -0.018104814
0.1299763 -0.1535215 0.00031336313 0.18670985 0.19405669 0.19093224 0.1040747 -0.020552684
-0.047013834 -0.1051265 0.17130892 0.29215217 -0.089125015 0.1831774 -0.031463087 -0.17371999
0.21062075 0.17008321 0.03101968 -0.23325928 -0.49229783 0.19154494 -0.055876847 -0.027423875
-0.36275837 0.26295736 0.04710871 0.21891169 -0.42295814 0.14841536 0.06960089 0.037840653
-0.02772963 -0.05513341 0.026277972 0.12712303 0.16631652 -0.48785856 0.18364313 0.16849688
0.24024391 -0.24430189 0.17344654 0.16767778 0.10696865 0.1319466 0.17359638 -0.02803965
-0.16239321 -0.29407406 0.265785 0.063995086 0.07407831 -0.23767054 0.087280706 0.1785524
0.13004673 -0.03517814 0.11485543 0.16523173 -0.057606492 -0.11227152 0.15645984 0.21571366
-0.16826546 -0.16744828 0.14247712 0.080060944 0.1976169 0.20330587 -0.09312389 0.19243011
-0.42313123 0.16916516 0.13249211 -0.09846747 0.09981267 0.20383784 -0.3834184 0.152259
0.13761443 -0.25248787 0.14341752 -0.08817432 -0.08826341 0.16157083 0.17823263 0.04347511
0.109667875 0.18184836 -0.025936648 -0.22118518 0.18525356 -0.013542721 -0.12890105 0.20627376
0.020215597 -0.22096954 0.17033672 0.10050201 -0.4596745 -0.12425185 0.30759364 0.25124422
0.014562016 0.19872895 0.14129587 -0.091789134 0.07109733 0.11123013 0.18022184 0.15309858
0.03564966 -0.024227588 0.11832888 0.07022257 -0.016406683 0.00093932863 -0.013630966 -0.004402084
-0.030878711 0.15190616 0.06023873 0.006243005 -0.010737795 -0.06455027 -0.0133433305 0.049675073
0.015762918 -0.02427184 0.29021052 0.0075043477 -0.010927166 -0.055423845 -0.108743496 0.0032368596
-0.045933675 0.20858775 -0.011586963 -0.32716233 0.31769878 -0.04385496 0.17737365 0.12689207
-0.04864747 -0.13123754 -0.04486451 0.088616945 -0.019999253 0.013004005 0.44602996 -0.008157494
0.059407312 0.0009838061 0.0015815892 -0.027280241 0.2151244 0.013739239 0.045949116 -0.0033622917
0.015452008 0.93033105 -0.03382125 0.06988883 -0.01887976 0.29469448 0.021696692 -0.120024905
-0.04203124 -0.19465947 0.027923195 0.04265342 -0.0083617605 0.06620522 -0.018315885 0.12004213
0.02979595 -0.0349013 0.08395739 0.10567571 -0.052683502 0.18254663 0.12084025 0.015252819
-0.02185686 -0.025684059 -0.0353327 0.065907545 -0.083637245 -0.005413314 -0.035028346 -0.47615725
0.2705494 0.054907653 0.106125094 -0.037744787 0.042420655 -0.18373293 0.005048153 0.069527626
0.04179385 -0.01184252 0.014358019 0.013889899 0.047616456 -0.06379124 -0.09278513 0.055865012
-0.06899907 0.18213479 0.052869156 0.10211179 0.16724575 0.013953167 -0.09513022 0.14189023
0.06529817 0.045948755 0.002855223 0.047007587 -0.08379258 0.13222516 0.13856609 -0.0008226631
-0.0074005444 0.2245975 0.04925957 0.0317789 0.33354574 0.16473824 -0.09578879 0.015899517
0.011780288 -0.18321918 -0.016227294 0.13440575 0.06609848 -0.030391287 -0.031576116 -0.091099255

layer2.bias f4 [128]
00000000: 58fc 4c3e 5173 69bc f603 14bd 91f9 4b3e
00000010: f0e5 8c3e 46c8 7fbd f4ea 533e 33bd 843e
00000020: 4983 0abc b405 2abd 1d77 6f3e ace5 6e3e
00000030: 2295 5a3c 0324 b5bd 1398 7f3e c3dc bb3b
00000040: 4d4b c2bc 922e 203d a52a 53bc be9d 873e
00000050: ed49 8a3e 3b76 793e fdeb 4c3e 6ef3 703d
00000060: 8c55 633e a009 3b3e 3354 803e b5f1 a13c
00000070: 81b3 6b3e db92 15bd 0b20 1e3d 8984 6f3e
00000080: 1507 823e 1743 623e 9085 97bc 917b dfbc
00000090: 8fd6 163c 84bb 573e f361 adbc 94b0 15bc
000000a0: b332 8f3e db92 713e 874f 603e 424c cabd
000000b0: 653a 8e3e 46a5 38bd 198a afbc 9161 1abd
000000c0: dd1a 92bd a0ef 3c3e ca33 65bd 9b44 653e
000000d0: 4cd6 a0bc 9868 503e b6bb 52bc cdb0 683e
000000e0: a0e7 553e 6448 5f3e 79d6 663e 5990 03bc
000000f0: 947b 4abd 3888 8f3e ea2c 79bd bfbf 4a3e
00000100: be86 613e ac6f 5a3e b0bd df3b a542 c6bc
00000110: b089 6f3e 17e6 023d b342 37bd b5cd 3d3e
00000120: 86cc 713e cdaa 423d 8bb9 6e3e 1125 8d3e
00000130: 638b 803e a2b0 68bd bef6 373e 7209 7d3e
00000140: ad63 7a3e bc6f 853e 7113 dfbc fe83 d43c
00000150: 0590 23bd de34 323c ff09 89bc 2af5 513e
00000160: 22c2 a8bc c5c4 453e e62f 563e 2e71 633c
00000170: f05b 823e 0ef7 383c f307 59bd ca1f 8fbc
00000180: 7bf9 613e 3c87 3ebd cc36 0ab8 a271 783e
00000190: adae a3bc a40b 883e 32bd ec3b 994d 283b
000001a0: f0bb b83b 4513 713c 3379 c9ba 2873 783e
000001b0: 11fb 5c3e 01ca 64bc 2dfe 813e dca0 44bd
000001c0: b69e 8a3e ab90 7e3e 7af2 4b3e 9579 783e
000001d0: 2bd8 893e 49bc 7c3e 4584 813e 1216 2dbd
000001e0: 7da9 c13d c9f6 6a3e 0b07 513e 75e3 843e
000001f0: 9040 a2bc f9f7 8b3e 3992 833e 824a 53bd
0.20018137 -0.014248685 -0.03613659 0.19919421 0.27519178 -0.062446855 0.20695096 0.25925598
-0.008454152 -0.041509345 0.23385282 0.233298 0.01334122 -0.08844759 0.24960355 0.005733104
-0.023717547 0.039106913 -0.012888585 0.26487535 0.27009526 0.24361508 0.20011897 0.058825903
0.22200602 0.1826539 0.2506424 0.019768575 0.23017694 -0.036517005 0.038604777 0.23390402
0.25396028 0.22095905 -0.018496305 -0.0272806 0.009206428 0.21067625 -0.02116487 -0.009136338
0.27968368 0.23591177 0.21905337 -0.09877826 0.27778926 -0.045079492 -0.021428155 -0.037690703
-0.0713403 0.18450785 -0.055957593 0.22389452 -0.019633435 0.203524 -0.012862137 0.22723694
0.20889139 0.21804959 0.22542752 -0.008030021 -0.04943426 0.28033614 -0.06083385 0.19799708
0.22024056 0.21331662 0.0068280324 -0.0242017 0.23392367 0.031957712 -0.044741344 0.18535502
0.23613176 0.04752617 0.23312967 0.27567342 0.25106344 -0.056809075 0.17965218 0.24710634
0.24452086 0.2606181 -0.02723095 0.025941845 -0.03993227 0.010876862 -0.0167284 0.20503679
-0.020600382 0.19313343 0.2091671 0.013881965 0.25460768 0.011289371 -0.052986097 -0.017471213
0.22067825 -0.04651569 -3.2952797e-05 0.24262097 -0.019980753 0.2657138 0.0072247023 0.0025681017
0.0056376383 0.014714067 -0.0015371203 0.24262679 0.21580149 -0.013964177 0.25389233 -0.04800497
0.27074212 0.24859874 0.19916716 0.2426513 0.26922736 0.246812 0.25296226 -0.042257376
0.094561554 0.22945704 0.20412843 0.25954786 -0.019806176 0.27337626 0.25697497 -0.051584728

layer3.weight f4 [2, 128]
00000000: df97 a63e 07c4 2bbe 459c 98be 6995 8f3e
00000010: aa2f 953e f8f0 86be e9f3 8e3e 9ca4 893e
00000020: 34a2 05bd 4a94 ddbe 7366 6b3e 871f 9e3e
00000030: ac4b 49be 9618 a9be 6916 a13e b5b3 7abe
00000040: 6759 0fbe d4c6 12bd 6134 b5be b3bd 9a3e
00000050: 0e0e 8f3e c51e 973e f8bd 9b3e d566 a8be
00000060: 323b b63e afa2 ac3e 0ecd 913e ae39 01bf
00000070: a82e 7b3e a1a2 2d3d 9993 b5bc b7dd 8d3e
00000080: 4714 8f3e f8d6 883e 6bf3 1dbf 67d1 053d
00000090: 58c6 e9bb 8221 993e 47d8 35bd e5ae 08bf
000000a0: 1f9a 8e3e ec87 a83e 2752 913e 277f adbe
000000b0: 814b 813e 1c30 283d c3ad 183d 238f 233d
000000c0: f398 90be bc11 8f3e 3396 57be 3826 8d3e
000000d0: 7fb6 aebc 8e1d 8f3e bcfb 1dbd 30db 993e
000000e0: 4878 9a3e 5035 ab3e 79e1 813e 88a2 e9be
000000f0: f630 04bf 693a 873e a2c0 06bf 90d3 813e
00000100: 92d7 9b3e 7066 9b3e 018f bbbe 9949 b9bb
00000110: eac1 633e 431d 55be 68d9 b7be 041f 993e
00000120: 2748 763e bba6 873e 1790 8d3e 12e1 973e
00000130: d00d 903e 50fb cbbe 48a0 aa3e b566 b53e
00000140: d94a 9c3e 17b3 9d3e fc6f e5be ca56 55bd
00000150: 55d5 d5be 421a 69be 675b 853c 9094 9c3e
00000160: e662 03bc 4a23 873e 0362 803e e905 1b3d
00000170: 3cae a63e 81dc 863e e1f3 e2be 9fc5 67bc
00000180: a8f4 873e 0619 ccbe db3a dcbb 8184 7f3e
00000190: 84d4 2bbe d072 6e3e f909 82be a050 b0be
000001a0: 2a2a 7c3a b729 72be 1811 6fbe da2d 9d3e
000001b0: f788 a53e 25fc 7fbe 2fe9 9c3e ac69 4ebe
000001c0: 335d 9e3e b11c 743e 10f3 963e cdd8 7e3e
000001d0: 9e2f 883e 550b 8f3e 0a81 bd3e 2dc6 77bc
000001e0: 907d 7ebe 7a29 a33e 8b8b 9a3e 5b24 953e
000001f0: 7a37 2d3d 3ec8 8e3e 7c42 8a3e c6ac 0fbe
00000200: 50a3 733e a9d7 f53d 475c b5be ccb4 9d3e
00000210: f278 783e 6697 d5be a1de 943e cfc5 8e3e
00000220: 604a 5c3c a9ec d0be c15e 983e 4664 b43e
00000230: d753 babb 3370 e7be ee09 9e3e 699f a0be
00000240: 9bb5 58be 27e2 15bd b7ca d83a cb3a 803e
00000250: f8b3 893e b85f 763e 9b14 8a3e 9d4f 11be
00000260: 0eb3 903e b0e1 af3e 4117 9c3e 9cf8 a9be
00000270: 0be6 a13e a79c 303d 562b e2bb 21e3 8e3e
00000280: e07a 853e 8606 9b3e e704 0dbf cb50 08bd
00000290: ad46 fdbc 4829 913e 2ae8 27bc 9f90 f2be
000002a0: 92b7 803e db20 853e a504 8d3e 6b08 a8be
000002b0: 025c 923e 979e 8dbc ae6e e63c 876f c53b
000002c0: ef04 babe 979e 9d3e aae9 63be a8df 8b3e
000002d0: 79f4 0bbb e403 a63e 29c6 343b 7ddf 623e
000002e0: 7eb2 6d3e 0d9a 9b3e c799 9f3e e5ce 31be
000002f0: 265c 83be 0f23 913e 6865 00bf c7cb 8e3e
00000300: f568 9d3e ba99 773e c25c 9abe 1f94 8fbc
00000310: 71b1 9c3e da7c 82be 1401 9cbe 49cb 963e
00000320: e7b9 953e 0823 2bbe 72e9 a03e 66f0 8a3e
00000330: 7f5e 973e c4fe febe a0ee 713e fea6 c03e
00000340: 29a7 a13e b6d5 8d3e f529 86be 45fc bf3c
00000350: 9587 75be 94a6 b33c b301 7c3d 37ab 7a3e
00000360: d8fd 40be a951 9a3e 1c9e 9b3e f7c3 1a3c
00000370: 51b3 753e bb7b 19be 9198 efbe 3655 053c
00000380: 16e3 8e3e 4b33 aebe 9155 bebc bd56 9e3e
00000390: 4d69 61be d490 943e 4f93 adbe f206 a6be
000003a0: b34f f83c 0def 74be fdc2 11bd 9578 813e
000003b0: 5438 a93e 059f edbd 84b3 723e 3a25 90bd
000003c0: d5bb 9b3e 73a0 9a3e beca 4a3e adf9 8c3e
000003d0: e087 823e 8f18 9b3e 7ce2 a53e 7d3a 32bd
000003e0: 1322 ef3e 350d 9e3e 8fab 9d3e 1f09 653e
000003f0: a58f dbbc e121 803e 81ef 9b3e b189 73be
0.32537743 -0.16773997 -0.29806724 0.28043678 0.29137927 -0.2635572 0.27920464 0.268834
-0.032625392 -0.43277198 0.229883 0.30883428 -0.19657773 -0.3302657 0.3146241 -0.24482615
-0.13998948 -0.03583415 -0.35391524 0.30222854 0.2794041 0.29515663 0.30418372 -0.32890955
0.35592037 0.33717868 0.28476757 -0.5047864 0.24529517 0.042391423 -0.022165107 0.27708218
0.27945158 0.26726508 -0.6169955 0.032670405 -0.00713424 0.29908377 -0.04439571 -0.5339187
0.2785196 0.329162 0.2838299 -0.33886072 0.25252917 0.041061506 0.037275087 0.039931428
-0.2824169 0.27943218 -0.2105339 0.2756822 -0.021327255 0.27952236 -0.03857015 0.3005004
0.30169892 0.33439112 0.25367334 -0.45631814 -0.5163721 0.2641175 -0.52637684 0.25356722
0.30437905 0.3035159 -0.3663254 -0.0056545255 0.22241941 -0.20811944 -0.35908055 0.29906476
0.24050961 0.26494393 0.27648994 0.29663903 0.28135538 -0.39840174 0.3332541 0.35429922
0.30525854 0.30800697 -0.44812 -0.05208472 -0.41764322 -0.22763923 0.016278936 0.30582094
-0.008019185 0.2639411 0.25074777 0.037847433 0.32554805 0.26340106 -0.4432669 -0.014146238
0.26553845 -0.3986284 -0.0067208833 0.2495289 -0.16780287 0.23285985 -0.25398234 -0.34436512
0.000961932 -0.23648725 -0.23346364 0.30699044 0.32331058 -0.2499853 0.30646655 -0.20157498
0.3093048 0.2383907 0.29482317 0.2488739 0.2659883 0.27938333 0.37012511 -0.015122932
-0.24852586 0.31867582 0.30184588 0.291293 0.042289235 0.27887148 0.2700385 -0.14030752
0.23792768 0.120040245 -0.35421965 0.30802 0.24264887 -0.4171707 0.29076102 0.2788529
0.013445467 -0.40805557 0.29759791 0.35232753 -0.005686264 -0.4520279 0.3086695 -0.3137162
-0.21163027 -0.03659263 0.0016539906 0.25044855 0.26895118 0.24059951 0.26968846 -0.14190526
0.28261608 0.34351873 0.3048649 -0.33197486 0.3162082 0.043118145 -0.0069021387 0.2790766
0.2607031 0.30278414 -0.55085605 -0.033280175 -0.03091749 0.28351808 -0.010248223 -0.47375962
0.25140053 0.2600163 0.27542606 -0.32818922 0.2858582 -0.017287536 0.028128948 0.006025258
-0.3633189 0.30785057 -0.22257105 0.27319074 -0.0021355434 0.32424843 0.0027583933 0.22155567
0.2321262 0.3039097 0.3117201 -0.1736408 -0.2565624 0.2834706 -0.50154734 0.27889845
0.30744138 0.24179736 -0.30148894 -0.017526684 0.30604127 -0.2548588 -0.30469573 0.2945197
0.29243395 -0.16712582 0.31428105 0.27136534 0.29564282 -0.49803746 0.23626184 0.37627405
0.31572846 0.2770211 -0.26203886 0.023435721 -0.23977502 0.021930017 0.061525058 0.24479376
-0.18846834 0.30140427 0.30394065 0.009446136 0.23994185 -0.14988606 -0.46796086 0.008137992
0.27907628 -0.34023508 -0.02323416 0.3092555 -0.22012825 0.29016745 -0.3390145 -0.32427174
0.030311441 -0.23919316 -0.035586346 0.2528731 0.33050787 -0.11602596 0.23701292 -0.070383504
0.30416742 0.30200538 0.19803903 0.27534238 0.2549429 0.30292174 0.32399356 -0.04351281
0.46705684 0.3086945 0.3079495 0.2236676 -0.026801893 0.25025848 0.30456164 -0.23782994

layer3.bias f4 [2]
00000000: 3927 3e3d 38e2 c53d
0.046424124 0.096622884
