model_weights/DQN/cartpole/cartpole_dqn_episode_2299.pth (torch, 72508 bytes, 6 tensors)

layer1.weight f4 [128, 4]
000000 e1 82 20 3e 2b ff 71 be 3f 47 e1 3d 79 e9 81 be
       0.15674926 -0.23632495 0.10999917 -0.25373438
000010 a6 a7 07 be cc 29 25 3e c5 65 a2 3e b4 2b 3b 3d
       -0.13247547 0.16129225 0.3171827 0.045695975
000020 be f1 90 3e 3f fa 9d be 3c 9e 1d 3f 0c 52 93 3e
       0.28309435 -0.30854985 0.6156957 0.28773534
000030 69 0e 6b be f1 22 87 be e4 93 9b 3d 46 4f 13 be
       -0.22954716 -0.26393846 0.07596567 -0.14385709
000040 25 94 6d 3d c7 d5 b4 be d6 4b e6 be b7 80 5e be
       0.05800261 -0.3531935 -0.44979733 -0.21728788
000050 1b 4e ac be 23 6f bd bc 02 43 5c bf 07 ed 0e be
       -0.3365334 -0.023124283 -0.86039746 -0.13957606
000060 56 2b 09 3f 89 6e 01 be bc e5 e7 be 31 1f 5b be
       0.5358175 -0.12639822 -0.4529246 -0.21398617
000070 11 d4 8e be 21 97 93 bd 2e f6 0f bd b6 19 6b 3c
       -0.2789617 -0.0720656 -0.035146885 0.014349392
000080 a4 7b 9e be 88 34 87 be c7 c4 6c 3c 21 4b b3 bd
       -0.30953705 -0.26407266 0.014451212 -0.08754564
000090 f2 da 58 3e cd ed 94 3e 7c 61 b7 3d 97 5b e6 3e
       0.21177271 0.29087678 0.089541405 0.44991753
0000a0 08 c0 6c 3e c5 b6 9f be 72 92 59 be 8e 86 67 be
       0.23120129 -0.3119413 -0.2124727 -0.22609922
0000b0 06 33 00 be e4 b4 04 be 42 6c 02 3e 88 b3 c5 bd
       -0.12519464 -0.1295963 0.1273661 -0.096533835
0000c0 42 22 f0 3e a2 7f 65 3c 0a 68 3c 3d 18 7d b4 bd
       0.46901137 0.014007481 0.045997657 -0.08812922
0000d0 42 61 89 3e 3f e0 d0 3d 5a 78 0e 3c c3 c2 00 be
       0.26832014 0.101990215 0.008695686 -0.12574296
0000e0 d3 3d 45 be 49 ad 98 3e 75 d0 26 3e e1 85 98 3e
       -0.19261865 0.29819706 0.16290458 0.29789641
0000f0 c5 d8 e7 be 72 29 9e be e0 de 48 bf c8 32 2c be
       -0.4528257 -0.30890995 -0.7846508 -0.16816247
000100 8e 6c 9d be d4 f4 b3 3c 3a 91 fa 3d f5 37 3f 3b
       -0.30746883 0.02196733 0.12234731 0.002917764
000110 e0 90 d4 be 2e c9 05 bd e1 db 64 bf 85 c7 17 be
       -0.4151678 -0.032662563 -0.8939801 -0.14822204
000120 a1 04 b2 be 5e 50 4b be 55 d9 f8 3d c9 02 91 bd
       -0.34769157 -0.19854876 0.12150828 -0.07080609
000130 0e f2 bb bc 68 a5 36 3e 1b fb cf 3e b4 52 59 3d
       -0.02294257 0.17836535 0.40621266 0.053057387
000140 fb 19 67 3e 45 56 a2 be ee e9 00 be 5b 25 74 be
       0.22568505 -0.31706443 -0.12589237 -0.23842375
000150 23 ff d0 bd 8d b0 62 3e ea eb dc bc 8d e6 ca bd
       -0.102049135 0.22137661 -0.026967961 -0.09907255
000160 f0 1e a6 3e af 26 2b 3e df 8a 91 be 89 80 76 bd
       0.32445478 0.16713975 -0.28426263 -0.060181174
000170 cb 90 bb 3e 5c ff 1b 3e 5f 75 a7 3d ee c2 69 be
       0.36633906 0.1523413 0.08176684 -0.22828266
000180 c4 28 32 3e 7f 74 d8 3e 28 fb 13 3e d2 50 3c 3e
       0.17398363 0.4227638 0.14451277 0.18390206
000190 fc 74 34 be 24 6b 44 be cc e7 95 3e 9f 48 b8 3d
       -0.17622751 -0.19181496 0.2927841 0.089982264
0001a0 68 e3 0c 3f 50 df 42 bc 68 ac 81 be 8c e1 73 3d
       0.55034494 -0.011894062 -0.25326848 0.05954127
0001b0 84 dc 3c 3e 64 c6 5a 3d 57 39 e4 be cf fc ec 3b
       0.18443495 0.053411856 -0.44574997 0.0072322856
0001c0 23 81 d5 be 7a 5d 82 be 17 61 9c 3e e0 a2 1b bc
       -0.41700086 -0.25461942 0.30542824 -0.009499282
0001d0 9e 75 a8 be ca ce 9d 3d c7 ff c9 be fb 7d e8 3d
       -0.32902235 0.077054575 -0.39452955 0.11352154
0001e0 69 5d b1 be 4b ba 7f be 30 bd b0 3e 6e d7 66 3d
       -0.3464158 -0.24973409 0.3451934 0.056357794
0001f0 51 22 ab 3e 74 b3 3b 3d 41 4c 47 be b9 ed 57 3d
       0.3342462 0.045825437 -0.19462682 0.052716944
000200 c6 33 b5 be a5 8c e5 3d 86 54 18 3e 4a ef 6d 3d
       -0.35391062 0.112084664 0.14875993 0.058089532
000210 ef 18 8e be 96 78 9e 3d f7 12 fc 3e ae 48 f8 3d
       -0.27753398 0.07737844 0.4923322 0.121232376
000220 92 3d 44 be 98 3e fa be d2 da 8a bf c9 dc 76 be
       -0.19164112 -0.4887588 -1.0848029 -0.2410766
000230 ba b1 17 3e 21 33 59 3e 04 12 80 3e cd 6c ab bc
       0.14813891 0.2121091 0.25013745 -0.020925904
000240 c0 30 4b be 47 87 91 be 21 b5 c5 be 2b 30 7f be
       -0.19842815 -0.2842352 -0.38614753 -0.24920718
000250 08 b4 b2 be 4d 98 ff bd bd 6d d4 3c a6 02 53 3d
       -0.34902978 -0.12480221 0.025931234 0.051516198
000260 2e 0c e0 be fa 2c e8 be 74 2d 6a 3e 90 87 53 be
       -0.43759292 -0.45346814 0.22868901 -0.20657182
000270 e0 e9 e4 be 3a e7 91 be c4 47 e7 be b7 3f c4 be
       -0.44709682 -0.28496724 -0.4517194 -0.3832986
000280 d5 d6 de be 9f 9e 3f 3c 1c 71 91 be 67 1d 0d 3e
       -0.4352328 0.011695533 -0.28406608 0.13780747
000290 da 44 e3 be 14 8b ab 3e 59 cb 3a be 8a 48 9d 3e
       -0.44388467 0.33504546 -0.18241633 0.30719405
0002a0 e4 6c c1 3e f5 fa 03 3f 4b a9 95 3e 10 9a b6 3e
       0.3777839 0.51554805 0.29230723 0.35664415
0002b0 cf 5b bb be 63 fa 07 3e c3 00 4e 3e 34 9d 17 3e
       -0.36593482 0.13279109 0.20117478 0.14806062
0002c0 1f b0 bf bc 4a 9b 89 3e bf 41 56 3f 8a 3c 73 3e
       -0.02339941 0.2687629 0.8369407 0.23753563
0002d0 5b 0b 93 3c fe 66 f8 3c 30 8b 3e bc 52 53 ab be
       0.01794975 0.030322548 -0.011629865 -0.33462006
0002e0 f7 5e 87 3e a2 c9 82 be e6 a1 e1 be a2 2d 03 3e
       0.2643964 -0.2554446 -0.4406883 0.12810376
0002f0 c6 72 7a 3d 2c 58 18 3e 95 b1 28 be c5 1a bf be
       0.061144613 0.14877385 -0.16473992 -0.3732511
000300 bc 0f 01 3f 80 ba df bd d7 8b 0a be b0 e8 5c be
       0.50414634 -0.10924244 -0.13529907 -0.21573138
000310 ea 90 06 be 2a 02 9d be 65 78 de be ba 5a 83 be
       -0.13141218 -0.30665714 -0.4345123 -0.25655156
000320 c7 8c 9c 3e 51 64 91 3e e4 84 9f 3d 67 94 e5 3d
       0.30576155 0.28396848 0.07789019 0.11209946
000330 1a fc b3 bd e2 a0 70 be 0c 23 51 be 83 de 34 3d
       -0.08788319 -0.23498872 -0.20423526 0.044157516
000340 fe 44 39 3e 4a cb 3d be c3 47 08 bf 48 b8 cb bd
       0.18092725 -0.1853458 -0.532345 -0.09947258
000350 b7 53 6d 3d 79 80 fd 3d 47 54 56 3f 5a bf e3 3d
       0.057941165 0.1237802 0.8372235 0.11120482
000360 f1 86 76 be 9a d6 67 3e dc 37 d6 3e b5 11 c9 bd
       -0.24074914 0.22640458 0.41839492 -0.098178305
000370 e0 79 c1 be 5d e6 f1 3d 72 e4 d5 be c4 d6 4e bb
       -0.37788296 0.118115164 -0.41775852 -0.0031561116
000380 c7 04 92 3d c7 f3 49 bc d7 5f c5 3c d9 b1 59 be
       0.071298175 -0.012326187 0.024093552 -0.2125925
000390 17 4e 07 bf 40 44 cc bd 12 53 19 bf 2c 61 56 be
       -0.5285353 -0.09973955 -0.5989238 -0.20935506
0003a0 ae 32 9f 3e 9b f1 89 be 2c f5 17 3e 84 a2 ed bd
       0.31093353 -0.26942143 0.1483962 -0.11603263
0003b0 e1 c8 96 bd c9 1b 3d be d9 77 85 3e 03 d7 34 be
       -0.07362533 -0.1846763 0.26068 -0.17660145
0003c0 c9 90 09 3d 16 f9 e3 3e 77 cc c7 3e 80 73 8f 3e
       0.033585344 0.44525975 0.39023182 0.28017807
0003d0 79 47 aa 3c bc bd af be c1 f2 d2 be 70 19 2b bd
       0.020786034 -0.34324443 -0.41200832 -0.041772306
0003e0 e2 40 13 3f 09 6c f7 bd 5d 8d ad bd 5b 83 75 be
       0.5752088 -0.12081153 -0.084742285 -0.2397589
0003f0 f2 02 06 bf b3 dc a9 be 09 23 9a 3e dd 31 8c 3e
       -0.52348244 -0.33176193 0.30104855 0.27381793

layer1.bias f4 [128]
000000 31 94 fa 3e 12 b7 8c 3e e3 04 8c be 12 9c f8 3e
       0.48941186 0.27483422 -0.27347478 0.48556572
000010 75 46 cf 3e 07 3b 70 be c4 ad 5d be dc 55 b0 3e
       0.40483442 -0.23460017 -0.21648318 0.34440506
000020 a8 65 b5 be 0a 09 47 be ac 62 37 be 7b fe 16 3f
       -0.3542912 -0.19437042 -0.17908734 0.58982056
000030 25 b2 f3 3d db 3a e7 3e 38 ce f7 3e 0a 5b c1 be
       0.11899213 0.4516209 0.4839952 -0.3776477
000040 25 cc a1 3e 26 45 34 be 1f a8 86 bc b0 bc f9 3e
       0.31601062 -0.17604503 -0.016437588 0.4877677
000050 8c 73 99 3e ea 0c 00 3f ae af d3 3e ca 07 ae be
       0.29970968 0.50019705 0.4134497 -0.33990318
000060 98 4b bd be 06 b6 4d be c1 63 ec 3e e1 8f 96 3e
       -0.36971736 -0.20088968 0.46169856 0.29406646
000070 55 21 cd be c6 80 d1 3e ca 32 df bd 19 4d 5c be
       -0.40064493 0.4091856 -0.10898359 -0.21513785
000080 4c 41 cb 3e bd 44 7c 3e 73 eb d5 bc 70 80 cd be
       0.39698255 0.24635597 -0.026113247 -0.40137053
000090 ca b7 9a be 0c 2c e6 3e 03 95 86 be 90 64 65 be
       -0.30218345 0.4495548 -0.26285562 -0.22401643
0000a0 5c 8f d2 be 98 88 d7 3c 6d 26 d4 bc 53 aa ed 3e
       -0.41125 0.02631025 -0.02589723 0.4641901
0000b0 1f ad a4 be 84 fd b6 3e 44 80 97 3e d9 b8 7c 3e
       -0.3216333 0.35740292 0.29590046 0.24679889
0000c0 83 60 0c be c9 bc 1a be 3f 4d fa 3d 40 30 d9 3e
       -0.13708691 -0.15111078 0.12221765 0.42419624
0000d0 2f 58 1c 3f 5e 5f ce bd a8 79 c6 3e 2e 54 fd 3e
       0.6107206 -0.100767836 0.3876469 0.49478287
0000e0 2d 38 10 3f 4c c9 ce be 17 53 24 3f b6 b4 13 3f
       0.5633572 -0.40387952 0.64189285 0.5769762
0000f0 c0 7a 9e bc ba ee 07 3f ee f9 af 3e 49 36 9a bd
       -0.019345641 0.5309864 0.3437037 -0.07529885
000100 da 2c b8 be a9 45 11 bf e9 fc ab 3e 4c 03 30 3e
       -0.3597172 -0.5674692 0.33591393 0.17188758
000110 58 42 db 3e 3a b4 47 be 75 03 33 3e 74 6e c3 3e
       0.42824054 -0.19502345 0.17481788 0.38170207
000120 97 a5 b2 3e 6e e7 73 be 54 63 9e 3e 0e e1 0c 3f
       0.3489196 -0.23818752 0.30935156 0.55030906
000130 63 58 0f 3e df 21 74 be cd 06 b2 3e d1 b9 39 3e
       0.1399856 -0.23841046 0.34770814 0.1813729
000140 3e e5 b4 be 77 63 44 be 76 6d b3 3e 55 56 e0 3d
       -0.35331148 -0.19178568 0.3504445 0.109539665
000150 a7 10 a4 3e 2b d6 0f 3f db e5 c4 be 02 d0 c9 3e
       0.32043955 0.5618617 -0.38456616 0.3941651
000160 79 f6 ec be 0f 42 07 3f fd 91 ec 3e 6d 3a d1 be
       -0.46281794 0.5283517 0.4620513 -0.40864888
000170 3b f0 d5 3e 39 6f 07 3f a4 3f cb be af 1f fc 3e
       0.41784844 0.5290409 -0.3969699 0.49242923
000180 87 1a b4 3e cf 42 9a be c5 65 1b 3f 84 e3 1f be
       0.3517649 -0.30129096 0.60702163 -0.15614134
000190 e4 f3 b2 be 70 66 97 3e 97 1d fc 3e 80 a3 4e 3e
       -0.349517 0.2957034 0.49241325 0.20179558
0001a0 33 50 0e 3f 84 9f b4 3e 16 57 2b be 42 b6 b3 bd
       0.55591124 0.3527795 -0.1673244 -0.08774997
0001b0 8e 88 86 3e 8f 38 39 bd 81 d6 74 be db a1 c1 3e
       0.26276058 -0.045219954 -0.23909952 0.37818798
0001c0 12 d9 26 3e bc d5 99 be 65 43 13 3f f0 53 dd 3d
       0.16293743 -0.3004588 0.5752471 0.108070254
0001d0 cc 5c aa be 85 81 96 be 6b d8 18 3f 87 b7 0e 3f
       -0.33273923 -0.2939569 0.5970523 0.5574879
0001e0 86 c0 67 be e2 9f 17 3e c4 01 e7 3e 7a 43 5f be
       -0.22632036 0.14807084 0.45118535 -0.21803084
0001f0 96 01 91 bb 59 da d0 3e af a8 1d 3f ed 77 10 3f
       -0.004425238 0.40791586 0.61585516 0.5643299

layer2.weight f4 [128, 128]
000000 1c 40 1c 3e 1d 81 1c 3e 87 af 13 be 4a 6f ef 3d
       0.15258831 0.15283628 -0.14422427 0.116911486
000010 4f c4 ec 3d 7b 4d b8 be 51 63 b9 bd 44 65 19 3e
       0.115608804 -0.35996613 -0.09052146 0.14980036
000020 fe c5 82 be 69 6a bb bc 6f d6 02 bf 73 66 99 3e
       -0.2554168 -0.022877889 -0.5110845 0.29960975
000030 87 3b 3c 3d 29 89 77 3d 8a 07 06 3e 1b f5 0a bd
       0.045955207 0.06043354 0.13088813 -0.033925157
000040 a4 64 e3 3d 19 60 6e be c2 73 b3 bc c2 99 a7 3d
       0.1110318 -0.23278846 -0.021905784 0.08183624
000050 c1 7d 67 3e c5 b7 f8 3d 58 4a 3d 3d 6d 7e 08 bd
       0.22606565 0.12144426 0.046213478 -0.033323694
000060 ee 37 90 bd fa 0b 14 be d1 fb e3 3d 3e f1 89 3e
       -0.07041918 -0.14457694 0.111320145 0.26941866
000070 cd 01 11 be f5 ba 41 3e ce 78 9e bd 1a d5 86 be
       -0.14160843 0.18918975 -0.077378854 -0.2633446
000080 a3 cc 5a 3e 68 a5 15 3e 2d a4 10 3d 44 78 b3 be
       0.21367125 0.14613879 0.03531282 -0.35052693
000090 c7 e2 3c bf 90 7d 62 3e 4d ce da bd 11 bd 61 bd
       -0.73783535 0.22118211 -0.1068388 -0.05511195
0000a0 70 f7 11 bf 50 ae 9f 3e f7 ae 58 3d 21 36 62 3e
       -0.57018185 0.31187677 0.052901234 0.22090961
0000b0 81 80 a3 be 1e a7 05 3e 8e 7a 44 3d 96 73 f0 3d
       -0.31933978 0.13052031 0.04796844 0.11740796
0000c0 0f 27 3e bd 32 d1 a8 bd 1d 9c e4 bc f2 35 02 3e
       -0.046423968 -0.08243026 -0.027906472 0.12715891
0000d0 f3 15 24 3e 57 93 01 bf 65 2c e4 3d 94 2c 26 3e
       0.16023998 -0.5061545 0.1114128 0.16227943
0000e0 61 00 71 3e f8 45 c9 be 42 42 29 3e 8c 06 2f 3e
       0.23535301 -0.39311194 0.16529182 0.17092341
0000f0 6e ae b3 3d c9 68 08 3e 83 ab f9 3d 16 30 98 bd
       0.08773504 0.13321222 0.121909164 -0.07431047
000100 69 96 7b be 31 ec db be 42 a1 58 3e 3c 47 b0 3d
       -0.24569096 -0.42953637 0.21155265 0.08607337
000110 e9 2e f1 3b e1 c6 3c be 11 58 97 3d 3e a7 ea 3d
       0.0073603285 -0.18435241 0.07389844 0.1145768
000120 ba 57 c3 3d a7 86 89 bd 46 bc ca 3d a6 7d 25 3e
       0.09538217 -0.06715136 0.098991916 0.16161212
000130 ae 15 10 be 34 cb 4e be 0e b5 b2 3d 5e d8 1a 3e
       -0.1407077 -0.20194703 0.0872594 0.151216
000140 6b eb 81 be 94 d5 30 be 7b be 13 3e a2 1a b4 3d
       -0.25374922 -0.17268974 0.14428131 0.08794142
000150 68 f9 13 3e a7 e9 ea 3d ba 91 19 be 72 c2 42 3e
       0.1445061 0.11470347 -0.14996997 0.19019488
000160 d8 49 23 bf 35 08 44 3e a1 6b 08 3e 18 b6 16 be
       -0.6378455 0.19143756 0.13322307 -0.14717901
000170 4d cc 4b 3d 00 78 34 3e 1c 95 10 bf 10 d1 f9 3d
       0.049755383 0.17623901 -0.5647752 0.12198079
000180 67 47 96 3d ca cc c3 be 71 e0 de 3d b1 56 a1 bd
       0.07337838 -0.3824218 0.108826526 -0.07877863
000190 30 2e 17 be d9 79 a0 3d 84 7b 39 3e 55 e0 89 3c
       -0.14763713 0.078357406 0.18113524 0.016830603
0001a0 f8 8d 57 3d f6 38 53 3e c9 1e d8 bc 25 e7 cc be
       0.052625626 0.20627198 -0.026381867 -0.400201
0001b0 81 0b 9f 3d a5 53 7e bc f5 04 c5 bd fb 35 3a 3e
       0.07765866 -0.015522872 -0.09620086 0.18184654
0001c0 e6 06 8c bd 3c 69 c3 be 01 4f 3b 3e 60 4f f2 3d
       -0.06837253 -0.38166225 0.18291856 0.11831546
0001d0 11 50 35 bf a6 e5 c9 bd 07 55 8c 3e 0a 20 35 3e
       -0.70825297 -0.09858255 0.2740862 0.17688003
0001e0 60 32 ae 3b df b3 44 3d 15 02 07 3e 52 67 0e be
       0.0053160638 0.0480231 0.13184388 -0.13906601
0001f0 56 0d ac 3d 3a 09 e7 3d 6f db 39 3e d0 5f 1e 3e
       0.08400981 0.11281057 0.18150114 0.15466237
000200 fb 9d ff 3c 6f 22 bd 3c ee 97 3c bd d0 90 2f 3d
       0.03120326 0.023087708 -0.04604333 0.042862713
000210 fd 62 0f bd e2 d1 63 3b b5 34 a9 bc 38 ce 5e bd
       -0.035006512 0.003476255 -0.020655015 -0.054395884
000220 13 a1 3f bd 07 d8 5b 3d b8 2e de 3d 5e b2 ca bb
       -0.04678447 0.053672817 0.10848755 -0.006185814
000230 a0 cd 67 bc ab b2 e5 3b 6d a7 97 bc dd 2f a5 3c
       -0.014148146 0.0070098243 -0.018512452 0.020164425
000240 f7 0a 91 3c 3f 13 15 3c 5d f8 de bd 05 76 5b 3d
       0.017705424 0.009098827 -0.10887215 0.05357935
000250 b8 5e b6 bd 80 85 2f 3d 94 6d 4f bd e4 aa a0 3b
       -0.08904785 0.042851925 -0.05064161 0.0049031842
000260 13 86 8e bd 90 54 15 3d 82 89 07 3d ce de b2 bd
       -0.069591664 0.0364576 0.033090122 -0.08733903
000270 45 33 78 3d ce 35 c6 bb 2b 85 8f bd 35 c2 44 3e
       0.06059577 -0.0060488945 -0.07007822 0.19214709
000280 62 ca 2e bd 0c 04 b8 be fc 99 37 bd f7 87 09 3e
       -0.042673476 -0.35940588 -0.044824585 0.13430773
000290 50 6b e2 bc 0e 3d 3c bd 8c ba 51 3e 48 bf c6 3b
       -0.027639061 -0.045956664 0.20481318 0.006065283
0002a0 fc c5 74 bb 02 b1 63 3d fd df 1c 3b 71 6b 55 bd
       -0.0037349453 0.05558873 0.0023937218 -0.052104417
0002b0 b7 65 14 3d 3d 45 99 3c 53 de 1d 3c ab ba 55 bb
       0.036229815 0.018709773 0.009635526 -0.0032612483
0002c0 f4 ca bf 3c 0c dc e1 bd de 79 02 3d 3c a4 09 3d
       0.023412205 -0.11028299 0.031854503 0.03360389
0002d0 3c eb 34 3c 71 db 30 3e d1 a6 57 3d 8a ea 69 bd
       0.011042412 0.1727121 0.052649323 -0.05710844
0002e0 88 80 49 3c f6 87 ff bd 05 89 e5 bb 85 88 a9 3c
       0.012298711 -0.12477104 -0.0070048594 0.02069498
0002f0 07 65 c8 3d 3a 46 50 3d 4c 98 5b bb 21 54 04 bd
       0.097848944 0.050848223 -0.0033507524 -0.032306794
000300 0c eb 38 3d a8 81 58 bd 02 44 8c 3d 87 6c ef 3c
       0.045146033 -0.052858025 0.06848909 0.029226555
000310 c8 28 de 3c e8 af e2 3c 8d 01 78 3b 02 e1 dc 3c
       0.027119055 0.02767177 0.0037842721 0.02696276
000320 57 cf 06 bd 50 1c 4a bd 22 9f 89 bd 1f 9f 32 3d
       -0.03291258 -0.049343407 -0.06719805 0.04360878
000330 b0 a1 89 bd fe 73 06 bc d2 ca ac bc 9a 0e 53 bc
       -0.067202926 -0.008206366 -0.021092806 -0.012881899
000340 e5 36 fd 3c 40 cb b9 3d b3 7b 07 3d 00 af b6 bc
       0.030909965 0.0907197 0.033076953 -0.022300243
000350 dc 28 64 bc 49 ef 89 bd 1d 3d fa 3b d4 bc 3b 3d
       -0.013925757 -0.06735093 0.00763668 0.045834377
000360 ac ab 81 3d 0a 4b 82 bd 1d e8 c5 bb 2a 51 ac 3c
       0.06331572 -0.06361969 -0.006039633 0.021034796
000370 b9 eb e7 3c 88 96 1e bd 7d ea 0f be ad 3c 13 3c
       0.028310644 -0.038717777 -0.14054294 0.008986634
000380 db 60 4b bd 85 4b 8d 3e 30 9a 32 3d 94 1f 44 ba
       -0.049652915 0.2759668 0.043604076 -0.0007481512
000390 61 34 b2 3a f8 ac bd bc 8c 60 87 bd ea ff 79 3c
       0.0013595932 -0.023153767 -0.06610212 0.015258769
0003a0 30 11 61 3d 2a 07 19 bd 1a 3a 50 3b 59 ec 1a 3e
       0.054948032 -0.037360348 0.0031772912 0.15129222
0003b0 34 64 3a bd f6 d8 63 3b 3f f2 e0 3c ac 29 88 bc
       -0.045505717 0.003476677 0.027459262 -0.016621433
0003c0 16 7d a3 3c 7c 06 32 bc e2 7d b4 3c 61 92 5a 3d
       0.019957107 -0.010865804 0.022032682 0.053362254
0003d0 a4 dc e3 bc 68 f7 ae 3d 70 3e 69 bc 1f 2c e8 3c
       -0.02781517 0.08543283 -0.014236078 0.028341351
0003e0 2a 36 92 3c 4e bd a0 bd 88 f2 25 3d 6d 39 50 3e
       0.017848093 -0.07848607 0.0405145 0.20334406
0003f0 a3 f2 af 3d 26 38 98 bb f7 34 70 3a 3d 6b ad bd
       0.08591201 -0.0046453653 0.0009163166 -0.0846772

layer2.bias f4 [128]
000000 c4 99 2e 3e 41 c4 76 b9 6e 8c 39 bd 0f 51 31 3e
       0.17050844 -0.00023533498 -0.04529994 0.17316078
000010 93 62 93 3e bf f9 a4 bd 4c bc 3d 3e 27 e9 86 3e
       0.28786144 -0.08055448 0.18528861 0.26349756
000020 66 98 51 bc 8b af 15 bd b1 38 64 3e fb 6b 56 3e
       -0.012792682 -0.036544364 0.22287251 0.20939629
000030 11 73 a0 3c f9 b0 f6 bd fc c3 7f 3e d5 8e 4a 3c
       0.019586118 -0.120454736 0.24977106 0.012363155
000040 69 a8 e0 bc cd 84 72 3d 0e d2 8e bc 72 c2 89 3e
       -0.027424054 0.05920868 -0.017434146 0.26906163
000050 95 6c 8c 3e ce 55 78 3e 2b 79 33 3e c9 ea 7c 3d
       0.27426592 0.24251482 0.1752669 0.061747346
000060 d9 8a 0d 3e d5 8f e6 3d ba d1 83 3e c3 56 27 3d
       0.13822497 0.112579025 0.25745946 0.040854227
000070 0c 60 61 3e 95 51 62 bd f1 86 6f 3d 93 52 67 3e
       0.22009295 -0.055253584 0.0584783 0.22590093
000080 ef 1a 85 3e 95 cb 52 3e 17 24 80 bb 73 51 29 bd
       0.2599711 0.20585473 -0.0039105522 -0.04133744
000090 01 45 64 3c ec 10 44 3e d4 73 03 bd 06 eb 18 3c
       0.013932467 0.1914708 -0.032092884 0.009333378
0000a0 d2 0e 98 3e 83 e9 6c 3e 8d 6f 51 3e 23 19 20 be
       0.29698807 0.23135953 0.2045271 -0.15634589
0000b0 05 6f 96 3e 52 e6 8b bd f0 11 05 bd aa 89 69 bd
       0.29381576 -0.068310395 -0.03248781 -0.057016052
0000c0 97 1d dd bd d4 66 18 3e b8 90 93 bd d6 69 56 3e
       -0.107966594 0.14882976 -0.07205337 0.2093881
0000d0 c5 78 f3 bc 29 6e 37 3e c8 91 9f bc 30 0a 5c 3e
       -0.029720673 0.17913117 -0.019478694 0.21488261
0000e0 46 4b 3c 3e ac 7c 51 3e d5 c6 5a 3e cd 0e ef 3b
       0.1838809 0.20457715 0.21364911 0.0072954656
0000f0 2d 65 c4 bd 77 68 98 3e 8b 16 b8 bd 1c 4e 2e 3e
       -0.0958961 0.297672 -0.08988675 0.17021984
000100 d6 cc 51 3e 0e 02 47 3e 50 a4 16 3b 6c 40 16 bd
       0.20488295 0.19434378 0.0022986121 -0.03668253
000110 6e e0 67 3e ff 03 34 3d e0 f2 92 bd 7b b4 1b 3e
       0.22644207 0.043949123 -0.07175231 0.15205567
000120 2d 97 69 3e f6 9e 37 3d 31 1c 6a 3e c8 25 94 3e
       0.22811575 0.04482933 0.22862317 0.28935075
000130 7d 50 84 3e 4f 55 b0 bd 92 db 13 3e d6 54 30 3e
       0.25842658 -0.08610021 0.14439228 0.17219862
000140 db 1f 7d 3e 7e f0 86 3e 55 eb 17 bd 48 f8 20 3d
       0.24719183 0.26355356 -0.037089664 0.03929928
000150 43 fc 76 bd bc e0 8d 3c 83 4d cf bc 41 f6 3b 3e
       -0.06029917 0.017319076 -0.025305515 0.18355657
000160 b7 66 ff bc c2 d2 29 3e e1 0a 3f 3e c3 38 ac 3c
       -0.031176908 0.16584304 0.18656494 0.02102316
000170 89 a6 85 3e 12 15 37 3d 89 84 a4 bd 22 c2 d8 bc
       0.2610362 0.04469783 -0.080330916 -0.026459757
000180 6a 9a 52 3e a2 ac 55 bd 6c 21 51 b8 96 3d 74 3e
       0.20566717 -0.05216659 -4.986061e-05 0.23851618
000190 71 48 be bc 1a 0a 8a 3e 39 d4 78 3c 4d 94 d8 3c
       -0.023227902 0.26960832 0.015187317 0.026437903
0001a0 51 f7 0b 3c cc b8 17 3d 28 b9 18 bb 50 64 78 3e
       0.008542852 0.03704147 -0.002330372 0.24257016
0001b0 7c 6b 4e 3e ce e8 3c 3b 43 8d 84 3e 0c ff 94 bd
       0.2015819 0.0028825286 0.25889024 -0.07275209
0001c0 f6 59 8e 3e 9c 91 7d 3e 97 df 2c 3e 4e 9b 75 3e
       0.2780301 0.24762577 0.16882168 0.23985025
0001d0 0a 64 8c 3e 79 13 7c 3e c8 0e 44 3e 58 39 83 bd
       0.27420074 0.24616803 0.19146264 -0.06407422
0001e0 ac 92 c8 3c 28 79 55 3e fd 5f 39 3e 54 f1 86 3e
       0.024484001 0.20846999 0.18103023 0.26355994
0001f0 b3 87 f5 bc 9f aa 8f 3e 88 db 86 3e 7e e6 84 bd
       -0.029971933 0.2805986 0.26339364 -0.064892754

layer3.weight f4 [2, 128]
000000 92 fc a0 3e 24 98 14 bd 8d dd e9 be ee e4 8a 3e
       0.31442696 -0.036277905 -0.45676842 0.27127784
000010 04 3d 98 3e 0c 2c cc be 20 dd 8b 3e 2a 77 82 3e
       0.2973405 -0.39877355 0.27317142 0.2548154
000020 f3 18 4a bd 94 76 24 bf 6b 6d 51 3e bd c1 98 3e
       -0.0493402 -0.64243436 0.20451896 0.2983531
000030 72 32 98 be c6 b0 00 bf 5d f1 a4 3e 52 b5 c2 be
       -0.29725987 -0.50269735 0.32215396 -0.3802896
000040 57 d8 55 be 89 1f 5e bd 7f 71 bd be d3 55 98 3e
       -0.20883308 -0.054229293 -0.37000653 0.2975298
000050 aa aa 88 3e 90 68 96 3e b6 d1 9e 3e 4a cd 69 be
       0.26692706 0.2937665 0.31019372 -0.22832218
000060 6b ac 9a 3e 0f d6 a3 3e bf 0d 90 3e a5 c6 20 bf
       0.3020967 0.3199925 0.28135487 -0.6280311
000070 52 d8 68 3e 56 a4 83 3d 10 99 09 bd ea e3 86 3e
       0.2273877 0.06427829 -0.033593237 0.2634576
000080 05 6a 8f 3e 84 0d 82 3e 15 d0 46 bf 20 5d 4a 3d
       0.28010574 0.25400937 -0.7766126 0.049405217
000090 d4 2e 31 bc 83 f6 97 3e 93 cc 89 bd 18 e4 2c bf
       -0.010814387 0.2968026 -0.067284726 -0.67535543
0000a0 8d f8 8a 3e 25 6e af 3e fa 55 92 3e b1 ca ed be
       0.27142754 0.3426372 0.2858122 -0.46443704
0000b0 52 98 78 3e 0b 85 7e 3d ef f9 66 3d 5a 6e 77 3d
       0.24276856 0.0621386 0.0563907 0.060407974
0000c0 b9 da da be 39 5a 88 3e f6 98 9d be 16 64 88 3e
       -0.42744997 0.26631334 -0.30780762 0.2663886
0000d0 3d 73 04 bd 4d 43 88 3e 21 4d 6f bd ae de 9e 3e
       -0.032336462 0.26613846 -0.058423165 0.31029266
0000e0 fb 0c 98 3e 2d 3e b6 3e 5b 90 78 3e 6a 2f 2e bf
       0.29697403 0.3559431 0.24273817 -0.680411
0000f0 a6 54 2d bf 02 43 81 3e 95 92 3c bf 9a 54 79 3e
       -0.6770729 0.25246435 -0.73661166 0.24348679
000100 9f f1 96 3e 76 61 9f 3e 93 80 0d bf 90 61 0c bc
       0.29481217 0.31129044 -0.55274314 -0.008568183
000110 ef 72 4d 3e ff ca a7 be 43 94 f7 be b0 af 95 3e
       0.20063375 -0.3277206 -0.48355302 0.292356
000120 cd 8f 61 3e 31 a8 40 3e de ee 89 3e 7b 1b 98 3e
       0.22027512 0.1881416 0.26940054 0.29708466
000130 a2 26 91 3e 6c 9d 1a bf 36 00 af 3e b3 98 99 3e
       0.28349787 -0.60396457 0.34179848 0.29999313
000140 b6 d3 9f 3e ad 61 93 3e 17 f4 0d bf ea 9d a1 bd
       0.3121621 0.28785458 -0.55450577 -0.07891448
000150 8c e9 f3 be 5d 56 3a be ae b2 c9 3c 43 60 a1 3e
       -0.4763912 -0.18197007 0.024621334 0.31518754
000160 f4 d9 46 bc 91 49 82 3e 66 ae 6e 3e 9d 90 6a 3d
       -0.012136925 0.25446752 0.23308715 0.05726682
000170 a6 a1 ad 3e 10 0f a8 bb df dc 2b bf 4c 99 af bc
       0.3391239 -0.0051287487 -0.671339 -0.021435402
000180 95 9c 82 3e 64 7f 06 bf ca ee 26 bc 4f 47 76 3e
       0.25510088 -0.5253813 -0.010188768 0.2405064
000190 bf 0e 54 be 13 80 57 3e 60 5d c7 be 16 72 d1 be
       -0.2070875 0.2104495 -0.38938427 -0.40907353
0001a0 f3 06 bf 3a 53 bf b5 be e4 26 b5 be 10 44 9f 3e
       0.0014574215 -0.3549753 -0.35381234 0.31106615
0001b0 7c b6 a7 3e e8 0e c4 be ee 60 a0 3e f6 59 9c be
       0.32756412 -0.38292623 0.3132395 -0.30537385
0001c0 66 2d a2 3e 8e c9 5e 3e 19 3a 95 3e 2a 1d 76 3e
       0.3167526 0.21756575 0.29145887 0.24034563
0001d0 74 6e 83 3e 05 90 87 3e 1e 18 af 3e b4 ae bb bc
       0.25670207 0.26477066 0.34198087 -0.022910453
0001e0 3c ea 8a be 7d 6c a4 3e 69 04 97 3e bb 9f 94 3e
       -0.27131832 0.3211402 0.29495552 0.29028115
0001f0 f9 53 83 3d ac 20 8e 3e e6 c8 84 3e 66 b0 26 be
       0.06412501 0.27759302 0.25934523 -0.16278228
000200 a3 f5 59 3e 64 64 7b bc da 09 02 bf 06 58 a1 3e
       0.21285109 -0.015343759 -0.5079628 0.3151247
000210 d1 47 72 3e a3 f6 19 bf 67 2b 97 3e 5a 66 8d 3e
       0.23660208 -0.6014196 0.295253 0.2761715
000220 2c fa a6 3c 61 ad 18 bf b1 16 9d 3e f7 30 b1 3e
       0.020382963 -0.59639555 0.30681375 0.3460767
000230 3e 29 0d bc b9 97 27 bf 60 58 97 3e a9 1f e2 be
       -0.00861579 -0.65465885 0.29559612 -0.4416478
000240 3c 9a 96 be 87 c8 62 bd f5 d5 a3 bd 6c 91 6b 3e
       -0.29414546 -0.05536702 -0.079997934 0.23004693
000250 92 fb 85 3e ef ff 69 3e e6 80 84 3e ec 8d 69 be
       0.26168495 0.22851537 0.25879592 -0.22808045
000260 b9 e5 30 3e fb 51 a3 3e 69 69 9f 3e 48 77 07 bf
       0.17275132 0.31898484 0.3113511 -0.52916384
000270 76 c9 ab 3e da df 85 3d cf 49 2b bc 0d bc 8f 3e
       0.3355214 0.06536837 -0.010454609 0.2807316
000280 42 fe 82 3e ab a9 9f 3e ca 5e 55 bf 69 2d 4e bd
       0.25584608 0.31184134 -0.8334776 -0.050336275
000290 84 e0 3f bd a4 48 95 3e db 15 7e bc 6c 21 39 bf
       -0.046844974 0.29156983 -0.01550814 -0.7231662
0002a0 eb 2d 7d 3e d0 eb 81 3e 5f 94 8d 3e 71 21 fe be
       0.24724548 0.25375223 0.2765226 -0.4963489
0002b0 ad 66 98 3e 8a 6d d6 bc f2 86 2e 3d 06 9e 15 3c
       0.29765835 -0.02617528 0.042609163 0.009131914
0002c0 11 ee 0c bf 08 bf 9b 3e 4e a7 9d be 6f 57 8a 3e
       -0.5505076 0.30419183 -0.30791706 0.27019832
0002d0 b2 d6 53 bb a7 d2 a7 3e fc fe 88 3b 04 aa 4f 3e
       -0.0032324013 0.32777902 0.004180787 0.202797
0002e0 3a b7 4c 3e 1f 84 94 3e e1 13 ab 3e cd e9 80 be
       0.1999177 0.2900705 0.33413604 -0.25178376
0002f0 0b 64 dc be d2 6b 94 3e 57 fe 3e bf 5b 62 8f 3e
       -0.43045077 0.2898851 -0.7460684 0.28004727
000300 c4 85 9e 3e e8 8a 60 3e 93 8a e9 be 00 65 d9 bc
       0.3096143 0.21927989 -0.45613536 -0.026537418
000310 14 c4 a9 3e 29 a7 b3 be d8 b9 ec be 53 27 97 3e
       0.33157408 -0.3508847 -0.46235538 0.2952219
000320 24 69 9a 3e fc 19 f4 bd 8e 91 ae 3e 38 fa 8b 3e
       0.3015834 -0.119190186 0.34095424 0.2733934
000330 0f 2e 9c 3e 0e 31 41 bf 2c f2 61 3e c3 7e 8f 3e
       0.3050389 -0.75465477 0.22065037 0.280264
000340 fa 0b ac 3e f4 8f 88 3e 88 96 d8 be bf 6c 11 3d
       0.33602887 0.26672328 -0.42302346 0.0355041
000350 27 29 c3 be 43 ae 04 bd 01 e8 be 3d 54 f0 6d 3e
       -0.38117334 -0.03239275 0.09321595 0.23236209
000360 e2 32 92 be f8 99 a3 3e 1c 6b 9f 3e 1a 27 6a 3c
       -0.28554446 0.31953406 0.31136405 0.014291549
000370 e0 22 5f 3e c3 81 97 bc 7f 8c 35 bf bd a9 49 3c
       0.21790648 -0.018494492 -0.70917505 0.012308535
000380 3e af 93 3e 64 43 06 bf 97 27 10 bd f6 b2 aa 3e
       0.28844637 -0.5244658 -0.035194006 0.3333966
000390 92 e7 a5 be 99 05 99 3e fe 07 fc be 0d 42 e9 be
       -0.32403237 0.29887083 -0.49224848 -0.45558205
0003a0 d8 15 3c 3d 1f 4c ac be c7 99 5c bd a5 42 7f 3e
       0.04591927 -0.33651826 -0.05385759 0.24927767
0003b0 11 d0 b1 3e 8e a1 19 be 54 6b 59 3e 25 30 da bd
       0.34729055 -0.15003034 0.21232349 -0.10653714
0003c0 f2 22 9d 3e 56 67 a1 3e 66 c2 24 3e c4 b2 91 3e
       0.30690724 0.31524152 0.16089782 0.284567
0003d0 d8 6e 83 3e 6a bc 9e 3e 4d 0d 7a 3e 3b 16 87 bd
       0.25670505 0.31003124 0.24419136 -0.06596037
0003e0 c4 ff 97 3e c7 97 92 3e ab cc 9c 3e 54 e5 4b 3e
       0.2968732 0.28631422 0.306249 0.199117
0003f0 3c 71 26 bd 7b ec 7b 3e b3 e0 a2 3e 42 9b b1 be
       -0.040635332 0.24601929 0.31812057 -0.34688765

layer3.bias f4 [2]
000000 b5 5f 9c 3c 88 06 e2 3d
       0.019088605 0.11036402
