model_weights/DQN/cartpole/cartpole_dqn_episode_1299.pth (torch, 72508 bytes, 6 tensors)

layer1.weight f4 [128, 4]
00000000: 501b 163e a7ed 89be 5e48 c23d cb6a 92be
00000010: ebf7 1dbe cab6 2f3e dce8 a03e 953c 943c
00000020: 3de4 913e 226f acbe 1441 363f 97f1 9f3e
00000030: 0991 8abe b67a 95be 32a4 993d 8346 24be
00000040: ded4 243d 2bf8 c6be 1171 fcbe 12ad 74be
00000050: 4589 86be 0fa4 a73d ea56 4cbf 5500 10be
00000060: a102 133f 8a6f 03be 7cb2 c1be 61d1 54be
00000070: 9692 a4be 6eae a8bd 1030 30bd f603 4a3c
00000080: fb15 7bbe f1d3 62be 115f 143e 4f5a 793e
00000090: fdc3 6a3e 2129 a13e 9684 c63d 4655 f93e
000000a0: 1b1c 873e e50c 8bbe 72f5 6a3d 1c4d 4fbe
000000b0: 0c2c 20be 26dd 1cbe ef2e e23d 2ffe f0bd
000000c0: 6e88 023f 379a 10bd f4c1 c03d ec5d 8dbd
000000d0: 97eb 8b3e 6abe f83d f2d9 8f3d 92fb 0cbe
000000e0: 02a3 f7bd c0de c83e cb53 053e 5a34 8c3e
000000f0: 514e cebe 8cc2 86be 9194 3abf 75cd 6c3d
00000100: 3223 b5be df4c 943c c5c4 f63d 20dd 94bb
00000110: 24a6 aebe 854d e63d a2a9 3dbf 5245 afbe
00000120: e4a4 b9be aa61 acbd 2933 de3e 9d53 3fbd
00000130: 375b 51bc 0fe3 653e 2f66 dc3e 5e5e b73c
00000140: a0fd 643e 9634 b6be e184 24be 95f4 89be
00000150: 36ee e4bc 0895 983e cdf6 58bd 67c5 0fbe
00000160: 9f58 c33e 6f8b 543e 6991 3cbe 4780 d9bb
00000170: e4be cb3e c3d5 263e cf09 763d 9cf2 75be
00000180: 79dc 403e e64e ea3e 381e 203e 93e6 4b3e
00000190: 0adf afbd fce7 f2bd 3064 013f 73e7 b43e
000001a0: 27b2 ee3e ae7b a8bd 79ff 8fbe 1514 353d
000001b0: d775 d93d 19d0 d43c 62a7 efbe 3c4e 843a
000001c0: 20b3 adbe d3aa 34be 8e01 033f 88f6 863e
000001d0: 258c bbbe 3c2f 9a3d 4001 e1be 3124 f23d
000001e0: f86f 96be d840 46be 9adc 143f f8b0 c23e
000001f0: 654b b93e b732 4b3d 45ba 57be e0b4 693d
00000200: aee6 c8be 2433 ea3d 853d 1a3e 7e18 723d
00000210: 5ae7 a9be 1d0a 863d 80f5 f63e 4036 dd3d
00000220: f506 1dbe ed69 d0be a9e4 4dbf e8ea 1bbb
00000230: d933 243e c428 6b3e 79d4 8a3e a79c b9bc
00000240: f7ba b7bd bb30 27be bd36 23be 3bd3 aebd
00000250: 262b ccbe a521 10be 7d27 963c 8bf4 4d3d
00000260: b77f d7be c3eb e7be 646a c23e e0bb bdbd
00000270: 3472 dcbe a3a6 90be 449e c7be a0bf c9be
00000280: ccba bfbe 3ae1 f33d d612 e1bd 1091 863e
00000290: 2941 cdbe 4237 d63e 58fc a7be cbc8 753e
000002a0: d1e3 e73e 3f48 053f 68aa 023c 9826 8f3e
000002b0: 6ac9 cfbe 7ffb 0a3e ba4b 523e 7ed5 1f3e
000002c0: 4888 cfbc b7f4 943e 9ce5 673f 4ad4 833e
000002d0: 9fbb a03c 7bf6 3b3d 0f13 b7bc b1b9 c7be
000002e0: c0a6 803e a7ca 9cbe 2db4 05bf d07e 563e
000002f0: ed98 8a3d 1a70 353e 1d37 90bd 643f cabe
00000300: 8e59 0a3f 5234 03be 76f5 c8bd d1f5 53be
00000310: 5c5d d1bd 2174 9bbe 0e0b 8dbe f73f 81be
00000320: 5b2b b03e 0b9c 853e 4aa8 3d3d 9aa8 093e
00000330: 257b f2bd e079 86be 22fd 6bbe 9f81 313d
00000340: 1abb 2e3e 6281 5bbe d55d 19bf 27d4 f3bd
00000350: 5381 803d e26f 093e 77f9 673f 7f7f f63d
00000360: 4cd4 8abe ce44 803e 5007 e63e 7e13 12be
00000370: d22f d6be 17b7 f73d db86 ebbe e8a6 dbbb
00000380: 3773 593d d4e9 cfbc b256 a33b a882 75be
00000390: a62b dfbe e836 7a3d 8277 c3be 564e 90be
000003a0: 6adb 9e3e 06c7 9bbe 8716 0e3e d8a6 0bbe
000003b0: 1730 d3bd e755 55be 0c19 8a3e a266 4bbe
000003c0: 58dc 8a3d 4531 e93e 7723 883e 77fc 7c3e
000003d0: 244f daba 5d0c c3be bb51 ebbe e353 56bd
000003e0: 8954 f93e a9af 78be b7bf e2bd 9321 96be
000003f0: 5ff5 febe 92bf 99be 3a0a d53e 49e4 f73e
0.14658856 -0.26939127 0.09486459 -0.28597102 -0.15426604 0.17159572 0.31427658 0.018095294
0.28494444 -0.33678538 0.7119305 0.31239006 -0.27063778 -0.29195184 0.07502021 -0.16042523
0.04024207 -0.38861212 -0.49305013 -0.23894146 -0.26276603 0.081855886 -0.7982012 -0.14062627
0.57425886 -0.12835518 -0.37831485 -0.20782997 -0.32143086 -0.08236395 -0.043014586 0.012330046
-0.24520104 -0.22151162 0.1448939 0.24350856 0.22926326 0.3147669 0.096932575 0.4869787
0.2638863 -0.27158275 0.05736298 -0.20244259 -0.15641803 -0.15318736 0.11044108 -0.11767232
0.50989425 -0.03530332 0.094119936 -0.0690268 0.27328178 0.121456936 0.07023992 -0.13767841
-0.12091638 0.39232445 0.13020246 0.2738369 -0.40294126 -0.26320302 -0.72882944 0.057813127
-0.35378414 0.018103061 0.120492496 -0.0045429617 -0.3411113 0.112452544 -0.74086964 -0.34232575
-0.36258614 -0.084170654 0.43398407 -0.0467106 -0.012778095 0.22449897 0.4304671 0.022383865
0.22362375 -0.35586995 -0.16066314 -0.26944414 -0.02794562 0.29801202 -0.052969743 -0.14040147
0.3815355 0.20756315 -0.18414845 -0.0066376063 0.39794075 0.16292481 0.060067948 -0.2401833
0.18834104 0.4576332 0.15636528 0.19912176 -0.08587463 -0.11860654 0.505435 0.35332832
0.46620294 -0.08226715 -0.28124598 0.044208605 0.10618179 0.025978135 -0.4680739 0.0010094116
-0.33925724 -0.1764329 0.5117425 0.26359963 -0.3663036 0.075285405 -0.43946266 0.11823309
-0.293823 -0.19360673 0.5814911 0.3802564 0.36190334 0.049608912 -0.2106715 0.05705726
-0.39238495 0.114355356 0.1506253 0.05910539 -0.3318432 0.06544898 0.48234177 0.10801363
-0.15334685 -0.40705815 -0.8042703 -0.0023791138 0.16035403 0.2296477 0.2711523 -0.022657705
-0.089712076 -0.16327183 -0.1593885 -0.08536383 -0.3987667 -0.14075334 0.018329376 0.050282042
-0.42089626 -0.4529706 0.37971795 -0.0926435 -0.4305588 -0.28252134 -0.38987935 -0.3940401
-0.37447202 0.11908193 -0.10989921 0.2628255 -0.40088776 0.41839033 -0.3280971 0.24002378
0.45290998 0.52063364 0.007975198 0.27959132 -0.40583354 0.135725 0.205367 0.15608785
-0.025333539 0.29092953 0.9058473 0.257479 0.019620715 0.04588936 -0.022347955 -0.3900886
0.2512722 -0.3062336 -0.5222805 0.20946813 0.067674495 0.17718545 -0.07041762 -0.39501488
0.540429 -0.12812927 -0.09812443 -0.2069924 -0.10222885 -0.30362037 -0.27547497 -0.25244114
0.34408078 0.26095614 0.04630307 0.13443223 -0.11839894 -0.26264858 -0.23045781 0.043336507
0.17063561 -0.21436074 -0.599088 -0.11905699 0.06274667 0.13421586 0.9061503 0.12036037
-0.27115095 0.25052494 0.44927454 -0.14265248 -0.4183336 0.120954685 -0.46001324 -0.0067032464
0.053088393 -0.025380053 0.0049847 -0.23975623 -0.4358799 0.06108752 -0.38177115 -0.28184766
0.31026775 -0.3042528 0.13875781 -0.13637865 -0.10311907 -0.2083355 0.26972234 -0.1986337
0.067803085 0.45545402 0.26589558 0.24705683 -0.0016655666 -0.3809537 -0.45960793 -0.052326094
0.48697308 -0.24285759 -0.11071723 -0.2932249 -0.49796578 -0.3002897 0.41609365 0.48416355

layer1.bias f4 [128]
00000000: eaf8 f83e b7de 803e 26bb 9abe 4f18 f53e
00000010: 4f73 c73e 48cd 60be 0245 93be c20b a73e
00000020: d005 bdbe e371 57be 90b2 77be 1c69 183f
00000030: 9dc7 873e e32c f23e a35d e63e 9a2a c6be
00000040: 6637 973e f8f5 1bbe 7891 20be 1fa5 e93e
00000050: b7e9 8e3e 76ce f13e b749 eb3e 6566 bbbe
00000060: a3f4 ccbe 390a 54be b1b9 063f f74a 893e
00000070: 2c21 edbe 272d cf3e 2b1d 14be 288e 6ebe
00000080: 0873 c83e b8a2 643e 1cf8 5fbe 3584 debe
00000090: 70c5 c6be 59f0 e03e a80b 52be 6da1 97bd
000000a0: 71ae edbe 9adc 0b3e 6436 7d3e e040 ee3e
000000b0: e93f b2be 7952 a83e 8316 843e 13f6 753e
000000c0: 00a5 21be 5fea b2bd c66d b13e 7081 d23e
000000d0: 931b 1e3f 0f73 dfbd 7b10 ba3e 2013 ff3e
000000e0: 28f1 103f 7493 02bf a118 263f 122b 143f
000000f0: b593 703e 6eca 063f 820c d53e 38cd edbc
00000100: e660 c7be bf56 2ebf 7cc9 a43e fb31 563e
00000110: 9141 eb3e 3e2a 58be 0398 e03d 682e c33e
00000120: c572 a93e b3cb 6bbe 8617 8e3e 4213 0d3f
00000130: f905 823c d6f7 83be 5c63 c63e 6c60 213e
00000140: 6a82 c8be 1ecc 4cbe 1273 aa3e 003e 8e3e
00000150: ed54 9c3e 2ab6 063f 0ca0 d0be daaf c33e
00000160: 08ab cfbe 1860 063f 0fbb e73e 5682 e2be
00000170: 0f29 e33e a0db 073f 47d5 e6be 3329 fa3e
00000180: adb7 c53e a306 a7be af4a 1c3f 130a 2dbe
00000190: 743c cdbe d3ec a83e 64b9 fb3e 02bf 2b3e
000001a0: 03a7 0a3f 73ca b43e b359 cfbd f90a 70bd
000001b0: 42af 943e 31e6 fdbd e5ba 84be 2577 be3e
000001c0: 740d 8b3e 196f e3be c5e7 133f 1fcb 833e
000001d0: c2bc f6be 38e5 a2be 26fa 1a3f b6fe 0f3f
000001e0: 90e1 6fbe 72e5 423e 23d7 e23e 18b7 71be
000001f0: 28eb 5e3e c0cd d03e 616a 1f3f 80de 113f
0.48627406 0.25169918 -0.30220908 0.47870108 0.3895516 -0.21953309 -0.28763586 0.32626158
-0.36918497 -0.21039538 -0.2418921 0.59535384 0.2651948 0.4729987 0.44993314 -0.38704377
0.29534453 -0.15230548 -0.15680492 0.4563379 0.27912685 0.4722783 0.45954677 -0.36601558
-0.40030393 -0.20707025 0.5262709 0.26815006 -0.4631437 0.40464136 -0.14464252 -0.23296416
0.39150262 0.22327697 -0.2187199 -0.4346024 -0.38822508 0.4393337 -0.20512259 -0.074038364
-0.4642215 0.13658372 0.2472778 0.4653387 -0.34814385 0.32875422 0.25798425 0.24019651
-0.15785599 -0.08736109 0.34654063 0.41114378 0.61760825 -0.109106176 0.363407 0.4981928
0.56617975 -0.51006246 0.6488133 0.5787822 0.23493846 0.52652633 0.41611105 -0.02902852
-0.38941115 -0.68101114 0.3218497 0.20917504 0.4594846 -0.21109864 0.10966494 0.38121343
0.33095375 -0.23026924 0.27752322 0.5510751 0.015871989 -0.2577502 0.3874768 0.15759438
-0.39161998 -0.1999974 0.33290917 0.27781677 0.30533543 0.5262171 -0.40747106 0.38220102
-0.40560174 0.5249038 0.45259902 -0.44240063 0.44367263 0.53069496 -0.45084593 0.48859558
0.38616696 -0.3262225 0.6105146 -0.16898374 -0.40085185 0.32993183 0.4916488 0.16772082
0.5416109 0.35310706 -0.10124531 -0.058604214 0.2903996 -0.12397421 -0.2592384 0.37200275
0.271587 -0.44420698 0.5777553 0.25740907 -0.48190886 -0.31815505 0.60537946 0.56248033
-0.23425889 0.19032839 0.4430476 -0.23605001 0.21769392 0.40781975 0.62271696 0.56980133

layer2.weight f4 [128, 128]
00000000: d16e 083e b03e d13d 4dbf 30be 569c f53d
00000010: 0ccb e93d fed6 c1bd 304c 9cbd 764f 213e
00000020: fe20 03be 96e3 cabc e5e6 7cbe aa99 9a3e
00000030: 83a2 c23d fb6b 213d f70d bb3d 985d db3d
00000040: 575d e73d fa5f c2bd 75cd 373d 96e5 033d
00000050: 8571 613e 87c7 bb3d 81b4 693d 45c5 edbc
00000060: 702c 9cbd 9231 f1bc 38cd 823d 436c 4d3e
00000070: f488 983c a927 463e dc9a a9bc 9edf 91be
00000080: 7b47 5b3e 998c 0d3e a7e8 9b3d ee47 c2be
00000090: b0c6 bcbe 666f 6f3e 4c60 17bd 7e84 0e3c
000000a0: 64f0 72be 7242 983e 6178 8b3d f93b 5d3e
000000b0: f7f7 b0be 8c79 da3d 37f9 f13c 9cad e43d
000000c0: e57e e0bc 6479 c9bc e55a 923c 61fc 003e
000000d0: 11a0 0c3e cc55 0cbf 0def 873d ec6d 263e
000000e0: cbb3 563e 33fd 15be 0796 053e 41c6 263e
000000f0: 9c71 d23d 0556 033e ad62 9e3d b323 cebc
00000100: 706c 88be d820 d1be d34a 283e a62c ca3d
00000110: a4d8 c73c b765 4cbe 5e89 b43d d518 cc3d
00000120: 8a64 5e3d b642 333d 9a03 c53d 3714 123e
00000130: 1577 97bd ae53 6bbe 36d2 d03d 809c 163e
00000140: 19af d3bd 0ad1 21be b141 183e a872 053e
00000150: 6416 993d 404b 903d b162 20be ff71 2e3e
00000160: bbfa e1be d69e 4e3e 443e 053e 0d1f 23be
00000170: fe2e 113d acef 1a3e a0b0 95be d908 a43d
00000180: 7dc7 8a3d edf5 d3be 191a 7d3d ce9b aebd
00000190: f6f8 0dbd 2b36 6f3d cd75 2e3e 26de 403c
000001a0: e936 c83c a93d 633e 3e02 333d 1588 c8be
000001b0: afe8 f63c 8bf1 6abd 1b46 d5bd 72c9 2b3e
000001c0: 622d babb 5c94 75be 1d45 3c3e 23c8 1a3e
000001d0: df29 0abf 088a dabd 82dd 743e c1b5 043e
000001e0: b630 63bb 3ea1 083d b703 e63d 3149 1abe
000001f0: 5132 f03d e98e fc3d ae0a 323e 42ed 1d3e
00000200: 908e 0a3d 50c8 cc3c 2733 4cbd 310d 3e3d
00000210: 7f57 1bbd 4393 763b e930 b7bc 053a 71bd
00000220: 1478 4fbd 4811 6e3d e38f f03d 3f76 dbbb
00000230: a6f8 7abc d595 f83b 8428 a4bc 89ce b23c
00000240: 79ff 9c3c 5252 213c fa66 f1bd bea8 6d3d
00000250: 416c c5bd ef00 3e3d 9294 60bd 63e0 ad3b
00000260: 5d6b 9abd 2b9a 213d 11a8 123d aea1 c1bd
00000270: 139f 863d 678e d6bb ad79 9bbd 39fe 543e
00000280: 3936 3dbd b134 c7be cbc1 46bd 3edf 143e
00000290: ca14 f5bc 4ad1 4bbd 9c0b 633e 7422 d73b
000002a0: 9ab1 84bb 3270 763d bce6 293b ffff 66bd
000002b0: 6f93 203d b6ef a53c 81fe 2a3c e254 67bb
000002c0: 2ea5 cf3c f87b f4bd 533c 0d3d a7fe 143d
000002d0: d0d9 433c 5f73 3f3e 2f64 693d 8954 7dbd
000002e0: f419 5a3c e882 0abe ad67 f8bb 588c b73c
000002f0: a5e8 d83d b27c 613d 4ecd 6dbb 6d17 0fbd
00000300: f12e 483d f15d 6abd 11e9 973d 48af 013d
00000310: 8e89 f03c f45d f53c 1c83 863b ee2b ef3c
00000320: 37d9 11bd 1bc9 5abd fcf8 94bd b15c 413d
00000330: d3fb 94bd b873 11bc 7e1a bbbc f477 64bc
00000340: ee48 093d d421 c93d b998 123d 3ac3 c5bc
00000350: 0af0 76bc 0b52 95bd a2b5 073c e03c 4b3d
00000360: 216e 8c3d 7f0d 8dbd bc3a d6bb c695 ba3c
00000370: c11a fb3c 17bd 2bbd ffde 1bbe b14c 1f3c
00000380: cc3d 5cbd dc0d 993e 5957 413d 154f 54ba
00000390: 0ee9 c03a 815d cdbc 8e7a 92bd 3c95 873c
000003a0: 96a3 733d 6eab 25bd b46f 613b 22c1 273e
000003b0: 87c7 49bd d09a 763b 9582 f33c 075a 93bc
000003c0: 3cf4 b03c 55b7 40bc 5963 c33c edb5 6c3d
000003d0: bd9e f6bc 0067 bd3d a29a 7cbc be63 fb3c
000003e0: ee2b 9e3c 79f4 adbd e7a2 333d fb6e 613e
000003f0: 2a77 be3d b6c7 a4bb 0720 823a d9c3 bbbd
0.13323523 0.10217035 -0.17260475 0.11992709 0.11415681 -0.09464835 -0.07631719 0.15752968
-0.12805554 -0.024766725 -0.24697454 0.3019536 0.09503653 0.03940962 0.09133523 0.10711211
0.112971 -0.09490962 0.044873673 0.032201372 0.2201596 0.09168916 0.057056908 -0.02902473
-0.07625663 -0.029442582 0.063867986 0.2006083 0.018619992 0.19351067 -0.020703726 -0.2849092
0.21413986 0.13823165 0.07612734 -0.37945503 -0.36870337 0.23382339 -0.03695707 0.008698581
-0.23724514 0.29738194 0.0681007 0.21604909 -0.34564182 0.106677145 0.02953778 0.11165926
-0.027404258 -0.024594016 0.017865608 0.12596275 0.13732935 -0.54818416 0.06637392 0.1625287
0.20967023 -0.14647369 0.13045512 0.16286565 0.102755755 0.12825783 0.07733665 -0.025163507
-0.2664523 -0.4084537 0.16434793 0.09871797 0.024395294 -0.19960676 0.08815263 0.09965674
0.0542951 0.043764792 0.096198276 0.14265524 -0.0739576 -0.2298114 0.101963446 0.14708138
-0.103361316 -0.15802398 0.1486881 0.13032019 0.07474974 0.07045603 -0.15662648 0.17035674
-0.44136605 0.20177779 0.13012034 -0.15929814 0.035445206 0.1513049 -0.29236317 0.080095
0.067763306 -0.41398564 0.061792467 -0.08525811 -0.034661256 0.058401268 0.17037125 0.011771714
0.024440246 0.2219149 0.04370331 -0.39166322 0.030140249 -0.05735926 -0.10413762 0.16776064
-0.0056816796 -0.23982376 0.1838574 0.15115409 -0.5397014 -0.106708586 0.23912624 0.12959959
-0.0034666485 0.033356898 0.11231177 -0.15066983 0.11728347 0.123319454 0.17386886 0.15422538
0.033827364 0.02499786 -0.04985347 0.0463993 -0.03792524 0.0037624396 -0.02236219 -0.058893222
-0.050651625 0.05812195 0.11746194 -0.0066974456 -0.0153180715 0.0075862207 -0.02003885 0.021827
0.019164788 0.009846287 -0.11787219 0.058022253 -0.096397884 0.04638761 -0.054829188 0.00530629
-0.07540009 0.039453667 0.035804812 -0.09454666 0.0657331 -0.0065477374 -0.07591567 0.20800103
-0.04619429 -0.38907388 -0.04852466 0.14538285 -0.02991714 -0.04976014 0.22172397 0.0065653864
-0.004049492 0.06016559 0.0025924882 -0.05639648 0.039203104 0.020255905 0.010436655 -0.0035298397
0.025347319 -0.11937708 0.034481358 0.036375668 0.011953786 0.18696354 0.05698031 -0.061848197
0.013311852 -0.135265 -0.0075807185 0.022405788 0.105912484 0.05505056 -0.0036285701 -0.03493445
0.04887289 -0.057218496 0.07417501 0.0316613 0.029362466 0.029952027 0.004104985 0.029195752
-0.035607543 -0.053414445 -0.072740525 0.047207538 -0.07274594 -0.008877687 -0.02283978 -0.013944615
0.033516817 0.09820905 0.03579018 -0.024140943 -0.015071878 -0.07291039 0.008283051 0.0496186
0.06856943 -0.0688734 -0.0065377634 0.022776496 0.030652406 -0.041928377 -0.15221785 0.0097228745
-0.05376987 0.29893386 0.04720244 -0.00080989423 0.0014717893 -0.025069 -0.07152282 0.016550653
0.05948218 -0.04044669 0.0034398856 0.16382268 -0.04926255 0.0037628897 0.029725352 -0.017987264
0.021600835 -0.01176246 0.023851084 0.057790685 -0.03010499 0.09248161 -0.015417727 0.03068721
0.019308057 -0.08493895 0.043856528 0.22014992 0.093000725 -0.00502869 0.0009927758 -0.09168214

layer2.bias f4 [128]
00000000: 6def 0c3e a1d0 85b9 9475 9dbd ddd8 1a3e
00000010: d7bb 883e 14db abbd 0d5c 223e 5196 783e
00000020: 06e7 62bc 610e 37bd ab54 4d3e 4596 4e3e
00000030: 50e6 aa3c 288c 04be 90d0 783e 1abb 6ebc
00000040: 7747 e5bb f06c 833d c9bf 9abc a4a0 7d3e
00000050: 15f1 813e 7f2b 5e3e d70e 173e a320 893d
00000060: 0687 c63d b596 bf3d 72e7 733e 8427 353d
00000070: 2bdb 4b3e 57f9 74bd 24be 813d 47d8 4f3e
00000080: fded 743e a998 3a3e 8ce6 8abb 1c49 2ebd
00000090: 0f0e 773c 3cfc 293e 4936 0ebd 7a8c 253c
000000a0: f842 8e3e f295 533e 857f 373e 4bbf 00be
000000b0: 82bc 8d3e f880 97bd 53ea 0fbd 9bed 7cbd
000000c0: 8d6c efbd 3a01 fd3d d5ab a2bd 1c19 3c3e
000000d0: 2bf6 03bd e256 203e 57b8 acbc 6f40 3f3e
000000e0: 0f9c 1b3e 7c93 483e e981 443e e2dd 243d
000000f0: 302c 333c cea6 8f3e bb48 c7bd e884 113e
00000100: e839 3b3e c047 293e ec34 473b 9d9d 22bd
00000110: d655 523e f205 013d 920b 4fbd b366 ff3d
00000120: 1ff0 523e 51ed 7b3d e117 553e 2ece 8a3e
00000130: 3776 753e 0fe2 bebd 3187 e03d 343f 153e
00000140: 202f 6a3e c76f 773e 3773 24bd d034 2e3d
00000150: 22f0 85bd 2949 993c 3772 e0bc 14bd 1e3e
00000160: 4e71 0abd c235 0e3e f96e 263e 277b ba3c
00000170: df01 743e cd31 463d a213 b2bd a1a7 eabc
00000180: 2da0 393e d845 67bd 8c67 62b8 8b0e 5f3e
00000190: 32df c4ba fd8d 803e 9be0 94bc b0eb db3c
000001a0: db93 173c 3466 ea3c 9f55 25bb bbee 603e
000001b0: cf90 393e 7492 27bd ce4e 713e 1a3c a1bd
000001c0: 8605 853e a232 693e 62da 093e 5f2e 5e3e
000001d0: e679 813e 09d2 683e 314d 1d3e cdfb 8dbd
000001e0: f620 0b3c 5839 4a3e cd23 1f3e 9cb1 743e
000001f0: 911e 05bd 8a0b 853e ce60 7b3e ea61 2cbd
0.13763209 -0.00025523177 -0.07688442 0.1512179 0.2670581 -0.08391395 0.15855427 0.24276091
-0.013849026 -0.044691447 0.2005183 0.20174511 0.020861775 -0.1294409 0.2429831 -0.014570976
-0.0069970447 0.064172626 -0.018890278 0.24768311 0.25379243 0.2169628 0.14751755 0.06695678
0.096937224 0.09354917 0.23818758 0.04422714 0.19907825 -0.0598081 0.063350946 0.20297347
0.2391891 0.18222298 -0.004238909 -0.04255019 0.015079035 0.16600126 -0.03471974 0.010104293
0.27785468 0.20662668 0.17919739 -0.12572972 0.27682883 -0.07397646 -0.03513558 -0.061750036
-0.11690626 0.123537496 -0.079429306 0.18368953 -0.032217186 0.15658143 -0.021083994 0.18676923
0.1519625 0.19587511 0.19190182 0.040250666 0.010935828 0.2805695 -0.09730669 0.14210856
0.18283808 0.16531277 0.0030396534 -0.039701093 0.20540556 0.03149981 -0.050548144 0.1247076
0.20599411 0.06150562 0.2080989 0.27110428 0.23970877 -0.09320461 0.10963286 0.14574891
0.2286954 0.24163733 -0.04014894 0.042530835 -0.06539942 0.018711643 -0.027398212 0.15501815
-0.033799462 0.13887694 0.1625327 0.022763802 0.23828839 0.048387337 -0.08695151 -0.028644385
0.18127508 -0.056463093 -5.3979034e-05 0.21782891 -0.0015020131 0.25108328 -0.018173506 0.026845783
0.00925156 0.028613187 -0.0025228036 0.21966068 0.18121646 -0.040911153 0.23565218 -0.078727916
0.25980777 0.22773221 0.13462213 0.21697377 0.25288314 0.22736372 0.15361477 -0.06932793
0.008491745 0.19748437 0.15541 0.23895878 -0.032499854 0.25985366 0.24548647 -0.042085566

layer3.weight f4 [2, 128]
00000000: 42e2 8f3e e7ca 20bd db65 31be a14c 6d3e
00000010: 7eab 8a3e d602 34be ddd3 6f3e f00a 5d3e
00000020: 39c5 5abd 9b81 f9be 10ac 233e 1956 7e3e
00000030: 0f56 59be 305b 8ebe d498 8f3e df9a f4bd
00000040: 2ffa adbd b17f 70bd 751d cdbe 1185 873e
00000050: 77b6 6b3e f52f 883e c917 8f3e 7535 7dbe
00000060: 489a 803e 8648 8d3e b471 763e a9fe 2dbf
00000070: d4ff 3d3e cb66 8e3d 3df2 14bd 823b 683e
00000080: a3a4 7d3e a6bb 5b3e 8c34 57bf bc3d 493d
00000090: b5cd 3fbc b21f 863e 792b 95bd 1036 3bbf
000000a0: c2a2 723e ce86 9f3e 74bd 813e 09f1 c0be
000000b0: 7630 513e d5f9 893d bb08 7a3d 4f30 863d
000000c0: 1703 edbe e948 643e db2d 20be 1dfd 6c3e
000000d0: fd39 0fbd 2d39 603e 9f9d 81bd 508f 933e
000000e0: fe2e 853e 20b5 a13e 53f6 513e b026 09bf
000000f0: 884a fbbe add2 593e 652d 4cbf 2b0d 533e
00000100: ae58 833e 7aab 8f3e 53db 06bf e809 18bc
00000110: 944b 243e b8ef bebd 83af d2be 8e81 833e
00000120: f561 383e 92b5 283e 6a39 6f3e 4586 883e
00000130: 13c1 803e 506a 27bf d085 a03e 88b9 6b3e
00000140: 1f12 8e3e 143b 7f3e 29c9 19bf 80e9 aebd
00000150: 9b35 04bf 89b8 49be f64f da3c 7afb 923e
00000160: 2e3f 57bc 54c4 5d3e 5829 433e fd04 7e3d
00000170: 03ec 9e3e 93f0 b5bb e916 3abf 6216 bebc
00000180: be12 5f3e 6280 11bf 18b6 34bc ebef 4e3e
00000190: bcbf 01be a54a 2c3e 7fef 13be 30d3 e0be
000001a0: 19d2 ce3a 67a2 18be 711a c4be 25c9 903e
000001b0: bbad 933e 1ca7 0fbe 400a 913e 4e53 a9be
000001c0: 67a5 8e3e 6043 323e 0657 8a3e 7525 503e
000001d0: af04 633e b7bc 653e b75a 8a3e 922d cbbc
000001e0: e3df 69be 60dd 8e3e b375 813e 1ce4 853e
000001f0: 6e16 8e3d 36ba 7a3e 6ea6 613e d29f 14be
00000200: fb5b 2c3e f551 88bc 3d3a 45be 4a7d 913e
00000210: a245 4e3e bcf2 d8be 8a9d 863e c1a5 773e
00000220: 83c2 b43c 8dbd bfbe ab7c 8d3e 515f 993e
00000230: 4b77 0b3d bbbc e8be ff03 813e 7884 e6bd
00000240: 3b33 6abe 3778 75bd 2f55 b1bd 54d8 463e
00000250: 5254 683e 0661 453e 564a 653e 21f2 7cbe
00000260: 0ddb 443d 9cc3 823e 75ea 8e3e d193 12bf
00000270: bd66 9d3e 1ecf 903d 7a76 39bc b2d0 7f3e
00000280: fd70 633e 3f3f 903e 71f2 66bf 7011 7abd
00000290: 66bc 4fbd 2af5 833e f8be 89bc d969 48bf
000002a0: adb5 583e d330 5d3e 4409 7a3e 05ec ccbe
000002b0: 0211 893e 8814 e8bc 2bed 3c3d faea 213c
000002c0: 06a6 18bf 005f 8b3e a2a2 27be 1d0f 713e
000002d0: 574e 65bb 37b2 963e 0b47 943b 5dd4 2c3e
000002e0: f0f9 253e 5c18 7d3e cb00 9d3e e157 1abc
000002f0: 1ff9 77be 19d6 843e d3c8 4ebf 0701 7d3e
00000300: dd28 8f3e 238e 3a3e 1c50 dfbe c361 ebbc
00000310: 2892 9c3e 8e98 06be 8c24 a9be bcbf 863e
00000320: 834d 8b3e 160a 30be b458 a13e e361 763e
00000330: 1163 8b3e d326 51bf 10bd 383e 556e 0f3e
00000340: df42 9c3e d901 6e3e cd75 eabe 4161 1d3d
00000350: b345 d3be 237a 0fbd c5b0 ce3d 4537 493e
00000360: 5228 9ebe eca7 933e 5539 903e e294 7d3c
00000370: 7fe0 363e 16ff a3bc 8388 44bf 5546 5a3c
00000380: 70b5 833e b73d 11bf 191c 1cbd 5fd8 9a3e
00000390: a63a 3bbe e3fe 893e b51d 35be 3bd8 fcbe
000003a0: 9ea3 4b3d 17ea 23be f3df 6ebd 0245 5a3e
000003b0: 4789 a33e 9e68 963d 1cb0 333e ee49 ecbd
000003c0: d7b2 8a3e 3349 933e 44c6 f63d bf82 813e
000003d0: ae76 633e f44b 8f3e 86b2 0c3e fb27 92bd
000003e0: 6e91 233e 1906 723e 04dd 8b3e 54d5 243e
000003f0: 202d 34bd 333a 583e a0a0 933e 9c3b 96be
0.2810231 -0.039256003 -0.17324011 0.23173763 0.27083963 -0.17579207 0.23420663 0.21586204
-0.053410742 -0.48731694 0.15983605 0.24837531 -0.21224235 -0.27803946 0.28046286 -0.11943602
-0.08494984 -0.058715526 -0.40061536 0.2646871 0.23018824 0.26599088 0.27947834 -0.24727423
0.25117707 0.27594393 0.24066812 -0.67966706 0.18554622 0.069532 -0.03636383 0.2267895
0.24769835 0.21458301 -0.84064555 0.04913114 -0.011706759 0.26196057 -0.072836824 -0.7312937
0.236949 0.31157535 0.25339854 -0.37683895 0.20428643 0.06737105 0.061043482 0.06552183
-0.4629142 0.22293438 -0.15642492 0.2314343 -0.03496741 0.21896811 -0.06328892 0.28820276
0.26012415 0.315835 0.20504121 -0.5357466 -0.490803 0.21271773 -0.79756767 0.20610492
0.25653595 0.28060514 -0.5267841 -0.009279706 0.16044456 -0.093230665 -0.4114953 0.2568478
0.18006118 0.16475514 0.23361745 0.2666494 0.25147304 -0.65396595 0.3135209 0.23019993
0.277482 0.2492488 -0.6007257 -0.0854063 -0.51644295 -0.19699301 0.026649456 0.28707486
-0.013137622 0.21656924 0.1905874 0.062016476 0.31039438 -0.0055523603 -0.7269121 -0.023204032
0.21784493 -0.5683652 -0.011029743 0.20208709 -0.12670797 0.1682535 -0.1444683 -0.43911123
0.0015779167 -0.14905702 -0.38301423 0.2827846 0.28843483 -0.14028591 0.28328133 -0.3307137
0.27860567 0.17408514 0.2701952 0.20326789 0.22169755 0.2243527 0.27022335 -0.024802003
-0.22839312 0.2790327 0.2528511 0.26150596 0.06937872 0.24485096 0.22036144 -0.14514092
0.16831963 -0.016640643 -0.19260497 0.284159 0.2014375 -0.42372692 0.26292068 0.24184324
0.022065407 -0.37449303 0.27634177 0.29955533 0.034049314 -0.4545649 0.2519836 -0.11255735
-0.22871105 -0.0599291 -0.086588256 0.1941846 0.22688416 0.19275293 0.22391638 -0.2470174
0.048060466 0.25539863 0.27913252 -0.572568 0.30742446 0.070707545 -0.011319751 0.24981955
0.2221107 0.28173253 -0.90213686 -0.061051786 -0.05071678 0.25772983 -0.016814694 -0.7828651
0.21163054 0.21600656 0.24417597 -0.4002382 0.26770788 -0.028330103 0.04612462 0.009882683
-0.5962833 0.27220917 -0.16370633 0.23540922 -0.003498932 0.29432842 0.0045250705 0.16877885
0.16208625 0.24716324 0.30664667 -0.009420366 -0.24216126 0.25944594 -0.80775183 0.24707423
0.27960864 0.18218283 -0.43615806 -0.02873314 0.30580258 -0.13144132 -0.33035696 0.26318157
0.27207574 -0.17191347 0.31512988 0.24060778 0.2722402 -0.81699866 0.18040872 0.14006932
0.3051977 0.23242892 -0.45793 0.038422827 -0.41264114 -0.035028588 0.1009231 0.1964999
-0.30890137 0.28839052 0.2816874 0.015477391 0.17859076 -0.020019095 -0.767708 0.0133224325
0.25724363 -0.56734794 -0.038112734 0.30243203 -0.18284091 0.26952276 -0.17687114 -0.4938372
0.049716584 -0.16007267 -0.058319043 0.21315387 0.31940672 0.07344173 0.17547649 -0.115375385
0.2708957 0.28766784 0.12049535 0.25295064 0.22213241 0.27987635 0.13739976 -0.07136532
0.15973446 0.23635139 0.2731706 0.16097003 -0.043988347 0.21115951 0.28833485 -0.29342353

layer3.bias f4 [2]
00000000: 1389 143c 5b9c e93d
0.009065884 0.114067756
