model_weights/DQN/cartpole/cartpole_dqn_episode_2099.pth (torch, 72508 bytes, 6 tensors)

layer1.weight f4 [128, 4]
000000 77 f2 2e 3e 2e a4 7f be 41 8b bf 3d d8 98 89 be
       0.1708468 -0.24964973 0.093527324 -0.26874423
000010 09 46 fa bd b6 17 20 3e fe a6 99 3e b4 95 c8 3c
       -0.122203894 0.15634045 0.30010217 0.024485447
000020 39 92 8b 3e 8d 71 9d be 66 4e 2b 3f 19 86 9c 3e
       0.27259997 -0.30750695 0.669165 0.30571058
000030 73 b6 64 be 0a df 8c be 76 aa 8f 3d 36 75 1c be
       -0.22335224 -0.27513915 0.07014935 -0.15279087
000040 7c d1 90 3d 40 3e bb be 34 03 ef be 41 cd 68 be
       0.07071206 -0.3657093 -0.4668213 -0.22734548
000050 cf 44 b1 be fe 31 ac 3c ab 4b 3c bf 44 1a eb bd
       -0.3462281 0.021019932 -0.7355296 -0.11479619
000060 74 d3 0b 3f 20 b2 03 be 81 96 ed be 13 45 65 be
       0.54619527 -0.12860918 -0.46403888 -0.22389631
000070 23 1f 8c be b7 7a a1 bd 57 85 23 bd 06 a8 1f 3c
       -0.27367505 -0.07884734 -0.039922085 0.00974465
000080 b9 d1 a2 be d6 ca 66 be 81 46 2c 3e 37 33 8e 3c
       -0.3180063 -0.22538313 0.1682377 0.017358406
000090 87 2d 5d 3e c7 e1 97 3e a8 ec ba 3d 08 e1 ea 3e
       0.21599399 0.29664442 0.0912717 0.4587481
0000a0 c1 bf 7b 3e 0c af 8e be 60 a2 e9 bd e3 51 69 be
       0.24584867 -0.27867925 -0.11407924 -0.22785144
0000b0 08 2e f0 bd bc c1 10 be 16 06 e3 3d d4 da de bd
       -0.1172753 -0.14136404 0.11085145 -0.10881582
0000c0 0c c1 f8 3e 83 b4 66 3d 1c 2b 38 3e 03 9f 8e bd
       0.48584783 0.056324493 0.17985195 -0.06963923
0000d0 df 01 5a 3e e3 79 a6 3d dd 6d 74 3d 99 d8 25 be
       0.21289776 0.08128717 0.059675086 -0.16195907
0000e0 69 a0 3a be a2 72 97 3e c5 a5 0f 3e 09 62 94 3e
       -0.18225254 0.29579645 0.1402808 0.28981045
0000f0 35 ea ec be 5a 5a 86 be f3 75 21 bf 31 ed 84 bd
       -0.46272436 -0.26240808 -0.630706 -0.06490553
000100 51 ea 9a be 5b 99 86 3c 72 e9 f0 3d a8 52 8f bb
       -0.30256894 0.016430547 0.11763276 -0.004373867
000110 cb c1 d8 be 1d 1f aa 3c b8 8b 40 bf 09 9a 0b be
       -0.42335352 0.02076679 -0.75213194 -0.13632978
000120 70 8d bb be 6c 3d 25 be ed 36 93 3e 0f af 26 bd
       -0.36631346 -0.16136712 0.28752843 -0.040694293
000130 21 8d e0 bc b6 36 2b 3e 84 ab cc 3e f3 4e 43 3d
       -0.027411046 0.1672009 0.39974606 0.047682714
000140 38 72 78 3e 96 d6 a9 be 68 2f 19 be 52 e3 81 be
       0.24262321 -0.3317153 -0.1495949 -0.25368744
000150 55 59 d4 bd af 3e 5a 3e ee f0 3a bd 82 ec ee bd
       -0.10368601 0.21312974 -0.045639925 -0.11666204
000160 39 ee a6 3e 1b ad 55 3e 45 c9 21 be 1c c5 2d bd
       0.32603624 0.20866816 -0.15799434 -0.042424306
000170 6d 59 bf 3e ff 6e 1e 3e c6 77 a9 3d 09 6c 69 be
       0.37372914 0.15472029 0.08274798 -0.22795118
000180 f0 b3 35 3e c2 bf dc 3e 22 ef 16 3e 97 27 40 3e
       0.17744422 0.4311505 0.1473966 0.18765102
000190 d9 15 47 be b3 67 2e be 8a 0e d6 3e e2 ec 0a 3e
       -0.19441928 -0.17031746 0.41807967 0.13566926
0001a0 e5 e1 dd 3e f0 f8 a2 bd d7 11 76 be 23 0c 83 3d
       0.43336406 -0.07957637 -0.24030243 0.06398799
0001b0 6c d7 11 3e 04 5d 02 3d 65 e8 df be 17 90 13 3b
       0.14242333 0.031826988 -0.4373199 0.0022516304
0001c0 59 4f db be f5 8b 5a be 64 45 ef 3e f0 57 ec 3c
       -0.42833975 -0.21342452 0.46732628 0.028850526
0001d0 6a 10 a7 be 1d 58 94 3d 4f b7 d1 be eb 49 e0 3d
       -0.3262971 0.07243369 -0.40960166 0.10951599
0001e0 50 31 b5 be 15 c4 5c be 78 3e 00 3f 70 a2 97 3e
       -0.35389185 -0.21559174 0.5009532 0.29616117
0001f0 f5 7d ae 3e d3 7e 3f 3d 06 23 4b be 5c 2f 5c 3d
       0.34080473 0.04675181 -0.19837579 0.053756103
000200 bf 9b b4 be cd 76 dd 3d f6 90 17 3e 1f df 5a 3d
       -0.35275075 0.10813675 0.14801392 0.05343544
000210 af 17 8c be a7 db 86 3d ea 76 f1 3e 4b 48 de 3d
       -0.2736182 0.06584864 0.47161037 0.108536325
000220 1c 53 4e be 5c 6d e9 be 20 c0 72 bf 81 89 f0 bd
       -0.20148891 -0.45591247 -0.9482441 -0.11744977
000230 b4 a5 1a 3e 02 8c 5d 3e 65 ba 82 3e 37 cf ae bc
       0.15102273 0.2163544 0.25532833 -0.021339042
000240 c9 ac 4f be 6a 92 75 be c1 1e 72 be 82 2a 44 be
       -0.20280756 -0.23981634 -0.23644544 -0.1915684
000250 62 bf b0 be 16 ae 08 be 67 e6 98 3c 39 8a 3c 3d
       -0.34521013 -0.13347659 0.018664552 0.046030257
000260 1d 13 e7 be d0 a0 dd be 13 6c b2 3e 02 e8 e0 bd
       -0.4513177 -0.43286753 0.3484808 -0.10981752
000270 f2 28 ee be 5c e2 86 be 16 41 b7 be d9 12 c0 be
       -0.46515614 -0.26344573 -0.35791844 -0.3751438
000280 bb 55 e7 be d9 83 8d 3d 05 70 56 bd dc fc 35 3e
       -0.45182595 0.069099136 -0.052352924 0.1777224
000290 16 d8 c4 be a2 e1 c8 3e ea fd 40 be 0c aa 92 3e
       -0.3844611 0.39234644 -0.1884686 0.2864536
0002a0 f5 e9 c7 3e 88 d6 0b 3f 95 3a a1 3e f0 af a9 3e
       0.39045683 0.54624224 0.31490007 0.33142042
0002b0 a3 b5 ba be 44 13 04 3e dc e0 4c 3e 60 60 14 3e
       -0.36466703 0.12897974 0.20007652 0.14489889
0002c0 e4 86 c3 bc ab 43 8c 3e d0 64 5a 3f 1a f6 77 3e
       -0.023868032 0.27395377 0.8531008 0.24214974
0002d0 eb 08 cf 3c 31 7a b9 3c 46 3a a5 bc 3a 5d b1 be
       0.025272807 0.022641273 -0.020169389 -0.3464144
0002e0 0b 0c 8f 3e fc 75 8b be 1b 61 f4 be 27 7f f9 3d
       0.27938876 -0.27238452 -0.47730336 0.121824555
0002f0 91 e6 49 3d 6f f7 3f 3e 19 b9 4c bd 4d 54 bd be
       0.04929215 0.18746732 -0.04998121 -0.3697838
000300 43 bd 03 3f 66 78 e2 bd a5 14 23 be 3e e5 81 be
       0.51460665 -0.110581204 -0.15925844 -0.2537021
000310 2b 85 12 be fc 95 96 be 1b 53 bd be cc 19 6c be
       -0.14308612 -0.29411304 -0.36977467 -0.23056716
000320 89 d2 a1 3e 8d 7d 97 3e 6c fe 11 3e f9 97 ed 3d
       0.31605938 0.29587975 0.1425721 0.11601252
000330 93 cd a1 bd ce 62 7c be 37 32 5f be 7e 6b 1b 3d
       -0.07900538 -0.24647066 -0.21796499 0.03794431
000340 2e 5a 48 3e eb 4e 4a be 2d 13 10 bf a4 8c e4 bd
       0.19565651 -0.19756667 -0.5627926 -0.111596376
000350 47 0d 72 3d ce 55 01 3e ab 78 5a 3f 51 2d e8 3d
       0.059094694 0.12630388 0.85340375 0.113367684
000360 ae 8b 6f be 31 b1 63 3e 20 8d d1 3e 35 82 ec bd
       -0.23393127 0.22235562 0.40927982 -0.115482725
000370 f9 e0 c0 be 8c 86 eb 3d 3c e8 dc be 74 d1 0a bc
       -0.3767164 0.11500272 -0.4314593 -0.008472789
000380 0f 41 ab 3d 1e 83 ab bc 43 79 e1 3b 56 66 67 be
       0.08362018 -0.020936545 0.0068809106 -0.22597632
000390 7a 6c 08 bf ee 66 22 bd c5 d1 db be 12 12 2e be
       -0.5329052 -0.039648943 -0.4293348 -0.16999081
0003a0 a7 b7 a7 3e 5f 13 91 be d7 b9 08 3e 76 e1 03 be
       0.32757303 -0.2833509 0.13352142 -0.12878975
0003b0 b7 c8 83 bd 45 d4 47 be 16 cb 82 3e 2a 03 40 be
       -0.06434768 -0.19514568 0.25545567 -0.18751207
0003c0 f5 44 1c 3d b9 84 f0 3e de 01 dd 3e 91 1d 84 3e
       0.0381517 0.4697626 0.43165487 0.25803807
0003d0 75 49 08 3d 7e d5 b6 be f1 d3 de be 71 fd 4f bd
       0.03327318 -0.35709757 -0.43521073 -0.05077881
0003e0 b9 56 ff 3e 89 9f 31 be b7 c8 70 bd cd 50 94 be
       0.49870852 -0.17346014 -0.058785167 -0.28967896
0003f0 51 02 0a bf 7f b2 9f be 1a 23 d4 3e 8c 15 e4 3e
       -0.53909785 -0.3119087 0.4143303 0.4454769

layer1.bias f4 [128]
000000 11 b1 fd 3e 68 87 8d 3e 4a f1 93 be b7 45 fa 3e
       0.49549153 0.2764237 -0.28895026 0.48881313
000010 34 00 d0 3e 04 d0 92 be 0e 76 5f be ca fc af 3e
       0.40625155 -0.28674328 -0.21822378 0.3437255
000020 ad a8 d6 be cf df 4a be d7 70 37 be ac 1b 19 3f
       -0.41925564 -0.19811939 -0.17914139 0.5980785
000030 7c a5 dc 3d bc d5 e6 3e 05 10 fb 3e 19 d5 eb be
       0.10773751 0.4508494 0.4903566 -0.46061018
000040 72 8d a1 3e 2a d2 7a be c0 d1 95 bd d4 16 fc 3e
       0.31553227 -0.24494234 -0.07315397 0.49236166
000050 87 a5 9a 3e f8 78 01 3f 30 02 c5 3e 5b 3b b2 be
       0.30204412 0.5057521 0.3847823 -0.3481091
000060 5d 22 c1 be 1f d0 6a be 23 27 f8 3e 8f 74 97 3e
       -0.3772153 -0.22930954 0.4846736 0.29581115
000070 a3 61 f0 be 9f 21 d2 3e 7b 77 20 be 10 bb 60 be
       -0.4694949 0.41041276 -0.15670578 -0.21946359
000080 69 be cb 3e d9 bb 80 3e 11 35 bf bd ce a2 d1 be
       0.3979371 0.25143316 -0.093362935 -0.40944523
000090 f1 2e bf be 90 4f e7 3e 64 e0 8e be 12 db 61 be
       -0.373405 0.4517789 -0.2790557 -0.22056225
0000a0 23 69 03 bf fc 19 be 3d b0 3c b1 3d 69 e4 ee 3e
       -0.513323 0.092823 0.08654153 0.46658638
0000b0 b2 ec a7 be 9f be b7 3e 66 aa 99 3e 57 f2 63 3e
       -0.32797772 0.3588762 0.30012816 0.22260414
0000c0 35 84 fb bd 07 8e fa bd 8f 74 4f 3e 5f 5b da 3e
       -0.12281076 -0.12234121 0.20259307 0.42647836
0000d0 ae 53 1e 3f bc 81 d2 bd f3 19 c8 3e 10 7d fe 3e
       0.61846435 -0.10278651 0.39082298 0.4970479
0000e0 8d 1a 12 3f ba d4 fe be a7 98 26 3f bc 2d 15 3f
       0.57071763 -0.49771672 0.6507668 0.5827291
0000f0 03 c5 ef 3d 1b 34 09 3f 0e 13 b6 3e 0e e9 a6 bd
       0.11707499 0.5359513 0.35561413 -0.081499204
000100 06 b8 bb be 34 e4 33 bf d0 ff ae 3e 1c ba 38 3e
       -0.36663836 -0.70270085 0.34179544 0.18039745
000110 a8 f7 c4 3e e6 8f 4b be 8c cf 26 3e aa f5 ca 3e
       0.38470197 -0.19879112 0.1629011 0.39640552
000120 63 22 b5 3e d6 46 91 be 3c 3a 9e 3e fd 8a 0e 3f
       0.35377797 -0.28374356 0.30903804 0.5568083
000130 cc bd e6 3d 19 79 75 be 48 29 a8 3e 76 4c 33 3e
       0.1126667 -0.23971976 0.32843995 0.17509636
000140 c6 81 cd be e4 5a 6e be 08 32 b3 3e 52 67 ac 3d
       -0.40138072 -0.2327686 0.34999108 0.08418144
000150 39 49 a2 3e 05 d4 0f 3f e9 c4 c9 be f1 8d cb 3e
       0.3169649 0.5618289 -0.39408043 0.3975673
000160 12 e9 00 bf 3b 1f 08 3f ff 02 ee 3e cb 5c d5 be
       -0.5035564 0.53172654 0.4648666 -0.41672358
000170 f3 b0 e1 3e 9f b5 08 3f 94 4e fa be fa b2 ff 3e
       0.44080314 0.5340213 -0.48888075 0.49941236
000180 6d 73 a9 3e c9 36 9d be 5f 8a 1d 3f 17 23 23 be
       0.33095875 -0.3070586 0.6153926 -0.15931354
000190 cd 04 d6 be b9 26 90 3e eb 09 ff 3e db f5 4b 3e
       -0.41800538 0.28154543 0.49812254 0.19918005
0001a0 50 c3 0f 3f 2e 15 b5 3e d3 93 0c be d6 3a ed bc
       0.561574 0.3536772 -0.13728265 -0.02895872
0001b0 68 f0 82 3e da 1a 95 bd 8b a1 79 be c6 87 c2 3e
       0.2557404 -0.07280512 -0.2437803 0.37994212
0001c0 c9 94 4d 3e a4 e9 cd be e6 7e 14 3f f3 ae c5 3d
       0.20076288 -0.40217316 0.5800613 0.096525095
0001d0 09 87 d7 be 7f 75 99 be 54 ce 1a 3f 15 a0 10 3f
       -0.4209521 -0.29972455 0.6047108 0.56494266
0001e0 88 4c 67 be c4 85 21 3e 31 54 e9 3e 71 b1 63 be
       -0.22587788 0.15773684 0.45572045 -0.22235657
0001f0 a2 46 05 3e b5 0f bc 3e a2 a6 1f 3f dc 03 12 3f
       0.13015226 0.36730734 0.62363636 0.5703714

layer2.weight f4 [128, 128]
000000 ad 2b 21 3e ce ae e6 3d b0 74 09 be e6 69 ea 3d
       0.15739317 0.1126381 -0.13423419 0.1144598
000010 6e 25 f9 3d 6f 9c ae be 5f 4b bd bd 85 1e 13 3e
       0.12165342 -0.34103724 -0.092428915 0.14367111
000020 5b 19 8a be b2 2f bf bc b5 d4 ad be 6b 1d 99 3e
       -0.2697247 -0.023338173 -0.33951345 0.29905257
000030 22 b6 67 3d 08 ef f2 3c 14 16 d9 3d 8b 32 10 bc
       0.05657018 0.029654995 0.10599914 -0.008801113
000040 33 f7 c8 3d 6f 99 5a be 09 fa d0 bc fa da 72 3d
       0.098127745 -0.21347593 -0.025509851 0.059290864
000050 91 40 75 3e 52 28 d8 3d b6 f3 e7 3c 10 78 09 bd
       0.23950411 0.105545655 0.028314453 -0.033561766
000060 e8 2b 93 bd 3e a1 34 be b2 5e 82 3d 26 14 77 3e
       -0.07186109 -0.17639634 0.06365718 0.2412878
000070 c0 2a 35 be fb 71 39 3e d6 1e b5 bd 7b 7d 89 be
       -0.17692089 0.18109886 -0.08843772 -0.26853547
000080 a3 49 4a 3e 37 38 f2 3d b8 5b 47 3d 70 03 b7 be
       0.19754653 0.118271284 0.048671454 -0.3574481
000090 19 4e 38 bf b3 e0 5d 3e e3 c9 c6 bd 79 01 1b bd
       -0.7199417 0.21667747 -0.097064756 -0.0378432
0000a0 6c d9 46 bf de 19 8d 3e b9 16 6e 3d de 98 50 3e
       -0.7767551 0.27558798 0.05812714 0.20370814
0000b0 14 c0 a6 be 67 e7 04 3e d5 11 77 3d 1c 60 cf 3d
       -0.3256842 0.12978898 0.06031974 0.10125753
0000c0 1e 1a 59 bd 31 e8 77 bd b0 98 95 bb da b3 02 3e
       -0.053003423 -0.06052417 -0.004565321 0.1276392
0000d0 5b 9c 2a 3e b8 3b 04 bf 4a 5f 90 3d 00 c8 1c 3e
       0.16661207 -0.51653624 0.07049425 0.15310669
0000e0 57 f2 71 3e 22 7a d4 be eb 7a 2f 3e cc 3f 2d 3e
       0.23627602 -0.4149943 0.17136733 0.16918868
0000f0 20 a0 c9 3d 32 22 0c 3e 5a 38 9a 3d 37 e1 a8 bd
       0.098449945 0.1368492 0.075302795 -0.08246081
000100 5c 52 80 be fd 3b 18 bf 9e 95 4e 3e ee 76 d9 3d
       -0.25062835 -0.59466535 0.20174262 0.10618387
000110 25 ff 10 bb a6 9d 40 be d7 60 83 3d 00 55 d2 3d
       -0.0022124734 -0.18810138 0.06414955 0.10270119
000120 10 ed dc 3d f8 b3 97 bd 67 f4 cd 3d 31 7e 27 3e
       0.107874036 -0.07407373 0.10056382 0.16356732
000130 90 56 86 bd 80 19 55 be 56 93 89 3d 00 75 fa 3d
       -0.06559479 -0.20810509 0.06717555 0.12229347
000140 4a c5 a1 be e8 bd 2d be b8 24 0b 3e 41 f4 ab 3d
       -0.31595832 -0.16966975 0.13588226 0.08396197
000150 09 d8 a2 3d 4d fb be 3d ca ef 1b be 76 49 42 3e
       0.07951362 0.093252756 -0.15228191 0.18973336
000160 be 3d 09 bf 46 b8 41 3e 77 50 0d 3e 12 aa 19 be
       -0.53609836 0.18917951 0.13800226 -0.15006283
000170 e8 57 5f 3d 8f 1d 23 3e c0 d9 24 bf 40 a4 fd 3d
       0.054527193 0.15929244 -0.6439476 0.12384844
000180 0f 0f 38 3d 8f a3 c7 be 8f 09 ed 3d 44 96 a4 bd
       0.044936236 -0.38991973 0.11574089 -0.080364734
000190 ec ff 0a be 00 d9 40 3d 71 65 3e 3e 81 7c d1 3c
       -0.13574189 0.047081947 0.18593384 0.025572063
0001a0 d1 2e 6b 3d 1e 2f 49 3e 99 92 42 3a 05 3f de be
       0.057417694 0.1964688 0.00074223574 -0.43407455
0001b0 98 aa fe 3c f2 31 a9 bb ba db c8 bd b3 a7 1c 3e
       0.031087205 -0.0051634246 -0.098075345 0.15298347
0001c0 bb f5 09 bd 17 23 06 bf 6b 60 37 3e c2 5b f1 3d
       -0.033681612 -0.5239729 0.17907874 0.117850795
0001d0 df df 2e bf 82 ec cd bd 48 15 7b 3e 2d b7 1a 3e
       -0.6831035 -0.10054876 0.24519837 0.15108939
0001e0 60 10 c6 3b d9 32 2e 3d f1 6b 10 3e a9 48 11 be
       0.0060444325 0.04252896 0.14103676 -0.14187874
0001f0 4a 79 d0 3d a0 5b c9 3d 83 17 37 3e 99 8b 1b 3e
       0.10179384 0.09831929 0.17880063 0.15189971
000200 7c 74 02 3d 34 f9 c0 3c b3 6e 40 bd fc 1b 33 3d
       0.03184937 0.02355633 -0.04698057 0.04372786
000210 f7 56 12 bd d9 3f 68 3b 48 74 ac bc 2f 3c 63 bd
       -0.035727467 0.0035438447 -0.021051541 -0.055477317
000220 d8 77 43 bd fe 45 60 3d af 9c e2 3d f9 c8 ce bb
       -0.047721714 0.05475425 0.11065041 -0.006310579
000230 bd 6b 6c bc da 2c ea 3b 67 9b 9a bc 70 6f a8 3c
       -0.014429984 0.00714646 -0.01887293 0.02056095
000240 f1 fe 93 3c 39 07 18 3c 54 66 e3 bd fc e3 5f 3d
       0.018065901 0.009279066 -0.11103502 0.054660782
000250 e4 e9 b9 bd ac 10 33 3d f2 8f 53 bd 77 ea a3 3b
       -0.09077814 0.04371707 -0.05165095 0.0050023156
000260 d5 6a 91 bd 8a 48 18 3d e3 31 0a 3d fa 69 b6 bd
       -0.07100455 0.037178554 0.033738982 -0.08906932
000270 1b 34 7d 3d 93 0c ca bb 25 79 92 bd fa 98 48 3e
       0.06181727 -0.0061660497 -0.07152013 0.19589606
000280 8e 55 32 bd 38 8f bb be 28 25 3b bd 58 30 0c 3e
       -0.043538623 -0.36632705 -0.04568973 0.13690317
000290 47 d9 e6 bc d3 13 40 bd ea dc 55 3e 0d 96 ca 3b
       -0.028179778 -0.046893906 0.20885053 0.006182438
0002a0 fe 8f 79 bb f9 1e 68 3d c0 ff 1f 3b cf 8d 59 bd
       -0.003808021 0.056670163 0.0024413913 -0.053113755
0002b0 b1 59 17 3d 37 39 9c 3c 85 17 21 3c 09 dd 59 bb
       0.03695077 0.01907025 0.009832268 -0.003324332
0002c0 b9 a1 c3 3c 03 4a e6 bd 3f 22 05 3d 9d 4c 0c 3d
       0.023880826 -0.11244585 0.032503363 0.03425275
0002d0 68 76 38 3c 9d 66 34 3e 63 e3 5b 3d 1a a4 6e bd
       0.011258699 0.17617269 0.05368365 -0.05826197
0002e0 9c 7f 4d 3c d4 68 02 be 6d 00 ea bb 18 c8 ac 3c
       0.0125426315 -0.12735301 -0.007141164 0.021091506
0002f0 4d 4e cc 3d 98 68 54 3d 43 06 60 bb 82 fc 06 bd
       0.09975872 0.05185756 -0.003418342 -0.032955654
000300 0d 7b 3c 3d dc cd 5c bd 63 ec 8e 3d 17 26 f4 3c
       0.046015788 -0.05390726 0.06978681 0.029803319
000310 bf 96 e2 3c df 1d e7 3c 48 ff 7c 3b f9 4e e1 3c
       0.027659772 0.028212486 0.0038604308 0.027503477
000320 b8 77 09 bd 60 27 4e bd 83 47 8c bd 4b 2a 36 3d
       -0.03356144 -0.05033052 -0.06849577 0.044473927
000330 11 4a 8c bd 5f 1c 09 bc 0e 4d b0 bc f8 30 57 bc
       -0.068500645 -0.008368581 -0.021521118 -0.013134234
000340 da 2e 01 3d f0 6d bd 3d 14 24 0a 3d 2c 3a ba bc
       0.03153882 0.092494845 0.033725813 -0.022732817
000350 d3 96 68 bc aa 97 8c bd 46 42 ff 3b fc 88 3f 3d
       -0.014196116 -0.06864865 0.007789883 0.046761498
000360 0d 54 84 3d 6b f3 84 bd e2 be c9 bb 56 c8 af 3c
       0.06461344 -0.06491741 -0.006156788 0.021457832
000370 d7 8b ec 3c 1b d6 21 bd 77 de 12 be a7 30 16 3c
       0.028875275 -0.039510828 -0.14342676 0.009166873
000380 39 83 4f bd 54 0d 90 3e 5c 25 36 3d 59 f6 47 ba
       -0.050662253 0.2813517 0.044469222 -0.0007627956
000390 8d bf b5 3a bd 83 c1 bc ed 08 8a bd 13 05 7f 3c
       0.0013866291 -0.023622388 -0.06739984 0.015565175
0003a0 27 7f 65 3d 24 fb 1b bd 78 5c 54 3b 53 e0 1d 3e
       0.056029465 -0.038081303 0.0032403748 0.15417604
0003b0 a3 13 3e bd ed 46 68 3b 36 60 e5 3c 0d d2 8a bc
       -0.046405446 0.0035442666 0.027999979 -0.016945863
0003c0 a9 bc a6 3c a8 91 35 bc 0e 09 b8 3c 58 00 5f 3d
       0.020353632 -0.01108209 0.022465255 0.054443687
0003d0 9b 4a e8 bc 94 82 b2 3d 23 f5 6d bc 88 d0 ec 3c
       -0.028355887 0.08716312 -0.014523777 0.02890803
0003e0 24 2a 95 3c e1 fc a3 bd 1b 32 29 3d cb 5b 54 3e
       0.01820857 -0.08007217 0.04130755 0.20738141
0003f0 cf 7d b3 3d 20 2c 9b bb 87 ee 74 3a 69 f6 b0 bd
       0.087642305 -0.0047354847 0.00093434047 -0.08640749

layer2.bias f4 [128]
000000 52 53 2a 3e 27 ae 7b b9 84 d9 a8 bd 06 b0 2d 3e
       0.16633347 -0.00024002102 -0.08244613 0.16961679
000010 6c 92 92 3e 5b da e9 bd 6a 39 3a 3e 89 f3 85 3e
       0.28627336 -0.11418601 0.18185964 0.26162365
000020 c4 ba 55 bc 29 60 a7 bd 17 c5 61 3e f7 39 5c 3e
       -0.013045017 -0.08172638 0.2204784 0.21506487
000030 a4 b2 a3 3c 06 c4 23 be 9f 6f 84 3e 20 0f 85 bc
       0.019982643 -0.15992746 0.2586641 -0.016242564
000040 e2 33 59 bd 5d 3e 77 3d 41 bf 91 bc b2 a3 88 3e
       -0.053027995 0.06036221 -0.017791392 0.2668739
000050 9d 6a 8b 3e c0 89 75 3e 7f 84 2f 3e 8f 06 81 3d
       0.27229777 0.23978329 0.17140387 0.06300079
000060 2a f6 01 3e 51 96 e8 3d c2 dc 82 3e 56 96 2a 3d
       0.1269156 0.113567956 0.2555905 0.041647278
000070 a0 e3 5e 3e 8c bf 66 bd 81 40 74 3d f1 7f 64 3e
       0.2176652 -0.056335017 0.05963183 0.22314431
000080 e8 0f 84 3e c4 d1 4f 3e 78 cc 82 bb f0 77 2a bd
       0.25793386 0.20294863 -0.0039916597 -0.041618288
000090 f8 b2 68 3c ff 8e 40 3e 35 1c 06 bd 00 df 1b 3c
       0.014202826 0.18804549 -0.032741744 0.009513617
0000a0 5f 4f 97 3e 4f 04 6a 3e ba 36 4e 3e c8 14 35 be
       0.29552743 0.22853206 0.20138064 -0.17683709
0000b0 a4 d5 95 3e b3 8e 8e bd 51 ba 07 bd 3a 43 6e bd
       0.29264557 -0.069608115 -0.03313667 -0.05816958
0000c0 8e 8b e1 bd fa 29 14 3e da 19 b1 bd c3 3f 53 3e
       -0.11012946 0.14469138 -0.08647509 0.20629792
0000d0 55 32 f8 bc 5f df 33 3e 5b d1 a2 bc bf ac 58 3e
       -0.030297438 0.17565678 -0.01987522 0.21159647
0000e0 20 2e 38 3e f9 04 5c 3e 4f 13 58 3e cd f6 27 bc
       0.17986345 0.21486272 0.21101116 -0.010251713
0000f0 97 35 07 be f5 c5 97 3e b7 a1 bb bd e6 8b 2a 3e
       -0.13204037 0.29643217 -0.09161704 0.1665493
000100 3a a5 4e 3e 16 34 43 3e 4a 98 19 3b 66 34 19 bd
       0.20180216 0.19062838 0.0023436719 -0.037403487
000110 d0 86 65 3e 6a b4 75 3c 39 c1 cf bd 49 56 17 3e
       0.22414708 0.014996627 -0.10144276 0.14779009
000120 39 32 67 3e b0 da 67 3d f1 a2 67 3e aa 65 93 3e
       0.22577752 0.05660504 0.22620751 0.287885
000130 6f 58 83 3e 7b e0 b3 bd d4 13 0f 3e 6a f8 2e 3e
       0.25653407 -0.087830506 0.13972408 0.1708695
000140 3e e0 7a 3e ee e5 85 3e 4f df 1a bd db 37 24 3d
       0.24499604 0.26151985 -0.03781062 0.04009233
000150 a9 e9 7b bd 1f b3 90 3c e1 6f d3 bc bf e5 37 3e
       -0.061502133 0.017663537 -0.025810184 0.17958735
000160 3a 57 02 bd ce fb 25 3e 5d da 3b 3e b7 ad af 3c
       -0.031821467 0.16209337 0.18345018 0.021445138
000170 4b 71 84 3e 3e a0 3a 3d 1c c4 a7 bd f1 12 dd bc
       0.25867686 0.045562975 -0.08191702 -0.026986571
000180 6e 8c 4f 3e 00 cf 59 bd ca 43 55 b8 98 fb 71 3e
       0.20268413 -0.053175926 -5.084629e-05 0.23631132
000190 89 45 8b bd 82 3a 89 3e 1a b2 47 bd 1e 19 da 3c
       -0.06800372 0.2680245 -0.048753835 0.026623305
0001a0 b2 9f 0e 3c 39 4f a0 3c 22 ad 1b bb 09 a3 75 3e
       0.0087050665 0.019569026 -0.0023754318 0.23987974
0001b0 a9 41 4b 3e df 43 22 bd c0 5e 83 3e 06 f3 97 bd
       0.19849266 -0.03961551 0.25658226 -0.074194
0001c0 19 52 8d 3e 26 aa 7b 3e 03 50 28 3e 31 32 73 3e
       0.27601698 0.24576625 0.16436772 0.23749615
0001d0 98 65 8b 3e 42 ef 79 3e a6 1d 37 3e b9 e1 85 bd
       0.27225947 0.24407676 0.17882404 -0.06537194
0001e0 06 ee 01 3c 46 00 5c 3e d6 9d 35 3e 23 c6 85 3e
       0.007930284 0.2148448 0.17735991 0.2612773
0001f0 d0 5d fa bc b7 e3 8e 3e 1f f5 85 3e ae 50 d5 bd
       -0.030562311 0.27908108 0.26163575 -0.10415779

layer3.weight f4 [2, 128]
000000 10 ea 9e 3e 1e 8c 17 bd c1 42 ee be 88 9b 89 3e
       0.3103795 -0.03699886 -0.46535304 0.26876473
000010 89 b5 97 3e fa 4a cb be 45 69 89 3e 99 cb 80 3e
       0.29630688 -0.3970564 0.26838127 0.25155333
000020 c1 23 4e bd a0 7a 27 bf ba 93 49 3e 16 ed 95 3e
       -0.050327066 -0.65421486 0.1968526 0.29282445
000030 6c 26 9b be ce b4 00 bf eb 44 a3 3e 7e 08 ca be
       -0.3030275 -0.50275886 0.31888518 -0.39459604
000040 3a 9d 5c be 80 8d 62 bd 44 48 c1 be b6 b7 98 3e
       -0.21544352 -0.055310726 -0.37750447 0.2982766
000050 a8 8a 87 3e 40 11 97 3e 3a 33 9f 3e da 86 6e be
       0.26472974 0.29505348 0.3109377 -0.2329363
000060 f5 aa 94 3e 51 fa a1 3e 50 36 8f 3e 38 06 24 bf
       0.2903668 0.3163629 0.27971125 -0.6407199
000070 97 8d 62 3e b7 4c 86 3d 71 41 0c bd 79 a2 84 3e
       0.22124325 0.06557601 -0.034242097 0.25905207
000080 8b 41 8f 3e ef 7a 7e 3e da a6 4a bf 02 87 4e 3d
       0.27979693 0.24851583 -0.79160845 0.050421722
000090 00 ba 34 bc a3 ec 96 3e f4 74 8c bd a0 68 30 bf
       -0.011030674 0.29477414 -0.068582445 -0.68909645
0000a0 ff 11 8a 3e bb 29 b0 3e 72 1b 91 3e c3 2e 03 bf
       0.26966855 0.34406838 0.28341252 -0.5124323
0000b0 6d a0 72 3e c1 df 81 3d ef 89 6b 3d e2 62 7c 3d
       0.2369401 0.06341506 0.05750459 0.06161774
0000c0 b0 48 df be a5 7e 86 3e b9 6e a0 be 4a 54 87 3e
       -0.43610144 0.26268497 -0.31334475 0.26431495
0000d0 9e 1b 07 bd 70 b6 86 3e b1 06 74 bd 68 5c 9f 3e
       -0.032985322 0.26311064 -0.059576694 0.31125188
0000e0 8c fb 97 3e 31 80 b5 3e 8a 1b 73 3e 1b 0b 43 bf
       0.29684103 0.35449365 0.23740974 -0.7618882
0000f0 c8 ea 6b bf e1 1a 7d 3e 5a 69 40 bf a8 4c 75 3e
       -0.9215512 0.24717285 -0.75160754 0.23955023
000100 e5 05 95 3e ac 50 a0 3e 47 48 10 bf f1 09 0f bc
       0.2910606 0.31311548 -0.56360286 -0.008730398
000110 22 d0 44 3e 38 ea a7 be 6a 70 0b bf 89 0e 95 3e
       0.19220021 -0.32795882 -0.54468405 0.29112652
000120 3e a9 5b 3e 6c a3 49 3e 0f 74 87 3e c4 72 97 3e
       0.2145128 0.19691247 0.26455733 0.29579747
000130 85 75 90 3e 66 91 1d bf 81 9c b0 3e fe 5a 8f 3e
       0.2821466 -0.61549985 0.34494403 0.2799911
000140 25 fc 9e 3e bd c7 90 3e a1 c8 10 bf 7d dd a4 bd
       0.31051746 0.28277388 -0.56556135 -0.08050058
000150 c7 a5 f8 be a5 04 3e be 9e b5 cd 3c 89 05 a2 3e
       -0.48563978 -0.18556459 0.025111016 0.31644848
000160 b9 b0 4a bc 91 b9 80 3e b1 d5 67 3e 2d 4a 6f 3d
       -0.0123712355 0.25141576 0.2264011 0.05842035
000170 aa dd ae 3e a3 4e ab bb 79 49 2f bf 78 24 b3 bc
       0.3415349 -0.00522788 -0.68471485 -0.021867976
000180 3b 54 80 3e c5 27 09 bf 5d 2e 2a bc e0 5e 70 3e
       0.25064263 -0.5357631 -0.01038703 0.23473692
000190 52 16 8b be db 95 51 3e cb f0 d2 be 79 92 d5 be
       -0.27165467 0.20467322 -0.41199335 -0.41713312
0001a0 b8 dd c2 3a 0b 75 b6 be 10 b2 b8 be 6f 9c 9f 3e
       0.0014867103 -0.35636172 -0.3607335 0.31174037
0001b0 9e 64 a6 3e 1c 05 c4 be e2 83 a0 3e 52 6c 9f be
       0.3249864 -0.38285148 0.3135062 -0.3113733
0001c0 a1 9d a1 3e 19 9c 57 3e 87 19 97 3e e1 34 73 3e
       0.31565574 0.2105564 0.29511663 0.2375064
0001d0 a7 ff 81 3e 9b 1e 85 3e bb b4 a8 3e ae 79 bf bc
       0.2539036 0.25999913 0.32950386 -0.023373451
0001e0 37 ed 95 be 87 f8 a1 3e 4e cc 95 3e 1e 2a 95 3e
       -0.29282543 0.31634924 0.29257435 0.29133695
0001f0 5a fc 85 3d 37 21 8d 3e a2 dd 82 3e 91 fa 5e be
       0.06542273 0.27564403 0.25559717 -0.21775271
000200 eb 89 5a 3e e1 37 80 bc d8 80 04 bf b2 ee a2 3e
       0.21341674 -0.015651645 -0.517591 0.31822735
000210 6b 72 71 3e a7 e5 1b bf c8 e7 97 3e 35 43 8d 3e
       0.23578803 -0.60897297 0.29669023 0.27590337
000220 bf 39 aa 3c 4d e6 1a bf 4f af 9d 3e e5 3a a9 3e
       0.020779489 -0.6050766 0.30797812 0.33052745
000230 3e e7 0f bc 4f fc 28 bf d9 c6 91 3e b6 cd e8 be
       -0.00878316 -0.6600999 0.2847202 -0.45469445
000240 b4 ea 9a be 7e 36 67 bd 88 15 a7 bd 4a 1b 6c 3e
       -0.3025719 -0.056448452 -0.08158404 0.23057285
000250 22 2f 86 3e 7a 17 68 3e 8d 5e 84 3e 7c 47 6e be
       0.26207834 0.22665206 0.25853387 -0.23269457
000260 d3 df e4 3d dd 48 94 3e e8 10 a0 3e a9 1f 0a bf
       0.111755036 0.2896184 0.31262898 -0.5395456
000270 d3 a7 ac 3e 3b 88 88 3d 0a a9 2e bc 05 06 90 3e
       0.3372179 0.06666609 -0.010660419 0.28129593
000280 39 f4 82 3e 5a da a0 3e 28 81 59 bf c7 4f 52 bd
       0.25576952 0.3141659 -0.849627 -0.051345613
000290 49 b7 43 bd 7c c1 95 3e e4 a4 81 bc f5 b5 3c bf
       -0.047782216 0.2924918 -0.015825696 -0.73715144
0002a0 20 b4 7b 3e 96 3e 81 3e 46 8c 8d 3e 47 de 0d bf
       0.24580431 0.25243062 0.27646083 -0.55417293
0002b0 5d 37 99 3e bc 93 da bc 1e 12 32 3d 00 92 18 3c
       0.2992505 -0.026681773 0.04347431 0.009312153
0002c0 7e a5 0f bf 3b 67 9c 3e 0c f1 a0 be 4b 88 8a 3e
       -0.56111896 0.3054751 -0.31433904 0.27057108
0002d0 10 f9 57 bb fa ea a8 3e 5d a7 8b 3b e9 46 4c 3e
       -0.003295485 0.32991773 0.0042618946 0.19948925
0002e0 00 a2 47 3e 42 af 8f 3e eb 1d ac 3e 01 d7 98 be
       0.19495392 0.280634 0.33616576 -0.29851535
0002f0 be 99 49 bf 66 f1 94 3e 1c d5 42 bf 5b ac 8f 3e
       -0.78750217 0.29090422 -0.7610643 0.28061184
000300 38 d0 9e 3e 17 51 5e 3e 23 44 ee be 71 c1 dd bc
       0.31018233 0.21710621 -0.4653636 -0.02706978
000310 e8 3d ab 3e 7c fa b3 be 2d 5e 06 bf 16 5c 97 3e
       0.33445668 -0.35152042 -0.5248745 0.29562443
000320 21 46 9b 3e e1 0c 01 be b6 05 b0 3e 6c e0 8b 3e
       0.30326942 -0.12602569 0.34379357 0.27319658
000330 1b 23 9d 3e d3 07 45 bf 43 9f 5d 3e 01 e0 62 3e
       0.30690846 -0.76965064 0.21642785 0.22155763
000340 16 c5 ad 3e 98 08 89 3e 3a e4 dc be b9 60 14 3d
       0.33939427 0.2676437 -0.43142873 0.036225054
000350 ec ff c6 be a4 56 07 bd c6 be c2 3d c6 13 6c 3e
       -0.38867128 -0.03304161 0.095090434 0.23054418
000360 dc 26 95 be 5c 75 a4 3e 57 8b a0 3e aa e0 6e 3c
       -0.2913121 0.32120788 0.31356308 0.014579931
000370 92 6a 5c 3e bd 75 9a bc ab 17 39 bf fd ab 4d 3c
       0.21525028 -0.01885497 -0.7230174 0.012553212
000380 62 2f 94 3e c5 eb 08 bf 91 1b 13 bd 41 75 ac 3e
       0.289424 -0.53484756 -0.03591496 0.33683208
000390 fb bf c7 be 81 79 99 3e 9f c5 04 bf a5 f8 ed be
       -0.39013657 0.29975513 -0.51864046 -0.46478763
0003a0 6a e9 3f 3d 68 19 ac be be 07 61 bd 75 c8 7e 3e
       0.04685346 -0.33613133 -0.054939024 0.24881156
0003b0 99 7e b2 3e ed de 06 be 2c 0f 56 3e 19 9b de bd
       0.3486221 -0.13170977 0.20904225 -0.10869426
0003c0 d8 3e 9d 3e 87 92 a2 3e 35 6e 1f 3e 8d fc 91 3e
       0.30712008 0.31752416 0.15569384 0.28512993
0003d0 28 80 83 3e 11 37 a0 3e dd e7 36 3e 9c be 89 bd
       0.25683713 0.31292012 0.17861886 -0.06725809
0003e0 d1 6a 91 3e 8c 36 8c 3e de a2 9c 3e cf a3 48 3e
       0.28401807 0.27385366 0.30593008 0.19593738
0003f0 cf b0 29 bd 0e da 7b 3e 66 7a a3 3e 21 a5 cb be
       -0.041428383 0.245949 0.3192932 -0.3977442

layer3.bias f4 [2]
000000 e1 b0 85 3c 13 38 e4 3d
       0.016319694 0.11143508
