model_weights/DQN/cartpole/cartpole_dqn_episode_99.pth (torch, 72488 bytes, 6 tensors)

layer1.weight f4 [128, 4]
00000000: 4e49 583e 89b0 a4be 3233 773e 9635 a9be
00000010: 5185 aebd fc2f 613e dea1 983e 1ee5 96bd
00000020: f9e1 c13e ffa3 d6be 0c58 183f 74e9 d83e
00000030: 2369 8ebe 24d9 f2be 5cc8 b63d 6c5e 86be
00000040: e2ae c2bd ed63 e0be d282 89be 6c83 c7be
00000050: 5914 d6be b23b c13d f2fb 01bf a38d dabd
00000060: 500a ed3e 373f 8cbe 6968 c9be 6230 ffbe
00000070: c899 d9be 8788 69be d481 f63b a47d 36bd
00000080: a33f bbbe 8ea8 95be 3edb 3e3d eae3 7a3e
00000090: 9b41 8d3e eab0 853e c5e6 c3be ee8e 013f
000000a0: 453f 7d3e 4387 9cbe 2667 03bf 7a44 b8be
000000b0: 9e2e 38be 214c 33be b50e b73e f04e babd
000000c0: 5dea 053f 47f5 25be a167 2b3e 4e8b 97bc
000000d0: 98bd 9b3e fb3a cc3d 23e8 2d3e bab5 2dbe
000000e0: 0fe5 10bd 01d8 e23e d508 4a3e 3621 bb3e
000000f0: 197b 02bf 1dac a9be 26e6 b8be 5073 853e
00000100: 3823 b2be 36bb e83c 7c7a 2ebc d129 dabe
00000110: 5867 53be 7390 533e 020f ebbe 75a4 b8be
00000120: b462 c0be ec5c 77bd 5606 f63e 0be3 c3bd
00000130: 265e 353d 8974 783e 6426 f03e 5089 293c
00000140: 4e87 5b3e 0187 d7be 8f75 0c3e 4237 a9be
00000150: 55f4 393d 5f30 b73e 7649 9bbd c101 8cbe
00000160: 9451 db3e bd0f 4a3e 6f1f 6ebe 30aa 01be
00000170: d512 b13e a925 0d3e aa30 a13d 3a46 dcbe
00000180: 3907 b03d 769e f03e 2aa6 193e 4cd5 143d
00000190: d768 febc 989d f3bd b751 e23e 8985 e83e
000001a0: 3202 053f 2ca4 25be f260 63be 5101 f03d
000001b0: c3cd 183e 5d06 683d 3eb6 8bbe 8db9 fd3c
000001c0: ac03 06bf 9162 a5be 7b88 b33e 2f9d 8a3e
000001d0: 5466 c6be 8ca0 d33d 4ca8 efbe e728 383e
000001e0: 933c 64be 3bae 20be 568c 0b3f 9e88 e03e
000001f0: cc49 993e 63f6 e8bd cca0 bcbe f0b6 283c
00000200: 2af6 a0be 7e92 413e 8d34 2c3e 2761 b93d
00000210: 4223 47be 0c34 903b 548b 3e3e d882 a3bd
00000220: 7ae4 e0bd a8cb d0be 12c4 33be c05f c33d
00000230: 17fd 943d d326 623e b66a 9b3e 57ae 96be
00000240: 6ab7 b53b a382 3dbe 6884 aabd 815d 433e
00000250: d243 7dbe 8770 60be 9fce 51bd ca79 8fbd
00000260: 291e efbe 10bf 08bf 1a0a 2e3e 4b2f 4ebe
00000270: cd41 dbbe 42c5 6abe eb11 c53d c026 ecbe
00000280: a3d9 8fbe cfe5 363e 2bc1 31be 3497 093f
00000290: 7a7d b9be 3414 023f 2de3 cabe 8e28 883e
000002a0: e741 033f 8b53 e23e 7644 50be 892d a73e
000002b0: 9941 bdbe 42e5 443e bdf4 853e c909 6a3e
000002c0: 09af 1cbd 4ea9 373e 8e62 223f 4be6 fe3e
000002d0: 978c 0c3e 61f4 543d f7ac 82bd d8ca f2be
000002e0: 805c 023e a820 fdbe b9b8 94be 7155 cb3e
000002f0: fec5 2e3e 063d 5d3e d549 853d e906 dbbe
00000300: b476 cd3e a1f6 8ebe cebb abbc af2d 03bf
00000310: 3038 79bd 2090 a8be 645c 103e 8859 75be
00000320: 82da bf3e 8056 603e 3359 843d 25a7 233e
00000330: 335b 46be c370 d2be a5c6 24be 6302 babd
00000340: d906 5e3e 41e3 82be 0cad efbe eadf ebbd
00000350: 3ffd f73c 6ac3 7cbc 62dd 003f 4b08 223e
00000360: 21f0 d4be 45f9 423e e01c b93e a82c 95be
00000370: 5607 e8be 9a93 3e3e 2db3 c7be 3886 d2bc
00000380: 23b0 b53d 50f2 19bd db5d 243e c376 8bbe
00000390: 6455 f5be 6080 02bd a0e8 16be f449 3dbe
000003a0: bdc7 cc3e 5c27 c3be 2a54 693e 6a06 2cbe
000003b0: 26e7 38be 2863 bcbe 8038 ac3e 9838 98be
000003c0: e21a b83d 087b e93e 6ac4 db3d 0a0f 3e3e
000003d0: 29bf 17bd 43b4 edbe d12e cebe a013 fabd
000003e0: 4003 013f 6bbd 98be a803 e23d 41d0 abbe
000003f0: 8120 05bf 8ba7 b2be fee3 88be d69e ee3e
0.21121714 -0.32165936 0.24140623 -0.33048695 -0.08521522 0.21990961 0.29810995 -0.073679194
0.37867716 -0.41921994 0.5950935 0.4236561 -0.27814588 -0.4743129 0.08924934 -0.26243913
-0.095060125 -0.43826237 -0.2685762 -0.38967454 -0.418124 0.09435214 -0.50775063 -0.10671546
0.4629693 -0.2739198 -0.3933747 -0.498416 -0.42500138 -0.22805987 0.007522801 -0.044553414
-0.36571988 -0.2923016 0.046595804 0.24501005 0.27589116 0.26111537 -0.38262 0.5060872
0.24731167 -0.30571947 -0.5132927 -0.35989743 -0.17986533 -0.1750951 0.35753408 -0.090970874
0.52310735 -0.16206847 0.1673875 -0.018499043 0.30418086 0.09972187 0.16983084 -0.16963854
-0.035374697 0.44305423 0.19729932 0.36548775 -0.5096908 -0.33139125 -0.3611309 0.2606454
-0.34792495 0.028409582 -0.01064932 -0.42610028 -0.20644891 0.20660572 -0.45909888 -0.3606297
-0.37575305 -0.06039135 0.4805171 -0.095647894 0.04427924 0.24263205 0.4690429 0.010347679
0.21438333 -0.42095187 0.1371672 -0.3304997 0.04539903 0.35779092 -0.07582371 -0.27345088
0.42835677 0.19732566 -0.23254178 -0.12662578 0.3458468 0.13783897 0.0787061 -0.4302233
0.085951276 0.46995896 0.15004793 0.03633623 -0.03105585 -0.11895293 0.44202968 0.4541438
0.51956475 -0.16175908 -0.2220495 0.11719001 0.14922242 0.056646693 -0.27287477 0.030972267
-0.5234935 -0.32301763 0.35065064 0.27073047 -0.38749945 0.10333356 -0.46808088 0.17984353
-0.22288732 -0.15691464 0.5451101 0.4385423 0.29939115 -0.113751195 -0.36841428 0.010297522
-0.31437808 0.18903539 0.16816922 0.090517335 -0.19447044 0.0044007357 0.18607837 -0.07983941
-0.109810784 -0.40780377 -0.17555264 0.09539747 0.072748356 0.22085123 0.3035485 -0.29429886
0.0055455463 -0.18506865 -0.08326036 0.19078638 -0.24732903 -0.21917926 -0.05122244 -0.07005651
-0.46702698 -0.5341654 0.16996041 -0.20135228 -0.4282364 -0.2292681 0.09622558 -0.46123314
-0.2809573 0.17861103 -0.17358844 0.5374634 -0.36228544 0.5081208 -0.39626446 0.2659344
0.51272434 0.44204363 -0.20338616 0.32651928 -0.3696411 0.1922808 0.26163283 0.22855295
-0.038252864 0.17935678 0.6343163 0.49785075 0.13725506 0.05199087 -0.06380647 -0.47420382
0.12730598 -0.49438977 -0.29047182 0.39713624 0.17067716 0.2160531 0.06508223 -0.4277871
0.40129626 -0.27922538 -0.020963576 -0.5124158 -0.0608446 -0.3292246 0.14097744 -0.23959935
0.37471396 0.21907997 0.06462326 0.1598173 -0.19370727 -0.41101655 -0.16091402 -0.090824865
0.216823 -0.25564006 -0.46811712 -0.115173176 0.030272124 -0.01542745 0.50337803 0.15823476
-0.41589454 0.19040401 0.36154842 -0.29135633 -0.45318097 0.18610993 -0.39003888 -0.025698766
0.08871486 -0.037584603 0.16051428 -0.27239046 -0.4791671 -0.03186071 -0.14737177 -0.18485242
0.39996138 -0.38115966 0.22786012 -0.16799322 -0.18056926 -0.367944 0.33636856 -0.29730678
0.089895025 0.45601678 0.107308224 0.18560424 -0.03704754 -0.4642659 -0.40270093 -0.122107744
0.50395584 -0.29832014 0.110358536 -0.33557323 -0.5200272 -0.3489345 -0.26736444 0.46605557

layer1.bias f4 [128]
00000000: e5e9 b93e e985 613d cad4 3bbe 47db b33e
00000010: 00e7 963e 0076 28be 638c c1be 38e8 223e
00000020: 801c a6be 1557 b9bd 1a38 c5bd 8edd e43e
00000030: 760e 0e3e aa4a d13e 8705 9b3e cc0b a1be
00000040: f848 223e aa39 cabd befd 5ebe 8a5e 9a3e
00000050: db03 303e 4849 9f3e d6a0 b73e 6c70 bebe
00000060: 4966 dbbe 0305 9fbd 2146 ea3e 62e1 aa3d
00000070: bafc abbe eb1c c13e 6ed3 59be 4e4c ccbe
00000080: 9a93 bb3e 4260 483c b3c3 a0be 00a7 c9be
00000090: a407 4bbe b6dd a73e 46da 53be 03aa 6fbd
000000a0: 62ca ccbe af45 b0bd 51fd 803d c41f df3e
000000b0: c0ff 87be 191f 073e 9026 a73d de95 5b3d
000000c0: 8215 7dbe 60bf 47be d14b 7a3e 3e9d 8f3e
000000d0: e06f 033f 1bd1 87bd 6cf0 113e aa54 fb3e
000000e0: 5a75 e73e f8af f9be fd63 0a3f 6756 de3e
000000f0: d5b9 233d 0846 e13e ffb0 b33e 4f69 79bd
00000100: f8aa abbe 7acb f7be 9f63 0c3e 563f 443d
00000110: fb75 b73e bb23 46be d0cb 18be f29c 6d3e
00000120: 1aaf 1d3e 8f31 3abe 14d2 103d 6bf5 df3e
00000130: 079c 56be 1a05 49be 9433 883e 3887 e33c
00000140: 4831 e2be fcac 79bd 6106 463e 0208 103e
00000150: 530b 5b3d f618 cb3e 04f5 f6be 8958 263e
00000160: 03fd 6cbe 7a67 e33e 89ac b13e 615d e0be
00000170: 7f69 b93e 53ad c23e 8e50 b1be 028f b23e
00000180: 589d 723e feb0 c5be 610b fd3e 1357 80be
00000190: fcb1 92be 54ea 463e 08c5 bd3e ee2a d53d
000001a0: 0972 e93e b833 1c3e ab05 81bd 7e42 10bd
000001b0: 5982 e73d 6afc e8bc c97c 9bbe c5f2 a43e
000001c0: 71a3 533c bc2d a4be 7dba fa3e 4945 d53d
000001d0: d012 cabe 7af6 a5be 4bab ef3e c613 e33e
000001e0: 1f26 27be fa83 62bd 6bbf a23e a005 88be
000001f0: 2ae4 2e3d 89b8 853e 167b f43e ef89 073f
0.3631126 0.055059347 -0.18342891 0.35128233 0.29473114 -0.16451263 -0.3780242 0.15908897
-0.3244362 -0.09049813 -0.09629841 0.44700283 0.13872704 0.40877277 0.30277655 -0.31454313
0.15848148 -0.0987428 -0.21776482 0.30150253 0.1718897 0.31110597 0.35864896 -0.37195146
-0.42851475 -0.07764628 0.4575663 0.083437696 -0.33591253 0.37717375 -0.2127206 -0.39901966
0.3663605 0.012229981 -0.31399307 -0.39385223 -0.19827133 0.3278634 -0.20688733 -0.058511745
-0.39998156 -0.08607041 0.06298316 0.43578923 -0.2656231 0.13195457 0.08161652 0.05360972
-0.24715236 -0.19506598 0.24442984 0.28049654 0.5134258 -0.066316806 0.1425187 0.4908803
0.4520672 -0.48767066 0.5405882 0.43425295 0.039972145 0.43998742 0.35095975 -0.060891446
-0.33528876 -0.48397428 0.13709877 0.047911964 0.358322 -0.19349568 -0.14921498 0.23204401
0.15398827 -0.18182968 0.035356596 0.43741927 -0.20957957 -0.19630852 0.2660185 0.027774438
-0.44178224 -0.060955986 0.19338371 0.14065555 0.053477596 0.3966748 -0.48233807 0.16244711
-0.23143391 0.44414884 0.34701946 -0.43821242 0.362133 0.3802286 -0.3463177 0.3487473
0.23692834 -0.38611597 0.49422744 -0.25066432 -0.28651416 0.19425327 0.37064385 0.10408579
0.45594814 0.15254104 -0.06299909 -0.035219662 0.11304159 -0.028440673 -0.3036864 0.32216468
0.012917385 -0.32066143 0.48970404 0.10413606 -0.39467478 -0.3241461 0.46810374 0.44351023
-0.16323136 -0.055301644 0.31786665 -0.26566792 0.042698063 0.26117352 0.47750157 0.52944845

layer2.weight f4 [128, 128]
00000000: a48d acbc 1fd1 73bc 2260 06bd 993a 75bc
00000010: eff5 173d a876 31bc 9e30 61bd 70ea cc3c
00000020: 136c 8dbd c391 9d3d 0027 9f3d e33b ab3d
00000030: d017 3a3d 7083 ffbc b8ae d3bc 6abf 9e3d
00000040: b410 06bd dba5 31bd 6ca6 953d 270e 9cbd
00000050: 277d 713d 9de1 d1bb 85f5 8cbc f00f af3d
00000060: ca49 0cbd c95f 58bc c160 ffbc 5900 833d
00000070: ea0b 573d 196e 1e3b f05e 30bd 9043 18bd
00000080: ab1c 843d 68a3 24bd 0525 933d e7a4 8abd
00000090: 4c8c 263d 34f5 973d 8632 25bd 6750 553d
000000a0: 68bb a03d 9d1c 9e3d 1f5c 0cbc 677d 8e3d
000000b0: a752 a7bd 5c0d 013b 9547 78bd ca22 6c3d
000000c0: 15e7 683d 7cf7 1d3d 4066 8bbd fa86 8d3c
000000d0: ae38 84bd 25b6 a2bd aae5 6cbd a42a 98ba
000000e0: d3a6 953d d8b4 bc3c 4f39 97bc c3a9 0aba
000000f0: ea4a e5ba 2ab6 0bbd 5d30 1d3c 7864 7ebb
00000100: f378 84bd 8ce7 34bd 49d8 3d3d 3941 8a3d
00000110: 962c 40bd 9084 3ebc bee5 a43c fcb9 133d
00000120: 4811 50bd 57c9 543d 8425 bebc e731 00bd
00000130: d5a8 c7bc 79a2 8bbd 5fc4 9b3d 0695 5dbd
00000140: c586 8d3d 0d96 a33d dbbe 573d b2ab 443d
00000150: e3ed 70bd ca25 b0bd c756 afbd bdfa 613c
00000160: 9b2a 15bd d7a7 613d 6833 30bd 2d3a 38bd
00000170: 0d55 82bd 7bbc 2a3c ded1 4dbd 7f1f 84bd
00000180: 42d2 9b3c b089 5fbd 8e0c b9bd e010 0d3c
00000190: 42dc 933c 8ab1 203d c216 c5bc 2b9d 043d
000001a0: c497 9bbd 9cab a83c 573f 943d 8aa8 68bc
000001b0: f4b3 c2bb a6b2 db3c bea1 ffba c9b8 1b3d
000001c0: 473c 54bd ec6a 9ebc 1ba8 1c3d a61f 8c3d
000001d0: 2d80 b7bd 1bd2 043d 92ee 3d3d 2ba8 14bd
000001e0: 16c7 6d3d e6f9 9dbd 4168 87bd 783e 223d
000001f0: 7d7c 3a3d 709d 9c3d 9840 0ebd 93b4 a7bd
00000200: 0ed0 3c3d e437 663b 3ea3 8abd d63a 763d
00000210: d660 18bd e246 0d3c f808 883d 061d 6dbd
00000220: 3f3d 99bd e58a 43bc bca1 a23d eb89 a73c
00000230: e025 2abd e8e6 893b 2c8b 18bd 0731 b93b
00000240: b127 183d 0d9f 4a3c b915 ddbc 8f7b 4c3d
00000250: a271 c1bd 68b0 503d 787a 8cbd cf07 efbc
00000260: 2749 4fbd e97c 573d 7834 343d 45d8 bfbd
00000270: 58e7 8b3d f3ba 6dba ba0b a7bd f02d aa3d
00000280: 30e0 79bd 0cbc 423b ece8 89bd ea49 373d
00000290: 6a13 6dbd 2856 54bd 9639 fc3d d891 e23b
000002a0: c7c6 543d 2cb5 773d 1e2d febc 6832 a2bd
000002b0: 02a0 b7bd 4025 f43c 517d 863c 2582 82bb
000002c0: a19d f33c b011 a1bd 0fc3 da3c 5c3d 3f3d
000002d0: f9fd f03c ae08 2fbd d9db 4d3d 4ae1 94bd
000002e0: 3a45 9e3c 25cd 48bd f9ec f6bb e2a7 e63c
000002f0: 3d03 653d 4a9c 943d f4d9 d237 350e 30bd
00000300: eaea 6d3b d82b 8bbd a810 8b3d 48ae df3c
00000310: 743d c63c 7a64 a3bd dcb0 293d a317 bc3c
00000320: d884 0ebd 737f 75bd 48a9 b5bd d0b9 753d
00000330: fcfa 91bd 74a1 283d f687 2fbd 7f49 3bbc
00000340: 2ff9 3abc 0717 903d 44b4 393d 004a e4bc
00000350: 45d0 67bd f52c b5bd a010 a8bc 29c0 613d
00000360: 31d3 a53d 9431 9cbd 4b4a 6538 0b1f 903b
00000370: a589 0d3d d8ee 58bd db08 96bd 0a09 943b
00000380: cf8a 8ebd 6c09 623d efa1 6a3d 90ee 45bd
00000390: db4e 9bba 85d9 2fbd 3fea 8cbd 47ad bc3c
000003a0: 16bf 8b3d de3d 14bd 3c0b b03b fb6e 73bb
000003b0: 4234 7ebd 59ea 053c 9f31 baba b64a 26bd
000003c0: b667 d93a 9934 b03b 219e bb3c 02ca 813d
000003d0: ea64 bdbd 7289 893b 1d70 65bc f46f e73c
000003e0: 89f6 54bb 19bb b8bd 31c1 933d 3395 2e3d
000003f0: d251 0f3d 2782 81bc 66c6 983c 13c1 b1bd
-0.021063633 -0.014881401 -0.032806523 -0.014967584 0.037099775 -0.0108315125 -0.054978006 0.025014132
-0.06905379 0.076938175 0.077711105 0.08361032 0.045432866 -0.031190604 -0.025840148 0.07751353
-0.032730773 -0.043371063 0.07307133 -0.07619887 0.058957245 -0.006405069 -0.017206917 0.08547962
-0.03425006 -0.013206431 -0.031174066 0.06396551 0.052501597 0.002417451 -0.04305929 -0.037173808
0.064507805 -0.0401949 0.07184795 -0.06769734 0.04066114 0.07419816 -0.040331386 0.05207863
0.07848245 0.07720301 -0.008566885 0.06957512 -0.081700616 0.00196918 -0.06061514 0.057650365
0.056861002 0.038566098 -0.06806612 0.017276276 -0.06456123 -0.079448976 -0.057836212 -0.0011609388
0.0730721 0.023035452 -0.018459944 -0.00052895787 -0.001749364 -0.034109272 0.00959405 -0.0038817208
-0.06468382 -0.044166133 0.046348844 0.067507215 -0.04691752 -0.011628285 0.02012908 0.03606604
-0.05079773 0.051949825 -0.023211248 -0.03129759 -0.024372498 -0.068180986 0.07605814 -0.054097198
0.06910471 0.07987604 0.05267225 0.048015304 -0.058820616 -0.08600958 -0.08561473 0.013792691
-0.036417585 0.055091705 -0.043017775 -0.044977356 -0.063638784 0.010420914 -0.050248973 -0.0645132
0.019021157 -0.05457467 -0.09035598 0.00860998 0.018049363 0.039231814 -0.024058703 0.03237645
-0.07597306 0.020589642 0.072386436 -0.014200339 -0.0059418622 0.026818585 -0.0019503159 0.03801802
-0.051815297 -0.019338094 0.038246255 0.06841974 -0.089599945 0.032426935 0.046370097 -0.03629319
0.05805119 -0.0771368 -0.06611682 0.039610356 0.045528878 0.07647216 -0.03472957 -0.08188739
0.046096854 0.0035128528 -0.06769417 0.060114704 -0.037201725 0.008622857 0.06642336 -0.057889007
-0.07482385 -0.0119349705 0.07941005 0.020451507 -0.041540027 0.0042084344 -0.0372421 0.0056515965
0.037147228 0.012367022 -0.026987897 0.049922522 -0.09445502 0.050949484 -0.068592966 -0.029178528
-0.050606873 0.052609358 0.04399535 -0.09367422 0.06831235 -0.000906869 -0.081565335 0.08309543
-0.061004817 0.0029714135 -0.067338794 0.044748224 -0.057879843 -0.051839978 0.12315671 0.0069143586
0.05194738 0.060475513 -0.031027373 -0.079197705 -0.08966066 0.029802918 0.016417177 -0.0039827996
0.02973825 -0.07864702 0.02670434 0.046689376 0.029417979 -0.042732887 0.05025849 -0.07269533
0.01932012 -0.049023766 -0.0075355736 0.028156225 0.05591129 0.07256372 2.5135443e-05 -0.0429823
0.003630335 -0.06795472 0.06790286 0.027304783 0.024199225 -0.07978149 0.041428432 0.02296049
-0.03479466 -0.059936 -0.088701785 0.059991658 -0.071279496 0.0411696 -0.04285427 -0.011431097
-0.011411949 0.07035642 0.04533793 -0.027867317 -0.056595106 -0.088464655 -0.02051574 0.0551149
0.08096922 -0.07626644 5.4667045e-05 0.004398232 0.034555096 -0.052962154 -0.07325908 0.004517679
-0.069600694 0.055184767 0.05728334 -0.048323214 -0.0011849062 -0.042932052 -0.068806164 0.023031844
0.06823556 -0.036191814 0.005372433 -0.0037145007 -0.062061556 0.008173549 -0.0014205462 -0.040598594
0.0016586694 0.005377364 0.02290255 0.06337358 -0.092477635 0.004197293 -0.014003781 0.028251626
-0.003249558 -0.09020061 0.07214583 0.042622756 0.03499014 -0.015809132 0.018649291 -0.08679404

layer2.bias f4 [128]
00000000: db79 1abd 0775 213b eb33 84bd c418 403c
00000010: 0705 d53d 6619 41bd 9e37 ccbc cd52 923d
00000020: 6ec2 86bc 9591 663c 616d 953c 5ed2 aa3d
00000030: 737f 133d 8e0a b3bd 125b c53d f3e4 b6bb
00000040: 65e7 35bb e9d2 9b3d a341 b6bc 14b7 b43d
00000050: 5895 b53d 8905 293d 0f40 e3bc 90b8 9f3d
00000060: 0841 52bd 6279 2fbd ae64 9e3d 927d 923d
00000070: 0aa5 c23c 3d67 91bd 40f4 993d 1cae f83c
00000080: de3d 983d 2990 853b 5beb 0a3d 03c5 4ebd
00000090: c8a5 923c 5199 85bb 2cc7 28bd 81b3 ec3c
000000a0: c752 ec3d c26e 273d 8ad6 333b 06f4 99bd
000000b0: f675 e63d 22a4 b3bd 381b 1fbd f335 96bd
000000c0: f6be 453d 3203 c9bc d8bd adbd 64d4 543b
000000d0: 646b 1cbd 0577 333c 48cb ccbc 41ae 443c
000000e0: a206 11bd 2c4b 243d fafa 913c a12d ad3d
000000f0: 49b4 813d 6dc6 f23d 9903 12bc 3bb3 2cbd
00000100: 3b69 fd3c 66e6 40bc 63c3 8a3c 2bb6 3cbd
00000110: 36fe cd3c 2018 4f3d f448 a23c d6cb 31bd
00000120: 0209 e13c 761b 593d ab01 293d a514 e63d
00000130: d81b a13d 2e7c 4c3c a26b 9bbd dab5 213d
00000140: 2370 9b3d 686a 923d 957b dfbc 53ad 4e3d
00000150: f0de 50bd 2a0f 6f3c 2a01 81bd a5ae aabc
00000160: cfd1 0cbd 149c 43bd a0de 80bc c12f dd3c
00000170: 157b a03d 1a3c 6d3d 3f99 8d3c 425d 0bbd
00000180: 2dc4 663b a3cd 1bbd 4a37 e739 94e0 313d
00000190: 76f7 2f3d 994d a63d c285 b5ba 24c5 883d
000001a0: 3537 653c 93ac 603d 9005 4a3d 7b99 873d
000001b0: 6166 c73c 3859 b7bb 4bd6 983d 539d 36bd
000001c0: 1ca2 d93d e008 5a3d afaf 49bd e0ca 193d
000001d0: 9f62 a63d f8ec ab3d 1791 8abc a208 a2bd
000001e0: 7d79 4cbd 94c2 883d 93a2 81bc 42c3 8a3d
000001f0: b9b4 1dbd 549c c63d f74e a83d 9056 88bc
-0.037713867 0.0024636404 -0.06455215 0.011724655 0.104013495 -0.047143362 -0.024928864 0.07144699
-0.016450133 0.014072795 0.018240632 0.083409056 0.036010217 -0.087422475 0.09636511 -0.005581492
-0.002775633 0.07608587 -0.022248095 0.08823982 0.08866376 0.041265044 -0.027740506 0.077988744
-0.05133155 -0.04284037 0.07734047 0.07152857 0.023760337 -0.07099769 0.0751729 0.03035646
0.07433675 0.004076023 0.03391586 -0.050480854 0.017901316 -0.0040771146 -0.04120557 0.028894188
0.11539226 0.04087711 0.0027441108 -0.07517247 0.11252968 -0.0877154 -0.038844317 -0.07334509
0.048277818 -0.024537656 -0.084834754 0.0032475227 -0.038188353 0.010953669 -0.024999276 0.012004436
-0.035406716 0.040110752 0.01781987 0.08455969 0.06333215 0.11854253 -0.008911991 -0.042163115
0.030933967 -0.011773681 0.01693887 -0.046072166 0.025145631 0.050560117 0.019810177 -0.043407284
0.027470116 0.053004704 0.041261356 0.112344064 0.07866639 0.012480779 -0.07588889 0.039480068
0.07589748 0.07149202 -0.027280608 0.050458264 -0.05099386 0.014591018 -0.0629905 -0.02083523
-0.034379777 -0.04775627 -0.015731156 0.02700031 0.07835976 0.057918645 0.017284987 -0.034024484
0.0035212145 -0.038037907 0.00044100947 0.043427065 0.042960607 0.08120269 -0.0013849067 0.066782266
0.013990213 0.05485208 0.04932171 0.06621071 0.02434081 -0.0055953525 0.07462748 -0.04458363
0.10626623 0.05323112 -0.04923981 0.037546992 0.08124279 0.083948076 -0.016914887 -0.07911803
-0.049920548 0.06677738 -0.015824592 0.06775524 -0.03850243 0.09697786 0.08218186 -0.016642839

layer3.weight f4 [2, 128]
00000000: 1f4b 313d c9fa a7bc cc5a 6abc ab95 693d
00000010: 26af c93d f405 62bd 9fe7 543d d3be 143d
00000020: 59e1 81bd cd67 0cbe 7c14 a6bc 9cff 903d
00000030: f856 b5bd 40ad 1bbd 0000 f53d f7de 2ebd
00000040: ee64 ee3b cba6 8ebd 1365 d3bd 1df5 d83d
00000050: a17e 703d ca2a b03d 036c e73d 3121 31bd
00000060: a131 f33c afb3 e63d 55fb 653d ba5a 0dbd
00000070: b2e7 54bb 7602 a93d 7592 30bd 6b7c 5e3d
00000080: 65d2 a43d a051 013d b2e2 c9bd bcb7 6e3d
00000090: cba6 5fbc 8092 b23d 23d7 b0bd a56f 713b
000000a0: be40 843d 1be0 053e a32b a13d eb51 55bd
000000b0: 5cf6 c13c bb99 a33d d6ab 7e3d c2f8 9e3d
000000c0: 82ce 00bc 4be5 403d 8b64 5fbd 0576 523d
000000d0: 57ff 29bd 69d1 203d 70c7 99bd 88a9 f43d
000000e0: 2e2d ac3d 2d49 153e a66c 8a3c 61b0 19be
000000f0: c18e ebbd 7a80 123d f9d5 a9bd c9af e23c
00000100: 5021 953d b32f ee3d 0035 83bd 0e58 15bc
00000110: 1239 f1bc 6854 c4bc 72dc f9bd 49d1 ac3d
00000120: a3f2 1a3b afa0 acbc a447 4a3d 424e ad3d
00000130: 0d4d a23d 9022 22bd 6c0e a13d 3de1 0b3d
00000140: 7b6a cf3d a8da 203d f202 2dbd 2180 cfbd
00000150: 8a2e 8ebd 20f5 f5bc b3be 033c db56 003e
00000160: 6636 f63c 7213 d63c fbf4 ad3c 4cda 963d
00000170: 0e02 133e daf2 d9bb 6125 d5bd 3384 e1bc
00000180: aff7 403d 6cb8 cbbd 3382 55bc fd62 223c
00000190: 1864 993b 85fb dbbb 3b06 35bd 6810 b0bd
000001a0: da7e e43a 02bd 2fbd 3c60 96bd 5d08 f03d
000001b0: ed1d e73d 99ee c2bc fea6 f53d 755f 88bd
000001c0: 0212 c73d 3e01 30bc 5667 bc3d 29d0 903c
000001d0: e277 2a3d 557d 3d3d 4e33 223d fe19 f1bc
000001e0: 3af2 60bd afad f03d d770 9a3d 5e9c b13d
000001f0: 3da0 a83d 3dda 9f3d 48a2 283d e196 7abd
00000200: fa97 a1bc b2fc dab8 1a77 a6bd 3a97 e73d
00000210: b129 6a3b 9d99 d0bd 65f8 893d 6de6 613d
00000220: a452 d63c 8c0c eabd 3ede be3d 0196 fd3d
00000230: 7a23 63bd c637 6fbd d5ee a53d 26d8 5ebd
00000240: 4773 3fbd 89b6 91bd 8baf e23c 7758 ac3c
00000250: d8d3 453d 5d5b 77bb f271 3c3d d0a1 a2bd
00000260: 24b9 1bbd 2424 b63d 3df4 be3d ff8a 20bc
00000270: 946a 003e fbbc ab3d e9e9 5bbc d40d 953d
00000280: c398 2e3d 1fa4 bf3d 2197 bfbd 4487 94bd
00000290: 035c 76bd 076b 9c3d c951 a3bc fa1e a7bc
000002a0: e841 ee3c f816 983c 69b9 713d 0386 c3bd
000002b0: d226 9d3d bcdd 09bd aa32 8c3d a103 403c
000002c0: b81a 90bd c0ed d03d 322b 97bd 07f4 443d
000002d0: 9e33 88bb 9a28 f63d fbd7 a73b 6c3c a5bc
000002e0: 7da1 03bd 9f5b 823d 2e56 023e bfc5 2f3c
000002f0: a0c4 01bc a46c 963d e307 b1bd 6a8e 973d
00000300: 8ea4 cc3d 161f 32bb f443 58bd cd3f 17bd
00000310: bfe3 f13d 2185 95bd e67a 81bd a9c7 b23d
00000320: 98e7 bd3d 8d9c 89bd 150a 023e d7b7 503d
00000330: 4e86 ba3d b20b 7bbd 76e6 4bbc cebf 0bbb
00000340: 2701 f13d 37b6 383c 313b 6bbd 47b1 3a3d
00000350: cdfa 1bbd d2f3 f03c a5cb 163d b122 713c
00000360: 9036 2cbd 7fb5 cb3d c36d e73d 5998 963c
00000370: 1406 79bc f2ff c3bc b884 d8bd 5b94 813c
00000380: 73e8 9c3d aa53 abbd 584e 3cbd cc73 d73d
00000390: 5bf7 3ebd 456c c03d f062 a8bd 17dc d2bd
000003a0: 7689 7d3d 83e3 9abd def3 f03b bf39 003d
000003b0: 7e3e 143e 1ae9 0ebd edca 87bb 0acc 313d
000003c0: 62f9 aa3d 461d d23d 4a56 7abd 0b6a 7f3d
000003d0: abd9 063d 6d8b c93d 966d 24bd cf2c b3bd
000003e0: bd23 183d 6c4a 623d 48e3 c33d 0a43 03bd
000003f0: 5ba4 55bd 63d2 ee3c 0c60 dc3d b33e d3bd
0.04328453 -0.020505326 -0.014303874 0.0570275 0.0984786 -0.05518146 0.051978704 0.036314797
-0.0634181 -0.13711472 -0.02027344 0.070800036 -0.088544786 -0.03800702 0.119628906 -0.042693105
0.0072752154 -0.06965407 -0.10322013 0.10593627 0.058714513 0.08601911 0.112998985 -0.043244544
0.02968675 0.11264741 0.056147892 -0.03451035 -0.0032486734 0.082524225 -0.043108422 0.054317873
0.08047942 0.031571984 -0.09857692 0.05828069 -0.013650606 0.08719349 -0.08634784 0.0036840227
0.06457661 0.1307377 0.07869651 -0.052080076 0.023677044 0.07988306 0.062175594 0.077622905
-0.007861735 0.04709367 -0.054539245 0.051382083 -0.041503277 0.03926221 -0.07508743 0.11946398
0.08407055 0.14578696 0.01689751 -0.1500869 -0.115018375 0.035767056 -0.08292765 0.027671712
0.072817445 0.11630192 -0.06406593 -0.009115232 -0.029446159 -0.02396603 -0.1220025 0.084383555
0.0023643158 -0.021072714 0.049384728 0.08462192 0.079248525 -0.039583743 0.07864079 0.03415035
0.101277314 0.039271027 -0.042239137 -0.101318605 -0.0694247 -0.030024111 0.008041072 0.12533133
0.030055236 0.02613232 0.02123498 0.073658556 0.14356253 -0.0066512646 -0.1040752 -0.027528858
0.04711121 -0.09947285 -0.01303153 0.009911296 0.0046811216 -0.006713333 -0.044195395 -0.08596879
0.0017432824 -0.04290486 -0.07342574 0.11720345 0.11285005 -0.023795413 0.11994742 -0.06658832
0.097202316 -0.010742484 0.09199397 0.017677383 0.041618235 0.046262104 0.03959971 -0.02943134
-0.054918505 0.117518775 0.07541054 0.08672403 0.08233688 0.078052975 0.04117039 -0.061179046
-0.019725788 -0.00010442118 -0.081281856 0.11308141 0.0035730416 -0.101855494 0.067368306 0.05515139
0.026162453 -0.114281744 0.09319733 0.123821266 -0.055453755 -0.0584028 0.08102194 -0.054405354
-0.046740796 -0.07114894 0.027671596 0.021038277 0.048297733 -0.0037743666 0.046007104 -0.079410195
-0.03801836 0.08893612 0.093239285 -0.009798764 0.12540656 0.083856545 -0.013422468 0.07278028
0.042626154 0.093574755 -0.093549974 -0.07252362 -0.060146343 0.07637601 -0.01993646 -0.020400513
0.02908416 0.01856564 0.05901471 -0.09547045 0.0767342 -0.033658728 0.06845601 0.011719615
-0.07036346 0.10201597 -0.07381286 0.048084285 -0.004156544 0.12019463 0.0051221824 -0.020170413
-0.03213643 0.063651316 0.12728187 0.010728299 -0.007920414 0.0734494 -0.086440824 0.0740021
0.09992324 -0.0027179173 -0.05279918 -0.03692608 0.11811017 -0.07300783 -0.06322269 0.087294884
0.092726886 -0.06719313 0.12699158 0.050956573 0.09107648 -0.06129045 -0.012445083 -0.0021324041
0.11767798 0.011273912 -0.057429496 0.04557922 -0.03808098 0.029413138 0.036815304 0.014717744
-0.042044222 0.09946727 0.11300232 0.018383192 -0.015199203 -0.023925755 -0.10572189 0.015817812
0.07661524 -0.08365567 -0.045973152 0.105201334 -0.046622615 0.09395651 -0.08221996 -0.10295885
0.06189867 -0.07562926 0.00735329 0.03130507 0.14476964 -0.03489027 -0.0041440637 0.043407477
0.08348347 0.1025949 -0.061117448 0.06235699 0.032922428 0.098410465 -0.04014357 -0.08748781
0.037143458 0.055246755 0.09564835 -0.032046355 -0.052158695 0.029153055 0.10760507 -0.10314693

layer3.bias f4 [2]
00000000: b699 2dbd fa7c a33d
-0.04238292 0.07982822
