model_weights/DQN/cartpole/cartpole_dqn_episode_1699.pth (torch, 72508 bytes, 6 tensors)

layer1.weight f4 [128, 4]
0.1614786 -0.2598347 0.08593663 -0.27857983 -0.131571 0.16363807 0.2969092 0.015619902
0.28824517 -0.29992378 0.69531906 0.2953623 -0.23934689 -0.2833844 0.0634731 -0.15805253
0.06155078 -0.37646315 -0.48542896 -0.23446557 -0.31504133 0.049818933 -0.73055327 -0.1287523
0.5543665 -0.12347757 -0.36869714 -0.2065362 -0.28959185 -0.08139957 -0.05031315 0.008752537
-0.27418482 -0.19873233 0.21529526 0.15171592 0.22145362 0.30392393 0.09358421 0.47039533
0.26977357 -0.24486183 -0.021942545 -0.17942825 -0.13323005 -0.14842816 0.10115442 -0.11572665
0.5048439 0.026613146 0.13187352 -0.07639486 0.2305141 0.09428668 0.043631148 -0.16714689
-0.18222052 0.31722683 0.14093237 0.29491365 -0.43263668 -0.2454796 -0.625695 0.026087416
-0.32009313 0.01574554 0.10919113 -0.007437571 -0.3869203 0.0670885 -0.7433391 -0.24251509
-0.35228527 -0.124989994 0.36073887 -0.025934929 -0.038315646 0.17134474 0.3976343 0.038659055
0.23552594 -0.34285486 -0.1609481 -0.26338544 -0.11016565 0.22402234 -0.052405413 -0.1298569
0.37010154 0.24132414 -0.14529188 -0.0233835 0.3844729 0.1577825 0.058619037 -0.2360378
0.18181193 0.44206977 0.15103635 0.19238271 -0.14445543 -0.14471944 0.46735317 0.3065193
0.4319128 -0.09252958 -0.28139326 0.04428848 0.10986133 0.013495314 -0.4601766 -0.0010004109
-0.36902288 -0.16271861 0.5575194 0.19014978 -0.3417182 0.07270396 -0.42795047 0.1109041
-0.3146652 -0.17874327 0.58027583 0.3669384 0.34954014 0.04793473 -0.20345964 0.055121012
-0.36763853 0.10995052 0.14172214 0.054025028 -0.29596758 0.061589032 0.46170327 0.10353018
-0.16034281 -0.4117105 -0.8791087 -0.029988024 0.15468757 0.22181404 0.2618799 -0.021885006
-0.15416266 -0.19710554 -0.17696424 -0.149638 -0.36364082 -0.13754784 0.009674527 0.045371104
-0.43513048 -0.43804693 0.33911568 -0.112776116 -0.4493861 -0.2696509 -0.37935695 -0.35889784
-0.41397718 0.10498516 -0.0789127 0.16084528 -0.39054385 0.39225236 -0.275241 0.25473842
0.42936537 0.5355612 0.1007882 0.27776784 -0.38054386 0.13078001 0.19462669 0.14749631
-0.024459492 0.28062686 0.8749393 0.24830626 0.0147534795 0.021551853 -0.029510176 -0.35887307
0.2693323 -0.2908414 -0.51047194 0.16256112 0.023684558 0.14563851 -0.09126531 -0.40230918
0.52249247 -0.12593274 -0.10697539 -0.19181965 -0.12500995 -0.29065353 -0.3288328 -0.25218514
0.33346346 0.28533387 0.0811697 0.10857483 -0.091939755 -0.2547502 -0.23190215 0.038096182
0.18624252 -0.20632493 -0.5853569 -0.11840174 0.060550597 0.12957966 0.8752423 0.1162393
-0.24779266 0.2290597 0.41091666 -0.12359962 -0.3927452 0.11690683 -0.44852638 -0.010024712
0.072403945 -0.024588604 -0.0015154339 -0.23467901 -0.4875297 0.016520295 -0.37920123 -0.216864
0.32184505 -0.2944056 0.1264751 -0.13522446 -0.0775542 -0.20243269 0.2517621 -0.19461314
0.061834596 0.46335998 0.29475933 0.22930619 0.02172104 -0.36848333 -0.45328668 -0.053959947
0.47863796 -0.21685024 -0.10685152 -0.30418798 -0.5171964 -0.29555222 0.41773525 0.45828074
00000000: a55a 253e 0e09 85be 8bff af3d 04a2 8ebe
00000010: 8cba 06be bd90 273e 7c04 983e 9eea 7f3c
00000020: df94 933e 9c8f 99be 6e00 323f ba39 973e
00000030: 5a17 75be c317 91be 2ffe 813d 86d8 21be
00000040: ac1c 7c3d c7bf c0be 258a f8be be17 70be
00000050: 194d a1be f00e 4c3d 8a05 3bbf a5d7 03be
00000060: f7ea 0d3f cfe1 fcbd dfc5 bcbe 3a7e 53be
00000070: 6245 94be d1b4 a6bd 2915 4ebd cd66 0f3c
00000080: f461 8cbe 7d80 4bbe 5c76 5c3e 6b5b 1b3e
00000090: bdc4 623e eb9b 9b3e 14a9 bf3d a8d7 f03e
000000a0: c31f 8a3e 0fbd 7abe dac0 b3bc 0abc 37be
000000b0: 756d 08be 8dfd 17be 0c2a cf3d 1802 edbd
000000c0: 733d 013f d003 da3c da09 073e e974 9cbd
000000d0: e30b 6c3e 6019 c13d 93b6 323d 8e28 2bbe
000000e0: 0498 3abe 8e6b a23e 9350 103e ecfe 963e
000000f0: 8e82 ddbe 015f 7bbe 8c2d 20bf 47b5 d53c
00000100: 3fe3 a3be cafc 803c 999f df3d deb6 f3bb
00000110: 6b1a c6be b265 893d 794b 3ebf e055 78be
00000120: bc5e b4be c1fa ffbd c4b2 b83e 7d75 d4bc
00000130: def0 1cbd ff74 2f3e b996 cb3e f558 1e3d
00000140: b62d 713e ac8a afbe 94cf 24be 75da 86be
00000150: 879e e1bd 1d66 653e 0fa7 56bd 35f9 04be
00000160: f37d bd3e ad1d 773e 65c7 14be c18e bfbc
00000170: a2d9 c43e bc91 213e 841a 703d e5b3 71be
00000180: e82c 3a3e f856 e23e 46a9 1a3e f9ff 443e
00000190: 20ec 13be 5531 14be ea48 ef3e 19f0 9c3e
000001a0: ad23 dd3e 2680 bdbd c712 90be d667 353d
000001b0: fafe e03d 731b 5d3c 449c ebbe 3820 83ba
000001c0: 91f0 bcbe b59f 26be 97b9 0e3f a0b6 423e
000001d0: b0f5 aebe d0e5 943d 531c dbbe b021 e33d
000001e0: cc1b a1be 7a08 37be f58c 143f 5adf bb3e
000001f0: edf6 b23e 3557 443d b957 50be 92c6 613d
00000200: 1e3b bcbe bd2d e13d 9c1f 113e 5949 5d3d
00000210: 1089 97be c844 7c3d 5f64 ec3e a207 d43d
00000220: e830 24be b8cb d2be 450d 61bf 72a9 f5bc
00000230: 6b66 1e3e 3823 633e 1f15 863e 2f48 b3bc
00000240: d1dc 1dbe 09d6 49be 1d36 35be b43a 19be
00000250: 212f babe 57d9 0cbe e881 1e3c 0dd7 393d
00000260: 6cc9 debe b047 e0be 92a0 ad3e 2af7 e6bd
00000270: ef15 e6be af0f 8abe 133b c2be 75c1 b7be
00000280: d1f4 d3be 7602 d73d fb9c a1bd a0b4 243e
00000290: 5df5 c7be 4dd5 c83e 63ec 8cbe 136d 823e
000002a0: c7d5 db3e 8a1a 093f 0b6a ce3d 9637 8e3e
000002b0: a5d6 c2be 32eb 053e 384c 473e 4609 173e
000002c0: 465f c8bc 53ae 8f3e 06fc 5f3f ff43 7e3e
000002d0: 94b8 713c 838d b03c 53bf f1bc 36be b7be
000002e0: ece5 893e 2ae9 94be 4aae 02bf 6c76 263e
000002f0: 1e06 c23c 4322 153e 4fe9 babd 78fb cdbe
00000300: 11c2 053f 83f4 00be ea15 dbbd 5f6c 44be
00000310: 9c02 00be 8ad0 94be c65c a8be 691e 81be
00000320: b9bb aa3e 4817 923e 4d3c a63d 7b5c de3d
00000330: e94a bcbd 9e6e 82be c277 6dbe be0a 1c3d
00000340: 5cb6 3e3e d846 53be f3d9 15bf 9d7c f2bd
00000350: e703 783d 88b0 043e e10f 603f df0e ee3d
00000360: 5cbd 7dbe a08e 6a3e ab63 d23e cc21 fdbd
00000370: e615 c9be d96c ef3d 40a5 e5be b13e 24bc
00000380: 8548 943d 0a6e c9bc 86a1 c6ba b24f 70be
00000390: 7e9d f9be 9255 873c aa26 c2be 9911 5ebe
000003a0: e0c8 a43e 55bc 96be b082 013e 4878 0abe
000003b0: bdd4 9ebd 844a 4fbe f6e6 803e ab48 47be
000003c0: 4646 7d3d 853d ed3e b2ea 963e 3ecf 6a3e
000003d0: 53f0 b13c d9a9 bcbe 3115 e8be 1b05 5dbd
000003e0: 0910 f53e fd0d 5ebe f8d4 dabd 87be 9bbe
000003f0: fc66 04bf 9f52 97be 65e1 d53e c6a3 ea3e

layer1.bias f4 [128]
0.49628627 0.26866117 -0.3086334 0.48891485 0.40379703 -0.28328472 -0.27493435 0.3402268
-0.44365373 -0.20318352 -0.21650952 0.6011378 0.187783 0.45578784 0.48055425 -0.46484417
0.3114892 -0.2311103 -0.101421155 0.4915161 0.29687932 0.50334775 0.39091933 -0.35256636
-0.38667867 -0.24594049 0.49710524 0.2977534 -0.5362433 0.4086436 -0.21015404 -0.22492322
0.3961867 0.24789871 -0.17249107 -0.41963655 -0.418956 0.45039067 -0.24434152 -0.1654984
-0.5384927 0.13488863 0.17520934 0.46668315 -0.33598518 0.35565105 0.2895997 0.24109517
-0.14853232 -0.11067027 0.27800453 0.42459974 0.6225426 -0.10533434 0.38647935 0.49768957
0.5732952 -0.550362 0.65502304 0.5854889 0.17669569 0.53687364 0.37714073 -0.089023784
-0.3760177 -0.73069584 0.33992493 0.18245462 0.40637773 -0.20388678 0.12946773 0.37009388
0.3505873 -0.30433306 0.296292 0.558919 0.031906046 -0.2607614 0.31622654 0.16783035
-0.44400737 -0.22196876 0.34652424 0.15992911 0.3117431 0.5651047 -0.40036482 0.39630997
-0.5138013 0.53276324 0.46392038 -0.42694664 0.4114736 0.5355286 -0.5060753 0.5006197
0.328334 -0.31488958 0.6188076 -0.16331728 -0.44219303 0.29520103 0.49834722 0.19146845
0.55307245 0.35976917 -0.12811472 -0.049180895 0.2642448 -0.11376681 -0.24996789 0.37773296
0.27359667 -0.4567542 0.58292735 0.17840466 -0.46354365 -0.30700406 0.608181 0.5684541
-0.24185897 0.20369639 0.45487046 -0.22781621 0.18413904 0.37367946 0.6280347 0.5728535
00000000: 3c19 fe3e f58d 893e 3205 9ebe 0c53 fa3e
00000010: 7cbe ce3e b20a 91be 32c4 8cbe 3532 ae3e
00000020: 9526 e3be 570f 50be acb4 5dbe 2be4 193f
00000030: 304a 403e 065d e93e 350b f63e 0e00 eebe
00000040: 837b 9f3e 2ea8 6cbe e5b5 cfbd 00a8 fb3e
00000050: 9100 983e 66db 003f 9426 c83e 9483 b4be
00000060: bffa c5be d3d7 7bbe 9484 fe3e 2273 983e
00000070: 3e47 09bf bc39 d13e 9f32 57be 4652 66be
00000080: fcd8 ca3e 29d9 7d3e 80a1 30be 9ada d6be
00000090: 6781 d6be 9b99 e63e aa34 7abe 6a78 29be
000000a0: a8da 09bf 3f20 0a3e 146a 333e 18f1 ee3e
000000b0: 4006 acbe e517 b63e 6946 943e a7e1 763e
000000c0: db18 18be 18a7 e2bd 9c56 8e3e 2365 d93e
000000d0: f45e 1f3f 88b9 d7bd 9fe0 c53e 2bd1 fe3e
000000e0: 79c3 123f 86e4 0cbf 97af 273f 9ae2 153f
000000f0: b7ef 343e 8d70 093f 9718 c13e 1a52 b6bd
00000100: 6485 c0be e20e 3bbf a40a ae3e 62d5 3a3e
00000110: be10 d03e b2c7 50be 3093 043e f27c bd3e
00000120: 2e80 b33e 8bd1 9bbe 96b3 973e 5115 0f3f
00000130: eaaf 023d 8582 85be 72e8 a13e b8db 2b3e
00000140: ef54 e3be c74b 63be a06b b13e 75c4 233e
00000150: cb9c 9f3e b4aa 103f 9efc ccbe 24e9 ca3e
00000160: 7b88 03bf 2c63 083f f986 ed3e c098 dabe
00000170: abac d23e 6718 093f 278e 01bf 9d28 003f
00000180: 651b a83e 3539 a1be 2d6a 1e3f a53c 27be
00000190: 2067 e2be 9724 973e 5e27 ff3e 4e10 443e
000001a0: 2896 0d3f aa33 b83e 8130 03be e871 49bd
000001b0: 184b 873e 93fe e8bd 95f7 7fbe 3766 c13e
000001c0: dd14 8c3e b0db e9be ba3a 153f b6af 363e
000001d0: 9855 edbe a32f 9dbe c0b1 1b3f 3586 113f
000001e0: e1a9 77be c995 503e c8e4 e83e a748 69be
000001f0: f28e 3c3e ea52 bf3e e2c6 203f 87a6 123f

layer2.weight f4 [128, 128]
0.15298383 0.10527615 -0.10291989 0.11879602 0.12286783 -0.24904035 -0.073946625 0.15017833
-0.21584713 -0.023929633 -0.24474551 0.30262658 0.07789972 0.026331458 0.09813367 0.049115628
0.104559205 -0.1478818 0.0061037038 0.045988116 0.2385068 0.09831911 0.044424944 -0.028373718
-0.07368097 -0.14680777 0.051888406 0.22713235 -0.11757546 0.18660176 -0.055826016 -0.27508703
0.20434372 0.124661356 0.057771165 -0.36618352 -0.6524936 0.22454634 -0.06694215 -0.012266567
-0.65268356 0.26902363 0.060515385 0.20820373 -0.33369166 0.12634978 0.057602786 0.10326363
-0.027174536 -0.040368393 0.010493898 0.12917265 0.16000387 -0.52963936 0.067381635 0.1579627
0.23045415 -0.32687387 0.16087754 0.16946374 0.09696609 0.13671811 0.06840275 -0.049677055
-0.25717992 -0.5558138 0.18450843 0.08870344 0.014653339 -0.19283307 0.07363233 0.0880566
0.094520204 -0.025489623 0.10037363 0.15909332 -0.09634406 -0.21759902 0.08002421 0.13130167
-0.26855227 -0.16890116 0.14163265 0.10415786 0.06983604 0.08117957 -0.15015197 0.18376371
-0.42067254 0.19579692 0.13906601 -0.15370259 0.032304004 0.15734683 -0.5424989 0.111156195
0.048018917 -0.3995619 0.100568034 -0.0823666 -0.09507942 0.044744495 0.18437262 0.025237964
0.034292158 0.20763531 0.022991598 -0.4229985 0.02389444 -0.033557754 -0.10053169 0.15783632
-0.013562673 -0.449147 0.18187298 0.13605995 -0.6354572 -0.10309659 0.23944348 0.13841406
0.0038613435 0.04266393 0.13580716 -0.1455185 0.105057895 0.11139062 0.17907648 0.15453543
0.032668315 0.02414779 -0.048163492 0.044819787 -0.036637407 0.0036336563 -0.02158949 -0.056842227
-0.048904635 0.05611916 0.11338023 -0.0064698183 -0.014793959 0.007328448 -0.019330543 0.021061417
0.018520871 0.009506551 -0.11376484 0.05602569 -0.09304952 0.044809 -0.052924864 0.0051274323
-0.072824426 0.038088493 0.034557927 -0.09125318 0.063415 -0.0063223667 -0.073340006 0.20078917
-0.04463055 -0.37568042 -0.046850476 0.14023152 -0.028886873 -0.048076827 0.21399698 0.0063400157
-0.0039047021 0.05810506 0.0025039497 -0.05446473 0.03786071 0.019547597 0.010082501 -0.0034091054
0.024472287 -0.11525601 0.03332231 0.035087835 0.01153524 0.1805404 0.05504856 -0.05971787
0.01286111 -0.1306288 -0.007323152 0.021633089 0.10230655 0.053131476 -0.0035036488 -0.0337746
0.04719871 -0.05527217 0.07159934 0.030543795 0.028342227 0.02892176 0.0039601037 0.028185932
-0.034380384 -0.051604435 -0.07016486 0.045565855 -0.070170276 -0.008573317 -0.022067081 -0.013461677
0.032357767 0.09486069 0.03454476 -0.023303851 -0.014556745 -0.070334725 0.007993288 0.04794442
0.06625133 -0.0665553 -0.0063123927 0.022003796 0.029603226 -0.04051176 -0.14706652 0.009394358
-0.05193617 0.2886312 0.04556115 -0.0007817229 0.0014207518 -0.024213849 -0.06903773 0.015971128
0.057421647 -0.039030075 0.0033199945 0.15815622 -0.047588367 0.0036341064 0.028695086 -0.017355336
0.020854099 -0.011355072 0.023013992 0.055808596 -0.029074723 0.089346975 -0.014887753 0.02963598
0.01866354 -0.08207404 0.04231113 0.21247707 0.08982616 -0.004851613 0.000957667 -0.088591345
00000000: cba7 1c3e 069b d73d aac7 d2bd 544b f33d
00000010: 21a2 fb3d 6f04 7fbe 5471 97bd 59c8 193e
00000020: 0807 5dbe 1408 c4bc 919e 7abe dff1 9a3e
00000030: e389 9f3d 12b5 d73c 4efa c83d 782d 493d
00000040: 2323 d63d 546e 17be 9401 c83b 095e 3c3d
00000050: 203b 743e 885b c93d eef6 353d 0070 e8bc
00000060: 0ce6 96bd c754 16be f088 543d 6295 683e
00000070: 67cb f0bd 8814 3f3e d2a9 64bd 35d8 8cbe
00000080: 7b3f 513e 744e ff3d 75a1 6c3d 687c bbbe
00000090: d209 27bf 7aef 653e f718 89bd b6f9 48bc
000000a0: 4516 27bf 77bd 893e fbde 773d 5c33 553e
000000b0: a2d9 aabe d661 013e e6f0 6b3d e27b d33d
000000c0: 229d debc 5459 25bd 99ee 2b3c d645 043e
000000d0: 0ed8 233e 7296 07bf 62ff 893d f9c0 213e
000000e0: 2cfc 6b3e 035c a7be 15bd 243e e787 2d3e
000000f0: 2896 c63d d5ff 0b3e be16 8c3d 2b7a 4bbd
00000100: 16ad 83be d049 0ebf c7ef 3c3e 26aa b53d
00000110: 8f14 703c 0876 45be 8ccc 963d 0557 b43d
00000120: cf93 c13d 9dcf d0bc b190 cd3d 5ce9 223e
00000130: 0950 c5bd 47d2 5ebe bce3 a33d f273 063e
00000140: af7f 89be 6df4 2cbe 2608 113e b750 d53d
00000150: 3306 8f3d 7941 a63d 70c1 19be 8e2c 3c3e
00000160: 6462 d7be fd7e 483e 5267 0e3e 3664 1dbe
00000170: 3451 043d 871f 213e 35e1 0abf dca5 e33d
00000180: 7caf 443d 6193 ccbe 9df6 cd3d d2af a8bd
00000190: 00b9 c2bd 0146 373d 2dcc 3c3e d9bf ce3c
000001a0: ef75 0c3d 5a9e 543e e058 bc3c 4293 d8be
000001b0: 46be c33c db73 09bd 8fe3 cdbd d89f 213e
000001c0: f935 5ebc 98f6 e5be e93c 3a3e 4d53 0b3e
000001d0: 53ad 22bf 4e24 d3bd ac30 753e 6abc 0d3e
000001e0: 980e 7d3b 60c0 2e3d 0811 0b3e cd02 15be
000001f0: 9828 d73d c420 e43d d35f 373e 893e 1e3e
00000200: 36cf 053d 96d1 c53c 1547 45bd f494 373d
00000210: 1b11 16bd a322 6e3b 71dc b0bc 65d3 68bd
00000220: 3a50 48bd 34dd 653d e533 e83d c500 d4bb
00000230: 5d62 72bc 7a23 f03b 165b 9ebc fe88 ac3c
00000240: 15b9 973c 5dc1 1b3c 8afd e8bd 327b 653d
00000250: bf90 bebd a489 373d bec7 58bd 0504 a83b
00000260: f924 95bd ae02 1c3d 9d8c 0d3d f2e2 babd
00000270: b9df 813d db2b cfbb 4933 96bd ad9b 4d3e
00000280: 86ce 36bd 2f59 c0be 49e6 3fbd da98 0f3e
00000290: 2aa4 ecbc 35ec 44bd 0622 5b3e e8bf cf3b
000002a0: 08e6 7fbb 92ff 6d3d 4e19 243b 6916 5fbd
000002b0: d513 1b3d 4822 a03c 1331 253c 4c6b 5fbb
000002c0: 1b7a c83c 580b ecbd f97c 083d 43b8 0f3d
000002d0: 4efe 3c3c 95df 383e 997a 613d ba9a 74bd
000002e0: 68b7 523c 8ec3 05be 0df7 efbb e037 b13c
000002f0: 1986 d13d 64a0 593d 799d 65bb 3c57 0abd
00000300: 6f53 413d 1265 62bd ada2 923d fb36 fa3c
00000310: f52d e83c 54ed ec3c c2c3 813b 2fe6 e63c
00000320: 72d2 0cbd 2c5f 53bd 98b2 8fbd 43a3 3a3d
00000330: 6fb5 8fbd 1977 0cbc 06c6 b4bc 5e8e 5cbc
00000340: 9489 043d 5246 c23d ce7e 0d3d b8e7 bebc
00000350: 6a7f 6ebc a70b 90bd 48f6 023c 5e61 443d
00000360: c7ae 873d 254e 88bd 30d8 cebb 4e41 b43c
00000370: 7782 f23c a9ef 25bd 9b98 16be cbea 193c
00000380: 05bb 54bd 78c7 933e 549e 3a3d 89ec 4cba
00000390: 8538 ba3a 1f5c c6bc a763 8dbd e2d5 823c
000003a0: f632 6b3d 00de 1fbd 4494 593b b4f3 213e
000003b0: 05ec 42bd 302a 6e3b f511 eb3c c72c 8ebc
000003c0: 37d6 aa3c a00a 3abc d787 bc3c 8e97 643d
000003d0: 1d2e eebc 8cfb b63d c3eb 73bc 28c7 f23c
000003e0: 48e4 983c 6f16 a8bd 6f4e 2d3d 9793 593e
000003f0: c7f6 b73d 48fa 9ebb f20b 7b3a 616f b5bd

layer2.bias f4 [128]
0.15778223 -0.0002461767 -0.10074783 0.16211288 0.28119302 -0.12983754 0.17426844 0.25621474
-0.013366088 -0.09651033 0.21454631 0.20947057 0.024342788 -0.18403697 0.2529795 -0.041027922
-0.04905844 0.061890386 -0.018246362 0.26103505 0.266751 0.2332103 0.16320531 0.06463868
0.11984051 0.10523331 0.2501929 0.04268174 0.21162625 -0.05774757 0.061114356 0.21663234
0.25228325 0.19620031 -0.004094028 -0.04230396 0.014563902 0.18055211 -0.03356069 0.009750139
0.29061306 0.22155514 0.19416578 -0.17023185 0.288174 -0.07140079 -0.033955615 -0.059625484
-0.11285928 0.13634154 -0.09721644 0.19933422 -0.031068796 0.16822125 -0.020375686 0.20413092
0.1717018 0.20767035 0.20452902 -0.0016594153 -0.07920333 0.2918612 -0.093958326 0.15869325
0.19474043 0.18282503 0.008444993 -0.038313426 0.21838802 0.011815298 -0.101626925 0.13934286
0.2196729 0.05715864 0.21994866 0.28296825 0.25109208 -0.09001436 0.13038056 0.16632658
0.23899648 0.25590402 -0.038732324 0.041093264 -0.063081324 0.018118506 -0.026447142 0.17149657
-0.032640412 0.15434267 0.17622155 0.021991102 0.25262198 0.046713155 -0.083918884 -0.027669026
0.1957954 -0.054531343 -5.209256e-05 0.2305615 -0.05194636 0.26308915 -0.047447573 0.027108377
0.008929602 0.01182021 -0.002434265 0.2333311 0.19150151 -0.056840084 0.25060263 -0.07601388
0.27042288 0.24039553 0.155668 0.23149277 0.26674572 0.23815635 0.17406742 -0.06700983
-0.003256015 0.20784697 0.16969511 0.25530884 -0.031340804 0.27339992 0.2564136 -0.08949849
00000000: aa91 213e 4711 81b9 e154 cebd eb00 263e
00000010: 88f8 8f3e 22f4 04be 6d73 323e 942e 833e
00000020: 70fd 5abc 35a7 c5bd 07b2 5b3e 747f 563e
00000030: 876a c73c 3074 3cbe 8786 813e e50c 28bd
00000040: 81f1 48bd c680 7d3d 6579 95bc 63a6 853e
00000050: 9693 883e aece 6e3e 4b1f 273e 4961 843d
00000060: f16e f53d 9084 d73d 4919 803e 0cd3 2e3d
00000070: 8db4 583e b788 6cbd 0c53 7a3d ded4 5d3e
00000080: 452b 813e bce8 483e 3227 86bb eb46 2dbd
00000090: 6f9d 6e3c a7e2 383e ef76 09bd 0cbf 1f3c
000000a0: 3ccb 943e 5adf 623e 65d3 463e 4251 2ebe
000000b0: 8b8b 933e 943a 92bd 0b15 0bbd da39 74bd
000000c0: c422 e7bd 1e9d 0b3e 6a19 c7bd 451e 4c3e
000000d0: fd83 febc 3142 2c3e e9ea a6bc b207 513e
000000e0: 99d2 2f3e 89a7 543e 0e70 513e bd80 d9ba
000000f0: 5b35 a2bd d56e 953e 396d c0bd 7c80 223e
00000100: 096a 473e 7c36 3b3e de5c 0a3c 8aee 1cbd
00000110: 1ca1 5f3e f494 413c c721 d0bd e5af 0e3e
00000120: eff1 603e 2e1f 6a3d 393a 613e 37e1 903e
00000130: 248f 803e 7359 b8bd 7b82 053e 8451 2a3e
00000140: 7ebb 743e da05 833e c9a5 1ebd 6951 283d
00000150: c830 81bd 436d 943c ada7 d8bc cc9c 2f3e
00000160: f4b1 05bd 010c 1e3e 6c73 343e af26 b43c
00000170: ab57 813e 4b56 3f3d aadd abbd 27aa e2bc
00000180: 977e 483e 425c 5fbd f67d 5ab8 5018 6c3e
00000190: b5c5 54bd 9fb3 863e 6358 42bd 6312 de3c
000001a0: 774d 123c 8ea9 413c 3188 1fbb 59ee 6e3e
000001b0: f918 443e 26d1 68bd fd4e 803e 2aad 9bbd
000001c0: de74 8a3e 3f2a 763e 6f67 1f3e 710c 6d3e
000001d0: e592 883e 42df 733e bb3e 323e 733c 89bd
000001e0: de62 55bb d6d5 543e 8ec4 2d3e d7b7 823e
000001f0: 375f 00bd 13fb 8b3e a548 833e fc4a b7bd

layer3.weight f4 [2, 128]
0.29635158 -0.0379088 -0.3776038 0.25279066 0.2860044 -0.3027969 0.2537222 0.23636194
-0.05160098 -0.5919311 0.18091494 0.27233902 -0.21566506 -0.4152372 0.3016068 -0.30196464
-0.13828197 -0.056675635 -0.38696784 0.28367063 0.2500938 0.28334102 0.29701158 -0.2387599
0.27259597 0.29815373 0.2624222 -0.6567348 0.2057016 0.0672139 -0.035075996 0.24486974
0.26583853 0.23390108 -0.8117981 0.051793244 -0.011303656 0.2803508 -0.07026116 -0.7065673
0.25556505 0.3299693 0.27036238 -0.4587573 0.22286072 0.06505295 0.058960494 0.06320373
-0.4470207 0.24469121 -0.23714016 0.25060254 -0.033804268 0.24351671 -0.061055776 0.30131721
0.28089964 0.3378071 0.2233319 -0.71414113 -0.8164692 0.23210935 -0.7705343 0.22553536
0.27478817 0.2991859 -0.5203699 -0.008957747 0.17845987 -0.23628463 -0.51020974 0.27578107
0.19988443 0.1918705 0.25117743 0.28318948 0.26918393 -0.6313001 0.33072257 0.25678205
0.29623902 0.26731867 -0.5801204 -0.08250245 -0.49801496 -0.19029628 0.025747973 0.30379465
-0.01268688 0.23695132 0.21060337 0.059876252 0.32826436 -0.0053591854 -0.7021857 -0.02241394
0.23623297 -0.5488662 -0.010643393 0.22137527 -0.2322985 0.18921745 -0.33271813 -0.4238815
0.0015236766 -0.26718011 -0.36962077 0.29920897 0.3085909 -0.3101457 0.29999608 -0.31938076
0.2995439 0.19458964 0.28485128 0.22320746 0.24053906 0.24397801 0.30051497 -0.023964912
-0.21950483 0.29938126 0.2748648 0.27882314 0.06706062 0.26249838 0.24039963 -0.1994338
0.19353302 -0.016061118 -0.463119 0.30384827 0.22142646 -0.5606932 0.2823426 0.26183096
0.021292707 -0.5322275 0.2944119 0.3187862 0.030737448 -0.6049887 0.2718728 -0.342588
-0.27867964 -0.057868566 -0.0835859 0.21682464 0.24822363 0.21247633 0.24433707 -0.23851818
0.08412629 0.27657002 0.29949293 -0.5526487 0.32476684 0.06830398 -0.010933401 0.2679746
0.24187706 0.30009875 -0.8712289 -0.052619528 -0.048965137 0.27832404 -0.016235169 -0.7560782
0.23185869 0.23763494 0.26318187 -0.51196563 0.2860923 -0.027364228 0.044566236 0.009539638
-0.575678 0.29255393 -0.26011664 0.25623995 -0.0033781978 0.31645772 0.004364263 0.1859662
0.18190484 0.26689786 0.3236587 -0.21981299 -0.62421894 0.27853352 -0.77999103 0.26673827
0.2981733 0.20316838 -0.43142274 -0.027752234 0.32195064 -0.296412 -0.4662157 0.28230438
0.2900723 -0.15403341 0.33185866 0.2594005 0.2925332 -0.7885774 0.201748 0.17926301
0.3254345 0.2523733 -0.442348 0.037134994 -0.3982174 -0.033860557 0.09745628 0.21670456
-0.2985916 0.3079126 0.30043373 0.014943907 0.19952734 -0.019310787 -0.7409211 0.012871691
0.27628967 -0.5479507 -0.0368249 0.32180586 -0.3240622 0.28791547 -0.4231386 -0.4768504
0.04803638 -0.2824045 -0.056303933 0.23434125 0.3374797 -0.086554386 0.19515482 -0.11142408
0.29243025 0.30517322 0.14116459 0.27201858 0.24302888 0.2991267 0.16269739 -0.06889598
0.23648112 0.25840676 0.2933129 0.181152 -0.042442948 0.23154862 0.30682158 -0.3653841
00000000: 65bb 973e 4246 1bbd 4955 c1be c76d 813e
00000010: 2b6f 923e 3208 9bbe e0e7 813e dd08 723e
00000020: 8d5b 53bd cc88 17bf c441 393e 0570 8b3e
00000030: 4dd7 5cbe f899 d4be 356c 9a3e 1c9b 9abe
00000040: ca99 0dbe b624 68bd a620 c6be 473d 913e
00000050: 4b0c 803e 1312 913e e711 983e 7a7d 74be
00000060: b391 8b3e 9ba7 983e 345c 863e c61f 28bf
00000070: 71a3 523e 71a7 893d d9ab 0fbd 22bf 7a3e
00000080: fd1b 883e c483 6f3e 00d2 4fbf 2725 543d
00000090: f832 39bc 248a 8f3e 15e5 8fbd 98e1 34bf
000000a0: 6cd9 823e bcf1 a83e f06c 8a3e 3de2 eabe
000000b0: 9a35 643e 7b3a 853d 8f80 713d f570 813d
000000c0: e6df e4be 5590 7a3e dfd4 72be fa4e 803e
000000d0: 5876 0abd 725c 793e 9f15 7abd 4046 9a3e
000000e0: 14d2 8f3e 0df5 ac3e 1eb1 643e f4d1 36bf
000000f0: 2004 51bf 13ae 6d3e bc41 45bf bef2 663e
00000100: 09b1 8c3e e52e 993e f636 05bf 84c3 12bc
00000110: 2fbe 363e 99f4 71be 1b9d 02bf 2d33 8d3e
00000120: 81ae 4c3e b379 443e 549a 803e 36fe 903e
00000130: 7ad2 893e e29c 21bf 7854 a93e f078 833e
00000140: a4ac 973e fedd 883e c582 14bf 0bf7 a8bd
00000150: d1fb febe 07dd 42be 6aed d23c f98a 9b3e
00000160: a2dc 4fbc 5ea3 723e 69a8 573e cd40 753d
00000170: 4412 a83e 1b9c afbb 71c2 33bf 709d b7bc
00000180: 0ee7 713e 7f82 0cbf a061 2ebc 33b0 623e
00000190: a8df 6dbe 38c2 413e 085a aabe ff06 d9be
000001a0: 1ab6 c73a d5cb 88be ef3e bdbe eb31 993e
000001b0: a0ff 9d3e 6bcb 9ebe 1699 993e e085 a3be
000001c0: d15d 993e 8242 473e 07d8 913e 7f90 643e
000001d0: df4f 763e 5fd5 793e 19dd 993e 1052 c4bc
000001e0: e0c5 60be 8048 993e 14bb 8c3e e8c1 8e3e
000001f0: 1457 893d 3066 863e 522b 763e 6038 4cbe
00000200: 852d 463e 9b92 83bc ef1d edbe 0092 9b3e
00000210: 9ebd 623e 9789 0fbf 368f 903e b50e 863e
00000220: 0b6e ae3c 1040 08bf 28bd 963e f237 a33e
00000230: 1acd fb3c 8ae0 1abf e932 8b3e b267 afbe
00000240: 19af 8ebe 9707 6dbd 162f abbd 4707 5e3e
00000250: 562e 7e3e 6593 593e 7f33 7a3e 1c3e 74be
00000260: 684a ac3d 969a 8d3e 2357 993e 637a 0dbf
00000270: d747 a63e f5e2 8b3d 0222 33bc f733 893e
00000280: 9fae 773e 8ba6 993e db08 5fbf 9387 57bd
00000290: ab8f 48bd 7d80 8e3e 9eff 84bc 578e 41bf
000002a0: 5d6c 6d3e 9356 733e c6bf 863e 2e10 03bf
000002b0: b17a 923e f22a e0bc 168b 363d 244c 1c3c
000002c0: a25f 13bf a1c9 953e 022e 85be e231 833e
000002d0: c164 5dbb bf06 a23e 1702 8f3b ec6d 3e3e
000002e0: 4345 3a3e d6a6 883e 98b6 a53e a816 61be
000002f0: d0cc 1fbf f29b 8e3e 7ead 47bf eb91 883e
00000300: 2caa 983e 5f0b 503e 71e3 dcbe a758 e3bc
00000310: b7d6 a43e 50c3 97be d3b3 eebe 338a 903e
00000320: 5b84 943e efba 1dbe 61e9 a93e 24d0 843e
00000330: e9c6 953e 35e0 49bf 0797 4e3e b990 373e
00000340: 5a9f a63e 1337 813e 707b e2be dd1a 183d
00000350: 27e3 cbbe 5eb1 0abd 2897 c73d cde7 5d3e
00000360: 00e1 98be b8a6 9d3e 73d2 993e 4ad7 743c
00000370: e550 4c3e a831 9ebc 01ad 3dbf c9e3 523c
00000380: d775 8d3e 7f46 0cbf b5d5 16bd bdc3 a43e
00000390: 7beb a5be a869 933e 9fa5 d8be bc25 f4be
000003a0: ccc1 443d 5397 90be f49e 66bd 27f7 6f3e
000003b0: 24ca ac3e 6d43 b1bd aad6 473e 4f32 e4bd
000003c0: 6bb9 953e aa3f 9c3e 738d 103e 0546 8b3e
000003d0: 90dc 783e 2327 993e 259a 263e 5619 8dbd
000003e0: 1b28 723e e44d 843e 1c2d 963e e97f 393e
000003f0: a8d8 2dbd 151b 6d3e b817 9d3e a013 bbbe

layer3.bias f4 [2]
0.013291333 0.11262058
00000000: e4c3 593c 9ea5 e63d
