model_weights/DQN/cartpole/cartpole_dqn_episode_3999.pth (torch, 72508 bytes, 6 tensors)

layer1.weight f4 [128, 4]
0	0x3d86f030	0.06588781
1	0xbdf4e3b9	-0.11957497
2	0x3d3bbfa8	0.045837075
3	0xbdfae508	-0.122507155
4	0xbd9dea9d	-0.077107646
5	0x3d77d61d	0.06050693
6	0x3e211226	0.1572958
7	0x3ce2b04a	0.027671952
8	0x3e16f60f	0.14742301
9	0xbe0697df	-0.13143872
10	0x3ec8a378	0.39187217
11	0x3e03a700	0.12856674
12	0xbdefa9c5	-0.11702303
13	0xbe09ae63	-0.1344543
14	0x3ce53b3b	0.027982345
15	0xbd8fcfc1	-0.07022048
16	0x3ca69ba6	0.02033789
17	0xbe31f02a	-0.17376772
18	0xbe6bdf40	-0.23034382
19	0xbde43c66	-0.111443326
20	0xbe0133fb	-0.12617485
21	0xbc71c1a1	-0.014755637
22	0xbedb92f4	-0.42885554
23	0xbcd9d392	-0.026590142
24	0x3e80dff2	0.25170857
25	0xbd7740d6	-0.060364567
26	0xbe5dbd98	-0.21654356
27	0xbdb9e2e9	-0.09076483
28	0xbe0fac86	-0.14030656
29	0xbd35f8dc	-0.044426784
30	0xbce2d45c	-0.027689151
31	0x3b499634	0.0030759694
32	0xbe0a9c2f	-0.13536142
33	0xbdeeb4d5	-0.11655585
34	0xbd361c68	-0.044460684
35	0xbda32e36	-0.079677984
36	0x3dbbcfc4	0.091704875
37	0x3e033d7b	0.12816422
38	0x3e33da4f	0.17563747
39	0x3e72cee1	0.2371173
40	0x3df41174	0.119173914
41	0xbe14e295	-0.14539559
42	0xbe1fc8dc	-0.15603966
43	0xbe07490e	-0.13211462
44	0xbd8616b2	-0.065472975
45	0xbd8b4bcb	-0.06801566
46	0x3d48de65	0.049040217
47	0xbd58a9c1	-0.052896265
48	0x3e75d922	0.24008611
49	0x3d15b5d6	0.036550365
50	0x3e2eef02	0.17083362
51	0xbcfc0b7b	-0.030767193
52	0x3dd93ee2	0.10607697
53	0xbb49ed93	-0.0030811771
54	0xbd4dd6aa	-0.050253548
55	0xbcb70af3	-0.022344088
56	0xbdd5f2c0	-0.104466915
57	0x3e01b565	0.12666853
58	0x3db05ad2	0.086110726
59	0x3e190491	0.14943148
60	0xbe3b129e	-0.1826882
61	0xbe18baed	-0.14915057
62	0xbee14315	-0.43996492
63	0xbe05713b	-0.13031475
64	0xbe1e408e	-0.15454313
65	0xba4eb6d6	-0.0007885521
66	0x3d5508aa	0.052010216
67	0xba960f85	-0.0011448717
68	0xbe432f77	-0.19061075
69	0xbcd5610d	-0.026047254
70	0xbed8033a	-0.42189962
71	0xbd785feb	-0.06063835
72	0xbe206e54	-0.15667087
73	0xbdbfec23	-0.093712114
74	0xbbb037df	-0.005377754
75	0xbd68ac46	-0.056804918
76	0xbcd02364	-0.0254075
77	0x3d8d8b45	0.06911329
78	0x3e492e10	0.19646478
79	0x3cfc6a9c	0.030812554
80	0x3deb0304	0.114751846
81	0xbe2016d1	-0.15633704
82	0xbd8fd409	-0.07022864
83	0xbdfa4c9e	-0.12221645
84	0xbd88388e	-0.06651412
85	0x3db14465	0.08655623
86	0x3c2746db	0.010209764
87	0xbc813c55	-0.015775839
88	0x3e198670	0.1499269
89	0x3d271d5c	0.040799484
90	0xbe21803e	-0.15771577
91	0x3c0c7a3f	0.008574068
92	0x3e2f4e49	0.17119707
93	0x3d8f6b86	0.0700293
94	0x3d423f0d	0.04742341
95	0xbda9bd47	-0.08288055
96	0x3da798dd	0.08183453
97	0x3e4d960a	0.20076767
98	0x3d8a5199	0.06753845
99	0x3d904139	0.0704369
100	0xbda19f4e	-0.07891713
101	0xbd9c4cd2	-0.0763184
102	0x3e0b96ed	0.13631792
103	0x3d2e6dd9	0.042585228
104	0x3e8126c4	0.25224888
105	0x3cfe8c07	0.03107263
106	0xbd9fe769	-0.0780781
107	0xbce77c1a	-0.028257418
108	0x3dc17a5e	0.09447168
109	0x3ca7d794	0.020488538
110	0xbe7ea081	-0.24865915
111	0x3c6c25b3	0.014413285
112	0xbe36a04f	-0.1783459
113	0xbddabe08	-0.10680777
114	0x3e053a31	0.1301048
115	0xbcfb52af	-0.030679075
116	0xbe28001c	-0.16406292
117	0x3cda3a80	0.026639223
118	0xbe49c37a	-0.19703475
119	0x3d42f587	0.047597434
120	0xbe206464	-0.15663296
121	0xbdf1ccae	-0.11806618
122	0x3e0d996d	0.13828059
123	0xbd1dae16	-0.0384961
124	0x3e20f719	0.1571926
125	0x3cb09b94	0.02155856
126	0xbdbb5a88	-0.09148127
127	0x3ccb0228	0.024781302
128	0xbe358e42	-0.17730048
129	0x3d274eb9	0.04084656
130	0x3d7fc9e6	0.062448405
131	0x3cbe58c2	0.023235682
132	0xbe0e8f29	-0.13921799
133	0x3cdc3f6d	0.026885713
134	0x3e72c6a6	0.23708591
135	0x3d6b43bb	0.05743764
136	0xbda593ba	-0.08084817
137	0xbe68149f	-0.22664116
138	0xbf206778	-0.6265788
139	0xbe205ee2	-0.15661195
140	0x3d8e7368	0.06955606
141	0x3dd1821f	0.10229897
142	0x3def9acf	0.11699449
143	0xbcef327f	-0.029198883
144	0xbda7feb5	-0.082028784
145	0xbe070355	-0.13184865
146	0xbe8433c7	-0.25820753
147	0xbe00db6d	-0.12583704
148	0xbe30deae	-0.17272446
149	0xbd8c0011	-0.0683595
150	0x3ba9dc36	0.005183722
151	0x3cab8e8d	0.020941997
152	0xbe4e0520	-0.20119143
153	0xbe5c236c	-0.21497887
154	0x3da685ca	0.08130987
155	0xbddd3af1	-0.10802258
156	0xbe4d0ae5	-0.20023687
157	0xbe05e064	-0.1307388
158	0xbe88911e	-0.26673216
159	0xbe5e5ee0	-0.2171588
160	0xbe43a99b	-0.19107668
161	0x3c1015bc	0.008794244
162	0xbe50cfd7	-0.20391785
163	0x3c8de2e8	0.017320111
164	0xbe708bac	-0.2349078
165	0x3deeee8b	0.11666592
166	0xbe0da720	-0.13833284
167	0x3e0c291c	0.13687557
168	0x3e213f6e	0.15746853
169	0x3e838cd3	0.25693378
170	0x3e93ae8c	0.28844106
171	0x3e38726f	0.18012403
172	0xbe3b725a	-0.1830534
173	0x3d4cd013	0.050003123
174	0x3db51a63	0.088429235
175	0x3d890ae3	0.066915296
176	0xbc8e000a	-0.017334003
177	0x3df98a31	0.12184561
178	0x3f049c8e	0.51801383
179	0x3e22162e	0.15828773
180	0xbbc5a12d	-0.0060311765
181	0x3b8ce348	0.004299555
182	0x3c995d5c	0.018721275
183	0xbe1aea52	-0.15128449
184	0x3dd67eb9	0.10473389
185	0xbdf3782d	-0.11888156
186	0xbe545f7c	-0.2073955
187	0xbcc1ad52	-0.023642216
188	0x3e078923	0.13235907
189	0x3d97fc52	0.07421173
190	0xbd96c44a	-0.07361658
191	0xbd7707ae	-0.06031006
192	0x3e72230d	0.23646183
193	0xbd59fe0e	-0.0532208
194	0xbd61e593	-0.05515058
195	0xbd974777	-0.07386678
196	0xbd4b1577	-0.049581017
197	0xbe0f0f97	-0.13970791
198	0xbe8d0b61	-0.27547744
199	0xbdfcf612	-0.12351622
200	0x3e0bdbee	0.13658115
201	0x3da3d215	0.07999054
202	0xbc23422c	-0.009964507
203	0x3da2e09b	0.07952996
204	0xbd4f0c74	-0.050548986
205	0xbdf4b7f6	-0.1194915
206	0xbdca5ad8	-0.09880608
207	0x3c72a56d	0.014809948
208	0x3d9d4d92	0.07680811
209	0xbdc2f4d4	-0.095193535
210	0xbe83bc10	-0.25729418
211	0xbd4bb09b	-0.04972897
212	0x3cfe3444	0.031030782
213	0x3d3f872f	0.04675978
214	0x3f04ae0d	0.5182808
215	0x3dcc7962	0.099840894
216	0xbe068d7c	-0.1313991
217	0x3dc98c20	0.0984118
218	0x3e7f158f	0.24910568
219	0xbd926b89	-0.07149417
220	0xbe3fe05b	-0.18737929
221	0x3d3a7cc5	0.045529146
222	0xbe585b42	-0.21128562
223	0xbbf59d3a	-0.0074955495
224	0x3cc0c61e	0.02353197
225	0xbc9a78c2	-0.01885641
226	0x3bde589b	0.006785465
227	0xbdac8359	-0.0842349
228	0xbe7da4c0	-0.24769878
229	0xbd5bb761	-0.05364168
230	0xbe927581	-0.28605273
231	0xbd46bfbb	-0.048522692
232	0x3e0d106d	0.13775797
233	0xbe0b5d83	-0.1360989
234	0x3d895128	0.067049325
235	0xbd63863b	-0.055547934
236	0xbd358ac5	-0.044321794
237	0xbdc7c389	-0.09754092
238	0x3df109fb	0.11769482
239	0xbdac7ae8	-0.0842188
240	0xbc56539d	-0.013081458
241	0x3e8aff0a	0.27147704
242	0x3e3eed08	0.18645108
243	0x3e2696f3	0.1626852
244	0x3ad1d142	0.0016007798
245	0xbe2d0bdc	-0.16899055
246	0xbe4fb280	-0.20282936
247	0xbcd7c76e	-0.026340213
248	0x3ec2c6c2	0.38042265
249	0xbd024097	-0.03179988
250	0x3cf27e22	0.02960116
251	0xbdb2d7f9	-0.087326
252	0xbe729403	-0.23689274
253	0xbe1f692c	-0.15567464
254	0x3e016b9d	0.12638707
255	0x3d820936	0.06349413

layer1.bias f4 [128]
0	0x3eab9eeb	0.33519682
1	0x3e8faa86	0.28059787
2	0xbe31ac35	-0.17350848
3	0x3eaff99d	0.34370127
4	0x3e9c9c71	0.30588105
5	0xbe1f73c9	-0.15571512
6	0xbdd66a45	-0.10469488
7	0x3e9202ec	0.28517854
8	0xbe3a7c60	-0.18211508
9	0xbdcff648	-0.10154396
10	0xbdaa038e	-0.08301459
11	0x3ec08356	0.376002
12	0x3e35f0d0	0.17767644
13	0x3efb4d8b	0.49082598
14	0x3ebb14d2	0.36539322
15	0xbe4073ac	-0.18794125
16	0x3e8e1ffe	0.27758783
17	0xbdcca7f5	-0.09992973
18	0xbbbbf3d2	-0.0057358528
19	0x3ec3ce27	0.3824322
20	0x3e63fdfb	0.22264855
21	0x3ecca330	0.39968252
22	0x3efa8f3b	0.489374
23	0xbe2c41c4	-0.16821963
24	0xbe302da5	-0.17204912
25	0xbe026396	-0.12733302
26	0x3ecd89ad	0.401441
27	0x3e989ec2	0.29808623
28	0xbe68f58c	-0.22749919
29	0x3e9ef838	0.3104875
30	0xbd3f7412	-0.046741553
31	0xbdcf3aa9	-0.101186104
32	0x3ea3bae5	0.31978527
33	0x3e5dfa30	0.2167747
34	0xbb8fc9c7	-0.0043880674
35	0xbe3ece15	-0.18633302
36	0xbe111450	-0.14167905
37	0x3ea58099	0.32324675
38	0xbde78fff	-0.11306762
39	0xbde845aa	-0.11341412
40	0xbe54a2a2	-0.20765164
41	0x3e802b16	0.25032872
42	0x3e2461fa	0.16053
43	0x3eb3d0d9	0.35120276
44	0xbe273ad2	-0.16331032
45	0x3e9b0b69	0.30282143
46	0x3e86f06e	0.26355308
47	0x3ddb28e9	0.10701162
48	0xbd9f3df1	-0.07775486
49	0xbdad5f3a	-0.08465429
50	0x3eb1db63	0.3473769
51	0x3ea1ae75	0.31578413
52	0x3ec8b756	0.39202374
53	0xbda8ad13	-0.08236136
54	0x3ea856fe	0.3287887
55	0x3eb80c1c	0.3594674
56	0x3ec77051	0.38952878
57	0xbe3f1b4a	-0.18662754
58	0x3ed2d853	0.41180667
59	0x3ec69269	0.38783577
60	0x3e8dd16c	0.2769884
61	0x3eb690a3	0.35657224
62	0x3e7d852b	0.24757831
63	0xbd48bead	-0.049009968
64	0xbe2d16fe	-0.16903302
65	0xbe9172bd	-0.2840785
66	0x3e9a7fea	0.30175716
67	0x3e007d6c	0.12547845
68	0x3ef7bb05	0.48384872
69	0xbddb1fe4	-0.10699442
70	0x3e881064	0.26575005
71	0x3ece12c0	0.4024868
72	0x3e8aa88d	0.2708172
73	0xbe0371a7	-0.12836324
74	0x3e95a42d	0.2922682
75	0x3eba72b2	0.3641563
76	0x3e34a89b	0.17642443
77	0xbdf0c7e0	-0.11756873
78	0x3ef8c1c6	0.48585337
79	0x3e8ca9fd	0.2747344
80	0xbe4fd5fa	-0.2029647
81	0xbdc2be23	-0.09508922
82	0x3e998558	0.29984546
83	0x3e066bfd	0.13127132
84	0x3eac7da2	0.336896
85	0x3ed3eec0	0.4139309
86	0xbe464e96	-0.19365916
87	0x3e9d8639	0.30766466
88	0xbe5574b6	-0.20845303
89	0x3eb861b1	0.36012033
90	0x3ea7e093	0.32788524
91	0xbe4262e8	-0.18983042
92	0x3ebdcbee	0.37069649
93	0x3ec02c70	0.37533903
94	0xbe4d2035	-0.20031817
95	0x3eaffa25	0.34370533
96	0x3f003e9f	0.5009555
97	0xbe11043f	-0.14161776
98	0x3ecdbc48	0.4018271
99	0xbd9403c3	-0.0722728
100	0xbe48a755	-0.19595082
101	0x3f0990d6	0.5373663
102	0x3eac066f	0.33598658
103	0x3e4ad2ca	0.19806972
104	0x3ed324ae	0.41238922
105	0x3e8ec6a2	0.2788592
106	0xbdc30c8f	-0.0952388
107	0xbbdcf757	-0.0067433524
108	0x3e9ad52a	0.30240756
109	0xbc915fe4	-0.01774592
110	0xbdfdf96e	-0.124010906
111	0x3ea2bc07	0.31784078
112	0x3f2ae628	0.6675744
113	0xbe3273e4	-0.17427021
114	0x3ec7867c	0.3896979
115	0x3e08b718	0.13351095
116	0xbe28f8a9	-0.16501106
117	0xbe133614	-0.14376098
118	0x3ed5e7a4	0.4177829
119	0x3ece0404	0.4023744
120	0xbdd3a98a	-0.103350714
121	0x3f651b71	0.89495
122	0x3ea1ab53	0.31576023
123	0xbdd1fe7b	-0.102536164
124	0x3def32fc	0.116796464
125	0x3ee7bf6e	0.45263237
126	0x3ecb3ef7	0.39696476
127	0x3ebe0629	0.37114075

layer2.weight f4 [128, 128]
0	0x3e18381a	0.14865151
1	0x3e90dcb6	0.2829339
2	0xbd5d3b01	-0.05401135
3	0x3de110ee	0.10989557
4	0x3ddd6721	0.10810686
5	0xbe314b56	-0.17313895
6	0xbd3175cd	-0.043325234
7	0x3e0a9b9b	0.13535921
8	0xbdec6a6c	-0.11543736
9	0xbd43218b	-0.04763941
10	0xbe883e04	-0.26609814
11	0x3e59ccfb	0.212696
12	0x3da864d5	0.08222357
13	0x3e5a6efd	0.21331401
14	0x3e58aa91	0.21158816
15	0xbc3b0a17	-0.01141598
16	0x3e03302a	0.12811342
17	0xbdd74dc6	-0.10512881
18	0x3b2f6cca	0.0026767724
19	0x3e68067c	0.22658724
20	0x3e2a35cf	0.16622089
21	0x3e6749e1	0.22586776
22	0x3e1ea319	0.15491904
23	0xbc7295bb	-0.014806206
24	0xbd0945a4	-0.03351368
25	0xbd954d6e	-0.07290159
26	0x3e52a6a4	0.20571381
27	0x3e9ac48d	0.3022808
28	0xbd81be40	-0.063351154
29	0x3e29e228	0.16590178
30	0xbcae1a9e	-0.021252926
31	0xbdfd30b4	-0.12362805
32	0x3e45e43b	0.19325344
33	0x3e2b6cda	0.16740742
34	0x3cd543d1	0.026033314
35	0xbe2a2cb1	-0.16618611
36	0xbeb3a48a	-0.3508647
37	0x3e25d31a	0.1619381
38	0xbd1db1ce	-0.038499646
39	0xbc8593d4	-0.016305842
40	0xbe846504	-0.2585832
41	0x3e877b53	0.26461276
42	0x3d43bf0f	0.04778963
43	0x3e4c721a	0.19965401
44	0xbe9a59e5	-0.3014671
45	0x3e2f3288	0.1710912
46	0x3dafa1c6	0.08575778
47	0x3d2870c2	0.04112316
48	0xbca1d750	-0.01975599
49	0xbd1d3431	-0.03837985
50	0x3d947a9e	0.0724995
51	0x3deeef0c	0.11666688
52	0x3e1e4481	0.1545582
53	0xbeb235f1	-0.3480678
54	0x3e5b95e3	0.21443896
55	0x3e213087	0.15741168
56	0x3e660063	0.22461085
57	0xbe338fbb	-0.17535298
58	0x3e275b6b	0.16343467
59	0x3e1bcb4d	0.15214272
60	0x3de86938	0.11348194
61	0x3df2be8d	0.11852751
62	0x3e33323e	0.17499635
63	0xbc9de1d8	-0.01927273
64	0xbdec9cf8	-0.11553377
65	0xbe55f246	-0.20893201
66	0x3e917f5c	0.2841748
67	0x3d807d64	0.06273916
68	0x3df5afb6	0.11996405
69	0xbe2d4a20	-0.16922808
70	0x3dbae858	0.09126347
71	0x3e680abf	0.2266035
72	0x3e100e9e	0.14068076
73	0xbccf179d	-0.025279814
74	0x3decec21	0.115684755
75	0x3e1be050	0.15222287
76	0x3bc07f2d	0.0058745355
77	0xbd9aed44	-0.07564786
78	0x3e5f984d	0.21835442
79	0x3e8182c8	0.2529509
80	0xbdf57d63	-0.11986806
81	0xbe01ba39	-0.12668695
82	0x3e05e778	0.1307658
83	0x3dafde2a	0.08587296
84	0x3e5f13de	0.21784922
85	0x3e6edb4e	0.23325846
86	0xbd846db3	-0.06466236
87	0x3e393c63	0.18089442
88	0xbe9a6a1a	-0.30159074
89	0x3e13d7b9	0.1443776
90	0x3df4a4e5	0.11945514
91	0xbd8f9f9b	-0.07012864
92	0x3e05e54f	0.13075756
93	0x3e53d2c8	0.20685875
94	0xbe8bdd02	-0.27317053
95	0x3e1db71a	0.15401879
96	0x3e5865ec	0.2113263
97	0xbe381ff1	-0.17980935
98	0x3e17c344	0.14820582
99	0xbd808b1e	-0.062765345
100	0xbd7edfb9	-0.062225077
101	0x3e8af06f	0.2713656
102	0x3e2573df	0.16157483
103	0x3d4e40ee	0.05035489
104	0x3e089a3e	0.13340089
105	0x3e1f216b	0.15540092
106	0xbc9f68e8	-0.019459203
107	0xbe2a74b7	-0.16646086
108	0x3e5e31e7	0.21698724
109	0xbc2f8339	-0.010712438
110	0xbdbbc0ac	-0.091676086
111	0x3e4f32e4	0.20234257
112	0x3e05bcec	0.13060349
113	0xbe29065d	-0.16506334
114	0x3e199d7c	0.15001482
115	0x3dbdaca0	0.09261441
116	0xbea7a2ff	-0.32741544
117	0xbdb55847	-0.08854728
118	0x3e9a1676	0.3009526
119	0x3e89ebb4	0.2693764
120	0x3c9f7c83	0.019468552
121	0x3ef7fc45	0.48434654
122	0x3e0a8b24	0.1352964
123	0xbd86156a	-0.06547053
124	0x3d942f87	0.072356276
125	0x3e1c53de	0.15266368
126	0x3e26af72	0.16277865
127	0x3e0dc93d	0.13846298
128	0x3c20c4de	0.009812562
129	0x3c4a4cb4	0.012347389
130	0x3dad5846	0.084641024
131	0x3d6eaeff	0.058272358
132	0xbc5f76d3	-0.01363917
133	0xbbda7689	-0.0066669625
134	0xbc1f0984	-0.009706859
135	0x3c7215ab	0.014775674
136	0xbca4a0ab	-0.020096144
137	0x3ddd7766	0.10813789
138	0x3d1797a6	0.037009858
139	0x3c2f67ad	0.010705871
140	0xbc52a514	-0.0128567405
141	0xbd54abd0	-0.051921666
142	0x3c1fc345	0.009751146
143	0x3cc9905b	0.024604967
144	0x3d1d1f51	0.038359944
145	0x3d03c5d9	0.032171104
146	0x3e8ae159	0.27125052
147	0x3c7c8f2f	0.015414997
148	0xbd36d9ab	-0.044641178
149	0xbcfa84b1	-0.03058085
150	0xbdaacbee	-0.08339678
151	0x3b1730fc	0.0023069968
152	0xbd06342b	-0.032764595
153	0x3e20d217	0.15705143
154	0xbd085dce	-0.033292584
155	0xbe6bdaa2	-0.2303262
156	0x3e70c06a	0.235109
157	0xbb8582d8	-0.0040744357
158	0x3e107d82	0.14110377
159	0x3db9027c	0.09033677
160	0xbb96d1ce	-0.0046026474
161	0xbd99d05d	-0.07510445
162	0xbc01d252	-0.007923679
163	0x3d81360f	0.06309139
164	0xbce715d0	-0.028208643
165	0x3cc5c585	0.024142036
166	0x3ea97359	0.33095816
167	0x3cd09c06	0.025465023
168	0x3dd65fe3	0.10467508
169	0x3d8a6b51	0.0675875
170	0x3a6da253	0.0009065021
171	0x3b272e4c	0.0025509773
172	0x3e1cece2	0.15324739
173	0xbc710a5b	-0.014711942
174	0x3d01869e	0.03162252
175	0xb98401aa	-0.00025178242
176	0x3c346cfb	0.011012311
177	0xbe399d43	-0.18126397
178	0xbcd14c00	-0.025548935
179	0x3d6e9354	0.05824597
180	0xbc53b2e0	-0.012921065
181	0x3e56622f	0.20935892
182	0x3c95cd94	0.018286504
183	0xbd800e59	-0.062527366
184	0xbd102c36	-0.035198413
185	0x3ffac766	1.9592102
186	0x3c6d2c95	0.014475961
187	0x3d01b5f5	0.03166767
188	0x3c38a043	0.011268678
189	0x3d565394	0.0523258
190	0xbc8cd819	-0.017192887
191	0x3dcef916	0.10106103
192	0x3cadd32c	0.021218859
193	0xbccbb933	-0.024868583
194	0x3d86e801	0.0658722
195	0x3da1082a	0.07862885
196	0xbd3b6102	-0.04574681
197	0x3e054a96	0.13016734
198	0x3dd481e4	0.10376337
199	0x3c4b8092	0.01242079
200	0xbd0d182a	-0.034446873
201	0x3ca2a063	0.019851869
202	0xbc23718f	-0.009975805
203	0x3d3dfa44	0.04638125
204	0x3b118dac	0.0022209687
205	0xbb7c7946	-0.0038524433
206	0xbd3ec03c	-0.046570048
207	0xbe4a90ab	-0.19781749
208	0x3e452fd3	0.19256525
209	0x3d202eb9	0.03910706
210	0x3db1a196	0.08673398
211	0xbceaa6a0	-0.028643906
212	0x3d57680b	0.052589457
213	0xbddfa020	-0.10919213
214	0x3b6b57fc	0.0035910597
215	0x3d6ff60d	0.05858426
216	0x3cf3bc6c	0.029752932
217	0x3baad5d1	0.005213477
218	0x39decb77	0.00042494733
219	0x3c2225f2	0.009896742
220	0x3ccfb666	0.025355529
221	0xbd2e5a11	-0.042566363
222	0xbe5df9a3	-0.2167726
223	0x3d167fb9	0.0367429
224	0xbd8ff3d2	-0.07028927
225	0x3e04f99d	0.12985845
226	0x3d0215cf	0.03175908
227	0x3d95066c	0.072766155
228	0x3dfc3d88	0.12316424
229	0xbcf52a6c	-0.029927455
230	0xbd940f7a	-0.072295144
231	0x3d8b20f2	0.06793393
232	0x3d51abdf	0.0511893
233	0x3d4aed5b	0.049542766
234	0xbcb6f6bc	-0.022334449
235	0xbc4374b4	-0.01192968
236	0xbd652740	-0.055945635
237	0x3dd5c9c1	0.10438872
238	0x3dca0211	0.098636754
239	0x3ce17b8e	0.027524736
240	0xbca8d99a	-0.020611573
241	0x3e6a7194	0.22894889
242	0x3d477df7	0.048704114
243	0x3cbe292e	0.023212995
244	0x3eccd3e6	0.40005416
245	0x3df01b21	0.117239244
246	0xbd13eb5c	-0.036113128
247	0x3ce41ad7	0.02784483
248	0x3c09938c	0.008396994
249	0xbda5812b	-0.080812775
250	0xbcdc2ff8	-0.026878342
251	0x3dc3dabe	0.09563206
252	0x3d10c4a8	0.035343796
253	0xbd3b740b	-0.045764964
254	0xbc37f888	-0.011228688
255	0xbd405b4b	-0.046962064

layer2.bias f4 [128]
0	0x3e54f150	0.20795178
1	0xbb53bf88	-0.0032310206
2	0xbcd2a9fd	-0.025715822
3	0x3e4f2e9c	0.20232624
4	0x3e832757	0.2561595
5	0xbd3645d1	-0.044500176
6	0x3e568013	0.20947294
7	0x3e7b7c4e	0.24559137
8	0xbbc520a5	-0.0060158544
9	0xbcf20a7d	-0.029546017
10	0x3e6b5e10	0.22985101
11	0x3e6f2a21	0.23355915
12	0x3c1bc9ed	0.009508592
13	0xbd80f377	-0.06296437
14	0x3e756a1e	0.23966262
15	0x3c062c8c	0.008189332
16	0xbcbc6430	-0.022996992
17	0x3ce4153e	0.02784216
18	0xbc0a9e83	-0.008460644
19	0x3e7ff2a4	0.24994904
20	0x3e82d463	0.25552663
21	0x3e718d00	0.23588943
22	0x3e4ef189	0.20209326
23	0x3d43a2ca	0.04776267
24	0x3e8a5cb2	0.27023846
25	0x3e5345db	0.20632116
26	0x3e742037	0.23840414
27	0x3c667c6d	0.014067751
28	0x3e664d1d	0.22490354
29	0xbcd4d872	-0.025982115
30	0x3ce14740	0.027499795
31	0x3e69ec93	0.22844152
32	0x3e76523e	0.2405481
33	0x3e605dd2	0.2191079
34	0xbc5792a2	-0.013157519
35	0xbc9f263a	-0.019427408
36	0x3bd69da0	0.006549552
37	0x3e58984d	0.21151848
38	0xbc76e75d	-0.01506981
39	0xbbd5020e	-0.006500489
40	0x3e86dd1b	0.26340565
41	0x3e67c35f	0.22633122
42	0x3e5c64d4	0.21522838
43	0xbd901cf3	-0.070367716
44	0x3e851f5d	0.2600049
45	0xbd03946a	-0.03212396
46	0xbc79dc81	-0.015250326
47	0xbcdba9cd	-0.026814366
48	0xbd4ffd40	-0.050778627
49	0x3e477820	0.19479418
50	0xbd2357fd	-0.039878834
51	0x3e63ffee	0.22265598
52	0xbc64f9f7	-0.013975612
53	0x3e548cbe	0.20756814
54	0xbc16316d	-0.009167057
55	0x3e65863b	0.22414486
56	0x3e5a59d4	0.21323329
57	0x3e5ab186	0.21356782
58	0x3e62c84c	0.2214672
59	0xbbbb2d9f	-0.0057122256
60	0xbd104159	-0.03521857
61	0x3e86cc89	0.26327923
62	0xbd319bea	-0.04336158
63	0x3e4f08ed	0.20218249
64	0x3e5ffb66	0.21873245
65	0x3e597d81	0.21239282
66	0x3bb4ba53	0.0055153756
67	0xbc8d3661	-0.017237844
68	0x3e68bcd6	0.22728285
69	0x3cceece3	0.02525944
70	0xbd028a7b	-0.031870347
71	0x3e45ba7a	0.19309416
72	0x3e6c8e76	0.2310122
73	0x3cfd0b31	0.030889126
74	0x3e65b4bb	0.22432224
75	0x3e836607	0.25663778
76	0x3e731b9a	0.23740998
77	0xbd25e6be	-0.040503256
78	0x3e40791f	0.18796204
79	0x3e93ef56	0.28893536
80	0x3e6d4e7d	0.23174472
81	0x3e7e96c4	0.248622
82	0xbc9f85f0	-0.019473046
83	0x3c977757	0.018489523
84	0xbd0c0aeb	-0.0341901
85	0x3b87443d	0.0041280077
86	0xbc42ffac	-0.011901777
87	0x3e5366c7	0.20644675
88	0xbc7033d8	-0.014660798
89	0x3e4aeec7	0.19817649
90	0x3e59c88e	0.21267912
91	0x3c220d8b	0.009890924
92	0x3e75faee	0.24021503
93	0x3c9ae341	0.018907191
94	0xbd1ab106	-0.03776648
95	0xbc4bd0f2	-0.012439953
96	0x3e5fb81d	0.21847577
97	0xbd07dc04	-0.033168808
98	0xb7c4b22a	-2.3447985e-05
99	0x3e6ecb24	0.2331968
100	0xbc68db34	-0.014212418
101	0x3e8093a6	0.25112647
102	0x3bdcbb92	0.0067362273
103	0x3b8f9e49	0.0043828827
104	0x3b83a569	0.004017521
105	0x3c2bb305	0.010479693
106	0xba8f7a98	-0.001094657
107	0x3e6f9020	0.23394823
108	0x3e582454	0.21107608
109	0xbc230a6a	-0.009951213
110	0x3e775c31	0.24156262
111	0xbd0c1524	-0.03419985
112	0x3e808827	0.25103876
113	0x3e753c86	0.23948869
114	0x3e543e16	0.20726809
115	0x3e706fcc	0.23480147
116	0x3e811d84	0.2521783
117	0x3e736933	0.23770599
118	0x3e8d7f60	0.27636242
119	0xbcf67f65	-0.030090043
120	0x3de3840e	0.11109172
121	0x3e69f379	0.22846784
122	0x3e549965	0.2076164
123	0x3e7bfb21	0.24607517
124	0xbc66e7f6	-0.01409339
125	0x3e833d0b	0.2563251
126	0x3e779b00	0.24180222
127	0xbd16976d	-0.036765505

layer3.weight f4 [2, 128]
0	0x3ea10048	0.31445527
1	0xbe04b0f9	-0.12958135
2	0xbe5918d2	-0.21200874
3	0x3e8dd65b	0.27702603
4	0x3e8a0a0c	0.2696079
5	0xbe3ff7f7	-0.18746935
6	0x3e8a7a91	0.27046636
7	0x3e84f91c	0.25971305
8	0xbcbe146b	-0.023203095
9	0xbe9dc95d	-0.3081769
10	0x3e6a60a0	0.22888422
11	0x3e9cf565	0.3065597
12	0xbe0f5793	-0.1399825
13	0xbe70b198	-0.23505247
14	0x3e9a8de2	0.30186373
15	0xbe31b6b0	-0.17354846
16	0xbdce86a7	-0.10084277
17	0xbcd0ee00	-0.025504112
18	0xbe80cef9	-0.25157908
19	0x3e943e57	0.28953812
20	0x3e8ba3be	0.27273363
21	0x3e8d816a	0.27637798
22	0x3e934717	0.28765175
23	0xbe749c8f	-0.23887847
24	0x3ecdc065	0.40185848
25	0x3eace1ad	0.33765927
26	0x3e8c853a	0.27445394
27	0xbeb80f65	-0.35949245
28	0x3e76b394	0.24091941
29	0x3cf73d9a	0.030180741
30	0xbc814728	-0.015781
31	0x3e895ecf	0.26830146
32	0x3e8a0e58	0.26964068
33	0x3e8438df	0.2582464
34	0xbee10494	-0.43948805
35	0x3cbe5898	0.023235604
36	0xbba6ae23	-0.0050866767
37	0x3e9088e8	0.2822945
38	0xbd017aab	-0.031611126
39	0xbec27c14	-0.3798529
40	0x3e891f4f	0.267817
41	0x3e9c04e2	0.30472475
42	0x3e894bc8	0.2681563
43	0xbe770e4d	-0.24126549
44	0x3e787502	0.24263385
45	0x3cef5f73	0.029220318
46	0x3cd9314e	0.026512768
47	0x3ce8b032	0.028404329
48	0xbe4de0fa	-0.20105353
49	0x3e8e68dd	0.2781438
50	0xbe19a8ea	-0.15005842
51	0x3e8716e0	0.2638464
52	0xbc78b0bd	-0.015178856
53	0x3e8e9c1e	0.27853483
54	0xbce1110d	-0.02747395
55	0x3e8e458a	0.2778743
56	0x3e9447c4	0.28961003
57	0x3e9dd861	0.30829147
58	0x3e7a1a11	0.24424006
59	0xbea69584	-0.32535946
60	0xbebc03c5	-0.36721626
61	0x3e826e45	0.25474754
62	0xbebfb225	-0.374406
63	0x3e7c01b3	0.24610023
64	0x3e9685de	0.29399008
65	0x3e923060	0.28552532
66	0xbe8643af	-0.26223513
67	0xbb840fa8	-0.0040301867
68	0x3e61ec23	0.22062735
69	0xbe17251e	-0.14760253
70	0xbe82fb83	-0.25582513
71	0x3e929dfc	0.28636158
72	0x3e74b298	0.23896253
73	0x3e5ec798	0.21755826
74	0x3e8666a1	0.26250175
75	0x3e8d47a8	0.27593732
76	0x3e898689	0.26860455
77	0xbe915edb	-0.2839268
78	0x3e9fd7e4	0.312194
79	0x3eda614a	0.4265235
80	0x3e9243f7	0.28567478
81	0x3e9aca58	0.302325
82	0xbea38422	-0.31936747
83	0xbd180de9	-0.03712264
84	0xbe9ba6b4	-0.30400622
85	0xbe27aed2	-0.16375282
86	0x3c3dae26	0.011577165
87	0x3e929367	0.28628084
88	0xbbbaf105	-0.0057050013
89	0x3e808529	0.25101593
90	0x3e7d13ed	0.24714632
91	0x3cdca051	0.026931914
92	0x3e9a7732	0.30169064
93	0x3e2e866e	0.17043468
94	0xbea1b1a7	-0.3158085
95	0xbc253a66	-0.010084724
96	0x3e81f5b2	0.25382763
97	0xbe917414	-0.28408873
98	0xbb9ce313	-0.0047878115
99	0x3e769abd	0.24082465
100	0xbdf4abad	-0.11946807
101	0x3e6ca7f3	0.23110943
102	0xbe39022d	-0.18067236
103	0xbe7c559c	-0.24642032
104	0x3a33b818	0.000685574
105	0xbe2c7274	-0.16840535
106	0xbe2a5187	-0.16632663
107	0x3e943c01	0.2895203
108	0x3e9ab4ef	0.30216166
109	0xbe366a6e	-0.17814037
110	0x3e94e38b	0.29079852
111	0xbe131b66	-0.1436592
112	0x3e9608a9	0.29303482
113	0x3e731b2f	0.23740838
114	0x3e9028b1	0.28156045
115	0x3e748657	0.23879372
116	0x3e808533	0.25101623
117	0x3e8ba93b	0.2727755
118	0x3ec39ab1	0.38203958
119	0xbc3096d3	-0.010778147
120	0xbdb698bc	-0.089158505
121	0x3e9d25fd	0.30693045
122	0x3e95726d	0.29188862
123	0x3e8d9ac7	0.27657148
124	0x3cf6aebc	0.030112617
125	0x3e89369d	0.2679948
126	0x3e856a1d	0.2605752
127	0xbdcc9654	-0.0998961
128	0x3e802ca8	0.2503407
129	0x3dc7afe7	0.097503476
130	0xbe811daa	-0.25217944
131	0x3e978412	0.2959295
132	0x3e71c1a5	0.23609026
133	0xbe983c0f	-0.2973332
134	0x3e8c8582	0.27445608
135	0x3e893d76	0.26804703
136	0x3c1ced6c	0.00957809
137	0xbe94e6ac	-0.2908224
138	0x3e8dda0a	0.27705413
139	0x3ea9b771	0.33147767
140	0xbb84d756	-0.0040539904
141	0xbea4fbc1	-0.32223323
142	0x3e98628a	0.2976268
143	0xbe678c7f	-0.22612189
144	0xbe1a05bb	-0.15041249
145	0xbcd54776	-0.026035052
146	0x3b9d7e0f	0.004806287
147	0x3e7e3cbe	0.24827859
148	0x3e8568e9	0.26056603
149	0x3e74ac21	0.23893787
150	0x3e85f4ee	0.2616343
151	0xbde0d430	-0.109779716
152	0x3eb53639	0.3539293
153	0x3eac1989	0.33613232
154	0x3e92ec44	0.2869588
155	0xbe71f773	-0.2362955
156	0x3e958239	0.29200915
157	0x3cfb6174	0.030686118
158	0xbba11e97	-0.0049169767
159	0x3e89c16d	0.26905385
160	0x3e7fb634	0.24971849
161	0x3e90e02b	0.28296027
162	0xbec8bf6e	-0.3920855
163	0xbcc1f428	-0.023675993
164	0xbcb480ed	-0.022034133
165	0x3e8b1fc8	0.27172685
166	0xbbeef6cd	-0.0072926045
167	0xbeacb934	-0.3373505
168	0x3e79313a	0.24335185
169	0x3e810f5f	0.2520704
170	0x3e85e17e	0.261486
171	0xbe6f25b7	-0.23354231
172	0x3e89a481	0.2688332
173	0xbc499d6b	-0.012305598
174	0x3ca43ee8	0.020049527
175	0x3b8ca438	0.0042920373
176	0xbe849c29	-0.2590039
177	0x3e983c98	0.2973373
178	0xbe2265e6	-0.15859184
179	0x3e854f74	0.2603718
180	0xbac735eb	-0.0015198564
181	0x3e9caa71	0.30598786
182	0x3b00ad14	0.0019634413
183	0x3e643bbc	0.22288412
184	0x3e74195e	0.23837802
185	0x3e925bbe	0.2858562
186	0x3e935def	0.28782603
187	0xbdfd134d	-0.12357197
188	0xbe3ae805	-0.18252571
189	0x3e8a42b1	0.27004007
190	0xbeb6f45d	-0.3573331
191	0x3e8963e4	0.26834023
192	0x3e970ebc	0.2950343
193	0x3e76902d	0.24078436
194	0xbe64ade6	-0.22331962
195	0xbc4c73d0	-0.012478784
196	0x3e8f2d53	0.27964267
197	0xbe3c18ae	-0.1836879
198	0xbe5e1912	-0.21689251
199	0x3e8f7698	0.28020167
200	0x3e8c1f0b	0.27367434
201	0xbdd95aba	-0.10613008
202	0x3e933410	0.28750658
203	0x3e83fa54	0.25776923
204	0x3e8cd2fe	0.27504724
205	0xbeb5b794	-0.35491621
206	0x3e780007	0.2421876
207	0x3ee738e4	0.45160592
208	0x3e956050	0.29175043
209	0x3e8edcd1	0.27902845
210	0xbe3ed881	-0.18637277
211	0x3c88de45	0.016707549
212	0xbe31d23a	-0.17365351
213	0x3c817edb	0.01580756
214	0x3d339b88	0.043849498
215	0x3e75e0b5	0.240115
216	0xbe099098	-0.13434064
217	0x3e8e5a9f	0.27803513
218	0x3e927413	0.28604183
219	0x3bdc3d66	0.0067211865
220	0x3e771455	0.2412885
221	0xbe066f33	-0.13128357
222	0xbeaaaeaa	-0.33336383
223	0x3bbda535	0.0057875165
224	0x3e88553e	0.26627535
225	0xbe77fe7d	-0.24218173
226	0xbc87b9a1	-0.016568007
227	0x3e919dcc	0.28440702
228	0xbe20904c	-0.15680045
229	0x3e8b3769	0.27190712
230	0xbe7832aa	-0.24238077
231	0xbe6d2f81	-0.23162653
232	0x3cb0fdf8	0.021605477
233	0xbe2e757b	-0.17037003
234	0xbccf823a	-0.025330652
235	0x3e7bcc34	0.24589616
236	0x3e9c6ef6	0.30553406
237	0xbda95319	-0.08267803
238	0x3e75fef4	0.24023038
239	0xbd4d3ef4	-0.050108865
240	0x3e929e72	0.2863651
241	0x3e8fc464	0.28079522
242	0x3e5ab4d7	0.21358047
243	0x3e840e87	0.25792333
244	0x3e77f49f	0.2421441
245	0x3e91ea2a	0.28498966
246	0x3eb3b173	0.3509632
247	0xbcfdabba	-0.030965675
248	0x3edf3b9a	0.4360016
249	0x3e9b0b71	0.30282167
250	0x3e978c91	0.2959943
251	0x3e696926	0.22794017
252	0xbc9c70ef	-0.01909682
253	0x3e78d411	0.24299647
254	0x3e916b07	0.28401968
255	0xbe2d6977	-0.16934763

layer3.bias f4 [2]
0	0x3d6b49d0	0.05744344
1	0x3db1dc32	0.08684577
