model_weights/DQN/cartpole/cartpole_dqn_episode_3099.pth (torch, 72508 bytes, 6 tensors)

layer1.weight f4 [128, 4]
00000000: e830 dd3d 6c54 36be 86ed a63d f884 42be
00000010: 9edc dfbd 1554 da3d c439 843e ed8b 323d
00000020: 5229 683e c821 52be 7c17 1d3f 4b88 4d3e
00000030: 8744 33be 8457 4cbe 1e54 5e3d 1478 debd
00000040: 6d2e 1a3d 6ed2 85be 2035 b1be f824 30be
00000050: c8c6 55be 35d0 babc 3a89 2ebf a7ca 4ebd
00000060: c9b5 c73e c46f bdbd 2bfc a5be e76e 11be
00000070: 979d 57be 2356 72bd 3a56 02bd 6ec0 a53b
00000080: 06b9 57be 01d3 39be 2662 8cbd 0d0a fabd
00000090: 38c8 0f3e 50d7 493e 8e20 8c3e 4090 bd3e
000000a0: 4b1d 3c3e 6fb8 6abe 6ea0 6cbe 04ef 46be
000000b0: a65a c5bd 134c c9bd 5a56 ae3d 3b4c a8bd
000000c0: b3ad b23e 7e34 7e3d a53f 223e 2fbd abbd
000000d0: f40a 413e 6c51 153d 5fe5 49bd 73c9 07bd
000000e0: 55ec 1cbe daa7 543e 5206 153e 29c6 6d3e
000000f0: 5286 96be 042c 6dbe 033b 33bf c961 39be
00000100: 3a19 6ebe 0361 113c bb52 bd3d 5d87 94ba
00000110: 80eb 97be 9ced 1abd 187b 32bf ec81 0bbe
00000120: 899a 78be 1c9f 10be 476d c63a 2c9f bebd
00000130: 0c0d edbc d257 f53d 278e a33e 4d64 453d
00000140: 1925 3b3e 3fb2 71be ffaa cbbd dcd1 41be
00000150: 9ae7 bbbd b271 183e 062c 053d 85a5 b3bc
00000160: dd37 843e 5f93 e33d 273f 55be ce0b 803c
00000170: c453 883e 8193 e03d 2377 943d fe51 0cbe
00000180: 8429 023e 6fb7 9f3e b6a0 d63d 460e e03d
00000190: 9b44 fbbd 67ac 00be ae6d 573e 3baf 993d
000001a0: 62b4 f33e 987c 973d 8ff6 18be d5d2 21bd
000001b0: ed11 233e 22cf 463d 71f2 bdbe 6701 c63c
000001c0: 9849 92be 0ab6 2fbe 0c8f 543e 8935 18bd
000001d0: 6ec6 7dbe b5fe 4e3d 373d 97be 9ef2 983d
000001e0: 57b0 7bbe 5802 3dbe 4023 513e 67da 80bd
000001f0: b6d5 793e ef4c 093d 9b9d 11be ddb6 1d3d
00000200: c1cb 88be 9a4e 973d c584 de3d 4ce8 153d
00000210: cf26 57be c62d 4a3d 0b3f c03e 3c34 b53d
00000220: b43e 03be 9451 b3be b872 75bf 6206 79be
00000230: 9d3f dd3d 5bcc 223e b120 3a3e 75d2 39bd
00000240: 6157 06be 804d 54be d3e4 ccbe 1a63 52be
00000250: 0f3a 86be 92cd c7bd cbd9 923c fa91 063d
00000260: be5a a3be db41 acbe 607c d83d 3191 30be
00000270: 9af3 a5be 5277 52be e8d7 dcbe 0e51 b0be
00000280: 1140 9abe 8b16 363c cd03 a3be 34a0 783d
00000290: 238c b6be e37d 4d3e d548 41be bb8e 5a3e
000002a0: ce75 7e3e 6779 c93e ad7d b13e e11a 8f3e
000002b0: 745e 8dbe 93c0 b43d e93c 193e 4452 d53d
000002c0: 547f dcbc 26f9 413e fabf 4d3f 6291 7b3e
000002d0: fb6c 78ba 32ae 913c d5e2 2d3d 0a3a 6abe
000002e0: e786 2e3e 2b9f 34be 9fd9 9fbe 75f6 16bd
000002f0: 37e3 383e 5ec5 093e feae f4bd 3c27 1abe
00000300: 3fd3 bb3e 3fde a7bd 15ac a8bd 3f1c f2bd
00000310: 7ebb b5bd feec 62be 21ff d6be da18 54be
00000320: 287d 6a3e 119d 203e 8217 683c 01d0 ff3d
00000330: 0ce3 92bd c910 35be 407c 12be 4dc2 bc3c
00000340: 4803 003e 3a57 0fbe bc55 c7be 01b0 9cbd
00000350: 6883 4f3d 4c5d 963d 4c3e 4c3f e54b 1e3e
00000360: a6ef 45be 0215 2a3e f561 cd3e 1e94 e1bd
00000370: 5d68 91be 5228 a53d 34bf a1be f7f1 29bc
00000380: 763c 323d e682 a2bc 3f96 b83c d1fa 04be
00000390: ea7c c2be 94e5 a7bd b4a0 f2be 7498 e4bd
000003a0: c8b0 613e b2c6 4fbe 62d2 e93d 949b b0bd
000003b0: 04ef 7cbd b3f8 11be db94 463e 856e 05be
000003c0: 6516 02bd eb05 b73e 3eae b03e 8d87 883e
000003d0: 261c 073c 3e6a 82be d9e8 9bbe 5457 25bd
000003e0: 3d8a 053f 4bf4 75bd 7742 debc 748b 0dbe
000003f0: 1745 c1be 09fe 75be f7e9 383e 2e1f ab3d
0.10800344 -0.17805642 0.08150773 -0.18996036 -0.10930751 0.106605686 0.25825322 0.043590475
0.22672012 -0.20520699 0.6136396 0.20071523 -0.1750661 -0.1995526 0.05427944 -0.10862747
0.03764193 -0.26137108 -0.34610844 -0.17201602 -0.2087661 -0.022804359 -0.6817814 -0.050486233
0.3900588 -0.09249833 -0.3241895 -0.14202462 -0.2105621 -0.059164178 -0.031820513 0.00505834
-0.21066675 -0.18146898 -0.06854658 -0.12208948 0.14041221 0.19711041 0.27368587 0.37024117
0.1837055 -0.22921918 -0.23108074 -0.19427115 -0.096364304 -0.09828963 0.08512564 -0.08217665
0.34898147 0.06206178 0.15844591 -0.08385693 0.18851835 0.036454603 -0.04929101 -0.0331511
-0.15324529 0.20767155 0.14553192 0.23220123 -0.29399353 -0.23161322 -0.7001192 -0.18103708
-0.2325181 0.008873227 0.09244295 -0.0011331845 -0.2967186 -0.03782426 -0.69719076 -0.1362378
-0.242777 -0.14123195 0.0015138768 -0.093077034 -0.028936885 0.11979641 0.3194439 0.048191357
0.1827587 -0.23603152 -0.09944724 -0.18927711 -0.09175034 0.14887121 0.032512687 -0.021929512
0.2582387 0.11112093 -0.20824872 0.015630629 0.26626408 0.10965634 0.07249286 -0.13703153
0.1271115 0.31194636 0.10479872 0.109402224 -0.12268945 -0.12565766 0.21037933 0.07504126
0.4759856 0.07396811 -0.14937805 -0.039507706 0.15924807 0.04853738 -0.3709903 0.02417059
-0.28571773 -0.17159286 0.20757693 -0.03716043 -0.24782726 0.050535876 -0.2953889 0.074681506
-0.24578987 -0.18457925 0.20423603 -0.06291657 0.2439793 0.033520635 -0.14220278 0.03850447
-0.26717952 0.07388039 0.108651675 0.03659849 -0.21010898 0.04936006 0.37548098 0.088478535
-0.12816888 -0.35023177 -0.9587817 -0.24318841 0.10803149 0.15898268 0.18176533 -0.045366723
-0.1311927 -0.20732689 -0.4001833 -0.20545617 -0.2621617 -0.09756006 0.017926117 0.032854058
-0.31905168 -0.33643994 0.10570598 -0.17242886 -0.32412416 -0.2055333 -0.43133473 -0.3443684
-0.30127004 0.011113773 -0.31838837 0.060699657 -0.3565379 0.20067553 -0.1887544 0.2134351
0.24849626 0.39350435 0.34666196 0.27950194 -0.27611125 0.08825793 0.14964642 0.104160815
-0.026916184 0.18942699 0.8037106 0.24567178 -0.00094766886 0.017783258 0.042452652 -0.22873703
0.17043649 -0.17638843 -0.3122072 -0.036856133 0.18055426 0.13454196 -0.119474396 -0.15054029
0.36684605 -0.08196687 -0.08235947 -0.11821794 -0.08873652 -0.22160718 -0.41991523 -0.20712605
0.22899306 0.15684916 0.014165761 0.124908455 -0.07172212 -0.17682184 -0.1430521 0.023041869
0.12501252 -0.13998118 -0.38932598 -0.076507576 0.05066243 0.07342014 0.7978256 0.15458639
-0.193297 0.16609576 0.40113798 -0.11014579 -0.28399935 0.08064331 -0.3159119 -0.01037263
0.04351469 -0.019837808 0.02253258 -0.12986304 -0.37985927 -0.081980854 -0.47388232 -0.111618906
0.22040093 -0.2029064 0.114170805 -0.08623424 -0.06175138 -0.14255027 0.19392721 -0.13030441
-0.03175964 0.35746703 0.34507936 0.26665917 0.008246457 -0.2547168 -0.30451086 -0.040366486
0.5216406 -0.06004743 -0.027131302 -0.13822728 -0.37748024 -0.24022688 0.18058 0.083555564

layer1.bias f4 [128]
00000000: b934 d73e f74b 8f3e 7214 89be ceb1 d83e
00000010: 99de b93e d54d 62be e6fb 2cbe 62f0 a53e
00000020: 3b5e 90be 9591 1dbe 032d 00be 4cce fb3e
00000030: 2099 f53d 804c ed3e 2520 da3e fadb 8dbe
00000040: cee5 9b3e c7c9 0cbe 471f bdbc 6260 de3e
00000050: 9dec 843e 258c e13e ca44 d63e 36cb 84be
00000060: 7cfa 88be a105 40be f7b5 c33e 90b5 923e
00000070: 92ca adbe 5bc9 bc3e bc0e 84bd ec01 21be
00000080: 2356 bb3e fefd 753e ea50 a0bc ba53 94be
00000090: 65ce 57be 9b9b ca3e af4d 1dbe 281f 14be
000000a0: 24fd a0be 02b8 0b3e 0d2a ae3d 773e d43e
000000b0: 92dc 81be ea3f a63e 222f 943e c279 093e
000000c0: ac0d f9bd 544d e6bd e3b9 7b3e a6fe c13e
000000d0: bf4b 023f 1e94 06be ec26 ae3e 48d8 de3e
000000e0: 8ee4 f63e b6f5 94be 9597 083f a404 fa3e
000000f0: daea 2c3e 4446 e73e 22c1 883e 9989 54bd
00000100: fca7 86be 3bb4 debe 25ac a23e f6d7 fa3d
00000110: d9fd c93e 4250 2abe 156c 5c3e af99 bd3e
00000120: 3da3 9f3e 04a7 52be 47a8 9c3e e0f2 ed3e
00000130: 41bb 123e ba5f 37be 903f b83e 48d3 683e
00000140: b0ed 9cbe 7757 17be b338 aa3e cf23 a03d
00000150: 04b1 a43e 6cd9 f63e 77a5 93be 2cd3 b73e
00000160: 65e6 a5be e875 e73e 22d6 ce3e fa14 97be
00000170: 5b1b d23e 425b e53e 3eea 99be d0d6 d83e
00000180: 74a8 c13e cf32 61be 61a8 033f 4c6c e5bd
00000190: 57a9 8ebe af90 c03e 3870 d83e b6c3 403e
000001a0: 5109 fd3e 47db a43e a1d3 12be f12e 79bc
000001b0: 4f25 823e 4b59 a2bc 445d 45be 3936 b53e
000001c0: 8dba 833e a1a0 77be 3569 fa3e 0286 be3d
000001d0: dd02 6bbe 8e7d 64be 52d6 023f aa13 f63e
000001e0: 1038 25be 467e ba3e 2695 c83e 112e 23be
000001f0: c919 1b3d baf2 b83e d812 043f ac5d f43e
0.42032412 0.27987644 -0.2677341 0.42323154 0.3630264 -0.22100003 -0.16892967 0.3240996
-0.28196892 -0.15387566 -0.1251717 0.4918083 0.11992097 0.46347427 0.4260265 -0.2770689
0.30448765 -0.13748847 -0.023086203 0.4343291 0.25961772 0.44052234 0.41849357 -0.25936288
-0.26753604 -0.18752147 0.38224766 0.28654146 -0.3394361 0.36872372 -0.06448123 -0.1572339
0.36589155 0.24022672 -0.019569833 -0.28970128 -0.21074827 0.39571843 -0.15361665 -0.1446501
-0.3144313 0.13644412 0.08504114 0.41453907 -0.25363594 0.32470638 0.2894221 0.13425353
-0.12160811 -0.11245218 0.24582629 0.37889594 0.5089683 -0.1314244 0.3401407 0.43524384
0.48221248 -0.29093713 0.53356296 0.48831666 0.16886464 0.45170796 0.2670985 -0.051889036
-0.26300037 -0.4349688 0.3177196 0.122482225 0.39451483 -0.16632178 0.21525605 0.37031314
0.31179228 -0.20571524 0.30597135 0.4647436 0.14329244 -0.1790761 0.35985994 0.22736847
-0.3065009 -0.14779459 0.33246383 0.0781933 0.32166302 0.48212755 -0.28837177 0.359033
-0.3240234 0.45207143 0.40397745 -0.2950819 0.41036496 0.44796187 -0.30061525 0.4235139
0.37823832 -0.21992038 0.514288 -0.112022966 -0.2786357 0.37610385 0.42273116 0.18824658
0.4942117 0.32198545 -0.14338543 -0.015208946 0.2541909 -0.019817969 -0.1927386 0.3539293
0.25728264 -0.24182369 0.48908392 0.09302904 -0.22950311 -0.2231352 0.51108277 0.48061877
-0.16134667 0.36424464 0.3917629 -0.15935542 0.037866388 0.36122686 0.51591253 0.47727716

layer2.weight f4 [128, 128]
00000000: 88e0 223e 9ffe 673e d170 adbd fe05 f93d
00000010: e1b4 f23d 0a55 8abe 73cd 86bd 7e58 1b3e
00000020: 66bc 37be 9d21 98bd fc91 d3be 8e96 883e
00000030: 0fc3 713d a926 083e 5b3e 3b3e df6c a3bc
00000040: b4b5 033e ab3e 2ebe e0b0 12ba 7191 2a3e
00000050: aaba 4e3e ea5b 313e 7f92 af3d 1cd6 b9bc
00000060: e3ff 54bd 20e3 efbd 4bcd 243e 1d20 933e
00000070: b292 cabd 31fa 3f3e 3016 11bd c6c3 44be
00000080: 96f9 5a3e b1dc 2c3e 1844 053d 6045 84be
00000090: a893 0bbf bee8 4c3e 8bb2 7cbd ff0d f9bc
000000a0: d06a cdbe 5a22 8a3e 407e 4c3d 6231 643e
000000b0: 1396 efbe 7255 0b3e ea92 7b3d 7475 3f3d
000000c0: 7525 fabc 5cf4 7dbd 3365 4a3c 3e41 043e
000000d0: 7394 2a3e 9c5f 0abf a7b3 2c3e 22ab 2d3e
000000e0: d4a6 763e a2dd 8abe 2daf 313e f751 2e3e
000000f0: e373 d63d 1e73 093e 90cc 253e c972 01bd
00000100: 50e2 37be 1e90 a6be df88 823e 360e 723d
00000110: 814e 6f3d d8cf 86be 5c4e b03d 17a1 233e
00000120: 3b7b fb3d 223e 1fbd 1d39 e73d 5752 2a3e
00000130: 2d3c 9dbd 374d 00be 2caa 0b3e 114b 4f3e
00000140: adc1 3ebe 9366 3dbe 22e5 143e 6e94 a53d
00000150: 01b0 413e 153b 3f3e f007 d4bd 9c27 463e
00000160: 01b0 efbe 1adb 343e e5bb 093e d91b dfbd
00000170: 7ca8 ad3d 4d63 4b3e 6a00 d9be d5a1 163e
00000180: 710f e73d 35f0 8ebe bffa 0c3e 49ae c7bd
00000190: 0779 cabd 1229 013e a920 393e e155 233d
000001a0: 5d34 c63d 89c4 423e 4811 f2bc bfb3 8cbe
000001b0: 2c4b 283e cdb2 76bc b9f2 11be e590 513e
000001c0: 6afd 95bb cb0f 7dbe 2819 343e a87b d93d
000001d0: 41a5 02bf 75da 0cbe e1db 9b3e e89d 743e
000001e0: 4d17 583c 8f0c 0b3e c887 103e 340a d0bd
000001f0: 681a 9c3d 0e3c ca3d 6935 3b3e 3d65 1f3e
00000200: af5c 073d 2cf8 9d3b 01d5 053e 77c7 933d
00000210: 0e2c 06bd 5d6c 883a 3af3 76bc e82e bebb
00000220: e40d 0cbd 57d2 2b3e 25c0 9f3d 6036 d73b
00000230: cd06 30bc 8200 88bd cdb6 02bc 49ea d23c
00000240: de2a df3c c65d b3bc be77 963e f00e c83c
00000250: abdb 29bd 84fc 1dbd 030d e7bd d187 6a3b
00000260: 0c3a 50bd 6cd9 643e fe1d 06bc e52c b6be
00000270: 1d8b b23e f4ba 2ebd 028f 383e 91a9 0f3e
00000280: 41f2 1dbd d763 10be f67c 22be b0a9 c83d
00000290: 53b8 a6bc 407d 393c f9e8 ed3e 21ab 7b3d
000002a0: f524 033c 8c57 b83c 7449 e53a 2324 bfbc
000002b0: 75b4 733e e00d 423d 8dda 253d 80f7 72bb
000002c0: fc29 8c3c 9ec0 613f 70d0 05bd 92b8 8d3d
000002d0: 4ce3 e1bc 38dc a63e ef80 ac3d 48e1 f1bd
000002e0: 466a 1fbd 526d 01bd 77a6 b13c f379 383d
000002f0: c79d 303c 2cd2 813d d5f2 95bc acca f83d
00000300: a136 073d c620 1ebd 37e0 bc3d 6649 d83d
00000310: 4360 6abd b2ce 4e3e 35af 023e 0e6e 2b3c
00000320: ae9b 1fbd 7b06 08bd 6058 3abd 66f8 853d
00000330: aab0 f23d 8037 c4bb 176b 35bd b5b4 e4be
00000340: 9374 983e fea2 783d 40d8 e63d ffbc 29bd
00000350: bfac 493d 7ffc 37be 92ee b63b 2804 923d
00000360: 0a4f 3d3d faff 8dbc 3192 533b c0a9 7b3c
00000370: 166f 323d 7776 41bd 5442 d2bd b641 5d3d
00000380: abe9 8ebd bc50 4e3e 1848 4a3d 713d e73d
00000390: 0eb7 353e 8da4 163d a518 d7bd 5739 f83d
000003a0: 4112 853d d181 3e3d be5b 34bc 681f aa3d
000003b0: 6ac7 c2bd 62e3 073e dff1 1c3e 98ee 7a3c
000003c0: 90ae f53c 2ccf 853e f5e9 4c3d adea 0f3d
000003d0: c32a 90be ef80 3a3e 96d6 b2bd 3f22 bb3c
000003e0: 1379 553c 444a e2bd 4450 e0bc 1536 183e
000003f0: 7d35 953d 74cc 47bc df6b fbbc ef1b cbbd
0.15905964 0.22655724 -0.08468784 0.12159346 0.11850906 -0.27018005 -0.06582155 0.15170476
-0.17942962 -0.07428286 -0.41322315 0.26677364 0.059023913 0.13295998 0.18285505 -0.019949375
0.12862283 -0.17016093 -0.00055958144 0.16657044 0.20188394 0.17320219 0.08572864 -0.022685103
-0.052001845 -0.117132425 0.16093938 0.28735438 -0.09891261 0.18747784 -0.03542155 -0.19215307
0.21384272 0.16881062 0.032535642 -0.2583418 -0.5452218 0.20010659 -0.06169371 -0.030402182
-0.40120554 0.26979333 0.04992509 0.22284463 -0.46794185 0.13606814 0.061419405 0.04674287
-0.030535439 -0.062000617 0.012353229 0.12915513 0.16658191 -0.5405214 0.16865407 0.16959813
0.24087077 -0.27122217 0.1735198 0.17023455 0.104713224 0.1342282 0.16191316 -0.03160361
-0.17957425 -0.32531828 0.2549505 0.059095584 0.058424477 -0.26330447 0.08608696 0.1597942
0.12279364 -0.038877614 0.1129019 0.16632973 -0.07677493 -0.12529455 0.13639134 0.2024348
-0.18628569 -0.1849616 0.14540532 0.08084951 0.18914796 0.18674882 -0.103530765 0.19351047
-0.46813968 0.17661706 0.13450582 -0.108939834 0.084794015 0.19862099 -0.42383128 0.14710172
0.11282242 -0.27917638 0.13767527 -0.09750039 -0.098863654 0.12613323 0.18078865 0.039876822
0.09677956 0.19020285 -0.029549256 -0.27480885 0.16434926 -0.015057278 -0.14252748 0.20465429
-0.0045773285 -0.24713056 0.17587721 0.10619289 -0.5103341 -0.1375521 0.30441192 0.23888361
0.013189149 0.1357901 0.14114296 -0.10158196 0.07622224 0.09874736 0.18282093 0.15565963
0.033047374 0.004820844 0.13069536 0.07215779 -0.032756858 0.0010408271 -0.015072638 -0.0058039315
-0.034192935 0.16779457 0.078003205 0.0065677613 -0.010743809 -0.06640722 -0.007978153 0.025746481
0.02724212 -0.0218953 0.2938823 0.024421185 -0.041469257 -0.038570896 -0.11281779 0.003578652
-0.050836608 0.22348565 -0.008185862 -0.35581127 0.3487176 -0.04265876 0.18023303 0.14029528
-0.03856111 -0.14100586 -0.15867981 0.0979799 -0.020351565 0.011321366 0.46466807 0.061442498
0.008004417 0.022502683 0.0017493204 -0.023332661 0.23799308 0.047376513 0.04049163 -0.003707379
0.017109863 0.88184536 -0.032669485 0.069199696 -0.027574204 0.3258989 0.0842303 -0.11810547
-0.03891971 -0.031598397 0.021685822 0.045038175 0.010779805 0.06338915 -0.018304268 0.121480316
0.033011083 -0.038605474 0.09222453 0.10560875 -0.05722071 0.20196036 0.12762149 0.010463251
-0.038966827 -0.033209305 -0.045494437 0.06541519 0.11850102 -0.0059880614 -0.044291582 -0.4466912
0.2977644 0.060702316 0.11271715 -0.041440006 0.04923701 -0.17967413 0.005582639 0.07129699
0.046217956 -0.017333973 0.0032283182 0.015360296 0.04356297 -0.047232118 -0.10266557 0.054017745
-0.069781624 0.20147985 0.04938516 0.11291016 0.17745611 0.03677802 -0.105027474 0.12120312
0.06497622 0.04651052 -0.011008201 0.083067715 -0.095106915 0.13270333 0.15326641 0.015315674
0.029990464 0.26134622 0.050027806 0.035135914 -0.28157625 0.18213247 -0.08732335 0.022843478
0.013029355 -0.11049321 -0.027382024 0.1486438 0.07285593 -0.0121947415 -0.030691085 -0.09917437

layer2.bias f4 [128]
00000000: 954e 473e bb12 5fbc d3b4 23bd 7615 473e
00000010: 2944 8e3e 9d8c 8dbd 9c3d 503e c69a 853e
00000020: c730 19bc 74f4 3bbd 1bb8 6d3e 8da6 6b3e
00000030: ede2 713c 7f49 c8bd eeff 7f3e 4b31 0d3c
00000040: dc37 d9bc 4f38 313d 501e 24bc 4087 883e
00000050: 3127 8b3e 482f 7a3e 0db5 483e 0fb1 7a3d
00000060: a329 513e c18d 2e3e 99a3 813e 7524 b33c
00000070: 9ccc 6a3e 9c6b 25bd ebf9 2e3d 0867 6e3e
00000080: c445 833e 23d5 5f3e 2f90 a7bc fd1c f7bc
00000090: aecf 263c da6a 543e eee1 bfbc 4e8c 25bc
000000a0: 5ec6 913e 25b6 713e 3f6e 5e3e dcd7 dfbd
000000b0: 98e4 8f3e 1725 4cbd 1738 c2bc 64b5 2abd
000000c0: d19a a1bd 0fcb 353e b982 7dbd 84b8 623e
000000d0: 49ef b1bc ed50 4c3e 94f6 68bc 52bd 663e
000000e0: b024 513e 7369 5d3e b1e1 643e 2e78 11bc
000000f0: 760e 60bd 4a1a 923e 300d 8abd 0d30 453e
00000100: 282a 5f3e 0cd7 563e ebc8 8e3b 3b2f dbbc
00000110: faa1 6e3e 0371 0f3d 6995 4abd 537a 373e
00000120: 6a71 703e 5eda 613d 6da9 6e3e 567d 8e3e
00000130: 5703 823e 53c6 80bd 03a1 313e b18c 6d3e
00000140: 8757 7c3e 9918 863e 77d4 f6bc 63f8 ea3c
00000150: 08fb 2fbd b792 553c 918d 97bc 85ae 4e3e
00000160: 7893 babc 89d7 403e 03e0 513e 0984 7b3c
00000170: 78bb 833e fea4 783c 7c21 70bd 6f53 9ebc
00000180: bab9 5f3e 5dcd 52bd cadb 18b8 0c79 783e
00000190: e109 b5bc a9ca 883e 7c0b 3c3c f895 183b
000001a0: 883f cc3b bc84 853c 55e4 deba 3f61 793e
000001b0: 3799 5b3e fd02 4dbc 101f 833e 1d5f 59bd
000001c0: 6f1b 8c3e feda 7e3e 22dc 453e 9edf 783e
000001d0: 4de9 8a3e 6c4b 7d3e 22a0 783e 758d 3fbd
000001e0: 02df c13d b7ac 673e e22c 4d3e 52cd 853e
000001f0: 7c7a b3bc ce2f 8d3e d0cb 843e 1f92 69bd
0.1946357 -0.013615306 -0.03996737 0.1944178 0.27786377 -0.069115855 0.20336002 0.26094645
-0.009350008 -0.045887426 0.23214762 0.23012753 0.014763576 -0.09779643 0.24999973 0.008617709
-0.026515894 0.04326659 -0.010016993 0.26665688 0.27178338 0.24432099 0.19600315 0.061204012
0.2042604 0.17046262 0.25320128 0.02186797 0.22929615 -0.040385827 0.04271881 0.23281491
0.25639164 0.21858649 -0.020454494 -0.03016519 0.010181351 0.20743886 -0.023423161 -0.010104252
0.28471655 0.23604639 0.21721743 -0.10929844 0.2810409 -0.04984006 -0.023708386 -0.041676894
-0.07890857 0.17753242 -0.061892245 0.221407 -0.021720545 0.19952746 -0.014218945 0.22533157
0.20424151 0.21622257 0.2235172 -0.008878751 -0.05470129 0.28535682 -0.067407966 0.19256611
0.21793425 0.20980471 0.0043574474 -0.02675592 0.23303977 0.035019886 -0.049458895 0.17917757
0.23480764 0.05513989 0.23306818 0.2783 0.25393173 -0.06287827 0.17346577 0.23198201
0.24642764 0.26190642 -0.030130608 0.028682893 -0.04296401 0.013035468 -0.018500121 0.20183761
-0.022775397 0.1883222 0.2049561 0.015351304 0.25728965 0.015176056 -0.058625683 -0.019326894
0.21848193 -0.05146538 -3.644432e-05 0.24264926 -0.022099437 0.26717117 0.011477347 0.0023282748
0.0062331595 0.016298644 -0.0017005304 0.24353503 0.21445166 -0.0125129195 0.25609636 -0.053069223
0.2736468 0.24888226 0.19322255 0.24304053 0.2713112 0.24735802 0.24279836 -0.046765763
0.094663635 0.22624479 0.20036653 0.2613321 -0.021908991 0.27575535 0.25936747 -0.057024118

layer3.weight f4 [2, 128]
00000000: 37d1 a73e b8f7 37be c3c2 a8be 8123 903e
00000010: 0efb 973e de38 95be 0b48 8f3e b5d8 893e
00000020: e8c4 13bd 3a15 f5be b887 693e 7df0 9d3e
00000030: cdaf 5ebe c8f1 babe 4c14 a33e 182d 8bbe
00000040: cc0e 1ebe fa57 22bd 9b57 c8be ee98 9b3e
00000050: 110f 8f3e 2f17 993e fa14 9d3e 1f98 b8be
00000060: dd6f b03e 6d58 ab3e 6ff9 923e cce3 0ebf
00000070: aaa2 7a3e 0028 403d 62c2 c8bc 8d10 8e3e
00000080: 89dc 903e 4711 893e 94c4 2ebf 5af9 133d
00000090: 7769 01bc e68e 9a3e c90c 49bd 5828 17bf
000000a0: af03 8f3e ee4c ab3e dda0 933e 9101 c0be
000000b0: c823 823e 2cf4 393d 01d6 283d 79e7 343d
000000c0: 50f2 9fbe a112 8f3e e87a 6ebe 83bd 8d3e
000000d0: db52 c1bc a026 8f3e 8fce 2ebd 5442 9c3e
000000e0: 2131 9b3e 33a0 ae3e 7289 823e 5255 01bf
000000f0: a32a 12bf 5c85 873e 2903 15bf 4f2a 823e
00000100: e762 9c3e f0e2 9c3e 5210 cfbe cee4 ccbb
00000110: c319 623e 1343 6cbe ad38 cbbe 50f3 993e
00000120: 1f98 743e a68a 903e 097a 8e3e 8c1d 9a3e
00000130: 901d 923e b9ba e1be 34f4 ac3e 2f94 ac3e
00000140: 040a 9e3e ccb9 9d3e f2c6 fdbe 4de9 6bbd
00000150: 0deb eebe 2dbd 80be 3d76 933c b779 9e3e
00000160: ae45 11bc 02e9 873e 3649 803e 2b6a 2b3d
00000170: 238a a93e 061b 8a3e 06f6 fabe 5139 80bc
00000180: e58c 883e 8eda e1be c3a4 f3bb fc1d 803e
00000190: 6f11 3ebe bba8 6c3e 8b39 90be 2a0f c3be
000001a0: 52a2 8b3a 5c21 86be 8363 84be 7a42 9f3e
000001b0: 44ed a73e 13a8 8dbe 4830 9e3e 8955 64be
000001c0: 4d0c a13e c935 723e c721 983e c9df 7f3e
000001d0: ef3a 893e 70f2 8e3e fd1b bb3e 5f49 89bc
000001e0: b348 9cbe b488 a43e 50ee 9a3e 7aaa 963e
000001f0: ebb3 3f3d 30f6 8f3e 9d84 8a3e 84ee 1ebe
00000200: 0078 6c3e 5feb df3d 7486 c8be 7658 9e3e
00000210: 6299 783e 2333 ecbe aa53 963e 920b 8f3e
00000220: 51b5 733c 7306 e7be c33f 9a3e 0a23 b73e
00000230: 6a1b cebb 1006 00bf 0ae5 9f3e 5f3a b1be
00000240: 3e7f 6fbe d6c2 25bd 3b1f 0dbb 2531 7e3e
00000250: baa3 893e 842d 743e f9ea 893e 083e 15be
00000260: 670d 853e 1990 b03e 054e 9d3e 2ce6 bbbe
00000270: a527 a53e 8661 433d bf12 fabb 660d 8f3e
00000280: 74be 853e aa83 9c3e aff9 1bbf c9bf 16bd
00000290: f238 0cbd 5b89 923e afa5 39bc 3f5b 06bf
000002a0: ba24 813e f3e3 843e 03a6 8d3e dfc8 b9be
000002b0: c56e 943e 73a4 9cbc 99e7 fe3c ae3d da3b
000002c0: 5cbf cdbe 4706 9e3e 950c 7cbe 3073 8c3e
000002d0: fcca 1abb b9c9 a73e d3e3 473b 29c3 5f3e
000002e0: 8e9b 693e c80f 9d3e db08 a33e 4aad 44be
000002f0: 2e3e 91be 65e0 923e 860f 0ebf fa0c 8f3e
00000300: 9afd 9d3e 4ebf 743e c0a7 aabe 66d3 9ebc
00000310: b8dd 9f3e cff7 8fbe 747e acbe 29ad 973e
00000320: e0bd 973e 1fd1 2ebe 8aad a43e 9282 8b3e
00000330: 7054 993e ef21 0dbf 55ec 6d3e 68f9 b53e
00000340: d0cd a43e 1b3e 8c3e bf5b 94be 185f d43c
00000350: e8e8 86be 680d 633c e68c 8b3d 2bf4 793e
00000360: 7b74 55be a373 9c3e 71ee 9c3e a121 2b3c
00000370: 3658 723e f02a 29be b7af 04bf 5c6f 133c
00000380: 4762 903e b8c4 c0be e097 d2bc 9013 a23e
00000390: d636 79be a4a5 963e 57ae bfbe b898 b7be
000003a0: ba96 093d 5db0 87be 273a 21bd e972 813e
000003b0: 49a8 ab3e 5794 03be 4319 6f3e 0473 9fbd
000003c0: 6102 9d3e 336e 9c3e 44ed 423e c32d 8e3e
000003d0: 7073 833e a068 9c3e 9567 a03e d921 45bd
000003e0: 28b3 f43e bb1c 9e3e bd1a 9e3e 8fa8 603e
000003f0: 23ee f2bc c87c 803e bda4 9d3e 59e7 86be
0.32776806 -0.17965591 -0.3296109 0.28152087 0.29683727 -0.2914495 0.27984652 0.26923147
-0.036076456 -0.47867757 0.22805679 0.3084754 -0.2174675 -0.3651259 0.31851423 -0.2718284
-0.15435332 -0.039634682 -0.39129338 0.30390114 0.27941182 0.299005 0.30680066 -0.3605356
0.34460345 0.334659 0.28705928 -0.5581634 0.24476114 0.046913147 -0.024506751 0.27747002
0.28293255 0.26770994 -0.68268704 0.036126472 -0.00789868 0.30187148 -0.04908446 -0.59045935
0.27932498 0.3345713 0.28833666 -0.37501195 0.25417924 0.045398876 0.041219715 0.044166062
-0.31239557 0.279439 -0.23289073 0.27683648 -0.023599079 0.27959156 -0.04267746 0.30519354
0.3031092 0.34106597 0.25495487 -0.50520813 -0.5709631 0.26468933 -0.58207947 0.25422904
0.30544207 0.3064189 -0.4044214 -0.0062528616 0.2208014 -0.23072462 -0.39691678 0.30068445
0.23886155 0.2823078 0.2782748 0.30100667 0.2853818 -0.4408777 0.33780062 0.33706805
0.30867016 0.30805814 -0.49565846 -0.05759554 -0.46663705 -0.2514433 0.018000716 0.30952236
-0.008866711 0.26544958 0.25055856 0.041849297 0.33113202 0.26973742 -0.49015826 -0.01565233
0.26669994 -0.44112056 -0.0074354126 0.25022876 -0.18561338 0.2311124 -0.28168902 -0.38097507
0.0010653234 -0.26197326 -0.2585717 0.31105405 0.32798207 -0.27667293 0.3089621 -0.22298254
0.31454697 0.2365333 0.2971327 0.24987711 0.26802775 0.2791934 0.3654479 -0.016758619
-0.30524215 0.32135546 0.30259943 0.29426938 0.046802443 0.28117514 0.270543 -0.15520674
0.23092651 0.10933565 -0.3916508 0.30926865 0.24277261 -0.46132764 0.29360706 0.27938515
0.014874772 -0.45122108 0.3012677 0.3576892 -0.006289889 -0.5000925 0.3122943 -0.34614846
-0.23388383 -0.040469013 -0.0021533507 0.24823435 0.26882726 0.23845488 0.26937082 -0.14574444
0.25986788 0.34484938 0.30723587 -0.36699045 0.3225681 0.047700427 -0.0076316292 0.2793991
0.26121867 0.30569202 -0.6092786 -0.036803994 -0.034233995 0.2862042 -0.011331006 -0.5248298
0.25223333 0.2595516 0.2766572 -0.36286065 0.2899076 -0.019121384 0.031116294 0.006660185
-0.40185058 0.30864164 -0.24614175 0.2743163 -0.0023619523 0.3277109 0.0030500784 0.21851791
0.22813246 0.30676103 0.31842694 -0.1920673 -0.28367752 0.28686824 -0.55492437 0.27939588
0.30857545 0.23901102 -0.33331108 -0.019387912 0.31223845 -0.2811875 -0.33690226 0.29624298
0.2963705 -0.17071961 0.3216365 0.27248055 0.29947233 -0.55129904 0.23234685 0.35541844
0.32188272 0.27391133 -0.28976247 0.02592425 -0.26349568 0.013858177 0.068139836 0.24409549
-0.20845215 0.30556974 0.30650666 0.0104450295 0.23666462 -0.16520286 -0.5183062 0.008998718
0.2819998 -0.37650084 -0.025707185 0.3165555 -0.24337325 0.2942325 -0.37437698 -0.35858703
0.03359101 -0.26501742 -0.0393621 0.25282982 0.3352683 -0.12849556 0.2334948 -0.07785609
0.30665877 0.30552825 0.19035822 0.27769288 0.2567401 0.30548573 0.31329027 -0.048127983
0.47792935 0.30881295 0.30879775 0.219393 -0.029654568 0.250952 0.30789748 -0.2634838

layer3.bias f4 [2]
00000000: 82d4 293d 5ef5 ca3d
0.04146243 0.09910081
