model_weights/DQN/cartpole/cartpole_dqn_episode_3599.pth (torch, 72508 bytes, 6 tensors)

layer1.weight f4 [128, 4]
0	0x3da643f7	0.08118432
1	0xbe123c86	-0.142809
2	0x3d702b99	0.058635328
3	0xbe17cea8	-0.14824927
4	0xbdb8d773	-0.09025469
5	0x3d9d8a8c	0.07692441
6	0x3e4723c5	0.19447239
7	0x3d0ac057	0.033874836
8	0x3e368572	0.17824343
9	0xbe221b92	-0.1583083
10	0x3ef3eda2	0.47642237
11	0x3e1ebe3c	0.15502256
12	0xbe0f4474	-0.13990957
13	0xbe24269c	-0.16030353
14	0x3d181908	0.037133247
15	0xbdadb8e4	-0.08482531
16	0x3cd57e86	0.026061308
17	0xbe54ef1e	-0.20794341
18	0xbe8ce7b4	-0.27520525
19	0xbe09faeb	-0.13474624
20	0xbe216a5f	-0.15763234
21	0xbc8d75d0	-0.017268091
22	0xbf068641	-0.52548605
23	0xbd3564c9	-0.04428557
24	0x3e9bd537	0.30436108
25	0xbd948183	-0.07251265
26	0xbe83c131	-0.2573333
27	0xbde528b3	-0.111894034
28	0xbe2bfdf6	-0.16796097
29	0xbd515638	-0.051107615
30	0xbcf6c051	-0.030121
31	0x3b78a57e	0.0037940438
32	0xbe28320a	-0.16425338
33	0xbe10cdd8	-0.14141023
34	0xbd5aa424	-0.053379193
35	0xbdc3b991	-0.09556878
36	0x3de35df9	0.11101908
37	0x3e1eb043	0.15496926
38	0x3e59826a	0.21241155
39	0x3e93192d	0.28730145
40	0x3e136fd7	0.14398132
41	0xbe367187	-0.17816745
42	0xbe3b9b6a	-0.18321005
43	0xbe0961c6	-0.13416204
44	0xbd9f6755	-0.07783381
45	0xbda4bb20	-0.08043504
46	0x3d7e123e	0.062029116
47	0xbd830aca	-0.06398542
48	0x3e8a797b	0.27045807
49	0x3d1f8240	0.038942575
50	0x3e22677d	0.1585979
51	0xbd739cd2	-0.059475727
52	0x3e0ae14b	0.13562505
53	0x3c089dde	0.00833842
54	0xbd52696a	-0.051370062
55	0xbcd73280	-0.026269197
56	0xbdfd7b00	-0.12376976
57	0x3e201b22	0.1563535
58	0x3ddc36cb	0.107526384
59	0x3e39781e	0.18112227
60	0xbe68bc41	-0.22728063
61	0xbe3b4978	-0.18289745
62	0xbf09960a	-0.53744566
63	0xbe15a0dc	-0.14612144
64	0xbe3d76cb	-0.18502347
65	0x3ae8d4d2	0.0017763621
66	0x3d883536	0.06650774
67	0xba8e6939	-0.0010865099
68	0xbe6bc3c1	-0.23023893
69	0xbd0327a2	-0.03202022
70	0xbf05c62d	-0.5225552
71	0xbdbbbbd7	-0.09166687
72	0xbe42b097	-0.19012676
73	0xbde48f15	-0.11160103
74	0xb7ee85e4	-2.8434159e-05
75	0xbd94d652	-0.07267441
76	0xbce28f35	-0.027656177
77	0x3db28bf5	0.08718101
78	0x3e779e39	0.24181451
79	0x3d1aa125	0.037751336
80	0x3e0f4314	0.13990432
81	0xbe3ffea2	-0.18749478
82	0xbda7c5f2	-0.08192052
83	0xbe178437	-0.1479653
84	0xbd9dd579	-0.07706732
85	0x3ddf06d6	0.10889976
86	0x3c915482	0.017740492
87	0xbc939e21	-0.018019738
88	0x3e41f765	0.1894203
89	0x3d81ab1d	0.063314654
90	0xbe376310	-0.17908883
91	0x3c4d2658	0.012521349
92	0x3e5438a7	0.20724736
93	0x3daed4bb	0.08536669
94	0x3d673a11	0.05645186
95	0xbdd91e54	-0.10601488
96	0x3dcaadba	0.09896417
97	0x3e78bea4	0.24291474
98	0x3da75d32	0.081720725
99	0x3dae9745	0.08524946
100	0xbdc532b0	-0.096288085
101	0xbdc0882e	-0.09400974
102	0x3e2ca3c7	0.16859351
103	0x3d501021	0.05079663
104	0x3ea00394	0.3125273
105	0x3d379997	0.04482421
106	0xbdb47e3b	-0.08813139
107	0xbd0b0fb4	-0.033950523
108	0x3df124c7	0.11774593
109	0x3cf17ebc	0.029479377
110	0xbe97c26d	-0.29640523
111	0x3c932a9a	0.01796465
112	0xbe5ec4e3	-0.21754794
113	0xbe05464c	-0.13015097
114	0x3e233fb2	0.15942267
115	0xbd12a7fb	-0.03580473
116	0xbe496fad	-0.19671507
117	0x3d0e1bac	0.03469436
118	0xbe70d100	-0.23517227
119	0x3d6ccbf4	0.057811692
120	0xbe426c48	-0.18986619
121	0xbe125e07	-0.14293681
122	0x3e25470c	0.16140383
123	0xbd444772	-0.047919698
124	0x3e42d746	0.19027433
125	0x3cd5bc42	0.026090745
126	0xbde2d684	-0.11076072
127	0x3cf5c1ef	0.029999701
128	0xbe592cef	-0.21208547
129	0x3d55e11c	0.052216634
130	0x3da1e0ef	0.07904231
131	0x3ce8f6b5	0.028437952
132	0xbe2ae45c	-0.16688675
133	0x3d0df5f7	0.0346584
134	0x3e93fc4b	0.28903422
135	0x3d8e16da	0.06937952
136	0xbdcb5fb7	-0.099303655
137	0xbe8c39da	-0.27387887
138	0xbf406e20	-0.7516804
139	0xbe43ee5a	-0.19133893
140	0x3dac6a13	0.084186696
141	0x3dfd81e2	0.12378289
142	0x3e111685	0.14168747
143	0xbd10d553	-0.03535969
144	0xbdd091f6	-0.1018409
145	0xbe258a3f	-0.16166018
146	0xbe9fb694	-0.31193984
147	0xbe20b702	-0.15694812
148	0xbe54624e	-0.20740625
149	0xbda4e088	-0.080506384
150	0x3c160243	0.009155813
151	0x3cd0d7a6	0.025493454
152	0xbe79331d	-0.24335904
153	0xbe86070e	-0.26177257
154	0x3db7df45	0.08978132
155	0xbe058725	-0.13039835
156	0xbe7e8a3c	-0.2485742
157	0xbe22698e	-0.15860578
158	0xbea74ba7	-0.32674906
159	0xbe8b335e	-0.27187628
160	0xbe6f568f	-0.23372863
161	0x3c1ae653	0.009454328
162	0xbe7dfd99	-0.24803771
163	0x3d17fe4e	0.03710776
164	0xbe906598	-0.2820251
165	0x3e16acbe	0.14714333
166	0xbe22c34d	-0.15894814
167	0x3e29bde4	0.16576344
168	0x3e4a1e9c	0.19738239
169	0x3e9e3f33	0.30907592
170	0x3e9b8d5e	0.30381292
171	0x3e5fe58d	0.2186491
172	0xbe608a93	-0.21927862
173	0x3d81db81	0.06340695
174	0x3de248b9	0.11049027
175	0x3da67d44	0.08129361
176	0xbcabdd11	-0.020979436
177	0x3e174211	0.14771296
178	0x3f20637a	0.6265179
179	0x3e442a8d	0.19156857
180	0xbb96b77e	-0.0045995107
181	0x3c090362	0.008362623
182	0x3cda406d	0.026642049
183	0xbe38ff9e	-0.1806626
184	0x3e042058	0.12902963
185	0xbe10fc84	-0.14158827
186	0xbe7e066d	-0.24807139
187	0xbce680be	-0.028137561
188	0x3e21d406	0.15803537
189	0x3dbf2c9d	0.09334681
190	0xbdc5220d	-0.09625635
191	0xbdb26bd3	-0.08711972
192	0x3e9293ff	0.28628537
193	0xbd8319f8	-0.064014375
194	0xbd861c76	-0.06548397
195	0xbdbca086	-0.09210305
196	0xbd87401f	-0.06604027
197	0xbe2f958b	-0.1714689
198	0xbea69a20	-0.32539463
199	0xbe08ae0b	-0.13347642
200	0x3e2ef35f	0.17085026
201	0x3dda12fd	0.10648153
202	0xbb341ffe	-0.002748489
203	0x3dc7038e	0.09717475
204	0xbd73073f	-0.059333082
205	0xbe11d257	-0.14240395
206	0xbdeeba35	-0.1165661
207	0x3c953445	0.0182134
208	0x3dc15339	0.094397016
209	0xbde79e7a	-0.11309524
210	0xbe9daade	-0.30794424
211	0xbd758d38	-0.05994913
212	0x3d1da149	0.03848389
213	0x3d68b33e	0.056811564
214	0x3f1fe2bc	0.62455344
215	0x3df71887	0.12065225
216	0xbe1f6ea0	-0.15569544
217	0x3dfb48b8	0.122697294
218	0x3e9c83d3	0.30569324
219	0xbdadb1e1	-0.08481193
220	0xbe665d04	-0.2249642
221	0x3d6c98db	0.05776296
222	0xbe80f49d	-0.25186625
223	0xbc0fed8d	-0.008784664
224	0x3cf80d8e	0.0302799
225	0xbca6067e	-0.020266768
226	0x3c44d9dd	0.012014833
227	0xbdd01607	-0.101604514
228	0xbe98cda8	-0.29844403
229	0xbd83e593	-0.06440272
230	0xbeb864ad	-0.3601431
231	0xbd8f2dc1	-0.06991149
232	0x3e2c7d5c	0.16844696
233	0xbe267331	-0.1625488
234	0x3dabed35	0.08394853
235	0xbd892376	-0.06696217
236	0xbd540944	-0.05176665
237	0xbdecc987	-0.11561876
238	0x3e156092	0.1458762
239	0xbdd02efb	-0.10165211
240	0xbc68bc55	-0.014205058
241	0x3ea7807b	0.3271521
242	0x3e6c04a9	0.23048653
243	0x3e4e31a9	0.20136131
244	0x3b586dda	0.003302446
245	0xbe4f638c	-0.20252818
246	0xbe77c725	-0.24197061
247	0xbd01df48	-0.03170708
248	0x3ee84e6f	0.4537234
249	0xbd2fa7f8	-0.042884797
250	0xbb79bed8	-0.0038108137
251	0xbde453a2	-0.11148764
252	0xbe93bb8f	-0.28854033
253	0xbe417f6c	-0.18896264
254	0x3e1397d8	0.14413393
255	0x3d986460	0.0744102

layer1.bias f4 [128]
0	0x3ebe41d6	0.37159604
1	0x3e907a69	0.28218392
2	0xbe58cbd6	-0.21171507
3	0x3ec1eeca	0.37877494
4	0x3eaa0e2d	0.3321394
5	0xbe3932a1	-0.1808572
6	0xbe0447d5	-0.12918027
7	0x3e9bbed0	0.30419016
8	0xbe610107	-0.21973048
9	0xbdfb86e7	-0.1228159
10	0xbdce065e	-0.10059808
11	0x3ed92000	0.42407227
12	0x3e2dd484	0.169756
13	0x3ef79df1	0.48362687
14	0x3ec88a51	0.39168027
15	0xbe5de395	-0.21668847
16	0x3e95f5ed	0.2928919
17	0xbdf00f29	-0.117216416
18	0xbc41afbe	-0.011821685
19	0x3ecf3eb2	0.4047752
20	0x3e75fcc4	0.24022204
21	0x3ed5e9bd	0.4177989
22	0x3eecaac8	0.46224046
23	0xbe4f0205	-0.20215614
24	0xbe553c00	-0.2082367
25	0xbe1a68c2	-0.15079024
26	0x3ed0ea86	0.40803927
27	0x3e97f0bf	0.29675862
28	0xbe8c123b	-0.2735766
29	0x3eac9962	0.33710772
30	0xbd63f410	-0.055652678
31	0xbdfabd65	-0.122431554
32	0x3eaec68e	0.3413586
33	0x3e6a5f4f	0.2288792
34	0xbc1e6bd8	-0.009669267
35	0xbe66e7b3	-0.22549324
36	0xbe28f209	-0.16498579
37	0x3eb61340	0.35561562
38	0xbe09762b	-0.13423984
39	0xbe005792	-0.12533405
40	0xbe7c993f	-0.24667834
41	0x3e569a87	0.20957385
42	0x3dfb5287	0.122716
43	0x3ec24fc3	0.37951478
44	0xbe4a3e95	-0.19750436
45	0x3e9ff32e	0.3124022
46	0x3e8cbbb0	0.27486944
47	0x3de6dca0	0.1127255
48	0xbdc17f2c	-0.09448084
49	0xbdcb84cc	-0.09937438
50	0x3e9d4f7d	0.30724707
51	0x3eb01863	0.34393606
52	0x3ee1895a	0.44050103
53	0xbdceaa23	-0.10091045
54	0x3eac28bf	0.33624837
55	0x3ec90fe9	0.3926995
56	0x3edb63d7	0.4284961
57	0xbe65eabc	-0.22452825
58	0x3eec3a05	0.46138015
59	0x3edc5163	0.43030843
60	0x3e550cf9	0.2080573
61	0x3ecb2642	0.39677626
62	0x3e7e6631	0.2484367
63	0xbd53b440	-0.05168557
64	0xbe519f39	-0.20470895
65	0xbeadec81	-0.339695
66	0x3e9dcea8	0.3082173
67	0x3deddc2e	0.116142616
68	0x3ee75524	0.45182145
69	0xbe04d446	-0.12971601
70	0x3e8035e6	0.2504112
71	0x3ec7fc78	0.39059806
72	0x3e9472ed	0.2899393
73	0xbe225422	-0.15852407
74	0x3e9a77a4	0.30169404
75	0x3ed03b69	0.40670326
76	0x3e27bacb	0.1637985
77	0xbe0fc26d	-0.14039011
78	0x3ede3fae	0.4340796
79	0x3e83d5e2	0.25749117
80	0xbe7906ae	-0.24318954
81	0xbdf3a67c	-0.11896989
82	0x3ea2097f	0.3164787
83	0x3de4d262	0.1117294
84	0x3eaa5469	0.33267525
85	0x3ee2f2f3	0.4432598
86	0xbe69e07b	-0.22839539
87	0x3ea99b15	0.3312613
88	0xbe8137d7	-0.25237915
89	0x3ecc90b2	0.39954144
90	0x3eb8fe4e	0.3613152
91	0xbe6b2551	-0.22963454
92	0x3ec73dbf	0.38914296
93	0x3ed04127	0.40674707
94	0xbe70d28c	-0.23517817
95	0x3ec19341	0.37807658
96	0x3ee598d5	0.44843164
97	0xbe2f814c	-0.17139167
98	0x3ee569be	0.44807237
99	0xbdb30480	-0.08741093
100	0xbe6b4fcb	-0.22979657
101	0x3eece93b	0.4627169
102	0x3ebf2654	0.3733393
103	0x3e4c67f7	0.19961534
104	0x3ee4b0f6	0.4466626
105	0x3e992fef	0.29919383
106	0xbdf654c5	-0.12027887
107	0xbbda6b03	-0.006665589
108	0x3e8ca993	0.27473125
109	0xbcaa3b04	-0.020780094
110	0xbe19ddda	-0.15026036
111	0x3eab6e6e	0.3348269
112	0x3ee111a0	0.4395876
113	0xbe4baaa1	-0.19889309
114	0x3edd36e5	0.43205944
115	0x3df323fd	0.118720986
116	0xbe49cdd9	-0.19707431
117	0xbe32237f	-0.17396353
118	0x3ee98615	0.4561011
119	0x3edef291	0.43544438
120	0xbdfdf6ef	-0.124006145
121	0x3f20a128	0.62745905
122	0x3eb2a98a	0.34894973
123	0xbdfe18e4	-0.12407091
124	0x3da7a44b	0.08185633
125	0x3ed0c0fc	0.40772235
126	0x3ee48803	0.4463502
127	0x3ed517dd	0.4161977

layer2.weight f4 [128, 128]
0	0x3e1f10d3	0.15533762
1	0x3e87ef6e	0.26549858
2	0xbd860212	-0.06543364
3	0x3def8617	0.116954975
4	0x3de9b4c0	0.114114285
5	0xbe56ec3a	-0.20988551
6	0xbd543509	-0.05180839
7	0x3e13705e	0.14398333
8	0xbe0f1846	-0.13974103
9	0xbd6c126a	-0.05763475
10	0xbea4ba42	-0.32173353
11	0x3e721594	0.23641044
12	0x3d92d557	0.071695976
13	0x3e3d8241	0.18506719
14	0x3e519d0d	0.20470066
15	0xbc79d2e9	-0.015248039
16	0x3e063cae	0.13109085
17	0xbe04cb27	-0.12968121
18	0x3b113702	0.0022158031
19	0x3e569c80	0.20958138
20	0x3e3a7881	0.18210031
21	0x3e585aa1	0.21128322
22	0x3e032d08	0.12810147
23	0xbc91cc34	-0.017797567
24	0xbd2615b1	-0.04054803
25	0xbdb52e2a	-0.08846696
26	0x3e413b53	0.18870287
27	0x3e9859b8	0.2975595
28	0xbd9d7d75	-0.07689945
29	0x3e3568e6	0.17715797
30	0xbccfe10c	-0.025375865
31	0xbe1967c8	-0.14980996
32	0x3e51b583	0.20479397
33	0x3e2ec0b4	0.17065698
34	0x3cef1dbe	0.029188987
35	0xbe4de964	-0.20108563
36	0xbed946b7	-0.42436764
37	0x3e374378	0.17896831
38	0xbd3ebcf6	-0.046566926
39	0xbcb4ee1c	-0.022086196
40	0xbea01fa5	-0.31274143
41	0x3e85e032	0.2614761
42	0x3d3ed700	0.04659176
43	0x3e58f6ab	0.21187846
44	0xbebab4e0	-0.36466122
45	0x3e262f6e	0.1622903
46	0x3da0f05d	0.07858346
47	0x3d23a78a	0.0399547
48	0xbcc39679	-0.023875462
49	0xbd4085b3	-0.047002506
50	0x3d3e6552	0.046483345
51	0x3dfc6ace	0.12325059
52	0x3e2725e7	0.16323052
53	0xbed789f3	-0.42097434
54	0x3e4ebf3a	0.20190135
55	0x3e29cf50	0.1658299
56	0x3e71b4fe	0.236042
57	0xbe570d01	-0.21001054
58	0x3e2e6f7b	0.17034714
59	0x3e269cbb	0.16270725
60	0x3ddc810d	0.10766802
61	0x3e01f5c1	0.12691404
62	0x3e381e9f	0.17980431
63	0xbcbe916f	-0.023262708
64	0xbe0f37de	-0.13986155
65	0xbe81b7ff	-0.2533569
66	0x3e8edfbe	0.27905077
67	0x3d8329c0	0.064044476
68	0x3dc2ff90	0.09521401
69	0xbe51dd3b	-0.20494549
70	0x3db7e402	0.08979036
71	0x3e4ecdcd	0.20195694
72	0x3e0d1ef3	0.13781337
73	0xbcf8b6fe	-0.030360695
74	0x3dee5747	0.116377406
75	0x3e252d18	0.16130483
76	0xbce5793a	-0.028011907
77	0xbdc2dd89	-0.09514911
78	0x3e3d5b57	0.18491875
79	0x3e709883	0.23495679
80	0xbe14b93a	-0.14523783
81	0xbe163f19	-0.14672507
82	0x3e0d89b4	0.13822061
83	0x3da7bed9	0.08190698
84	0x3e559c89	0.20860495
85	0x3e6274f0	0.2211492
86	0xbda25f09	-0.07928283
87	0x3e4152c3	0.18879227
88	0xbebac853	-0.3648096
89	0x3e22dcff	0.15904616
90	0x3e02f756	0.12789664
91	0xbdadd554	-0.08487955
92	0x3deeabf1	0.11653889
93	0x3e55b931	0.20871426
94	0xbea9409b	-0.33057103
95	0x3e1f54d1	0.15559699
96	0x3e301f11	0.17199351
97	0xbe5ecd48	-0.21757996
98	0x3e178525	0.14796884
99	0xbd9ba979	-0.07600684
100	0xbd9b7820	-0.075912714
101	0x3e591caf	0.21202348
102	0x3e304aaf	0.1721599
103	0x3d43219e	0.04763948
104	0x3dfcc55f	0.12342333
105	0x3e2e812c	0.17041463
106	0xbcb77fc7	-0.022399796
107	0xbe3fe1dc	-0.18738502
108	0x3e51ac84	0.20475966
109	0xbc51e127	-0.012810028
110	0xbde35631	-0.11100424
111	0x3e544767	0.20730363
112	0x3d7e9348	0.062152177
113	0xbe432d62	-0.19060281
114	0x3e266044	0.1624766
115	0x3dc1baff	0.09459495
116	0xbecae09c	-0.39624488
117	0xbddb53b2	-0.10709323
118	0x3e9dd2f3	0.30825004
119	0x3e8698b4	0.26288378
120	0x3c80a417	0.015703244
121	0x3e9fe29c	0.31227577
122	0x3e0efbcb	0.13963239
123	0xbda23015	-0.07919327
124	0x3d8c7d56	0.068598434
125	0x3e05a05f	0.13049458
126	0x3e324a41	0.17411138
127	0x3e17f8fb	0.14841072
128	0x3ca47878	0.020076975
129	0x3b71c78e	0.0036892626
130	0x3dd17fe8	0.10229474
131	0x3d8ab067	0.06771927
132	0xbc4264d8	-0.011864863
133	0x3925c67d	0.00015809569
134	0xbc408ff3	-0.01175307
135	0x3c436fa1	0.01192847
136	0xbcce23cc	-0.025163554
137	0x3e063b64	0.13108593
138	0x3d4d2a0a	0.05008892
139	0x3c408244	0.011749808
140	0xbc17b815	-0.009260197
141	0xbd544855	-0.051826794
142	0x3c1e80ff	0.00967431
143	0x3d806a76	0.06270306
144	0x3d06b939	0.032891486
145	0xbc89cffb	-0.016822806
146	0x3e838eca	0.25694877
147	0x3c9f2c8c	0.019430421
148	0xbd00e165	-0.031464953
149	0xbd2f347e	-0.04277467
150	0xbdb44b2f	-0.08803403
151	0x3b36ea2f	0.002791058
152	0xbd2255ac	-0.039632484
153	0x3e3ef397	0.1864761
154	0xbc97a680	-0.01851201
155	0xbe818f52	-0.25304657
156	0x3e8c860b	0.27446017
157	0xbc5f7f71	-0.013641224
158	0x3e218a6e	0.15775463
159	0x3ddfe875	0.109330095
160	0xbca1d346	-0.019754063
161	0xbdc6c4f8	-0.097055376
162	0xbd4738ae	-0.04863804
163	0x3d9c6768	0.07636911
164	0xbc8d3a93	-0.017239844
165	0x3cce3627	0.025172306
166	0x3ec300cf	0.38086554
167	0xbdb52d18	-0.088464916
168	0x3d66ddbb	0.056363802
169	0x3d6b918d	0.057511855
170	0x3ab2cafc	0.0013640816
171	0xbb8a6cdc	-0.004224403
172	0x3e3decf3	0.1854742
173	0xbcc5163b	-0.024058452
174	0x3d39b05e	0.045334212
175	0xbb33e596	-0.0027450076
176	0x3c5a3090	0.013317242
177	0x3e9c0982	0.30476004
178	0xbc943703	-0.018092638
179	0x3d93566d	0.07194219
180	0xbc121b1d	-0.008917597
181	0x3e81e13c	0.25367153
182	0xbb1abc3e	-0.0023610736
183	0xbdb3c9e6	-0.087787434
184	0xbd25bade	-0.040461414
185	0x3e48bbe7	0.19602929
186	0x3cd82d4e	0.02638879
187	0x3d1d8a83	0.038462173
188	0x3c47ac94	0.012187142
189	0x3d880429	0.066414185
190	0xbc4f0b03	-0.012636903
191	0x3df05758	0.117354095
192	0x3cd27d1e	0.025694426
193	0xbcf66b01	-0.03008032
194	0x3dac35e9	0.0840872
195	0x3dc4ad73	0.09603395
196	0xbd2042b2	-0.039126106
197	0x3e21382e	0.15744087
198	0x3df784f5	0.120859064
199	0x3cde5468	0.027139857
200	0xbccb9b36	-0.024854284
201	0xbc904305	-0.017610082
202	0xbc3c3dda	-0.011489356
203	0x3d7ab9aa	0.06121222
204	0xbdb67c80	-0.08910465
205	0xbb98fbe1	-0.004668698
206	0xbd0b46b8	-0.03400299
207	0xbe988db3	-0.29795608
208	0x3e6e70e0	0.23285246
209	0x3d41ecb9	0.047344897
210	0x3dd204e4	0.10254839
211	0xbd05722a	-0.03257958
212	0x3d775d90	0.060391963
213	0xbe0a002e	-0.13476631
214	0x3b8e7cfb	0.004348395
215	0x3d97598c	0.073901266
216	0x3d13ab86	0.03605225
217	0x3b2b8dd8	0.0026177075
218	0x3ba4b365	0.0050262683
219	0x3c443d2f	0.011977478
220	0x3d317c37	0.04333135
221	0xbd778c9d	-0.060436834
222	0xbda3ee77	-0.08004468
223	0x3d55285e	0.05204045
224	0xbd8eb01a	-0.069671825
225	0x3e20d537	0.15706335
226	0x3d457b4d	0.048213292
227	0x3db450b5	0.08804456
228	0x3e1560ff	0.14587782
229	0xbcc11c2f	-0.02357301
230	0xbdadea5a	-0.08491965
231	0x3dcc37c1	0.09971572
232	0x3d8b7fe3	0.06811502
233	0x3d6c4b5e	0.057689063
234	0xbb47845b	-0.003044388
235	0x3cbf9222	0.023385111
236	0xbd8550aa	-0.06509526
237	0x3dfa1c2f	0.12212407
238	0x3df486bf	0.11939763
239	0x3ca50409	0.020143526
240	0xbcbef52c	-0.023310266
241	0x3e795506	0.2434884
242	0x3d6d3364	0.057910338
243	0x3ce658fc	0.028118603
244	0x3e82ece4	0.25571358
245	0x3e1166b8	0.1419934
246	0xbd579672	-0.05263371
247	0x3d082560	0.03323877
248	0x3c2674e9	0.0101597095
249	0xbdeb02ed	-0.114751674
250	0xbcb24c4c	-0.021764897
251	0x3decf3e3	0.11569955
252	0x3d6b766f	0.057485994
253	0xbd432fea	-0.047653116
254	0xbc8bc995	-0.017063895
255	0xbd7e1fe3	-0.06204213

layer2.bias f4 [128]
0	0x3e526164	0.20544964
1	0xba88410c	-0.0010395362
2	0xbcfee928	-0.031117037
3	0x3e4f62fa	0.202526
4	0x3e89c350	0.26906824
5	0xbd5c7c9f	-0.053829785
6	0x3e573c87	0.21019183
7	0x3e8278f4	0.25482905
8	0xbbee84ff	-0.007279038
9	0xbd129c52	-0.03579361
10	0x3e6feacd	0.23429413
11	0x3e715457	0.2356733
12	0x3c3c72b4	0.011501957
13	0xbd9c1d6a	-0.07622798
14	0x3e7cc976	0.24686226
15	0x3c17d673	0.009267437
16	0xbcb22979	-0.021748291
17	0x3d0a3449	0.03374127
18	0xbc820002	-0.015869144
19	0x3e855359	0.26040152
20	0x3e8813d4	0.26577628
21	0x3e77a753	0.24184923
22	0x3e4ff876	0.20309624
23	0x3d5e8889	0.05432943
24	0x3e7be76d	0.246
25	0x3e49300b	0.19647233
26	0x3e7c8e72	0.24663714
27	0x3c8ba565	0.01704664
28	0x3e6ab3ac	0.22920102
29	0xbd00d361	-0.031451587
30	0x3d08857d	0.03333043
31	0x3e6f3642	0.23360541
32	0x3e7eea80	0.24894142
33	0x3e63aefe	0.22234723
34	0xbc829437	-0.015939815
35	0xbcc0b1e1	-0.02352232
36	0x3c01f6b6	0.007932356
37	0x3e5a5bb5	0.21324046
38	0xbc95a65d	-0.018267805
39	0xbc00ee21	-0.007869274
40	0x3e8c9452	0.2745691
41	0x3e6f3e52	0.23363617
42	0x3e60cef7	0.21953951
43	0xbdae6bbd	-0.08516643
44	0x3e8b5944	0.27216542
45	0xbd1f20a3	-0.038849484
46	0xbc97727d	-0.01848721
47	0xbd052705	-0.032507915
48	0xbd7ba9b0	-0.061441123
49	0x3e439089	0.19098105
50	0xbd45a6df	-0.048254844
51	0x3e66f08c	0.22552699
52	0xbc8abd84	-0.016936071
53	0x3e5452ec	0.20734757
54	0xbc35b783	-0.011091116
55	0x3e6961cc	0.22791213
56	0x3e5aca2a	0.21366182
57	0x3e5fa51e	0.21840331
58	0x3e6751f2	0.22589853
59	0xbbe29e60	-0.0069158524
60	0xbd2e976b	-0.042624872
61	0x3e8ca98b	0.274731
62	0xbd56e751	-0.052466694
63	0x3e4edd06	0.20201501
64	0x3e62fece	0.22167513
65	0x3e5bb039	0.21453942
66	0x3be30f44	0.00692931
67	0xbcaae698	-0.020861909
68	0x3e6eac03	0.23307805
69	0x3cf9130e	0.030404594
70	0xbd1de1a7	-0.038545277
71	0x3e43784d	0.1908886
72	0x3e71b335	0.23603518
73	0x3d1ecfcd	0.038772393
74	0x3e6c6742	0.23086265
75	0x3e8a0b1e	0.26961607
76	0x3e7c3b0a	0.24631897
77	0xbd48acac	-0.048992798
78	0x3e3e651f	0.18593262
79	0x3e88b41f	0.2669992
80	0x3e7663c0	0.24061489
81	0x3e83a2dd	0.25710192
82	0xbcc057a3	-0.023479288
83	0x3cb73e9c	0.022368722
84	0xbd0f9305	-0.035052318
85	0x3b1e171a	0.0024122656
86	0xbc6be643	-0.01439816
87	0x3e54c428	0.20777953
88	0xbc91762a	-0.01775654
89	0x3e4aba72	0.19797686
90	0x3e5a5f40	0.21325397
91	0x3c442058	0.011970602
92	0x3e7f1725	0.24911173
93	0x3c96a8b5	0.018390993
94	0xbd3b1d6e	-0.045682363
95	0xbc76b4b1	-0.015057729
96	0x3e63301e	0.22186324
97	0xbd245bb5	-0.04012652
98	0xb7edfd05	-2.8370423e-05
99	0x3e767cbd	0.24071021
100	0xbc8d1176	-0.01722024
101	0x3e85e18e	0.26148647
102	0x3bd74108	0.0065690316
103	0x3b3cf127	0.0028830261
104	0x3b9f3569	0.004858662
105	0x3c4fda2c	0.012686294
106	0xbaada8ea	-0.0013249193
107	0x3e76b941	0.24094106
108	0x3e5c9c33	0.2154396
109	0xbc454b31	-0.012041853
110	0x3e7f4fc3	0.2493277
111	0xbd298515	-0.041386683
112	0x3e875095	0.26428667
113	0x3e7c16fa	0.2461814
114	0x3e517f5a	0.20458737
115	0x3e77369e	0.24141929
116	0x3e872ba3	0.2640048
117	0x3e79dceb	0.2440068
118	0x3e87c78f	0.2651944
119	0xbd156562	-0.03647364
120	0x3dcb7a33	0.09935417
121	0x3e6cc51d	0.23122068
122	0x3e54b89c	0.20773548
123	0x3e82a8be	0.25519365
124	0xbc8be5ea	-0.017077405
125	0x3e893424	0.26797593
126	0x3e80b201	0.25135806
127	0xbd3631e9	-0.04448119

layer3.weight f4 [2, 128]
0	0x3ea4de22	0.32200724
1	0xbe15eedd	-0.146419
2	0xbe838f0d	-0.25695077
3	0x3e8f0a2a	0.27937442
4	0x3e904696	0.28178853
5	0xbe683f69	-0.22680439
6	0x3e8e0ee0	0.27745724
7	0x3e8894b1	0.26675943
8	0xbce61178	-0.028084502
9	0xbebf0b93	-0.37313518
10	0x3e6cd9df	0.23129986
11	0x3e9e16ea	0.30876857
12	0xbe2d7ee4	-0.16942936
13	0xbe91c4c2	-0.28470427
14	0x3e9de4c2	0.3083859
15	0xbe57f19d	-0.21088262
16	0xbdf6ce7b	-0.12051102
17	0xbcfcce06	-0.030859958
18	0xbe9c47d7	-0.3052356
19	0x3e98c8ea	0.29840785
20	0x3e8e7765	0.27825466
21	0x3e936c32	0.28793484
22	0x3e9900b7	0.29883358
23	0xbe93486e	-0.28766197
24	0x3ec07ebc	0.3759669
25	0x3ead2c42	0.3382283
26	0x3e8f4b4b	0.2798713
27	0xbedeb899	-0.43500212
28	0x3e7aa1aa	0.24475732
29	0x3d15dc43	0.03658701
30	0xbc9c7a67	-0.019101335
31	0x3e8cdbcc	0.27511442
32	0x3e8dd2e6	0.27699965
33	0x3e87e060	0.26538372
34	0xbf085d7c	-0.53267646
35	0x3ce66022	0.028122012
36	0xbbc99852	-0.006152191
37	0x3e965771	0.29363587
38	0xbd1cb3a3	-0.038257252
39	0xbeeb444d	-0.45950547
40	0x3e8d2690	0.27568483
41	0x3ea3a61e	0.31962675
42	0x3e8e1207	0.2774813
43	0xbe95beb3	-0.29247054
44	0x3e7f4453	0.24928407
45	0x3d10f16b	0.035386484
46	0x3d039ecb	0.03213386
47	0x3d0cf7a8	0.03441587
48	0xbe7919a2	-0.24326184
49	0x3e8f0cc5	0.2793943
50	0xbe39e080	-0.18152046
51	0x3e8b7cba	0.27243596
52	0xbc96c227	-0.018403126
53	0x3e8f0df7	0.27940342
54	0xbd0864f8	-0.033299416
55	0x3e958943	0.29206285
56	0x3e9898f5	0.29804197
57	0x3ea62cbb	0.32456002
58	0x3e803407	0.25039694
59	0xbec97b39	-0.39351824
60	0xbee3aa10	-0.44465685
61	0x3e86199e	0.2619142
62	0xbee7eed9	-0.45299414
63	0x3e809f07	0.25121328
64	0x3e9a7472	0.30166966
65	0x3e985536	0.2975251
66	0xbea23225	-0.31678882
67	0xbb9fb744	-0.004874142
68	0x3e64f669	0.22359623
69	0xbe378355	-0.17921193
70	0xbe9e65c2	-0.3093701
71	0x3e9738a0	0.2953539
72	0x3e777cb7	0.24168669
73	0x3e777cf8	0.24168766
74	0x3e8b77b1	0.27239755
75	0x3e93d336	0.2887208
76	0x3e8dd6a6	0.27702826
77	0xbeafee07	-0.34361288
78	0x3ea6a4ba	0.3254755
79	0x3ec57547	0.38566038
80	0x3e98f90c	0.29877508
81	0x3e9d46ba	0.30718023
82	0xbec5db0b	-0.3864368
83	0xbd37f34b	-0.044909757
84	0xbebabf08	-0.3647387
85	0xbe4a36e0	-0.19747496
86	0x3c659b77	0.0140141165
87	0x3e99296e	0.2991442
88	0xbbe252a1	-0.006906823
89	0x3e854434	0.26028597
90	0x3e7ff73e	0.24996659
91	0x3d05baee	0.032648973
92	0x3ea19f0b	0.31566653
93	0x3e5eb8c9	0.21750177
94	0xbec3b3c0	-0.38223076
95	0xbc47e0fe	-0.012199638
96	0x3e864e14	0.26231444
97	0xbeb0077f	-0.3438072
98	0xbbbde032	-0.0057945484
99	0x3e7d694a	0.24747196
100	0xbe14410f	-0.14477943
101	0x3e6f899f	0.23392342
102	0xbe6037df	-0.21896313
103	0xbe9815a3	-0.29704008
104	0x3a595d87	0.000829183
105	0xbe50cdd0	-0.20391011
106	0xbe4e1845	-0.20126446
107	0x3e9a3215	0.30116335
108	0x3ea131f7	0.31483433
109	0xbe5caa64	-0.21549374
110	0x3e9a4afd	0.30135337
111	0xbe32037b	-0.1738414
112	0x3e9bae14	0.3040625
113	0x3e75a7b5	0.23989756
114	0x3e94ac5c	0.2903775
115	0x3e7b8e3b	0.24565975
116	0x3e85d352	0.26137787
117	0x3e8e8634	0.27836764
118	0x3ec07573	0.37589607
119	0xbc55b6b6	-0.01304405
120	0xbe32bfce	-0.1745598
121	0x3ea0d082	0.3140908
122	0x3e993e43	0.29930314
123	0x3e922b0d	0.2854847
124	0x3d1582f8	0.036501855
125	0x3e8d41fd	0.27589408
126	0x3e891f75	0.26781812
127	0xbdf79645	-0.120892085
128	0x3e7b9500	0.24568558
129	0x3ddf8bea	0.10915358
130	0xbe9c4c4d	-0.30526963
131	0x3e9bfbc2	0.30465513
132	0x3e778b74	0.24174291
133	0xbeb82aac	-0.35970056
134	0x3e91721a	0.28407365
135	0x3e8d5693	0.27605113
136	0x3c3deda6	0.011592304
137	0xbeb42a9c	-0.35188758
138	0x3e9469b4	0.28986895
139	0x3eafdff4	0.3435055
140	0xbba0ab52	-0.0049032355
141	0xbec796f6	-0.38982362
142	0x3e9c8875	0.30572858
143	0xbe8ac676	-0.2710454
144	0xbe3adfd2	-0.18249443
145	0xbd011abf	-0.031519648
146	0xba5a1ae3	-0.00083200465
147	0x3e80453a	0.25052816
148	0x3e88d359	0.26723745
149	0x3e77abf1	0.24186684
150	0x3e8951f7	0.26820347
151	0xbdfd7642	-0.123760715
152	0x3ea1418d	0.31495324
153	0x3eae732d	0.34072247
154	0x3e992eff	0.29918668
155	0xbe92906b	-0.28625807
156	0x3e9ca1a9	0.30592087
157	0x3d185748	0.037192613
158	0xbbc305f2	-0.0059516365
159	0x3e8da744	0.27666676
160	0x3e840ddc	0.25791824
161	0x3e9788d8	0.2959659
162	0xbef2f9a7	-0.47456095
163	0xbcea9d03	-0.028639322
164	0xbcda47d4	-0.026645578
165	0x3e8eab21	0.27864936
166	0xbc10b003	-0.008831027
167	0xbed127da	-0.40850717
168	0x3e7f3dfd	0.2492599
169	0x3e8471b0	0.25867987
170	0x3e8af585	0.27140442
171	0xbe90cd55	-0.28281656
172	0x3e8e8ed7	0.27843353
173	0xbc740adf	-0.01489517
174	0x3cc6b7c7	0.024257554
175	0x3baa33f4	0.0051941816
176	0xbea062fe	-0.31325525
177	0x3e9c3bcd	0.30514374
178	0xbe4488c4	-0.19192797
179	0x3e89fe1e	0.2695169
180	0xbaf11555	-0.0018393198
181	0x3ea28e2c	0.31749094
182	0x3b1bcf35	0.0023774628
183	0x3e657ab3	0.22410087
184	0x3e728614	0.23683959
185	0x3e989445	0.2980062
186	0x3e9af2e5	0.3026344
187	0xbe19567c	-0.14974397
188	0xbe624761	-0.22097541
189	0x3e8e592c	0.27802408
190	0xbedd56cf	-0.43230292
191	0x3e8d6281	0.27614215
192	0x3e9ba417	0.30398628
193	0x3e787bcb	0.24265973
194	0xbe86186c	-0.26190507
195	0xbc776ed3	-0.015102106
196	0x3e97b0dc	0.2962712
197	0xbe6167ab	-0.22012202
198	0xbe869cfb	-0.26291642
199	0x3e94994c	0.29023206
200	0x3e91b661	0.28459457
201	0xbe17ce2f	-0.14824747
202	0x3e9b66c3	0.30351838
203	0x3e88f8b4	0.26752245
204	0x3e933fad	0.28759518
205	0xbedbcad3	-0.4292818
206	0x3e769ea2	0.24083951
207	0x3ed0b44e	0.40762562
208	0x3e9c8b66	0.30575103
209	0x3e8f11bb	0.27943215
210	0xbe66f3b9	-0.2255391
211	0x3ca5975a	0.020213772
212	0xbe52fbee	-0.20603916
213	0x3ca82ac1	0.0205282
214	0x3d593c34	0.05303593
215	0x3e79ed5a	0.24406949
216	0xbe26714d	-0.16254158
217	0x3e95f089	0.29285076
218	0x3e988769	0.2979081
219	0x3c057f94	0.008148093
220	0x3e787d30	0.24266505
221	0xbe0b80ad	-0.13623305
222	0xbece8ece	-0.40343326
223	0x3be59126	0.0070058284
224	0x3e8d0816	0.27545232
225	0xbe9654d1	-0.29361585
226	0xbca431ae	-0.02004322
227	0x3e99a9ef	0.30012462
228	0xbe425dc8	-0.18981087
229	0x3e907b18	0.28218913
230	0xbe95d58f	-0.29264495
231	0xbe8efd9f	-0.27927873
232	0x3cd62f0c	0.02614548
233	0xbe533a7a	-0.20627776
234	0xbcfb144c	-0.030649327
235	0x3e807031	0.25085595
236	0x3ea46dea	0.32115108
237	0xbdccd474	-0.1000146
238	0x3e764039	0.24047936
239	0xbd7856fd	-0.060629833
240	0x3e98d3ab	0.2984899
241	0x3e96cd5f	0.2945356
242	0x3e53a2de	0.20667598
243	0x3e8a208f	0.26977965
244	0x3e800961	0.25007156
245	0x3e9815ff	0.29704282
246	0x3eade2a6	0.33961982
247	0xbd19b025	-0.0375215
248	0x3ee70baa	0.45126086
249	0x3e9d95bd	0.30778304
250	0x3e9c128b	0.30482897
251	0x3e69c0ee	0.22827503
252	0xbcbd4bd0	-0.02310744
253	0x3e7efad5	0.24900372
254	0x3e985844	0.2975484
255	0xbe5201ca	-0.20508495

layer3.bias f4 [2]
0	0x3d568230	0.05237025
1	0x3dbd0fa4	0.09231499
