model_weights/DQN/cartpole/cartpole_dqn_episode_1099.pth (torch, 72508 bytes, 6 tensors)

layer1.weight f4 [128, 4]
00000000: 1397 153e 5d05 8cbe 6c97 bb3d c176 94be
00000010: d3c7 22be 20c4 3e3e 712c a63e 1e46 ff3b
00000020: f6ae 933e c5a1 b0be bfa0 3a3f 1f02 a03e
00000030: d59e 8fbe b27b 97be 5970 933d e5e0 25be
00000040: c7d8 133d 46c4 c9be ab9e 01bf 5171 77be
00000050: e6c3 84be fdf1 cf3d 0882 2fbf 5aa8 12be
00000060: cec6 153f 432c 06be 0986 c3be 423c 53be
00000070: d6f4 a9be 3857 a7bd 7934 44bd 85df 633c
00000080: 76ca 79be 0fb2 68be 07f1 723e 027b 7d3e
00000090: dd46 6f3e 1b43 a43e ec2e ca3d 5420 fe3e
000000a0: e116 883e a782 97be d0f0 abbc a9d6 64be
000000b0: abba 26be c0e2 1ebe f013 d03d 76db f4bd
000000c0: 5c3b 003f 06af 82bd a362 d53d 057a 8fbd
000000d0: 49d4 823e eade e33d 2b80 b43d 0283 0dbe
000000e0: 3c8c 73bd 7d71 d53e 3190 243e a1b6 9a3e
000000f0: 26a8 cfbe 10b7 93be 2f3e 1ebf 61ad 003e
00000100: b316 bbbe 105d a33c 7cda e63d bd9f 87bb
00000110: c2f0 b2be e453 083e ff75 03bf a368 adbe
00000120: 478d bdbe ed6c 86bd a0dc e13e 0a1f 60bd
00000130: 61c1 8ebc 147f 6c3e 66da dc3e 8c62 bf3c
00000140: c0f3 653e 5446 b9be b014 2dbe c2c4 8bbe
00000150: e4ca 853b 5e57 aa3e bb69 92bc e3af 1dbe
00000160: b143 c03e c339 433e b18f 3abe ebc7 b3bb
00000170: c4b4 cf3e bd16 2a3e a45f 773d 4a9d 7cbe
00000180: cf86 443e c6d1 ee3e 3238 233e 17d9 4f3e
00000190: e829 62bd 111f d7bd ebfb 1a3f ba2b b43e
000001a0: a640 ed3e 7bd8 b2bd 4dae 8abe 57fd 603d
000001b0: 164a d53d a84d e03c cf3f f2be 5336 a83b
000001c0: a400 b8be 2db0 5fbe 6bfa 123f aa24 8c3e
000001d0: c96c c0be 4b8f 9e3d 06e2 e5be 40c6 fa3d
000001e0: 7267 94be b8a7 21be 41ed 2e3f 176f bf3e
000001f0: ffb6 bc3e 5723 4f3d f6c4 5bbe c037 6e3d
00000200: 91ed cdbe d5b5 f03d 5ec3 1a3e 4ca4 7c3d
00000210: 6c7b b0be 9603 893d 7104 f43e 9ad9 eb3d
00000220: ecfe 1dbe f085 d3be 4421 44bf 5c4a 1dbc
00000230: d34d 273e a4ab 6f3e 175e 8d3e 060f bdbc
00000240: 0204 97bd ae4a 32be 78fa cfbc f9ce ad3d
00000250: 4b84 d2be 72fb 10be b764 263c a4b4 553d
00000260: bb5d d8be 3870 f6be e23a a83e 25d6 09be
00000270: 389a dbbe 5101 90be b863 82be 401a ccbe
00000280: 1f8f b5be 89d4 0e3e acf0 8e3b fc82 dd3e
00000290: 2dc3 d1be aab6 da3e 7e1b a0be ad06 8d3e
000002a0: 5276 ec3e e583 ff3e 5cd4 b2bd e397 703e
000002b0: 1aeb d4be 2b69 0e3e ed0f 543e 89c8 243e
000002c0: cc7a d3bc 83c6 973e a24e 6c3f e85d 863e
000002d0: 29b4 903c 0146 593d 0712 a9bc caf1 ccbe
000002e0: 9ff2 803e 240f a3be c584 0abf 7031 8a3e
000002f0: fca1 853d d5a7 303e c2e3 e5bc e357 cabe
00000300: eba6 0c3f 90e3 00be ce50 8bbd cf0a 51be
00000310: 8c67 cfbd a8ac 96be 8ba9 01be cdc5 88be
00000320: dd60 af3e 8375 7a3e 2e5a 173d 2cc8 113e
00000330: 859c 00be 46f6 87be 5a70 76be 066a 383d
00000340: 6257 2e3e 60f0 5ebe fa9e 1cbf 77ca f3bd
00000350: f10a 833d 80f9 0b3e d063 6c3f fe2a fb3d
00000360: 2863 8ebe 58f0 873e c0e7 ed3e 6d39 25be
00000370: f756 dbbe 65c1 fd3d 23b7 efbe 2108 87bb
00000380: 9504 4e3d 5a76 cbbc c8b9 113b 4dfe 77be
00000390: aa37 e4be f73b 5c3d 9180 a2be d5f0 91be
000003a0: f7ce 9f3e 0ad8 9dbe 274e 0b3e 58f9 0cbe
000003b0: 62d5 e0bd 8f5e 57be f397 8a3e 2f32 4dbe
000003c0: 7d18 8c3d 797c e43e 2777 653e a20d 6c3e
000003d0: 7dd5 ddbb a816 c6be ff37 f0be 5271 51bd
000003e0: d3f9 f13e 79f0 81be af33 c4bd cf75 98be
000003f0: df2f ffbe 07fc a0be b4a8 b73e 0a08 e73e
0.14608411 -0.27347842 0.09159741 -0.28996852 -0.1589654 0.18629503 0.3245578 0.007790341
0.28844422 -0.3449842 0.7290153 0.31251618 -0.28050867 -0.2958656 0.07199163 -0.16199072
0.036095407 -0.39407557 -0.50632733 -0.2416432 -0.2593071 0.101535775 -0.68557787 -0.14322034
0.58506477 -0.13102822 -0.38188198 -0.20628455 -0.33194607 -0.081709325 -0.047901604 0.013908272
-0.24393639 -0.22724174 0.23724757 0.24753955 0.23366876 0.32082447 0.09872231 0.4963404
0.26579955 -0.29591867 -0.020988852 -0.22347511 -0.16282146 -0.15516186 0.10160053 -0.11955921
0.50090575 -0.06381039 0.10419204 -0.07005695 0.25552586 0.11126502 0.088135086 -0.13819507
-0.05945991 0.41688147 0.1607063 0.3021746 -0.40557975 -0.28850603 -0.61813635 0.12566139
-0.36540756 0.019941837 0.11272141 -0.0041389153 -0.3494931 0.13313252 -0.5135192 -0.33868894
-0.3702185 -0.06563745 0.44113636 -0.0547171 -0.017426195 0.23095351 0.43135375 0.02336242
0.22456264 -0.3618647 -0.16902423 -0.27298552 0.0040830243 0.3326978 -0.017872682 -0.15399127
0.37551644 0.19065003 -0.18218876 -0.0054864786 0.405676 0.16610236 0.060393944 -0.24669376
0.1919205 0.4664442 0.15939406 0.20297657 -0.055215746 -0.10503972 0.60540646 0.3518961
0.46338385 -0.087326966 -0.27086106 0.054929104 0.104145214 0.02738078 -0.47314307 0.005133429
-0.3593799 -0.2184455 0.5741336 0.27371722 -0.37582996 0.07742175 -0.44899005 0.122448444
-0.28985173 -0.15786636 0.6833077 0.37389442 0.36858365 0.050570812 -0.21461853 0.058158636
-0.4022031 0.11753432 0.15113589 0.061680123 -0.34469163 0.06690137 0.4765964 0.115161136
-0.15429276 -0.41313124 -0.7661326 -0.009600248 0.16338281 0.2340532 0.27610847 -0.023078453
-0.07373811 -0.174113 -0.025387987 0.084867425 -0.41116557 -0.14158419 0.010155848 0.052174225
-0.4225901 -0.4813249 0.32857424 -0.13460596 -0.42891097 -0.28126004 -0.25466704 -0.39863777
-0.35460755 0.13948263 0.0043621864 0.43263996 -0.4096922 0.42717487 -0.31270975 0.27544156
0.4618402 0.49905315 -0.087319106 0.2349544 -0.41585618 0.13907306 0.207092 0.16092123
-0.02581539 0.2964364 0.92307484 0.2624352 0.017664032 0.053045277 -0.020638479 -0.4002822
0.25185105 -0.3184749 -0.5410884 0.26990843 0.06525037 0.17251523 -0.028062705 -0.39520177
0.54942197 -0.12586808 -0.06802522 -0.2041428 -0.10127172 -0.294286 -0.12662332 -0.2671341
0.34253588 0.2445889 0.036951236 0.14236516 -0.12559707 -0.2655508 -0.24066296 0.045022987
0.17025521 -0.21771383 -0.6118008 -0.119038515 0.06398571 0.13669395 0.923398 0.122640595
-0.27810025 0.26550555 0.46465874 -0.16135187 -0.42839786 0.12390403 -0.4681941 -0.004120842
0.05029734 -0.024836708 0.0022235978 -0.24218102 -0.44573718 0.053768124 -0.31738713 -0.28504053
0.3121259 -0.30828887 0.13604032 -0.13766992 -0.109781995 -0.21032165 0.27069053 -0.20038675
0.06840608 0.44626215 0.22408734 0.23052076 -0.0067698346 -0.3868916 -0.46917722 -0.05113346
0.47260913 -0.2537878 -0.0958017 -0.2977738 -0.4984121 -0.31442282 0.35870898 0.4512332

layer1.bias f4 [128]
00000000: 2cda f63e 2fc3 6e3e 63f4 9ebe aed1 f13e
00000010: 0c84 c33e 88b9 3ebe 5d6e 97be 4796 a23e
00000020: 6221 b3be 6877 5bbe a1c6 6bbe 57ca 173f
00000030: 0e4f 963e 85c7 023f 50fc df3e 8ad6 b3be
00000040: e618 923e f01f 14be a2b3 31be 964d e63e
00000050: 12b4 8a3e dd8e e73e 81a5 f93e 15af bebe
00000060: 27e7 d0be 90ea 2ebe 2054 0d3f 8b10 843e
00000070: b6f3 c9be f1ef cd3e 55a3 37be 0811 73be
00000080: b1e3 c63e 72ab 503e c785 4abe e7be e2be
00000090: 93e0 9dbe 075a dd3e 28c7 25be d614 12bd
000000a0: e4a5 d2be be9a c73d 407c 923e 37bd ed3e
000000b0: 11a2 b5be d543 a23e 0ade 6f3e ab71 7f3e
000000c0: 5fbc 32be 7dcd b8bd aca9 bc3e 0e9c ce3e
000000d0: c77d 1d3f c1ad e3bd 6b3e b23e cf2a ff3e
000000e0: 6f23 103f bc61 eabe 7062 253f 132d 133f
000000f0: d25f 823e 3559 053f 8790 e73e 10ef fb3c
00000100: 3c0b cbbe bb35 1ebf 3402 a03e d9cc 5c3e
00000110: ef18 f63e ef3c 5cbe fde2 d33d 02bc c13e
00000120: 8c89 a43e 8524 5bbe 8fb5 883e 7253 0c3f
00000130: 17a1 9fbc 57c1 86be ef3d cd3e 8186 1a3e
00000140: c869 b7be 8baa 5dbe f5e2 a53e 1fbc 963e
00000150: e6e6 883e 1233 063f 96eb d5be 8d12 c03e
00000160: 8997 bfbe 740d 053f 8f75 e43e 08bd e6be
00000170: 6eca ef3e 3848 073f 6f45 d2be 1521 f73e
00000180: c35f ca3e 9d20 aabe c23a 1b3f 0b69 30be
00000190: 89ef c5be 785a b23e c999 fa3e 5b20 203e
000001a0: f974 103f 19dd ae3e 68f1 29bd bb3d a6bd
000001b0: 9137 933e 612c 05be 8344 87be 00b0 bc3e
000001c0: 1bfb 883e 3d77 d2be 2dea 123f 64f9 8b3e
000001d0: c079 d6be 32ff a5be 029b 1a3f 5d36 0f3f
000001e0: da23 69be 5c6e 2d3e 02a3 e03e f839 76be
000001f0: 7522 683e 9ae6 d83e 3298 1e3f 4186 113f
0.48213327 0.23316644 -0.31045827 0.47230285 0.3818668 -0.18625462 -0.29576388 0.31755278
-0.34986407 -0.21432269 -0.2302499 0.5929312 0.2935719 0.5108569 0.43747187 -0.35124618
0.2853462 -0.14465308 -0.1735368 0.44981068 0.27090508 0.45226184 0.48759082 -0.37242952
-0.40801355 -0.17081666 0.5520649 0.2579387 -0.3944375 0.40222123 -0.179334 -0.23736966
0.3884559 0.20377901 -0.19777595 -0.44286272 -0.308354 0.43232748 -0.16189253 -0.035664402
-0.4114219 0.097463116 0.2861042 0.46433422 -0.3547521 0.31692377 0.23424545 0.24945705
-0.1745467 -0.09023569 0.368482 0.40353435 0.61520046 -0.11117125 0.34813246 0.49837348
0.5630407 -0.4577769 0.6460333 0.5749065 0.2546373 0.52089244 0.45227453 0.030753642
-0.3965701 -0.61800736 0.3125168 0.21562518 0.48065898 -0.2150762 0.10346029 0.3783875
0.3213619 -0.2140065 0.26701018 0.5481483 -0.019485993 -0.26319382 0.40086314 0.15090372
-0.35822892 -0.21647088 0.32399717 0.294404 0.26738662 0.5242168 -0.417813 0.37514153
-0.374203 0.5197365 0.4462094 -0.45066094 0.4683413 0.5284457 -0.410686 0.48267427
0.39526185 -0.33228007 0.6063653 -0.1722757 -0.38659313 0.34834647 0.48945454 0.15637343
0.56428486 0.3415306 -0.04148999 -0.08117243 0.2875333 -0.1300521 -0.26419458 0.36853027
0.26754078 -0.41106597 0.57388574 0.27338707 -0.41889763 -0.3242126 0.60392773 0.55942327
-0.22767583 0.1693663 0.43874365 -0.24045551 0.22669394 0.42363435 0.6195098 0.5684548

layer2.weight f4 [128, 128]
00000000: 7c69 f83d 92d5 cf3d 0a7f 3bbe aebc f13d
00000010: 660c d83d 11ba 67bd ec5a 9ebd 201c 223e
00000020: 4657 dcbd 20ce cebc 5dd7 83be db76 993e
00000030: 2117 bb3d e44f 343d 3e88 ba3d 180d f63d
00000040: 5aa8 e93d 081f bfbd 3530 573d faa3 d93c
00000050: 86cf 543e 6bb7 b63d 18f8 5e3d 3113 f2bc
00000060: a614 9fbd 58fb 0d3b eebe 863d 48c7 3d3e
00000070: 35cd 203d 03bf 443e 9596 3fbb 6ab1 94be
00000080: c645 5d3e 1a88 143e 5549 9c3d 44f2 c5be
00000090: f62f b9bd 8cc1 713e b1eb e0bc da75 383c
000000a0: 253c b1bd 0367 983e 204f 8b3d 70f8 5e3e
000000b0: 1f5a b4be 050f bd3d a7f4 7c3c 568c d43d
000000c0: 6953 c3bc 3a7a 4fbc 36a8 6b3c 71fb f93d
000000d0: 0675 f83d 6adf 0ebf 6a12 853d 6547 233e
000000e0: e4f6 493e d1c4 cebd f418 ea3d 5bdb 213e
000000f0: 6de7 ce3d fd9d f73d 3417 9a3d 934a 68bc
00000100: 0ef6 8abe c187 b3be e300 223e e829 d03d
00000110: 1631 b03c 3b58 50be c36a c13d 626d d03d
00000120: b836 0a3d 9ebb 853d 04a8 b73d c678 083e
00000130: 012d 35bd 9c6a 6fbe 860e d83d 3e11 163e
00000140: ad32 0fbd 0260 33be 2a8e 1b3e 276a 023e
00000150: de99 b43d 88b7 823d c87c 23be d4ad 263e
00000160: 3f0b a3be d7a9 4e3e d87e fa3d 0739 26be
00000170: 908b 143d 0e5b 153e adc4 58be 03a4 863d
00000180: decf 8a3d 71e8 d7be f079 313d f6fd b1bd
00000190: 9479 1bbc 6f01 813d 50a9 223e da1b a03b
000001a0: ed96 dc3c 0a0d 683e a989 453d 6ce6 bebe
000001b0: c9c7 013d 3489 44bd 9f38 d9bd 5a27 2f3e
000001c0: 70bb b8bb c38a 33be cf7b 3a3e ac3a 153e
000001d0: 1b97 a9be bac4 debd b374 713e 1ffc 003e
000001e0: cce8 f6bb 5cdc b93c 6924 c33d fd1a 1dbe
000001f0: 5c2d f23d cabf f93d c505 2c3e 3df1 183e
00000200: 2e18 0d3d d4ba d03c ab25 50bd 87b7 413d
00000210: 6a2a 1ebd fe3f 7b3b 1193 babc e5bc 75bd
00000220: 986a 53bd 2894 723d c312 f53d f1b0 dfbb
00000230: b4c3 7fbc e360 fd3b 7e42 a7bc b130 b63c
00000240: c9fc 9f3c 4c6c 243c dae9 f5bd 9e2b 723d
00000250: 9716 c9bd 45ab 413d 44cf 64bd 8b42 b13b
00000260: 293d 9dbd 25b4 243d dd79 153d 044c c5bd
00000270: b128 893d ad83 dabb 0350 9ebd bdf0 583e
00000280: 8fe0 40bd 07df cabe 216c 4abd 0ab1 173e
00000290: 9ea9 f9bc cec3 4fbd 4e46 673e 4d22 db3b
000002a0: 383b 87bb bc1a 7b3d b600 2d3b b659 6bbd
000002b0: 69ad 233d b009 a93c e02d 2e3c 42b4 6bbb
000002c0: b297 d33c 3f07 f9bd 43da 0f3d 73d0 173d
000002d0: 2684 473c b51d 433e b6e6 6d3d c81f 81bd
000002e0: 0d50 5e3c 860c 0dbe af31 fdbb 80ee ba3c
000002f0: ef08 dd3d 64b7 653d 2e50 72bb 39e9 11bd
00000300: 34e4 4b3d d1e0 6ebd ddba 9a3d e638 043d
00000310: 6e0c f53c 5af7 f93c ba0c 893b ceae f33c
00000320: 03ab 14bd cd03 5fbd c8ca 97bd 0707 453d
00000330: 9fcd 97bd 8445 14bc afac bebc a6b2 68bc
00000340: 8cd2 0b3d c5e9 cc3d 856a 153d 906d c9bc
00000350: 92a2 7bbc d723 98bd 403f 0a3c 492e 4f3d
00000360: bff7 8e3d 3ca6 8fbd 402d dabb e81c be3c
00000370: cfe5 ff3c c9fd 2ebd 76bf 1ebe ab66 223c
00000380: 7e78 60bd a8df 9b3e af01 453d 9941 58ba
00000390: 6493 c43a 0550 d1bc 5a4c 95bd da1e 8a3c
000003a0: 7626 783d 68c5 28bd 66aa 653b 1cdb 2a3e
000003b0: 379c 4dbd 0448 7b3b 7505 f83c d32b 96bc
000003c0: 6456 b43c ab61 44bc af0d c73c cd38 713d
000003d0: 304c fbbc 5611 c13d 5dbd 80bc c618 003d
000003e0: e845 a13c a156 b1bd 0f05 373d ada9 653e
000003f0: 8021 c23d b0e1 a7bb a5a9 843a 2764 bfbd
0.121294945 0.10148157 -0.1831018 0.11803566 0.1054924 -0.05657393 -0.07732186 0.15831041
-0.107588336 -0.025244772 -0.25750247 0.29973492 0.09135271 0.044021502 0.091080174 0.12014216
0.11409064 -0.093320906 0.05253621 0.026567448 0.20782289 0.08921703 0.05443582 -0.029550167
-0.0776761 0.0021664705 0.06579386 0.18533051 0.0392582 0.1921349 -0.002923404 -0.29041606
0.21608648 0.14505044 0.076311745 -0.38661397 -0.09042351 0.23608989 -0.027456136 0.011258567
-0.0865405 0.29766092 0.06802201 0.21774459 -0.35225007 0.092313804 0.015439189 0.103783295
-0.023843484 -0.012663418 0.014383366 0.12206162 0.121316954 -0.5580965 0.06497653 0.15945204
0.19723088 -0.100961335 0.11430541 0.15806334 0.10102735 0.12090681 0.07523957 -0.014177936
-0.2714085 -0.3506451 0.15820651 0.10164243 0.021507781 -0.20346157 0.09444191 0.10177113
0.03374359 0.06529926 0.08967593 0.13327321 -0.044232372 -0.23380512 0.10549645 0.14655015
-0.034960438 -0.17517093 0.1519095 0.12735806 0.0881841 0.06382662 -0.15965569 0.16277248
-0.31844518 0.20181976 0.12231225 -0.16232692 0.03626591 0.14585516 -0.21168776 0.065742515
0.06777929 -0.42169526 0.04332918 -0.08691017 -0.009489436 0.062991016 0.158849 0.0048861327
0.026927436 0.22661224 0.048226986 -0.37285173 0.03168467 -0.04798241 -0.10606503 0.17104855
-0.0056375787 -0.17533402 0.18211292 0.14573163 -0.33123097 -0.10877366 0.23579673 0.12596177
-0.007535076 0.022688083 0.09528429 -0.15342326 0.11825058 0.12194784 0.16799076 0.14935775
0.034446888 0.025479712 -0.050817173 0.047294166 -0.038614668 0.0038337703 -0.022775205 -0.059994597
-0.051615328 0.059223324 0.11966469 -0.006826513 -0.015610624 0.007732497 -0.020417448 0.022240015
0.019529717 0.010035586 -0.12007494 0.059123628 -0.09818762 0.047282476 -0.055861726 0.005409544
-0.07677681 0.04021086 0.03649317 -0.096336395 0.066972144 -0.006668529 -0.07730105 0.21185584
-0.047089156 -0.3962328 -0.049419526 0.14813629 -0.030476388 -0.050723843 0.22585413 0.0066874386
-0.0041269325 0.061304793 0.0026398129 -0.057458602 0.0399603 0.020634502 0.010631055 -0.0035965596
0.02582917 -0.12159585 0.03512026 0.037064027 0.012177503 0.19054301 0.05808135 -0.0630489
0.01356889 -0.13774309 -0.00772687 0.022818804 0.107927196 0.056083098 -0.003697406 -0.03562281
0.04977818 -0.05831987 0.075551726 0.032280825 0.029913153 0.030513454 0.0041824253 0.02974644
-0.036295902 -0.054446984 -0.07411724 0.048102405 -0.07412266 -0.009049777 -0.023275701 -0.014202749
0.03413634 0.100055255 0.036478538 -0.024588376 -0.015358584 -0.07428711 0.008437932 0.05058125
0.069808476 -0.070141286 -0.0066582263 0.023207143 0.031237511 -0.042722497 -0.15502724 0.009912173
-0.05480241 0.30444074 0.04809731 -0.0008249521 0.0014997539 -0.025550852 -0.072899535 0.016860414
0.060583554 -0.041203886 0.0035044192 0.16685146 -0.050197806 0.0038342485 0.03027604 -0.018331444
0.02201385 -0.0119861765 0.024298517 0.05889206 -0.030675977 0.09427135 -0.015715295 0.031273626
0.019686654 -0.08659101 0.04468256 0.22428007 0.09479046 -0.0051233396 0.0010121359 -0.093452744

layer2.bias f4 [128]
00000000: 565a 013e 3f5a 88b9 865c 88bd 7728 143e
00000010: 71b2 843e 04e6 80bd 3ce0 183e 231e 703e
00000020: b821 67bc 8c54 8ebc 261e 443e 88d1 493e
00000030: daa2 bf3c 52a2 d9bd 17c8 723e b416 06bc
00000040: 674d 4ebb 8ef6 853d 9591 9dbc 8603 763e
00000050: 4e3d 7c3e faba 543e 382d 0e3e 41aa 8b3d
00000060: 9826 ae3d 3a19 b23d b18d 6c3e ac89 383d
00000070: 63a2 433e 738c 79bd c247 843d 129a 473e
00000080: 4c37 6d3e 81dc 313e 2a70 8dbb 44ab 31bd
00000090: 77c2 7b3c 1868 213e ffef 10bd 74a6 283c
000000a0: e652 8a3e e643 4b3e 7baa 2e3e 1c43 d4bd
000000b0: 13f5 893e c452 9abd 1fbc 12bd 4ae9 80bd
000000c0: 6def f3bd 7888 ed3d 8932 a7bd 49b8 323e
000000d0: c97f 06bd 0c31 193e e00f b0bc 5c6a 353e
000000e0: 4b2b 103e fad8 413e ba78 3c3e 094a 7e3d
000000f0: 017f 3b3d 9cf2 8b3e 11f3 cabd 1d6a 073e
00000100: 42f1 333e 147e 1f3e b0e1 caba 97b7 25bd
00000110: 53a2 493e 9f08 223d 0ed5 d5bc 4713 ee3d
00000120: 643c 4a3e a120 833d c88f 4d3e 464d 873e
00000130: 1276 6e3e 658c c2bd 93ce c83d 2535 093e
00000140: d2cb 633e eba6 6e3e 318d 27bd f896 313d
00000150: c079 88bd 7c9f 9c3c e9ac e4bc 2679 153e
00000160: ecfa 0cbd afa5 043e 88e6 1d3e 1100 be3c
00000170: 8721 6c3e 23dc 493d ca75 b5bd 812a efbc
00000180: cac4 303e 37a4 6bbd 3ea2 66b8 dbdf 563e
00000190: 196f 803c d52a 793e dbbe 0bbc f4b2 dd3c
000001a0: a765 1a3c 252d 183d 996f 28bb 053e 593e
000001b0: 5035 333e a138 cbbc eb04 693e 1456 a4bd
000001c0: 59f4 813e aacc 603e a7c1 fb3d db17 553e
000001d0: 2d95 7a3e 10ff 613e 519f 113e 04af 90bd
000001e0: 1e1a d4bc 6933 443e 579a 163e a321 6b3e
000001f0: 2fa8 07bd 1e2e 813e 184a 743e f9a2 b5bc
0.12632117 -0.0002600718 -0.066582724 0.14468561 0.2591739 -0.06293872 0.14929289 0.23448996
-0.01410716 -0.0173743 0.19152126 0.19708836 0.023393083 -0.10626663 0.2370914 -0.008184124
-0.003147924 0.06541167 -0.019234458 0.24024782 0.24632761 0.20774451 0.13884437 0.06819583
0.08503455 0.08696218 0.23100926 0.04505317 0.19104914 -0.06092496 0.06458999 0.19492367
0.23165625 0.17369272 -0.0043163495 -0.043376222 0.015366188 0.15762365 -0.035385128 0.010293592
0.2701637 0.1985012 0.1705722 -0.103643626 0.2694479 -0.075353175 -0.035823938 -0.06294496
-0.11910901 0.11598295 -0.08163936 0.17453112 -0.03283671 0.14960116 -0.021491945 0.17716354
0.14079015 0.18930426 0.18405429 0.062082324 0.045775417 0.27333534 -0.099096425 0.13224073
0.17572501 0.15575439 -0.0015478637 -0.040458288 0.19690828 0.039559003 -0.026102569 0.116247706
0.197496 0.06402708 0.2007438 0.26426142 0.23287228 -0.094994344 0.09805026 0.1339918
0.2224572 0.23305862 -0.040906135 0.043356866 -0.06663847 0.019119017 -0.027914481 0.14596996
-0.034418985 0.12953828 0.15419972 0.023193391 0.23059665 0.049282204 -0.08860357 -0.029195072
0.17262569 -0.057529654 -5.4987373e-05 0.20983832 0.015677975 0.24332745 -0.00852939 0.02706287
0.00942365 0.03715243 -0.0025701283 0.21215065 0.17500806 -0.024807276 0.22755782 -0.080242306
0.25381735 0.21953073 0.12292796 0.20809881 0.24470969 0.22069955 0.1422093 -0.070646316
-0.02589136 0.19160236 0.14707313 0.2296205 -0.033119377 0.25230497 0.2385639 -0.022172438

layer3.weight f4 [2, 128]
00000000: fba0 8c3e e1e4 23bd aa77 c6bd 4230 653e
00000010: c04f 873e a241 16be 9e25 683e bc76 543e
00000020: ebff 5ebd 6bf9 eabe a4e2 1b3e af2c 753e
00000030: d306 40be 88f9 72be ea1d 8b3e cb05 85bd
00000040: 65c6 a1bd 9102 75bd f90f d1be d21a 833e
00000050: d6d7 623e be44 843e 9cdc 8a3e 540f 81be
00000060: 0695 793e a29d 883e 7989 6d3e d160 31bf
00000070: b52e 353e e525 913d 09c4 17bd 5e5f 603e
00000080: ffd5 753e 91fe 533e b035 5bbf d307 4d3d
00000090: 0b78 43bc e9e1 813e 45fd 97bd 8eca 3ebf
000000a0: 1318 6a3e 0d40 9b3e c160 7c3e fa9f b3be
000000b0: fa05 4a3e 7383 8c3d c9d3 7e3d edb9 883d
000000c0: f785 f1be 17a7 5a3e 05fb 18be fe3f 643e
000000d0: c90b 12bd e4e1 553e 3d27 84bd 0b40 903e
000000e0: a6a4 803e c889 9d3e 6b16 4a3e 53eb ebbe
000000f0: a7db cabe e326 523e e91f 50bf db23 4a3e
00000100: 4a4c 7e3e b54a 8b3e 88af 07bf b4db 1abc
00000110: 3a5f 1d3e 7348 70bd 7785 c2be 5c34 7f3e
00000120: 9164 303e 6224 343e 324c 683e bfd9 843e
00000130: e54f 7a3e 4a84 2abf 59d5 9c3e ead4 673e
00000140: 8d2d 8a3e 5995 773e f59a 1cbf a84b b2bd
00000150: 39bf 06bf 128c 4dbe ea89 de3c 6a44 8f3e
00000160: 1441 5bbc 7dcf 553e f2fc 3a3e 337d 813d
00000170: 3148 9b3e bb52 b9bb 7993 3dbf b8c0 c1bc
00000180: 5332 573e 2e52 14bf 4018 38bc bf5b 473e
00000190: 1f4b bfbd 2ca5 233e d281 b3bd 720c e5be
000001a0: 9dc4 d23a d281 f0bd c7c4 c7be 9513 8d3e
000001b0: f87a 8f3e 9309 dabd 55e2 8c3e 486d acbe
000001c0: 673a 8a3e 5f09 2a3e 642e 863e 35f2 473e
000001d0: 529b 5a3e 08f6 5d3e 4ef5 833e cd1d cfbc
000001e0: 933e 2ebe 3521 8b3e 58de 793e adee 813e
000001f0: 9acc 903d f72b 733e 24e0 583e dd04 03be
00000200: 5624 223e 93db 8abc 0fb6 fcbd 8497 8d3e
00000210: 6f3d 463e a6a9 ccbe 2833 823e ffd4 6e3e
00000220: ab24 b83c b8e4 acbe b3b0 883e 2198 953e
00000230: 69d9 3f3d 3b80 d8be 09fe 7a3e d3fa 83bd
00000240: 07be 63be 4113 7abd 57b7 b4bd 6b6f 3e3e
00000250: 7150 5f3e 7b7b 3d3e fc99 5d3e afeb 80be
00000260: 16a0 133d 9cd2 7e3e 5503 8b3e 9d65 15bf
00000270: 7c77 993e eaa0 933d abe5 3cbc 6ed2 773e
00000280: 97fd 5a3e 5023 8c3e 414b 6bbf 7edc 7ebd
00000290: eaae 53bd 0349 803e 9648 8cbc a323 4cbf
000002a0: 64a5 503e a2d3 553e b612 723e a5bb bfbe
000002b0: 20c7 843e af80 ecbc 8197 403d f404 253c
000002c0: d277 1bbf 21c5 873e 594d 20be 005f 683e
000002d0: 258b 69bb f3d1 923e d718 973b 4124 263e
000002e0: a6df 1e3e 405e 753e 771b 993e e6b5 913d
000002f0: c38d 20be af99 803e 57bb 52bf 7bd1 753e
00000300: bae8 8b3e 3d03 333e b3f6 d6be a3e4 efbc
00000310: 9d69 983e 9607 cabd 9ea7 98be ef41 833e
00000320: b815 873e 035d 3fbe 6dab 9d3e a67c 6e3e
00000330: c934 873e 5719 55bf d268 313e 811d 013e
00000340: 5403 983e 51ac 653e adf8 eebe 5968 203d
00000350: 3738 d7be 1556 12bd 49a3 d23d b46d 413e
00000360: 4c42 a1be 9e9f 8f3e 7b1c 8c3e d941 813c
00000370: 1698 2e3e 1019 a7bc d932 48bf 997f 5e3c
00000380: 4fa1 7e3e 830f 14bf ad02 1fbd d44a 963e
00000390: f1a1 1bbe 74c1 853e 0479 01be f9dd 00bf
000003a0: 2296 4f3d 63af 07be d362 73bd 88db 513e
000003b0: 3e5b a03e 173c ed3d 507b 2c3e cecc f0bd
000003c0: 9556 863e d757 8f3e fb49 ea3d 2653 7a3e
000003d0: 69ce 5a3e ddf7 8a3e acfd 033e c7f9 94bd
000003e0: 2869 023e 2d2a 693e 6a28 883e 0db7 1d3e
000003f0: 488f 37bd f61d 4f3e 35e8 8f3e 477d 90be
0.27466568 -0.040013198 -0.09690793 0.2238169 0.26428032 -0.14673474 0.226706 0.20748419
-0.05444328 -0.45893416 0.15223175 0.23942827 -0.18752603 -0.23728001 0.2717126 -0.064952455
-0.07899169 -0.0598169 -0.408325 0.256064 0.22152647 0.25833696 0.27121437 -0.25207007
0.24373254 0.26682764 0.23196973 -0.69288355 0.17693599 0.07087306 -0.037052188 0.2191138
0.24007414 0.20702578 -0.85628796 0.05005629 -0.011930476 0.25367668 -0.07421354 -0.74527824
0.22860746 0.30322304 0.24646284 -0.3508299 0.19728842 0.068610094 0.062213693 0.066760875
-0.4717252 0.21352802 -0.14939506 0.22290036 -0.03565577 0.20886952 -0.064527966 0.2817386
0.25125617 0.3076918 0.19735114 -0.46077976 -0.39620706 0.20522647 -0.8129869 0.1974024
0.2483379 0.27205434 -0.53002214 -0.009451795 0.15368357 -0.058662843 -0.3799245 0.24922317
0.17225863 0.17592004 0.22685316 0.25947377 0.2444454 -0.6660811 0.3063152 0.22639814
0.26987877 0.24178065 -0.61173946 -0.087058365 -0.5263553 -0.20072964 0.027165372 0.27981883
-0.013382215 0.20879932 0.18260553 0.06322708 0.30328515 -0.005655614 -0.7405315 -0.023651466
0.21015291 -0.57937896 -0.01123625 0.19468592 -0.093405 0.15980977 -0.08764996 -0.44736058
0.0016080324 -0.11743511 -0.39017317 0.27554002 0.28023505 -0.106463574 0.27516428 -0.33677125
0.26997682 0.16605137 0.26207268 0.19525988 0.21348312 0.21675885 0.2577309 -0.025282765
-0.17016058 0.27173772 0.24401224 0.25377408 0.07070275 0.2374724 0.21179253 -0.12794824
0.15834174 -0.016950404 -0.123394124 0.2765466 0.19359373 -0.3997318 0.25429654 0.23323439
0.022478422 -0.3376825 0.2669731 0.29217628 0.046838198 -0.42285332 0.24510969 -0.06444325
-0.22240458 -0.06105352 -0.08824032 0.1859719 0.2180803 0.18504135 0.21640772 -0.25179812
0.03604134 0.24885029 0.2715098 -0.58358175 0.29973972 0.07208426 -0.0115293665 0.24201366
0.213858 0.2737069 -0.91911703 -0.062221996 -0.051680483 0.25055704 -0.017124455 -0.7974188
0.20375592 0.20881513 0.2363995 -0.3744785 0.2593317 -0.028869955 0.047019485 0.010071982
-0.60729706 0.26517585 -0.15654506 0.2269249 -0.0035635915 0.28675804 0.0046111154 0.16224767
0.15515003 0.23961735 0.29903767 0.071147725 -0.15679078 0.2511725 -0.8231711 0.24005692
0.27325994 0.17481704 -0.41985092 -0.029283827 0.29768077 -0.09864728 -0.29815382 0.2563624
0.26383758 -0.18687825 0.3079485 0.23289737 0.2640746 -0.8324179 0.17325142 0.12608911
0.2969004 0.22429015 -0.466741 0.039162014 -0.42035076 -0.035726625 0.102850504 0.18889505
-0.31495893 0.28051466 0.2736548 0.015778469 0.17050204 -0.020397693 -0.7820259 0.013580226
0.24866222 -0.5783617 -0.03882091 0.29353964 -0.15198494 0.26124156 -0.1264382 -0.50338703
0.050680287 -0.13250498 -0.059420418 0.20493901 0.31319612 0.11583727 0.16843915 -0.117578134
0.26237932 0.27996704 0.11439892 0.24445781 0.21367802 0.2714223 0.12889737 -0.07274204
0.12735426 0.22769995 0.26593333 0.1540186 -0.044814378 0.20226273 0.28106847 -0.2822058

layer3.bias f4 [2]
00000000: c109 e83b d135 ea3d
0.007081241 0.11436046
