model_weights/DQN/cartpole/cartpole_dqn_episode_599.pth (torch, 72498 bytes, 6 tensors)

layer1.weight f4 [128, 4]
000000 e4 10 1c 3e fb f6 95 be a0 e3 43 3e 43 23 96 be
       0.15240818 -0.29289994 0.19129801 -0.29323778
000010 f8 6e 23 be f2 b6 56 3e 8c 8a d1 3e 57 2a 74 bc
       -0.159603 0.20968226 0.40926015 -0.014902673
000020 12 ed b2 3e 03 65 a6 be e2 5b 59 3f ce 0a bf 3e
       0.34946495 -0.3249894 0.8490583 0.3731293
000030 0d f0 29 be 55 99 b8 be 3f a2 6b bc 59 5d 66 be
       -0.16595478 -0.36054483 -0.014381944 -0.22496547
000040 98 cf 2a bd 35 98 de be 90 c4 d5 be 5a 04 9f be
       -0.041701883 -0.434755 -0.41751528 -0.31058007
000050 4c 0b 90 be ca 72 c0 3d 87 eb 37 bf d4 0f 10 be
       -0.2813362 0.09396894 -0.7184376 -0.14068538
000060 46 56 16 3f 54 f0 6a be 7f 2c 17 bf 5d 28 a3 be
       0.5872539 -0.2294324 -0.5905227 -0.31866732
000070 72 65 89 be dd ee 1d be d7 66 08 be 5f b6 2e bd
       -0.2683521 -0.1542315 -0.1332048 -0.04265439
000080 15 bf 93 be 6e f1 85 be 40 52 3a 3e 66 2e 81 3e
       -0.28856722 -0.2616076 0.18195438 0.25230712
000090 a6 cf 7a 3e 66 ab a0 3e 68 f1 95 bd 2a 36 08 3f
       0.24493274 0.31380767 -0.07321435 0.5320765
0000a0 6d 80 65 3e 93 b6 a1 be 82 25 34 bf fe 60 b2 be
       0.22412272 -0.31584606 -0.7036973 -0.34839624
0000b0 01 4c 1f be e9 07 05 be df 2b af 3e 63 d0 9a bd
       -0.15556337 -0.12991299 0.34213158 -0.07559278
0000c0 69 69 f8 3e 51 99 11 be 4f 0d dc 3d 8e 15 a6 3c
       0.48517922 -0.14218642 0.10744726 0.02027395
0000d0 f3 b5 78 3e f5 66 d1 3d ca 7d 0c 3e 20 08 10 be
       0.24288158 0.102247156 0.1371986 -0.140656
0000e0 fb b7 8d bd ec ec de 3e 87 ef 55 3e bc b3 b9 3e
       -0.06919857 0.43540132 0.20892154 0.3626994
0000f0 20 f4 db be 76 2f a6 be 3a 6f ad be 6c 6d 7e 3e
       -0.4295969 -0.32458085 -0.33873922 0.24846429
000100 38 5b 81 be ed 68 03 3e 17 7c 45 3e 04 b2 9a be
       -0.25264907 0.12832995 0.19285618 -0.3021394
000110 e9 d6 98 be e1 e3 3a 3e 79 c5 f2 be 71 46 bd be
       -0.29851463 0.18250991 -0.47416285 -0.36967805
000120 cd 2e cc be de 43 89 bd 3a 09 03 3f 3a 40 49 bd
       -0.39879456 -0.06702398 0.51185954 -0.049133517
000130 63 34 7c bc 3b f9 7f 3e cd 2e 03 3f 6a 84 e5 3c
       -0.015393349 0.24997418 0.5124329 0.028017242
000140 27 52 86 3e 73 c9 b0 be e5 7c 3b bd 6a 13 8d be
       0.26234552 -0.34528694 -0.045773406 -0.27553874
000150 b1 36 d8 bc ad 2f ae 3e fa a5 0b 3d 2f 71 2e be
       -0.026393266 0.3402075 0.034093834 -0.17035364
000160 9e 25 bb 3e 4b ed 33 3e 5d 1b 4f be d3 fb c9 bc
       0.36552137 0.17570989 -0.20225282 -0.024656212
000170 05 44 de 3e 74 b4 18 3e 74 a0 6c bd df 77 8a be
       0.4341127 0.14912587 -0.057770208 -0.2704458
000180 a6 6f 47 3e 16 7b f2 3e 40 50 53 3b cb 51 01 3e
       0.19476184 0.47359532 0.0032243878 0.12628858
000190 fa d0 5d bd 1b f8 c4 bd 87 a5 2c 3f 06 f2 d6 3e
       -0.054154374 -0.09617635 0.67440075 0.41981524
0001a0 af 89 ea 3e e1 e5 05 be b1 ec 86 be 07 b2 f0 3d
       0.4580817 -0.13075973 -0.26352456 0.11752706
0001b0 4d dc f4 3d 4b 15 01 3d 42 71 d0 be 20 b5 18 3d
       0.119560815 0.031514447 -0.4071141 0.03728211
0001c0 93 15 e5 be bd f4 8d be 68 6b 03 3f c7 30 8c 3e
       -0.44743022 -0.27725783 0.51335764 0.27380964
0001d0 7c 85 a0 be e1 4e 24 3e 96 50 c9 be ad 58 4e 3e
       -0.3135184 0.16045715 -0.39319295 0.20151015
0001e0 d3 60 96 be d8 9a ff bd a1 e0 35 3f 5a fd cf 3e
       -0.29370746 -0.12480706 0.7104588 0.4062298
0001f0 1e 84 b2 3e 99 0f 48 bd ee c9 cd be 5d e8 3e 3d
       0.34866422 -0.048843 -0.40193123 0.046608318
000200 b7 03 b4 be 5f b1 45 3e 7e ac 6b 3e 42 80 da 3d
       -0.35159084 0.19305943 0.2301502 0.106689945
000210 de dc 66 be b7 bd 84 3d 05 06 c2 3e aa 3e 96 bc
       -0.22545192 0.06481498 0.37895218 -0.018340427
000220 67 29 a7 bd 4c 56 c3 be fa 5a 7b be d8 15 9d 3d
       -0.08162194 -0.38151777 -0.24546424 0.07670182
000230 c9 44 34 3e 9c 89 7c 3e e3 0c 24 3e 5d 40 ee bd
       0.17604364 0.24661869 0.16020541 -0.1163337
000240 0e 3e 5e bd 7c 2f 44 be 79 d5 06 bc 2a 5d 40 3e
       -0.0542584 -0.19158739 -0.008229607 0.1878554
000250 2f bb 3c be 87 2d 0d be 99 52 af bd 9a 18 3b 3d
       -0.1843078 -0.13786899 -0.08560676 0.04567776
000260 40 08 ec be 8e 82 fd be b9 06 86 3e e1 d1 3c be
       -0.46100044 -0.49513668 0.26177004 -0.18439437
000270 a5 e7 e1 be e9 f9 7e be a9 ff c0 bd 9f dd df be
       -0.44122043 -0.2490002 -0.09423763 -0.4372377
000280 2e b2 a4 be 13 09 53 3e bf a0 99 3d bb 0e 01 3f
       -0.3216719 0.2060893 0.07501363 0.504131
000290 db 96 ca be b7 44 02 3f 50 94 97 be 18 c7 8b 3e
       -0.3956822 0.508861 -0.2960534 0.27300334
0002a0 b4 08 f1 3e fb ce e6 3e 25 ea 23 be 4f 9d aa 3e
       0.47076952 0.4507979 -0.16007288 0.33323142
0002b0 93 43 c2 be 53 a7 53 3e 99 1d 96 3e 95 dd 59 3e
       -0.3794218 0.20669298 0.29319456 0.21275933
0002c0 0b 50 43 bd 66 7f 93 3e da 45 66 3f b2 35 ab 3e
       -0.047683757 0.28808135 0.89950335 0.33439404
0002d0 f9 cf b8 3c dd b4 85 3d 1a 1c 9f 3d 29 e1 e2 be
       0.022560107 0.065286376 0.07769032 -0.4431241
0002e0 fd 88 6e 3e 28 3c c7 be 2b b1 ce be 81 b4 ca 3e
       0.23294444 -0.38913083 -0.40369543 0.3959084
0002f0 59 91 1d 3d 5f bc 32 3e 6a d9 6b 3d c0 30 e4 be
       0.038468692 0.1745467 0.05758039 -0.44568443
000300 c0 47 0a 3f f1 7c 66 be 0a a4 78 be b8 b8 bb be
       0.5401573 -0.22508599 -0.24281326 -0.36664367
000310 cb 14 a3 bd 1a 7e 9d be e3 97 ca bd a7 3f 93 be
       -0.0796295 -0.3076027 -0.09892251 -0.287595
000320 29 82 a9 3e 47 12 68 3e 49 e1 08 3d 13 31 1e 3e
       0.33107117 0.22663222 0.033417974 0.15448408
000330 f7 bd c1 bd fa fb b3 be 74 d3 a7 be 1f b1 0c bd
       -0.09460061 -0.3515318 -0.32778513 -0.034348603
000340 58 20 36 3e 6a 9a 70 be 7f 7d 0f bf e7 f6 d9 bd
       0.17785776 -0.23496404 -0.56050867 -0.10642796
000350 03 65 9b 3c 2f 2e b4 3d 67 4c 53 3f 2f 2a 03 3e
       0.018969065 0.08797871 0.82538456 0.1280906
000360 f3 45 a5 be 08 5a 8f 3e 31 e4 0f 3f 11 f7 1b be
       -0.3227993 0.27998376 0.5620757 -0.15230967
000370 2f ad c1 be b3 a2 5a 3e 96 49 ce be 72 ad 8b bb
       -0.3782744 0.21351127 -0.40290517 -0.0042626197
000380 2e c2 3d 3d 53 87 f3 bc e3 8e b2 3d 18 78 7a be
       0.046327762 -0.029727614 0.0871866 -0.24459875
000390 cd 53 fe be 90 96 56 3c 48 1b a4 be 72 ff 89 be
       -0.4967331 0.01309742 -0.32052064 -0.26952702
0003a0 12 af a8 3e a7 0e ad be 5d fe 61 3e 69 97 02 be
       0.32946068 -0.3380024 0.22069688 -0.12753071
0003b0 cf 39 30 be 61 b7 8e be 9f cd 9f 3e cd 26 8c be
       -0.17209552 -0.27874282 0.31211564 -0.27373353
0003c0 c7 46 3b 3d 25 49 ef 3e 38 5e 3e 3e f1 fa 32 3e
       0.045721795 0.46735492 0.18590629 0.17478539
0003d0 12 ec 33 3c c2 43 cd be 7c 1f e8 be 75 c6 6f bd
       0.0109815765 -0.40090758 -0.4533652 -0.058538873
0003e0 34 62 f4 3e 0e d4 95 be 05 11 25 bd 9d f5 97 be
       0.47731173 -0.29263347 -0.040299434 -0.29679576
0003f0 69 d2 00 bf 72 fb a5 be 60 75 db 3d 3c 21 fb 3e
       -0.5032106 -0.324184 0.10715747 0.49048793

layer1.bias f4 [128]
000000 40 2d fa 3e 53 0b 5a 3e 5c e4 a2 be 39 87 dc 3e
       0.48862648 0.21293382 -0.3181485 0.43071917
000010 2c 37 b6 3e ea 6b 1d be c0 8e ee be b5 fe 80 3e
       0.35588968 -0.15373197 -0.46593285 0.25194326
000020 d4 91 ad be 90 d4 8e be cc 4b 21 be 96 c8 11 3f
       -0.3390032 -0.27896547 -0.1575157 0.56946695
000030 ce 49 83 3e 4a 99 05 3f e6 ff d6 3e 07 fa ab be
       0.25642246 0.52187026 0.4199211 -0.33589193
000040 1b 8d ac 3e 21 27 a6 bd f3 e1 28 be 8a 14 d9 3e
       0.33701405 -0.08112932 -0.16492443 0.42398483
000050 70 be a3 3e 5e a1 e5 3e 54 3e f3 3e 37 80 f0 be
       0.3198123 0.44849676 0.4750849 -0.4697282
000060 7d 67 03 bf 9e 77 ce bd 5c 33 10 3f ae 93 60 3e
       -0.51329786 -0.10081409 0.5632837 0.21931335
000070 30 86 b5 be d3 2d 04 3f 1c 47 66 be f2 e7 dd be
       -0.3545394 0.5163242 -0.22488064 -0.43341023
000080 27 02 fe 3e 3c c7 09 3e ac c3 9f be 9a a2 00 bf
       0.49611017 0.13454908 -0.31203973 -0.5024811
000090 7c a9 6b be e0 44 d8 3e 0c 35 5e be c0 91 69 bd
       -0.23013872 0.42240047 -0.21699923 -0.057023764
0000a0 20 09 d3 be 94 0e ef 3d 74 7f 4b 3e 1f 24 10 3f
       -0.412179 0.116727024 0.19872838 0.56305116
0000b0 cf 11 e3 be 41 ec 94 3e 0e 04 3e 3e 92 e7 51 3e
       -0.44349524 0.29086497 0.18556234 0.20498493
0000c0 4c a4 b1 be b3 85 15 be 26 4e b9 3e 73 b4 b3 3e
       -0.3469566 -0.14601783 0.36192435 0.3509861
0000d0 13 a6 20 3f 75 e0 6d be 7e 0f aa 3e 51 e9 1d 3f
       0.6275341 -0.23230155 0.33214945 0.6168414
0000e0 d7 6b 11 3f 29 50 d7 be 10 6b 26 3f 34 39 01 3f
       0.56805176 -0.42053345 0.65007114 0.5047791
0000f0 90 7e 33 3e bb 72 fd 3e f4 95 ed 3e bc d2 91 3c
       0.17528749 0.49501595 0.46403468 0.017800681
000100 1c b5 f1 be 81 a1 e4 be 49 bc 90 3e 13 0f 4b 3e
       -0.47208488 -0.44654468 0.2826865 0.19829969
000110 d8 d2 ee 3e 60 8d 97 be 70 3c 9f 3d dd 5e ba 3e
       0.46645236 -0.29600048 0.077751994 0.364005
000120 dd bc 8f 3e 8d 28 4b be 8b 55 4b 3e e2 12 0f 3f
       0.2807378 -0.19839688 0.19856851 0.5588819
000130 8f 22 4a be b4 4f 91 be 37 ba c3 3e c5 87 51 3e
       -0.19739746 -0.2838112 0.38228008 0.20461948
000140 8e c1 c6 be 40 49 46 be b1 9e 8e 3e c7 1f 89 3e
       -0.38819546 -0.1936388 0.27855447 0.26782057
000150 79 12 31 3e 41 ba 03 3f 62 85 0b bf c8 d1 b8 3e
       0.17292203 0.51456076 -0.545004 0.3609755
000160 bf 5e 81 be ed 34 04 3f 33 ec d6 3e a9 9d 11 bf
       -0.25267598 0.5164326 0.4197708 -0.56881195
000170 3f e2 f1 3e f2 cf 05 3f 73 b1 a6 be 15 54 f1 3e
       0.47242925 0.52270424 -0.32557258 0.47134462
000180 31 30 b8 3e 55 5b e2 be ed e6 19 3f 21 75 9b be
       0.35974267 -0.44210306 0.6011799 -0.303628
000190 60 5f 9f be c7 1e a8 3e bc 61 03 3f be 17 28 3e
       -0.31127453 0.3283598 0.51321006 0.16415307
0001a0 c6 d2 0f 3f 92 b3 94 3e 5a c6 b4 bd 9b d1 d2 3c
       0.5618099 0.2904325 -0.08826895 0.025734713
0001b0 f9 62 76 3e c7 08 e3 bd 17 0e c1 be 17 43 ec 3e
       0.24061193 -0.110856585 -0.37706062 0.46144935
0001c0 de 62 31 3e 97 81 d4 be f0 7b 0c 3f 10 29 6c 3e
       0.17322871 -0.4150512 0.54876614 0.23062539
0001d0 56 07 b8 be f5 a9 df be c9 34 16 3f d4 b9 0e 3f
       -0.35943097 -0.43684354 0.58674294 0.557523
0001e0 f4 32 8e be ec db ba 3d 6f b0 e5 3e 32 5e 7c be
       -0.2777325 0.09123978 0.4486117 -0.24645308
0001f0 27 fa 3a 3e 4d c2 c5 3e 12 5c 10 3f 41 4e 27 3f
       0.18259488 0.38624802 0.5639049 0.6535378

layer2.weight f4 [128, 128]
000000 c6 69 93 3d fa 0a a6 3d d8 d3 2a be d2 87 16 3d
       0.07197909 0.08107562 -0.16682374 0.036750622
000010 a4 07 85 3d 2b d7 8e bd 49 70 8a be 9f 8b 9c 3d
       0.06495598 -0.06974634 -0.27038792 0.07643818
000020 61 b7 d2 bd 2f 7e 7c bc 11 53 9b bd ce 85 5b 3e
       -0.10288883 -0.015410944 -0.07584203 0.21437761
000030 73 47 89 3d 46 7a 96 3c 54 37 99 3d f3 bd 56 3d
       0.06703081 0.018368851 0.07481256 0.052427243
000040 3b 4f 64 3d 62 0b e9 bd 04 7a 64 3d c8 99 47 ba
       0.055739623 -0.11379124 0.055780426 -0.0007614163
000050 3b b6 16 3e b0 db 80 3d 8d f5 cc 3c 85 c8 67 bd
       0.14717953 0.06291902 0.025019431 -0.056587715
000060 1f 04 a6 bd 35 91 df bc ba 5b 0b 3d cf 14 0c 3e
       -0.08106255 -0.02729092 0.034023024 0.13679813
000070 64 a9 11 3d b8 20 29 3e d6 f9 99 3a 26 d7 fc be
       0.035561934 0.16516387 0.001174743 -0.49382895
000080 a6 c2 53 3e 34 ef 0d 3d 5e 93 36 bc e3 b6 db be
       0.20679721 0.03465195 -0.0111435335 -0.4291297
000090 4b c2 8b 3c 4a bd 20 3e 5e ab 49 bd 2e c4 bd 3c
       0.01706042 0.15697208 -0.049235694 0.023164835
0000a0 a8 74 6b 3d 88 70 9b 3e 2f d2 3b 3d 69 17 5e 3e
       0.0574843 0.30359292 0.045854744 0.21688618
0000b0 6f 8e c8 be 9d 88 71 3d 6e 47 11 bd 32 cc 9f 3d
       -0.39171168 0.058968175 -0.03546851 0.07802619
0000c0 e8 f9 07 be 7a 7c 39 bd 86 17 94 bc bd 74 91 3d
       -0.13278925 -0.045284726 -0.018077623 0.07102344
0000d0 57 14 46 3d b0 95 fb be 91 0b 39 3d 0d 4a 12 3e
       0.04835924 -0.4913764 0.045177046 0.1428606
0000e0 78 55 22 3e 78 cf 8c bd 03 82 8d 3d 7a 9c 87 3d
       0.15852916 -0.06875509 0.069095634 0.066216424
0000f0 05 d4 9e 3d 96 39 ad 3c 0e 4c 32 3d 8e ce 8c bc
       0.07755283 0.021145623 0.043529563 -0.017188337
000100 c8 b3 95 be fe fa 2b be 37 39 0b 3e 8c a3 ad 3d
       -0.29238725 -0.16794965 0.13596044 0.0847846
000110 73 60 1f bc 7c bc 84 be 10 fd f4 3c d0 0d ac 3d
       -0.009727585 -0.25925052 0.029905826 0.08401072
000120 4b 2f 22 bc 0a d2 70 3d 19 7a 7d 3c 86 03 ac 3d
       -0.009898971 0.05879406 0.015471005 0.083991095
000130 1f d2 e4 bd ed 91 9f be af 21 b1 3d cc 36 f6 3d
       -0.1117289 -0.3116602 0.08649003 0.120221704
000140 b0 05 8a 3c 33 c9 56 be aa 98 b1 3d 44 d4 c5 3d
       0.016848415 -0.20975189 0.086716965 0.09659627
000150 e7 70 9b 3d 61 9c d5 3c 3a 67 41 be 5e c8 fa 3d
       0.07589894 0.026075544 -0.18887034 0.12245248
000160 10 e5 46 be 03 50 00 3e fb 4e 83 3c c2 a4 77 be
       -0.19423318 0.12530522 0.016028872 -0.24183944
000170 df 4c b7 3b 00 c5 f0 3d 4d 62 f8 bd 6b 2f e0 3c
       0.0055938805 0.11756325 -0.121281244 0.02736636
000180 b7 44 2a 3d 3f b0 e3 be 53 8f a4 bb 7a 20 cd bd
       0.041569438 -0.44470403 -0.0050219684 -0.1001596
000190 6b bf ac 3c 4e 96 2e 3d c0 3e b6 3d 66 db 4e 3b
       0.021087369 0.04262381 0.08898687 0.0031563877
0001a0 00 de 1c 3a b3 6c 1b 3e 83 dd 09 bb be 50 7b bd
       0.00059840083 0.15178184 -0.0021036572 -0.0613563
0001b0 e9 86 4c ba f5 4f 6e bd 9f 89 01 be 13 33 2c 3e
       -0.00078020856 -0.05818172 -0.12650155 0.16816358
0001c0 05 03 07 bd 83 12 2c bd 05 e4 03 3e 04 8d eb 3d
       -0.032961864 -0.04200984 0.12879951 0.11501506
0001d0 99 6a fc bd 71 39 cd bd 51 9b 4b 3e 8c e8 c4 3d
       -0.123250194 -0.10020722 0.19883467 0.09614667
0001e0 15 07 6a bc ce 6c 4c bc 2b f2 c1 3c af d1 16 3d
       -0.014283915 -0.012477113 0.023675045 0.036821064
0001f0 7b f4 c3 3d aa 42 d2 3d 41 ff 6a 3d 39 42 a7 3d
       0.09568115 0.102666214 0.057372335 0.08166928
000200 d2 9a 09 3d c9 df 04 bc 20 11 26 bd 3e 49 64 3d
       0.033594914 -0.008109995 -0.040543675 0.05573391
000210 23 70 0c bd ed 1f 88 3b 3d 1a 27 3e 27 29 5b bd
       -0.03428663 0.0041541965 0.16318603 -0.053506043
000220 3f a7 64 bd 96 97 82 3d bf 56 95 3d d3 2e 9f 3b
       -0.05582356 0.06376569 0.07291936 0.004857877
000230 0e 30 a2 bc ae 83 8f 3a c0 3c 20 bd f5 0d c5 3c
       -0.019798305 0.0010949278 -0.039120436 0.024054507
000240 dc b6 cb 3c ed 08 46 3c 04 37 05 be a7 82 2b 3d
       0.024867468 0.012087089 -0.13009268 0.041872647
000250 99 34 c6 bd 61 26 2e 3d be 9e 81 bd d5 47 f0 3c
       -0.09678001 0.04251707 -0.06329106 0.029331127
000260 20 e4 9d bd b6 79 35 3d 45 5b 1f 3d 1d bc be bd
       -0.07709527 0.044305526 0.0389054 -0.093132235
000270 34 53 94 3d 7e 32 9f bc f9 50 ab bd 0d 93 cf 3e
       0.07242432 -0.019433256 -0.08365054 0.40541878
000280 84 e2 95 bd 84 85 04 be ee f1 5a bd 6b 72 32 3e
       -0.07318595 -0.12941557 -0.05345338 0.1742646
000290 c9 48 07 bd 33 c4 48 bd 2d 25 7a 3e c1 18 ed 3b
       -0.033028398 -0.049015235 0.24428244 0.007235617
0002a0 e6 2e 92 bb 92 b2 fb 3c a4 b3 60 ba d1 e6 b6 bd
       -0.004461157 0.030724797 -0.00085716904 -0.089307435
0002b0 73 f4 4b 3d f5 3e 9a 3c c9 38 60 3c 6f 60 fc bb
       0.04979367 0.018828848 0.013685414 -0.0077019255
0002c0 3e eb 07 3e d3 f2 06 be a6 53 01 3d 82 fc 2d 3d
       0.13273332 -0.13178568 0.031573914 0.04247714
0002d0 2a 01 8b 3c 51 00 e2 3d 1d 5f 08 3d 69 fd aa bd
       0.016968329 0.110352166 0.033293832 -0.083491154
0002e0 f5 6f 1a 3c af a5 18 be 37 02 56 bc dc e6 d8 3c
       0.009426107 -0.14906953 -0.0130620515 0.02647727
0002f0 a2 9e d6 3d 8b 79 8c 3d 7c dd 02 bb ed ae 1c bd
       0.104794756 0.0685912 -0.001996844 -0.03825276
000300 e7 f7 60 3d ef 41 81 bd 03 a4 4c 3d f8 85 13 3d
       0.054923918 -0.06311404 0.0499611 0.036016434
000310 cf 4c df 3c 24 5d 97 3d a2 52 ba 3b 01 c3 d5 3c
       0.027258305 0.07390812 0.00568612 0.026093962
000320 ae 85 0c bd 86 3b 71 bd 8a 20 a5 bd 4b 49 38 3d
       -0.034307174 -0.058894657 -0.08062847 0.044991773
000330 9f af 87 bd 0a 7a 79 3d 7f ec 14 bd 0e f4 43 bd
       -0.06625294 0.0609074 -0.036358353 -0.04784017
000340 d2 48 17 3d 8c 89 e6 3d 7f 74 2c 3d 1c ef a3 bc
       0.03693468 0.11256704 0.042103287 -0.020011477
000350 0c 6a 7c bd 2d 43 ba bd b8 d7 ec 3c 49 7c 31 3d
       -0.06162457 -0.09094844 0.028911456 0.04333142
000360 7c c7 9a 3d 28 33 93 bd a4 1b 81 3a 4a 27 a6 3d
       0.0755758 -0.07187492 0.0009850156 0.081129625
000370 02 3d 04 3d f2 e3 7b bd 6c c0 2b be 2a 9d 10 bb
       0.032284744 -0.061496682 -0.16772622 -0.0022066333
000380 e9 9f 81 bd 9c 99 a5 3e 56 30 46 3d 89 83 11 3c
       -0.063293286 0.32343757 0.04838594 0.008881458
000390 69 1b d7 3a 4d 03 1d bd e5 c0 9c bd e8 19 fe 3c
       0.0016411367 -0.038333226 -0.07653979 0.031018212
0003a0 2f 9e 7d 3d db eb 23 bd 97 54 78 3b 54 0d 49 3d
       0.061918434 -0.04001985 0.0037892216 0.049084976
0003b0 23 23 6d bd 8e 61 e9 3c b7 56 3d 3d 99 c8 59 bd
       -0.057894837 0.0284889 0.046225276 -0.05316982
0003c0 7c 3f 1c 3c 68 66 54 bc eb 3a b1 3c cd 8c 95 3d
       0.00953662 -0.012963869 0.02163454 0.07302246
0003d0 62 26 08 bd db 76 c0 3d 2f d2 e9 bc be 91 82 3c
       -0.03323973 0.0939767 -0.028542606 0.015938636
0003e0 dc 6d e8 3c a5 2a c6 bd 32 09 66 3d 92 4f 22 3d
       0.028372698 -0.096761025 0.056161113 0.039626665
0003f0 b8 5a b5 3d f2 a4 45 bc 2a a4 82 3c 46 55 c4 bd
       0.08855194 -0.012063252 0.01594742 -0.09586577

layer2.bias f4 [128]
000000 88 90 a7 3d 65 c2 b1 bb 7f 2d 86 bd 8b 45 ed 3d
       0.08181864 -0.005424785 -0.065516464 0.1158553
000010 ab 54 69 3e bb ec c1 bd 61 69 e0 3d 68 eb 4c 3e
       0.22786205 -0.09468981 0.109575994 0.20011675
000020 b7 fb 79 bc 57 e2 98 bd 47 c6 1b 3e df 35 34 3e
       -0.015257767 -0.07465046 0.15212356 0.17598675
000030 d7 9b 86 3c 36 45 07 be 3d 62 59 3e ac 85 b6 bb
       0.016431732 -0.13209996 0.21228881 -0.005570134
000040 56 1f e9 bc 29 c6 90 3d b0 c6 6d bd a4 84 57 3e
       -0.028457325 0.07069046 -0.05805081 0.21046692
000050 87 08 5c 3e 02 19 2f 3e 72 a7 d1 3d 0d 1c 97 3d
       0.21487628 0.17099383 0.10237016 0.07378397
000060 ff cc 0b 3d 1a b7 6e 3d b3 71 4c 3e 44 ed 94 bd
       0.034131046 0.058280088 0.19965248 -0.07271817
000070 f9 d9 1e 3e 58 39 87 bd 74 eb 8e 3d fc 1c 24 3e
       0.15512837 -0.06602734 0.06978503 0.16026682
000080 23 44 4d 3e 4f 9e 0b 3e 50 3e b3 bd 15 28 40 bd
       0.20045523 0.13634609 -0.087521195 -0.046913225
000090 00 65 88 3c f7 11 f9 3d 53 c2 1c bd 81 f4 f2 bd
       0.016649723 0.1216163 -0.03827126 -0.11863042
0000a0 d4 9d 75 3e 09 0a 29 3e 9c 1e 09 3e af eb 14 be
       0.23985988 0.16507734 0.13390583 -0.14543031
0000b0 37 46 74 3e 98 f2 a6 bd 75 f7 13 bd fc 8c 8b bd
       0.2385491 -0.0815174 -0.036124665 -0.06814
0000c0 df 1d ca bd 75 a9 a9 3d 78 97 c7 bd 26 92 0b 3e
       -0.09868979 0.082842745 -0.09745687 0.1362997
0000d0 a4 5e 11 bd fb 4e f3 3d 68 6a be bc 66 13 0f 3e
       -0.035490647 0.11880299 -0.023244098 0.13972244
0000e0 90 27 c7 3d 75 5d 25 3e 3f 2c 18 3e 9e 66 92 3d
       0.09724343 0.16148932 0.14860629 0.07148479
0000f0 2d e3 24 3d 40 2b 79 3e a8 b6 ec bd bd 4e b8 3d
       0.040255714 0.24332905 -0.115582764 0.08999393
000100 4d 4d 14 3e 79 86 f0 3d 65 5c 6f bd 96 39 33 bd
       0.14482613 0.117443986 -0.058437724 -0.04375609
000110 56 1d 22 3e fd ed 22 3d ba b5 37 bd 2f cc a2 3d
       0.15831503 0.039777745 -0.044851042 0.07949101
000120 9c c0 23 3e ca 1a 6a 3d e9 a1 2b 3e 9e df 71 3e
       0.15991443 0.057154454 0.16760983 0.2362046
000130 fd 35 50 3e 94 a4 e8 bd b6 40 53 3d bc 51 f9 3d
       0.20333095 -0.11359516 0.051575385 0.12173793
000140 0a d6 47 3e 39 2c 4a 3e 4a 5b f8 bd 17 12 40 3d
       0.19515243 0.19743432 -0.12126787 0.04689225
000150 06 53 0a be 4c 62 70 bc cc a9 6f bd 8b ad df 3d
       -0.13508233 -0.014671873 -0.05851154 0.109217726
000160 b8 4f 4d bd 64 92 b5 3d d7 6c ef 3d 24 87 cd 3c
       -0.050124854 0.088658124 0.116906814 0.025088854
000170 57 57 4d 3e c1 4c 5a 3d a9 d2 c5 bd 62 6b 01 bd
       0.20052849 0.053295854 -0.09659321 -0.03159655
000180 38 dc 0a 3e b6 93 f2 bd 3d 6b 79 b8 73 95 32 3e
       0.1356057 -0.1184458 -5.94661e-05 0.17439823
000190 e3 57 b6 3c 53 e0 55 3e d8 9b e3 bb 0b a7 fa bc
       0.022258705 0.20886354 -0.0069460683 -0.03059723
0001a0 5e 07 27 3c 68 c6 20 3d 15 4c bf 3a af de 39 3e
       0.010194628 0.039251715 0.0014594818 0.18151353
0001b0 82 b7 16 3e 97 58 aa bb 67 3e 48 3e 3b 41 2b be
       0.1471844 -0.005198549 0.19555055 -0.16724102
0001c0 63 41 69 3e c0 a1 3b 3e 86 03 9f 3d 58 8b 2e 3e
       0.2277885 0.18323421 0.07764344 0.17045343
0001d0 2d 84 57 3e 02 72 44 3e 72 3f ca 3d 58 81 9c bd
       0.21046515 0.19184116 0.098753825 -0.07641858
0001e0 f7 5e 61 bd 68 18 2b 3e 60 cf e2 3d bd 86 46 3e
       -0.055022206 0.16708529 0.1107471 0.19387336
0001f0 f9 a7 12 bd 27 91 62 3e 06 1f 55 3e 02 2d 25 bd
       -0.035804722 0.22125684 0.20812616 -0.040326126

layer3.weight f4 [2, 128]
000000 55 9b 73 3e 8b be 60 bd 9a b5 5b bd 4f c9 46 3e
       0.23789723 -0.054869216 -0.053639986 0.1941273
000010 b5 2e 71 3e 5c b0 5c be 28 bc 45 3e 10 87 32 3e
       0.23552974 -0.21551651 0.19310057 0.17434335
000020 58 38 71 bd 71 7d 09 bf 74 dd ea 3d cd 6f 58 3e
       -0.058891624 -0.53707033 0.1146802 0.21136399
000030 ca 2d 51 be 10 37 8f be cf 96 7c 3e c8 af 2c bd
       -0.20427623 -0.27971697 0.24666904 -0.042159826
000040 75 d1 c3 bd eb b4 84 bd 11 72 da be 66 bc 69 3e
       -0.09561435 -0.0647982 -0.4266515 0.22825775
000050 99 84 42 3e 44 5a 68 3e ca 79 78 3e 06 b3 8b be
       0.18995894 0.22690684 0.24265209 -0.27285022
000060 85 67 41 3e 25 83 78 3e e6 78 4c 3e a7 c1 53 bf
       0.18887146 0.24268778 0.19967994 -0.82717365
000070 80 b3 0f 3e 39 f8 9c 3d 64 22 24 bd e1 fc 41 3e
       0.14033318 0.07664532 -0.04007186 0.18944122
000080 1e 73 58 3e 20 14 31 3e 7e cc 78 bf b6 cf 5d 3d
       0.21137664 0.17292833 -0.9718703 0.054153167
000090 cf 6a 53 bc b0 40 65 3e 59 61 a4 bd 61 e6 61 bf
       -0.012903883 0.22387958 -0.0802638 -0.88242155
0000a0 da aa 4a 3e 8c 18 8d 3e 7f e7 5c 3e 34 9c c2 be
       0.19791737 0.2755779 0.21572684 -0.380098
0000b0 58 8d 27 3e 61 0d 98 3d 76 a0 6c 3d 21 d8 93 3d
       0.16362512 0.07424427 0.057770215 0.07218958
0000c0 e4 17 0a bf 0f e5 3b 3e 9e 7a 29 be a9 b6 42 3e
       -0.53942704 0.18349098 -0.16550681 0.19014992
0000d0 1d de 1d bd 13 01 36 3e ef ca 8e bd 35 c6 80 3e
       -0.0385419 0.17773847 -0.069723 0.2515122
0000e0 50 63 5f 3e 77 df 90 3e 02 98 25 3e 47 24 c7 be
       0.21815228 0.2829549 0.16171268 -0.38894865
0000f0 ac ae 99 be 29 ca 2f 3e e0 17 66 bf a8 96 27 3e
       -0.30016077 0.17166962 -0.8988018 0.16366065
000100 f5 42 5f 3e 52 10 7a 3e 8a dd 23 bf 3a 89 27 bc
       0.21802886 0.24420288 -0.64009917 -0.010225588
000110 b7 e4 e9 3d 95 03 83 bd 4f 38 cc be 0d e1 61 3e
       0.11420577 -0.063971676 -0.3988671 0.22058506
000120 d8 a0 0d 3e d1 08 58 bc 67 f5 46 3e 07 05 6b 3e
       0.13830888 -0.013185696 0.19429551 0.22951137
000130 ff 3f 5c 3e e0 16 3f bf 2e b0 8a 3e 2c 20 1f 3e
       0.21508788 -0.7464428 0.2708754 0.15539616
000140 14 1d 78 3e 3c 8d 50 3e 08 f3 30 bf d6 d5 c0 bd
       0.24229842 0.20366377 -0.69120836 -0.09415786
000150 34 b6 13 bf 65 8f 3f be f8 88 f4 3b 49 4d 82 3e
       -0.57699895 -0.18707044 0.007462617 0.2544959
000160 11 f0 83 bc ab 58 32 3e 42 e5 1a 3e e5 20 8c 3d
       -0.016105684 0.17416637 0.15126517 0.06842212
000170 d3 e8 8d 3e d5 72 c8 bb 96 db 52 bf b1 91 d1 bc
       0.27716693 -0.0061172047 -0.8236631 -0.025582166
000180 ce a8 35 3e 62 86 29 bf 26 1e 47 bc 24 c9 22 3e
       0.17740175 -0.66220677 -0.012153184 0.15897042
000190 4c 44 b9 bd 07 28 00 3e 07 7a b6 bd 5f 6b 00 bf
       -0.0904623 0.12515269 -0.089099936 -0.50163835
0001a0 69 f5 e3 3a 76 4a 07 be c7 17 ee be 35 eb 7b 3e
       0.0017391864 -0.13211998 -0.46502516 0.24601443
0001b0 d6 3f 82 3e 39 28 b5 bc 59 fa 7c 3e 4b 2f db be
       0.25439328 -0.022113906 0.24704875 -0.4280952
0001c0 6c 3b 77 3e 35 34 05 3e 3d 0f 68 3e 8c 23 24 3e
       0.24143761 0.13008197 0.22662063 0.16029185
0001d0 ef e2 39 3e 6b 98 3b 3e 9b 6a 60 3e d4 0b e0 bc
       0.18152975 0.18319862 0.21915667 -0.02734939
0001e0 b3 8d 06 be df f8 7d 3e ff eb 5c 3e d5 88 63 3e
       -0.13139991 0.24801968 0.215744 0.22220166
0001f0 ee 9e 9c 3d ab be 53 3e 20 63 37 3e 88 31 14 be
       0.07647501 0.20678203 0.17908907 -0.1447202
000200 43 55 e8 3d 8c c7 c1 bc 7a 6b f3 bd 79 a6 80 3e
       0.113443874 -0.023654722 -0.11885734 0.2512701
000210 6e 1e 1e 3e 88 c5 e9 be 0e 01 62 3e 73 66 49 3e
       0.15441296 -0.45658517 0.22070715 0.19667988
000220 99 2b c7 3c ed 20 fc be 5e 9d 6e 3e 16 99 88 3e
       0.024312781 -0.4924387 0.23302218 0.26679295
000230 cd 81 0c be 44 74 f8 be 3c c5 5e 3e 6f e2 4e bd
       -0.1372139 -0.48526204 0.21754926 -0.050508913
000240 58 fc 7a be b6 80 87 bd 34 08 9b bd 5c cb 1a 3e
       -0.24510324 -0.066163465 -0.07569924 0.15116638
000250 6e f6 3d 3e 18 01 16 3e 9f f8 3c 3e 61 8f 8b be
       0.18551037 0.14648855 0.18454216 -0.27257827
000260 c9 85 3a bd 80 ea 66 3e 70 3d 77 3e a0 94 39 bf
       -0.045537744 0.22550392 0.2414453 -0.7249241
000270 2b aa 8a 3e 5b 95 9f 3d 05 57 4c bc 47 ae 59 3e
       0.27082953 0.07792159 -0.012471919 0.21257888
000280 b6 4e 3a 3e ad 4c 79 3e 8a 73 84 bf 5e 09 8a bd
       0.18194088 0.24345656 -1.034776 -0.06740068
000290 73 f0 64 bd 1b a1 62 3e f9 cb 97 bc f1 7a 6b bf
       -0.055893373 0.2213177 -0.018529879 -0.9198447
0002a0 bc e0 2c 3e 9e f1 2f 3e df 00 50 3e be 85 d3 be
       0.16882604 0.17182013 0.20312832 -0.41312975
0002b0 73 71 66 3e f5 d9 ff bc ca 40 82 3d b6 76 32 3c
       0.22504215 -0.03123186 0.06360014 0.010892561
0002c0 58 06 33 bf 28 b0 72 3e b3 cf 3f be 74 d2 45 3e
       -0.69931555 0.23700011 -0.18731575 0.19318563
0002d0 12 b5 7c bb c1 46 84 3e 13 66 a3 3b 65 e4 f0 3d
       -0.0038560075 0.2583523 0.0049865334 0.11762313
0002e0 48 96 db 3d 29 ae 59 3e 2a 28 8a 3e d8 c2 89 3c
       0.10722023 0.21257843 0.26983768 0.016816542
0002f0 5c 79 55 bd ea 9a 5d 3e fd f6 65 bf a3 c9 54 3e
       -0.05211769 0.21641126 -0.8983 0.20780043
000300 ac 0f 7c 3e 42 0d 0b 3e 9f 5b 12 bf 15 d4 01 bd
       0.24615353 0.13579276 -0.5717105 -0.031696398
000310 3d a9 88 3e 15 c6 db bd 3b 52 ab be 8b d0 68 3e
       0.2669162 -0.107311405 -0.33461174 0.22735803
000320 3f 20 6f 3e ca 73 ec bd 57 e8 8e 3e 04 e0 4e 3e
       0.23352145 -0.115455225 0.27911636 0.20202643
000330 e5 98 6e 3e b5 50 66 bf f8 61 00 3e e4 c2 8a 3c
       0.23300512 -0.899669 0.12537372 0.016938634
000340 7b a0 89 3e 38 c3 41 3e ff 2d 06 bf c7 6e 2d 3d
       0.2688025 0.18922126 -0.52413934 0.042341974
000350 90 05 e9 be c3 be f4 bc b6 13 0c 3d 8d dc 1d 3e
       -0.45512056 -0.029876119 0.034198485 0.15416165
000360 3f c0 75 be 21 fc 7e 3e be ab 7a 3e 8b e5 8b 3c
       -0.23999117 0.24900867 0.24479577 0.017077228
000370 11 c8 04 3e 31 bb b4 bc 63 5f 5a bf 78 af 70 3c
       0.12966944 -0.022061916 -0.853018 0.0146902725
000380 2b ff 5b 3e bd 35 28 bf a3 03 2c bd d8 8d 85 3e
       0.21484058 -0.65707 -0.041995656 0.2608478
000390 80 d4 2e be b2 cb 6a 3e b4 af 0d be b9 86 0e bf
       -0.1707325 0.22929266 -0.13836557 -0.5567432
0003a0 c1 8c 60 3d c1 92 25 be db 7f 42 be fe 98 2b 3e
       0.054821733 -0.16169263 -0.18994085 0.1675758
0003b0 3b 8e 94 3e 3a f7 04 bd 84 1c 05 3e 07 76 80 be
       0.29014763 -0.032462336 0.12999159 -0.25090048
0003c0 63 47 6e 3e 9d 33 80 3e 56 90 7e 3d 4e fe 54 3e
       0.2326942 0.25039378 0.06214937 0.20800135
0003d0 34 a8 36 3e 40 90 79 3e d2 94 af 3d b5 10 a1 bd
       0.17837602 0.24371433 0.08573307 -0.07864515
0003e0 47 a4 66 3d d8 37 4c 3e db 02 77 3e 9a 1b df 3d
       0.05630901 0.19943178 0.24122183 0.108939365
0003f0 c3 89 46 bd 48 86 29 3e 56 aa 81 3e f2 f7 9e be
       -0.048471224 0.1655513 0.25325269 -0.31048542

layer3.bias f4 [2]
000000 61 c6 40 ba d0 a9 e8 3d
       -0.00073537795 0.11360514
