model_weights/DQN/cartpole/cartpole_dqn_episode_1999.pth (torch, 72508 bytes, 6 tensors)

layer1.weight f4 [128, 4]
00000000: 359d 2f3e 3c22 82be b129 b43d 12f7 8abe
00000010: 8d6d f9bd bdde 213e 1297 983e 02ff ac3c
00000020: 337e 903e a245 98be 83cf 2e3f b7ed 973e
00000030: 4ec9 66be fbc4 8ebe 9432 883d 766f 1dbe
00000040: 40aa 923d 1588 bdbe 7a7e f3be 1819 6abe
00000050: ec4f adbe b756 093d f241 36bf ee00 d9bd
00000060: a80d 0d3f 0108 04be bf6c f0be 858b 6ebe
00000070: 8614 8dbe 7ab0 a4bd a0b0 33bd 2448 263c
00000080: eda9 9ebe 9903 5ebe 475e 4d3e 9917 5f3d
00000090: 5233 5f3e f93a 993e 7391 bc3d 5809 ed3e
000000a0: edfc 853e a1e9 84be 79a6 85bd b468 68be
000000b0: c035 f4bd 8d52 14be 3754 d83d 02d4 e1bd
000000c0: 0ce7 fa3e 435e 223d 58bf 2d3e a5e1 90bd
000000d0: 6ccc 643e 1e25 c13d 15eb 883d 7301 2ebe
000000e0: b22b 3bbe 60ab 983e 80b3 0b3e bb03 963e
000000f0: c642 e8be 7b20 80be 33ae 19bf 4388 a5bc
00000100: 5351 9cbe 874b 793c c7a1 ea3d 4db7 8dbb
00000110: 748b d3be fb83 1a3d 2101 39bf 1792 05be
00000120: a9ad b8be 2784 15be f8c4 a83e 22be 08bd
00000130: 6b96 f7bc 76cc 293e 2135 cb3e bf2b 3a3d
00000140: 3635 7a3e 5840 acbe 12c3 20be 2ef8 82be
00000150: dfe1 d7bd 8158 5a3e 428a 54bd 8d0b f3bd
00000160: 9de6 b13e 6204 6e3e c606 fbbd 019f f6bc
00000170: 571a c13e 22b9 1f3e c55b a93d 201f 6abe
00000180: 2c52 373e 8dc5 de3e 5448 183e 58e8 413e
00000190: 037c 3ebe 1db5 26be eb2a e63e 094b 2e3e
000001a0: 33f1 dc3e 788b afbd 50bd 7fbe 17c6 723d
000001b0: fd6e fd3d 8ba8 853c 9c1f e8be 2386 ac3b
000001c0: b428 d1be 23da 40be 4907 073f 1fea a53d
000001d0: c987 a8be 2848 933d 6bcc d5be 91ca e23d
000001e0: 5284 afbe 336e 4dbe 2cba 0c3f ae06 ba3e
000001f0: 311c b03e 943f 413d 3303 4dbe 2735 5e3d
00000200: 8126 b6be 1e5c dd3d f738 153e 596a 5c3d
00000210: 0963 8ebe 304b 813d 615f ef3e b349 dc3d
00000220: 4e2e 3fbe 0ec3 e3be a954 6bbf 5e44 5fbd
00000230: e6fe 1b3e cd91 5f3e 12f1 833e 736d b0bc
00000240: cbc5 41be 98ee 64be a209 4bbe 63a6 2bbe
00000250: 9c42 b2be bb03 0bbe 83f7 743c ccf0 3f3d
00000260: f73c e7be dbd4 dfbe d390 b83e a678 d6bd
00000270: 3fc5 edbe 9923 87be 4498 b4be f3e7 c4be
00000280: a0fa e2be 07f6 ae3d 0c46 fdbc 4baf 303e
00000290: 8000 c6be a1ed cc3e fbe3 3abe fbaa 893e
000002a0: 8c88 cb3e e035 0f3f 1a4e 9f3e 8973 a13e
000002b0: 7251 bcbe f911 043e 32a7 4a3e 0b89 153e
000002c0: a547 c5bc 587a 8d3e 9b6a 5c3f ca38 7a3e
000002d0: 2c49 d23c 2164 b23c 48da d0bc ed7b b3be
000002e0: f16f 8f3e f243 8ebe 9af8 fabe 880a fd3d
000002f0: 10d8 1c3d af2b 393e b993 57bd b6ef c8be
00000300: 7bed 043f 282a e5bd b9ef 2cbe f40f 87be
00000310: a077 0fbe d3f3 94be c3b5 b7be 82d5 7abe
00000320: b8b4 a33e d71b 933e ffa4 0e3e 7cea f03d
00000330: ec30 a3bd 18fb 7fbe 4ec3 65be d2a3 1d3d
00000340: 9e38 493e f345 4ebe 2315 13bf 445b e6bd
00000350: 9735 743d 7b8c 023e 767e 5c3f 8f40 ea3d
00000360: 5ec3 71be 6044 643e a233 d13e 894d efbd
00000370: 058c c2be 7cc8 eb3d 8908 e1be 63e8 01bc
00000380: 2471 ab3d 89c3 bcbc 3656 683a e550 69be
00000390: bb04 04bf 7877 3dbc 1fc0 c2be 0580 35be
000003a0: 9fb6 a83e e282 93be 5698 033e c288 05be
000003b0: 41ad 85bd 9f3b 4bbe 4663 813e edba 41be
000003c0: 0d40 2c3d 58fa f63e 416a dd3e 1fa2 763e
000003d0: c066 083d 5945 b9be 70aa e3be 667c 50bd
000003e0: e30d fb3e e9b9 42be b332 97bd 8f1b 97be
000003f0: ebcf 09bf 3b49 9fbe c566 da3e 3c2f f13e
0.17149813 -0.25416744 0.087970145 -0.27141625 -0.12179098 0.15807624 0.29802758 0.021117691
0.28221282 -0.29740626 0.6828539 0.2967355 -0.22537729 -0.2788466 0.06650272 -0.1537455
0.07161379 -0.37017885 -0.4755743 -0.22861135 -0.33850038 0.033529963 -0.71194375 -0.105958804
0.5509896 -0.12893678 -0.46957967 -0.2329541 -0.2755472 -0.08041473 -0.043869615 0.010149036
-0.30989018 -0.2168106 0.20055495 0.054465864 0.21796921 0.29927805 0.0920743 0.4629619
0.2616953 -0.25959495 -0.06525893 -0.22696191 -0.119243145 -0.14484616 0.10562938 -0.110267654
0.490044 0.039640676 0.16967523 -0.07074288 0.22343606 0.09430908 0.06685463 -0.1699274
-0.18278387 0.2981825 0.13642693 0.2929972 -0.45363444 -0.2502478 -0.6003143 -0.020206576
-0.30530795 0.015215761 0.11456638 -0.0043248297 -0.41317332 0.037723523 -0.7226735 -0.1304401
-0.36069992 -0.14601193 0.32962775 -0.03338445 -0.030223092 0.16581902 0.39688972 0.045451876
0.24434361 -0.3364284 -0.15699413 -0.2557997 -0.10541128 0.21322824 -0.051889665 -0.118674375
0.34746256 0.2324386 -0.12257151 -0.030105116 0.37715408 0.15597966 0.08269457 -0.22863436
0.1790244 0.43510094 0.14871341 0.18936288 -0.18601994 -0.16280027 0.4495462 0.17020811
0.4315277 -0.085715234 -0.2497456 0.059270944 0.12374685 0.01631572 -0.45336616 0.005265014
-0.40851367 -0.18833213 0.5274549 0.08101296 -0.32916096 0.07191497 -0.4175752 0.11073793
-0.3428064 -0.20061569 0.54971576 0.3633322 0.34396508 0.047179773 -0.20020752 0.05424991
-0.3557625 0.108085856 0.14572512 0.05381236 -0.27809933 0.06313169 0.46752456 0.107562445
-0.18670008 -0.44484752 -0.91926056 -0.05450856 0.15233955 0.21832962 0.2576986 -0.021536564
-0.18923108 -0.22356641 -0.19827893 -0.1676269 -0.34816444 -0.13575642 0.0149515895 0.0468605
-0.451637 -0.43717083 0.36047992 -0.104722306 -0.4643955 -0.26394346 -0.3527242 -0.38458213
-0.44331837 0.0854302 -0.03091719 0.17254369 -0.38672256 0.40025046 -0.1825103 0.2688826
0.39752614 0.5594158 0.31114274 0.3153346 -0.36780888 0.12897481 0.19790342 0.14603059
-0.024082014 0.27632403 0.8610017 0.24435726 0.025669657 0.02177626 -0.02549471 -0.35055485
0.28015092 -0.27786213 -0.49017793 0.12355524 0.03829199 0.1808307 -0.052631114 -0.39245385
0.51924866 -0.11189681 -0.16888322 -0.2637936 -0.14010477 -0.29092273 -0.3588086 -0.2449551
0.31973815 0.28732178 0.13930129 0.11763474 -0.079683155 -0.24998128 -0.22437784 0.03848631
0.19650504 -0.20143871 -0.5745413 -0.11247876 0.05962142 0.12748902 0.86130464 0.11438095
-0.23609683 0.22291708 0.40859705 -0.116847105 -0.3799745 0.11512849 -0.43951824 -0.0079289405
0.08371189 -0.023042457 0.0008862944 -0.22784765 -0.5156972 -0.011564128 -0.38037202 -0.17724617
0.3295183 -0.28810793 0.1285108 -0.1304045 -0.06527186 -0.19846962 0.25271052 -0.18918963
0.04205327 0.48237872 0.43245128 0.24085282 0.033301115 -0.3618572 -0.4446597 -0.050899886
0.49034032 -0.19016232 -0.07382717 -0.29513213 -0.5383288 -0.31110558 0.42656532 0.4710635

layer1.bias f4 [128]
00000000: 2e31 fe3e e05f 8c3e ef49 9abe e59e fa3e
00000010: cecd cf3e 97d4 95be bafa 5ebe 1389 af3e
00000020: 39d4 dabe d1ba 4cbe b8c6 40be 1591 193f
00000030: fd3d 183e e82b e43e 5bc6 fa3e f61b f4be
00000040: c21c a13e b98b 84be 1d88 b4bd e39f fc3e
00000050: c915 9a3e 60b7 013f f14a bf3e f304 b4be
00000060: 1ee3 c2be 6bce 6fbe 2431 f93e b12b 9a3e
00000070: 0ee4 01bf 41f9 d13e c73f 38be dbc0 62be
00000080: 809b cb3e a0a4 803e 3faf f9bd 1486 d3be
00000090: 65aa c9be 1e4c e73e 3e0f 83be b52a 48be
000000a0: 88fa 08bf ac15 cb3d c67c e63d e60b ef3e
000000b0: 6968 a9be 404d b73e 413e 993e 4f65 643e
000000c0: 64e2 f7bd 9a1c e9bd 44c1 733e 564d da3e
000000d0: 1ae1 1e3f 0265 d4bd b1ea c73e 27b2 fe3e
000000e0: 2882 123f f3af 08bf d427 273f 598c 153f
000000f0: cc09 113e b774 093f 58d9 b83e 7b32 86bd
00000100: c36d bdbe f84a 3bbf cd19 af3e 53db 303e
00000110: 4035 c33e 2c73 4dbe 5048 233e 9604 cb3e
00000120: 10f6 b43e eb26 98be 7cdb 9d3e 40d9 0e3f
00000130: a55a b93d cb3c 75be 04ac a13e 7756 303e
00000140: 0f81 d9be 3483 70be e2cc b23e dddd f63d
00000150: 31f2 a13e 02de 103f cc91 cabe 83a5 cb3e
00000160: 11c0 01bf f550 083f 401a ee3e 1140 d7be
00000170: 9b66 e13e 8cf5 083f 9ddd 01bf 5e26 003f
00000180: 0b7f aa3e 5e9b 9ebe dcef 1d3f ce9e 24be
00000190: 87a5 d9be 505d 923e af6a ff3e c700 4a3e
000001a0: 322a 103f 358d b53e 9d20 05be 3083 e9bc
000001b0: 3e80 833e f35d c5bd 60ec 7bbe da41 c23e
000001c0: be11 653e a0be d9be d0db 143f 5679 0f3e
000001d0: b265 e5be b1ce 9abe b645 1b3f 6c10 113f
000001e0: 6352 6cbe 130e 283e 2d96 e93e 3cb7 65be
000001f0: 1497 0a3e fa5e bc3e 3535 203f 0664 123f
0.49646896 0.27416897 -0.30134532 0.48949352 0.40586704 -0.29263756 -0.21775332 0.34284267
-0.42740038 -0.1999314 -0.18825805 0.59987 0.14867397 0.44564748 0.48979458 -0.47677583
0.31467253 -0.2588785 -0.08815024 0.49340734 0.30094746 0.50670433 0.37361863 -0.35160026
-0.38063902 -0.23418586 0.48670304 0.3011146 -0.5073861 0.41010478 -0.17993079 -0.22143881
0.39767075 0.251256 -0.12191629 -0.4131323 -0.39387813 0.4517526 -0.25597566 -0.19547541
-0.5350728 0.09916243 0.112542674 0.46688765 -0.3308747 0.35801125 0.29930308 0.22304271
-0.121037275 -0.113824084 0.23804194 0.42637128 0.6206223 -0.10370828 0.39046243 0.49745294
0.5722985 -0.5339348 0.6529515 0.5841728 0.14163893 0.5369372 0.3610332 -0.06552597
-0.36997804 -0.7316127 0.34199372 0.17271166 0.38126564 -0.20063466 0.15945554 0.39651936
0.3534398 -0.29717192 0.30831516 0.5580025 0.09050492 -0.23948972 0.3157655 0.17220484
-0.42481276 -0.2348755 0.34921938 0.12054036 0.3163009 0.5658876 -0.3956436 0.39774713
-0.50683695 0.5324853 0.46504402 -0.42041066 0.44023594 0.53499675 -0.5072878 0.50058544
0.3330005 -0.3097791 0.6169412 -0.16076204 -0.425091 0.28586817 0.4988608 0.19726859
0.56314385 0.35459295 -0.13000722 -0.028504938 0.2568378 -0.0963706 -0.24601889 0.37940866
0.2237005 -0.42528248 0.5814791 0.1401113 -0.4480415 -0.30235818 0.60653245 0.5666568
-0.23078303 0.16411619 0.45622388 -0.2243318 0.13534194 0.3679121 0.6258119 0.57183874

layer2.weight f4 [128, 128]
00000000: a632 203e 428e d83d f2fa debd 471b ea3d
00000010: 90ea fa3d 3c39 9fbe 45a9 bfbd 7a17 133e
00000020: 34b0 83be 73f0 c0bc c90a 88be 3a32 993e
00000030: 3045 873d 71df e33c 26c8 d03d e500 3b3c
00000040: ed00 c63d 088b 41be 7995 acbc 1cf3 5a3d
00000050: 5aa8 763e f21e d03d ba26 0a3d c374 09bd
00000060: 1a85 94bd 0152 2fbe a597 6e3d 08e5 743e
00000070: 8f3c 2abe fe64 393e e008 aebd 28b4 8abe
00000080: 557e 483e 219b ea3d ae01 633d aca1 b8be
00000090: 775b 33bf e17c 5e3e f1dd babd 2bac fabc
000000a0: 5447 49bf 464d 8f3e aad9 793d 5e71 4e3e
000000b0: cb3b a8be abb2 023e 5463 793d 4c8d d53d
000000c0: a0df 65bd 6eb3 60bd 2836 683a 68f9 023e
000000d0: 9140 2a3e 6572 05bf 6d8b 813d 1411 1c3e
000000e0: c63f 703e 63a3 cabe cbe7 2d3e 3924 2c3e
000000f0: bee7 d23d 0691 0c3e b6cd 923d 938f a4bd
00000100: 0989 81be 19ef 1bbf ada4 493e 6f38 d63d
00000110: a5f3 a43b 675e 42be b5fb 823d d1b0 cc3d
00000120: a10c da3d 542b 7abd b0a2 cf3d eb59 263e
00000130: 3ff0 5cbd 4ccd 58be 1073 8e3d d35b f73d
00000140: 2d48 a0be 245c 2fbe 2f36 0a3e 9162 bd3d
00000150: 3535 903d 4db2 b53d a101 1dbe 0a6d 413e
00000160: c560 f9be c76d 423e 72a6 0d3e 4403 1bbe
00000170: 4454 553d b1f1 1e3e d4c6 23bf 00c5 f73d
00000180: 4fdc 343d 5064 c9be 0f5a e83d fb11 a6bd
00000190: 0f25 ffbd d184 413d 456f 3e3e 1d22 d63c
000001a0: f18f 5f3d cbde 493e ca2b f13b ba66 dbbe
000001b0: 8916 dd3c 12b9 4ebc 7b9c cabd f646 183e
000001c0: 65bb dfbc 3d6f 05bf 6d72 373e 8d7b 003e
000001d0: 099e 2abf c8cf cfbd 08ec 763e 7a9a 153e
000001e0: fd4e b63b e545 283d 1f7c 103e dba1 12be
000001f0: af09 dc3d e91f cf3d 6554 363e fc85 1b3e
00000200: 29ab 033d f5b9 c23c 742f 42bd 38ba 343d
00000210: 29b0 13bd 5354 6a3b b501 aebc fa41 65bd
00000220: 9938 45bd c94b 623d 7aa2 e43d 3fac d0bb
00000230: 0d94 6ebc 2a55 ec3b 99f4 9bbc 27eb a93c
00000240: 2358 953c 6b60 193c 1f6c e5bd c7e9 613d
00000250: 2088 bbbd e8ae 343d 3873 55bd 2e66 a53b
00000260: 07c4 92bd bca1 193d 9068 0b3d 3608 b8bd
00000270: f07e 7f3d 55d7 cbbb 57d2 93bd bb59 4a3e
00000280: caf3 33bd 8e41 bdbe a8ce 3cbd 0567 0d3e
00000290: 12df e8bc 94d4 41bd 30c0 573e 626b cc3b
000002a0: d3da 7bbb 4231 6a3d 777b 213b fe84 5bbd
000002b0: e3b2 183d 6992 9d3c 3c93 223c e1d9 5bbb
000002c0: 7a62 c53c ce4f e8bd ec58 063d 4a83 0d3d
000002d0: a414 3a3c d904 363e 2ee9 5d3d 6acc 70bd
000002e0: e262 4f3c 819f 03be bd28 ecbb 245d ae3c
000002f0: 9331 ce3d de4b 563d 0e0c 62bb 2f33 08bd
00000300: ce3b 3e3d a7d3 5ebd bb41 903d 674e f63c
00000310: 8a9c e43c aa23 e93c 1d4a 7f3b c454 e33c
00000320: 65ae 0abd a60a 50bd 307e 8dbd 87c8 373d
00000330: be80 8dbd 0c53 0abc 4aeb b1bc 3e14 59bc
00000340: 8765 023d b12e bf3d c15a 0b3d 68d8 bbbc
00000350: 1ab1 6abc 57ce 8dbd 3bd2 003c bd49 413d
00000360: ba8a 853d 182a 86bd aa83 cbbb 9266 b13c
00000370: 27b4 ee3c d251 23bd a937 14be d989 173c
00000380: 7f66 51bd 8666 913e 98c3 373d 1ab7 49ba
00000390: c95d b73a 7e44 c3bc 9a3f 8bbd d5b1 803c
000003a0: f284 673d 5654 1dbd be3f 563b dd55 1f3e
000003b0: 64d4 3fbd e05b 6a3b 0166 e73c ba08 8cbc
000003c0: 6038 a83c e42f 37bc 4aa7 b93c 2306 613d
000003d0: cd5f eabc d020 b43d 731d 70bc d8f8 ee3c
000003e0: 5683 963c 9878 a5bd d2ad 2a3d 113f 563e
000003f0: 0b1c b53d 5285 9cbb d716 773a a594 b2bd
0.15644321 0.105740085 -0.10887708 0.11430984 0.122517705 -0.31098354 -0.093584575 0.14364424
-0.2572037 -0.023552155 -0.26570728 0.29921132 0.06604993 0.027816506 0.10194425 0.0114137875
0.09668145 -0.18900692 -0.021067368 0.053454503 0.24087659 0.10162152 0.03372834 -0.03355862
-0.072519496 -0.17121126 0.05825009 0.23915493 -0.16624664 0.18104932 -0.084977865 -0.27090573
0.19579442 0.1145537 0.055421524 -0.36060846 -0.7006144 0.21727325 -0.09124363 -0.030599674
-0.78624463 0.27988642 0.060998596 0.20160434 -0.32858118 0.12763469 0.060885742 0.10427341
-0.05612147 -0.054858617 0.00088581676 0.12790453 0.16626193 -0.5212768 0.063254215 0.1524089
0.23461828 -0.3957778 0.16982953 0.16810693 0.102981076 0.13727197 0.071681425 -0.08035197
-0.25299862 -0.6091171 0.19691725 0.104599826 0.0050339275 -0.18981324 0.063956656 0.099946626
0.1064694 -0.061076477 0.10138452 0.16245238 -0.053940054 -0.21172065 0.0695554 0.12078061
-0.31305066 -0.17124993 0.13497232 0.09247316 0.070413984 0.08871899 -0.15332653 0.18889251
-0.48706642 0.18987189 0.13833025 -0.15137964 0.052082315 0.15521885 -0.6397526 0.12098122
0.044155415 -0.39334345 0.11345302 -0.08108898 -0.1245824 0.047245804 0.18597133 0.026139313
0.054580633 0.19713895 0.0073599564 -0.42851812 0.026988285 -0.012617366 -0.098931275 0.1487082
-0.027311036 -0.5212286 0.17914744 0.12547131 -0.6664739 -0.10147053 0.24113476 0.1460971
0.0055636154 0.04108228 0.14109848 -0.14319555 0.107440345 0.10113508 0.17805631 0.1518783
0.032145653 0.023770312 -0.047408536 0.044122905 -0.03605667 0.0035755828 -0.021241048 -0.055971123
-0.04814968 0.055248056 0.111638024 -0.0063681896 -0.014561665 0.007212301 -0.019037532 0.020742012
0.018230503 0.009361367 -0.11202263 0.055154588 -0.09156823 0.044112116 -0.052111834 0.005047581
-0.071662955 0.037507758 0.034035265 -0.08985941 0.062376916 -0.006220738 -0.072178535 0.19760792
-0.043933667 -0.36964077 -0.04609552 0.1380883 -0.02842668 -0.04732187 0.21069407 0.006238387
-0.003842999 0.057175882 0.0024640241 -0.053593628 0.037279975 0.019234853 0.009922799 -0.0033546614
0.024094809 -0.113433465 0.032799646 0.034549035 0.01135746 0.17775287 0.054177456 -0.058788694
0.012657853 -0.12853815 -0.007207005 0.021284647 0.10068049 0.052318446 -0.0034492048 -0.033251937
0.046443753 -0.054401066 0.07043787 0.030066682 0.027906675 0.028459389 0.0038954087 0.02775038
-0.03385772 -0.050791405 -0.06908834 0.044868972 -0.06909321 -0.0084426515 -0.02171864 -0.013249455
0.031835105 0.093350776 0.034022097 -0.022930339 -0.014324451 -0.06924122 0.007862623 0.047189463
0.065206006 -0.065509975 -0.006210764 0.021655355 0.029138638 -0.03987295 -0.14474358 0.009249174
-0.05112314 0.28398532 0.044864267 -0.0007694826 0.0013989742 -0.02383637 -0.067992404 0.015709797
0.05652327 -0.038410507 0.0032691802 0.15560098 -0.04683341 0.0035760328 0.028246881 -0.017094005
0.020534694 -0.011180852 0.022662777 0.054937493 -0.028610134 0.08795321 -0.014655459 0.029171392
0.018373173 -0.08079642 0.041669674 0.20922495 0.088432394 -0.004776635 0.00094257056 -0.08719758

layer2.bias f4 [128]
00000000: c0b7 273e fcf8 7db9 c150 b5bd 9dde 2a3e
00000010: 1fd9 913e 9f84 f2bd 228c 373e 8e05 853e
00000020: 0a9e 57bc 0e81 d1bd 7b60 5f3e ce0b 5a3e
00000030: 5b2e a53c 085f 29be ff8b 833e bdc0 1abd
00000040: df8d 50bd 9175 793d 7318 93bc 19c9 873e
00000050: 4b82 8a3e 3a91 733e 78f3 2c3e 3c3d 823d
00000060: a722 023e db6c e23d 5dec 813e 0d12 2c3d
00000070: 4780 5c3e 57c5 68bd d168 763d 513d 623e
00000080: 192c 833e 0e5c 4d3e 2503 84bb eea6 2abd
00000090: 1fcf 6a3c 920f 3e3e e252 07bd 3238 1d3c
000000a0: 7f8e 963e 45f3 673e 14dd 4b3e e467 30be
000000b0: c902 953e a2d9 8fbd fef0 08bd 8a6b 70bd
000000c0: 5991 e3bd 4131 113e dfb3 c2bd 02e1 503e
000000d0: c878 fabc d323 313e 124d a4bc b083 563e
000000e0: b0bc 353e b2da 593e 4b93 553e 74f2 85bb
000000f0: 5fe1 f8bd 90f6 963e 9855 bdbd 20b7 273e
00000100: 0f40 4c3e e2de 403e 36d1 273b 988d 1abd
00000110: 6119 633e e36a 593c 637f ebbd f76c 143e
00000120: 78d6 643e 6445 5f3d 8e4c 653e 59a3 923e
00000130: 3a6a 823e b77e b5bd f83d 0c3e 2240 303e
00000140: 14df 783e 71ff 843e 8138 1cbd 92b3 253d
00000150: 7e34 7ebd 510c 923c 2753 d5bc 8a67 353e
00000160: e78d 03bd 431d 233e 0e18 393e f34b b13c
00000170: 70a1 833e aa3e 3c3d d33f a9bd bc18 dfbc
00000180: a020 4d3e d7ca 5bbd 1027 57b8 37bf 6f3e
00000190: 55e8 8fbd 1e3f 883e 5bc1 4ebd 78ca d83c
000001a0: 85ec 0f3c 81f2 573c 5406 1dbb 95a4 733e
000001b0: 34b8 483e 330b 1dbd 6b8c 823e 384c 99bd
000001c0: 4d69 8c3e 528d 793e 30d6 253e 0908 713e
000001d0: 4c7c 8a3e 73db 773e 8271 383e 6618 87bd
000001e0: bf0d bb3b 90cc 593e a4f5 323e 30f4 843e
000001f0: a5a8 fcbc 6e01 8e3e c6ff 843e 9009 d6bd
0.16378689 -0.00024220714 -0.08853293 0.16686483 0.28485963 -0.11841702 0.1792455 0.259808
-0.013160238 -0.10229693 0.21814148 0.21293566 0.020163706 -0.16540158 0.25692746 -0.037781466
-0.05091655 0.060903136 -0.017955994 0.26520613 0.2705253 0.23785868 0.16889751 0.06359336
0.12708531 0.11055919 0.25375643 0.042009402 0.21533309 -0.056828823 0.060158554 0.22093703
0.2561958 0.20054647 -0.004028695 -0.041663103 0.014331608 0.18560627 -0.033038028 0.009595918
0.2940559 0.22651394 0.19908553 -0.17227131 0.29103687 -0.07023932 -0.033432953 -0.058696307
-0.11111707 0.14178945 -0.09506964 0.20398334 -0.030575171 0.17298822 -0.020056281 0.20948672
0.1774776 0.21274832 0.20856969 -0.0040877406 -0.12152361 0.29484987 -0.09244841 0.1637845
0.19946311 0.18835023 0.0025606877 -0.03773269 0.2217765 0.013270113 -0.114989065 0.14494692
0.22347438 0.054509535 0.22392485 0.2864025 0.2547167 -0.088620596 0.13695514 0.17211965
0.24303848 0.25976136 -0.038139824 0.040454455 -0.06206178 0.017828139 -0.026040627 0.17715278
-0.03211775 0.15929131 0.18075582 0.02164266 0.25709105 0.0459582 -0.08264127 -0.027233474
0.20031977 -0.05366024 -5.1296374e-05 0.23412786 -0.07026736 0.26610655 -0.050477367 0.026463732
0.008784418 0.013180376 -0.002396007 0.23793252 0.19601518 -0.03834076 0.25497755 -0.07485241
0.27424088 0.24370316 0.16194987 0.23538221 0.27047956 0.24204807 0.1801205 -0.065964505
0.005708426 0.2126944 0.17476517 0.2596755 -0.030842135 0.27735466 0.2597639 -0.10451043

layer3.weight f4 [2, 128]
00000000: 15e3 9c3e 50e5 18bd d74b e4be 5278 873e
00000010: 7d4c 963e 5334 c0be 7251 873e 2860 7d3e
00000020: 0707 50bd 1751 25bf 5276 443e 6779 933e
00000030: 9e7f 9cbe 2251 f7be 5347 a13e 8c8c c2be
00000040: 1eea 46be 4b93 64bd 0509 c3be 3505 973e
00000050: 2cb0 853e 8ac7 953e 009b 9d3e 2aaf 70be
00000060: 1012 923e 79f2 9f3e 1601 8d3e ef81 25bf
00000070: 2a00 5e3e 6483 873d 1e78 0dbd c2ba 823e
00000080: 6a8a 8d3e ef36 7a3e 7a7d 4cbf a1d0 503d
00000090: 3c58 36bc d015 953e a1ab 8dbd dc06 32bf
000000a0: 9347 883e 6f99 ae3e 3c79 8f3e 1e07 01bf
000000b0: 5c66 6e3e 6e16 833d 3fb2 6d3d b7ad 7e3d
000000c0: 7b4e e1be 2522 843e e3d6 94be c580 853e
000000d0: 4b52 08bd 242f 843e 012f 76bd 8f5f 9e3e
000000e0: 6d24 963e c8c7 b33e b708 6f3e dc17 42bf
000000f0: 9870 74bf c5b6 783e 1b2a 42bf be28 713e
00000100: fbec 923e c8d9 9e3e 9ca1 11bf 9262 10bc
00000110: 9e1c 403e 7d03 9dbe 690b 0abf 8b2a 933e
00000120: de39 573e cc6f 483e 3372 853e 53f0 953e
00000130: b7ba 8e3e 0bff 1ebf f447 af3e 698e 8a3e
00000140: 4817 9d3e ddb5 8e3e d321 12bf 3459 a6bd
00000150: 9cf0 fabe 66c5 3fbe e498 cf3c 83a2 a03e
00000160: 1c88 4cbc 2a6e 7d3e ed01 633e 7d72 713d
00000170: 1881 ad3e 5aca acbb b5e7 30bf b4c2 b4bc
00000180: cda9 7c3e 725e 0abf 14aa 2bbc dd12 6c3e
00000190: 434d 89be 88dd 4c3e 4419 cebe 076c d7be
000001a0: 799e c43a 560f acbe 4c50 babe bd31 9e3e
000001b0: 1e67 a43e 332a bcbe 180e 9f3e 09e8 a0be
000001c0: d699 9f3e 90cf 523e 7816 963e 593c 6f3e
000001d0: 962e 803e cce2 823e f029 a53e 6f3a c1bc
000001e0: 1529 9abe c2c3 9f3e dea0 933e 4eb8 933e
000001f0: 0733 873d 4365 8b3e ddcc 803e da61 5ebe
00000200: 2c36 553e 8e6e 81bc 88ef 02bf e52e a13e
00000210: 896e 6d3e 9524 1abf bf07 963e b352 8b3e
00000220: 76b5 ab3c 9bdf 1abf fbe0 9b3e af93 a73e
00000230: 7040 11bc e502 27bf 0122 903e 10c2 e6be
00000240: 9703 9abe 493c 69bd 3f91 a8bd bf67 683e
00000250: d856 843e 1809 643e 3a8d 823e cc6f 70be
00000260: b89d d43d 0182 923e 1b52 9e3e 5656 0bbf
00000270: 2dfb aa3e e8be 893d 4647 30bc 9b33 8e3e
00000280: e72f 813e 1b22 9f3e 7077 5bbf 0d33 54bd
00000290: 0a78 45bd 84e3 933e 91db 82bc b676 3ebf
000002a0: 54c2 773e 6c59 7e3e 5cac 8b3e f653 0fbf
000002b0: 727a 973e 8799 dcbc 5ab0 333d 32eb 193c
000002c0: b0fe 10bf 49ae 9a3e 914e 9ebe a0b7 883e
000002d0: 56dc 59bb 4157 a73e 0ade 8c3b 2408 483e
000002e0: 0429 433e 3c83 8d3e a86a aa3e e93d 98be
000002f0: 7587 49bf 5160 933e dd95 44bf 10ea 8d3e
00000300: 8722 9d3e 8e65 5a3e 736c f0be 3cc7 dfbc
00000310: 45af a93e a23d b0be bb53 08bf 3dab 953e
00000320: 89ab 993e 977e ecbd 44a0 ae3e 47f9 893e
00000330: b582 9b3e 94c8 46bf a297 583e 7198 563e
00000340: 5121 ac3e df11 873e 05ea debe ebb9 153d
00000350: adc0 c8be 518d 08bd 877f c43d e319 683e
00000360: 0e80 96be 7cbc a23e 0c01 9f3e fa08 713c
00000370: 23cd 573e efce 9bbc e7b5 3abf 438f 4f3c
00000380: 4196 923e 7222 0abf c374 14bd 07b3 aa3e
00000390: e3a9 cabe e4f0 973e a61a 05bf d420 f0be
000003a0: 2baa 413d 975a a8be 890d 63bd 7ac0 7a3e
000003b0: 3bf5 b03e 0edc f7bd 5ee7 513e e4a0 e0bd
000003c0: b158 9b3e 4af9 a03e 40cb 1a3e e64c 903e
000003d0: 0eac 813e f891 9e3e c0d3 2d3e 49f5 8abd
000003e0: 51b7 923e e83e 8a3e 2cd1 9a3e f145 443e
000003f0: 862c 2bbd 210b 783e 53e7 a13e 2fe4 cdbe
0.30642 -0.037328064 -0.4458911 0.26458985 0.2935523 -0.3753992 0.26429325 0.24743712
-0.05078795 -0.6457686 0.1918576 0.2880356 -0.30566114 -0.48304087 0.3149973 -0.37997854
-0.19425246 -0.055804532 -0.3809282 0.2949616 0.2611097 0.292538 0.30782318 -0.2350432
0.28529406 0.3123968 0.2753989 -0.6465139 0.2167975 0.06616858 -0.03453838 0.2553311
0.27644664 0.24435018 -0.7987896 0.050980214 -0.011129435 0.29118204 -0.06917501 -0.69541717
0.26617107 0.34101436 0.28022182 -0.50401485 0.23281235 0.064007625 0.058031317 0.062177386
-0.44005188 0.258073 -0.29070196 0.26074806 -0.033281606 0.25817215 -0.06010342 0.3093228
0.29324666 0.35113358 0.23343168 -0.75817657 -0.95484304 0.24288471 -0.758455 0.23550698
0.28696427 0.3102553 -0.5688722 -0.0088125635 0.18760917 -0.30666724 -0.5392366 0.28743395
0.21018168 0.19573897 0.2606369 0.29284915 0.27876827 -0.62107915 0.34234583 0.27061775
0.30681825 0.27873126 -0.5708286 -0.08122483 -0.49011695 -0.18727645 0.025341459 0.31373987
-0.012483623 0.24749056 0.22168703 0.058947075 0.33887553 -0.0052731456 -0.69103557 -0.022065498
0.24674149 -0.5405036 -0.0104775615 0.23054071 -0.2681676 0.20006382 -0.4025365 -0.42074606
0.0015000842 -0.3360545 -0.36389387 0.30897322 0.32109922 -0.36750945 0.3106544 -0.3142703
0.31172055 0.20586991 0.29314017 0.23362865 0.25035542 0.25563657 0.32258558 -0.023587434
-0.30109468 0.3120404 0.2883367 0.2885155 0.066015296 0.27225694 0.25156298 -0.21717015
0.20821446 -0.015799787 -0.51146746 0.3148109 0.23186697 -0.6021207 0.29302785 0.27211532
0.02096055 -0.60497445 0.30445084 0.3272986 -0.008865461 -0.6523879 0.28150943 -0.45069933
-0.30080864 -0.056942258 -0.082308285 0.22695826 0.25847507 0.22269094 0.25498372 -0.23480147
0.10381645 0.2861481 0.30922017 -0.54428613 0.33394757 0.067258656 -0.01075918 0.27773747
0.2523186 0.31080708 -0.8572912 -0.0518065 -0.04821018 0.28884518 -0.015973838 -0.7439989
0.24195224 0.24838799 0.27279937 -0.5598749 0.29585606 -0.026928676 0.043869354 0.009394454
-0.5663862 0.30211094 -0.30919316 0.26702595 -0.0033242903 0.32683757 0.00429893 0.19534355
0.19058615 0.27639186 0.33284497 -0.29734734 -0.78722316 0.2878442 -0.76791173 0.27717638
0.30690405 0.21327803 -0.4695774 -0.027316682 0.33141533 -0.34422022 -0.5325276 0.29232207
0.30013683 -0.115475826 0.34106648 0.26947996 0.3037316 -0.7764981 0.21151593 0.2095659
0.33619168 0.26380822 -0.43537918 0.03655426 -0.392095 -0.033337895 0.095946364 0.22666125
-0.29394573 0.31784427 0.31055486 0.014711613 0.21074347 -0.019019572 -0.7293381 0.012668434
0.2863026 -0.5395881 -0.036244165 0.33339712 -0.39582738 0.29675972 -0.5199379 -0.46900046
0.047281425 -0.32881615 -0.05543283 0.24487486 0.34562096 -0.12102519 0.20498416 -0.109681875
0.30341104 0.31440192 0.15116596 0.2818367 0.2532658 0.3097074 0.16975307 -0.06785066
0.28655484 0.2700112 0.3023771 0.19167306 -0.041790508 0.24222995 0.316218 -0.40213153

layer3.bias f4 [2]
00000000: 9f93 7e3c c556 e43d
0.015538125 0.111493625
