model_weights/DQN/cartpole/cartpole_dqn_episode_2999.pth (torch, 72508 bytes, 6 tensors)

layer1.weight f4 [128, 4]
0.114246346 -0.18598016 0.08722522 -0.1991762 -0.11387395 0.11397457 0.27371818 0.046133433
0.23713727 -0.21815537 0.64486796 0.21337959 -0.18321602 -0.20861666 0.058713447 -0.11350978
0.04028522 -0.27347302 -0.36235556 -0.18031359 -0.22329377 -0.024372518 -0.72378534 -0.05011812
0.41038197 -0.09734019 -0.3408301 -0.14953041 -0.22071545 -0.06066659 -0.03180614 0.0059212656
-0.22165915 -0.19095853 -0.072126724 -0.1286238 0.14826505 0.20839074 0.29286572 0.3885953
0.19358927 -0.2427889 -0.24781951 -0.20286937 -0.10074275 -0.102241926 0.09103649 -0.08614781
0.3699678 0.07596351 0.15307243 -0.09855974 0.200434 0.04364921 -0.047806863 -0.034282647
-0.16041623 0.22011292 0.15486458 0.2444714 -0.31654173 -0.24406804 -0.7444196 -0.19346881
-0.2437073 0.010859133 0.09909494 -0.0006680528 -0.31457633 -0.038210966 -0.7499262 -0.13632225
-0.2553217 -0.14869392 0.00092845556 -0.094181694 -0.029426754 0.12793215 0.33801392 0.050920438
0.19288038 -0.24716371 -0.10337487 -0.1984208 -0.09551032 0.1584968 0.036465544 -0.02193802
0.27351868 0.122622386 -0.21339056 0.016549585 0.2797044 0.11513068 0.07626905 -0.14228134
0.13381702 0.32833764 0.11025673 0.11505814 -0.1346015 -0.13560992 0.22474341 0.08507298
0.5330597 0.06944938 -0.18262617 -0.025435222 0.16868424 0.053486284 -0.38793504 0.025830261
-0.3026357 -0.18219988 0.21926142 -0.03429379 -0.26032737 0.054626986 -0.30862424 0.07905711
-0.25877455 -0.19469371 0.21156213 -0.06735644 0.25703618 0.03522708 -0.14965336 0.040543534
-0.27973175 0.07933123 0.11624452 0.038848378 -0.22038612 0.05318289 0.39633486 0.09303046
-0.13590549 -0.36818767 -1.0083948 -0.252324 0.113619424 0.16717832 0.19127958 -0.047739066
-0.13845004 -0.21767265 -0.42114422 -0.22519518 -0.27483237 -0.10126772 0.020503307 0.035022937
-0.3357414 -0.35393846 0.10742738 -0.18307163 -0.34333938 -0.21773288 -0.46238473 -0.35076848
-0.31678128 0.01186551 -0.33450904 0.062019326 -0.37394875 0.21401562 -0.1951608 0.22526217
0.26292008 0.41964734 0.3486159 0.28247157 -0.2897429 0.09441253 0.15949543 0.10998224
-0.028313167 0.19915763 0.84543383 0.25882822 7.204792e-05 0.02067838 0.04791867 -0.2448233
0.18087244 -0.18480162 -0.32779503 -0.037156865 0.19807622 0.14473721 -0.12372819 -0.15754503
0.38615084 -0.08620159 -0.08662988 -0.124356836 -0.09150005 -0.23467875 -0.45444483 -0.19641186
0.24272484 0.16838703 0.019446766 0.1328488 -0.07468776 -0.18447864 -0.14872594 0.02459744
0.1323598 -0.14620674 -0.40813452 -0.07990614 0.05170212 0.07649881 0.8427846 0.16339155
-0.20227493 0.17669994 0.42439893 -0.11527416 -0.2981002 0.08635834 -0.33059266 -0.010113977
0.046534065 -0.019474566 0.025440034 -0.13593028 -0.3974556 -0.08758317 -0.5162008 -0.09578333
0.23251174 -0.21207802 0.12187957 -0.09049439 -0.06426246 -0.14864245 0.20572905 -0.13632695
-0.03821236 0.36399928 0.36954907 0.27855477 0.009357441 -0.26688874 -0.31902942 -0.041700765
0.5416132 -0.0626686 -0.026723603 -0.14320855 -0.39323118 -0.25533715 0.18409538 0.09448748
00000000: fdf9 e93d 9571 3ebe 23a3 b23d d9f4 4bbe
00000010: bf36 e9bd 806b e93d ca24 8c3e 69f6 3c3d
00000020: 1dd4 723e 1f64 5fbe 1116 253f 2e80 5a3e
00000030: fb9c 3bbe 9b9f 55be 837d 703d d177 e8bd
00000040: 1d02 253d a804 8cbe ab86 b9be 20a4 38be
00000050: 1fa7 64be e0a8 c7bc ff49 39bf a848 4dbd
00000060: 961d d23e 4b5a c7bd 4881 aebe 801e 19be
00000070: 3b03 62be 887d 78bd 2847 02bd 2d07 c23b
00000080: 9efa 62be a28a 43be 2db7 93bd f5b5 03be
00000090: cbd2 173e 6264 553e 7ff2 953e f7f5 c63e
000000a0: 443c 463e a79d 78be 66c4 7dbe fdbc 4fbe
000000b0: 3752 cebd 3764 d1bd 5771 ba3d 436e b0bd
000000c0: 6b6c bd3e c292 9b3d 05bf 1c3e b0d9 c9bd
000000d0: 923e 4d3e 84c9 323d 21d1 43bd f66b 0cbd
000000e0: 2744 24be 4865 613e d294 1e3e b656 7a3e
000000f0: c211 a2be f9ec 79be 4892 3ebf b01c 46be
00000100: 688e 79be 81ea 313c 4af2 ca3d 4420 2fba
00000110: 2610 a1be 1a83 1cbd 2afb 3fbf 0f98 0bbe
00000120: 87b9 82be 3843 18be 9963 733a 55e2 c0bd
00000130: 6010 f1bc a500 033e 2910 ad3e f391 503d
00000140: 6f82 453e 7c18 7dbe 34b6 d3bd d22e 4bbe
00000150: ea9a c3bd fc4c 223e e55c 153d 5db7 b3bc
00000160: a40a 8c3e 7221 fb3d 0e83 5abe ff92 873c
00000170: 6a35 8f3e a2c9 eb3d f332 9c3d 33b2 11be
00000180: 5407 093e df1b a83e 48ce e13d 9aa3 eb3d
00000190: fad4 09be 54dd 0abe 2323 663e be3a ae3d
000001a0: 9a76 083f 7a3b 8e3d 5b02 3bbe 875d d0bc
000001b0: 90bb 2c3e 6f14 5b3d 6c9f c6be fc99 d33c
000001c0: 11f3 9abe 9b92 3abe 1186 603e a577 0cbd
000001d0: a149 85be 8cc0 5f3d ff03 9ebe b2e8 a13d
000001e0: 197e 84be ca5d 47be bea3 583e 2cf2 89bd
000001f0: 3f9a 833e 454a 103d bb3e 19be fa10 263d
00000200: 0039 8fbe 6978 a23d 9b11 ee3d 7a1f 1f3d
00000210: e6ac 61be 4dd6 593d 67ec ca3e c186 be3d
00000220: cf2a 0bbe 1883 bcbe 1513 81bf 9c30 81be
00000230: 4db1 e83d cb30 2b3e cbde 433e 0a8a 43bd
00000240: d9c5 0dbe 94e5 5ebe 37a0 d7be 9199 66be
00000250: d4b6 8cbe 7365 cfbd 8df6 a73c 3674 0f3d
00000260: 4ce6 abbe 6c37 b5be e302 dc3d 2177 3bbe
00000270: 2eca afbe 5ef5 5ebe b1bd ecbe ed97 b3be
00000280: 2831 a2be 8e67 423c c544 abbe fa07 7e3d
00000290: 3676 bfbe e926 5b3e 3cd8 47be 20ab 663e
000002a0: 769d 863e 04dc d63e c97d b23e 1da0 903e
000002b0: 2e59 94be 5b5b c13d c552 233e 5e3e e13d
000002c0: 04f1 e7bc faef 4b3e 5a6e 583f 2285 843e
000002d0: 6f18 9738 b565 a93c 5e46 443d f6b2 7abe
000002e0: a036 393e a33c 3dbe c0d4 a7be cc31 18bd
000002f0: 7ed4 4a3e fe35 143e 3565 fdbd 7c53 21be
00000300: 90b5 c53e 768a b0bd 026b b1bd ccae febd
00000310: 6164 bbbd a04f 70be feac e8be 3120 49be
00000320: dc8c 783e a66d 2c3e d34e 9f3c 8409 083e
00000330: e5f5 98bd f8e7 3cbe 9d4b 18be 9280 c93c
00000340: 5489 073e 38b7 15be 02f7 d0be d5a5 a3bd
00000350: 9ac5 533d 68ab 9c3d bbc0 573f 1d50 273e
00000360: 2921 4fbe d4f0 343e d14a d93e dc14 ecbd
00000370: 97a0 98be a4dc b03d 7143 a9be 18b5 25bc
00000380: 819a 3e3d 2089 9fbc 9e67 d03c 4f31 0bbe
00000390: 4d7f cbbe ce5e b3bd bc25 04bf 0d2a c4bd
000003a0: 8f17 6e3e fb2a 59be ff9b f93d 1f55 b9bd
000003b0: 099c 83bd ba35 18be a3aa 523e 4b99 0bbe
000003c0: 9084 1cbd 1d5e ba3e 8935 bd3e bb9e 8e3e
000003d0: f44f 193c a4a5 88be d357 a3be 6cce 2abd
000003e0: 2aa7 0a3f 6558 80bd 75eb dabc 43a5 12be
000003f0: 9955 c9be 8dbb 82be 8083 3c3e a782 c13d

layer1.bias f4 [128]
0.43047833 0.27951455 -0.27574614 0.43258917 0.36879325 -0.22508766 -0.17781743 0.32736912
-0.29687008 -0.1635922 -0.124947764 0.5071082 0.10730886 0.46034178 0.4343414 -0.2780133
0.3058969 -0.13505153 -0.026256021 0.44140887 0.26279157 0.4462463 0.40977526 -0.27318567
-0.2811177 -0.18433516 0.36909235 0.2838461 -0.35385233 0.37544152 -0.06341197 -0.16542953
0.37069014 0.24150026 -0.02094262 -0.30460244 -0.22077593 0.4042479 -0.15712301 -0.14421915
-0.3311419 0.118170165 0.08024421 0.4214481 -0.267047 0.3265614 0.29227957 0.1269585
-0.1281141 -0.11454538 0.23202963 0.3859327 0.5244947 -0.1354663 0.3417004 0.4441369
0.49420425 -0.3064112 0.54862106 0.50122184 0.16792957 0.46346748 0.2680982 -0.05617929
-0.2764114 -0.45561394 0.31981856 0.12531583 0.38329718 -0.17500831 0.20656934 0.36704713
0.31690803 -0.21573798 0.3063644 0.47722933 0.14303896 -0.18830758 0.34525043 0.22029938
-0.31584862 -0.14479987 0.33472 0.07037914 0.31947863 0.49118525 -0.3027666 0.3642489
-0.3406128 0.46316782 0.41295248 -0.31009904 0.41397598 0.45657042 -0.31497148 0.43351722
0.3664101 -0.2313066 0.5291858 -0.1178536 -0.2913473 0.36546758 0.43328935 0.18363696
0.50560826 0.32560614 -0.14070137 -0.021041747 0.2427157 -0.024649316 -0.20272397 0.3573582
0.24174993 -0.24711981 0.50171363 0.08711873 -0.235787 -0.23473574 0.52369237 0.4909107
-0.17009446 0.324327 0.4006107 -0.16755106 0.030126467 0.35311222 0.53113884 0.490182
00000000: a867 dc3e 881c 8f3e 992e 8dbe 547c dd3e
00000010: 78d2 bc3e 617d 66be c615 36be ed9c a73e
00000020: 5bff 97be b784 27be 9de4 ffbd d8d1 013f
00000030: bfc4 db3d ebb1 eb3e ff61 de3e c257 8ebe
00000040: 859e 9c3e f34a 0abe de16 d7bc 5800 e23e
00000050: 9e8c 863e 657a e43e 10ce d13e fede 8bbe
00000060: a9ee 8fbe 5bc2 3cbe acf9 bc3e 4754 913e
00000070: 222c b5be df39 c03e 23de 81bd 5c66 29be
00000080: 19cb bd3e d84b 773e db8f abbc daf4 9bbe
00000090: 1613 62be 95f9 ce3e dbe4 20be 2fae 13be
000000a0: 6e8b a9be 3303 f23d 1457 a43d 0cc8 d73e
000000b0: 62ba 88be 0e33 a73e aba5 953e 6901 023e
000000c0: 5830 03be c596 eabd 2d99 6d3e f998 c53e
000000d0: 4945 063f aeb7 0abe 5bf3 ae3e e965 e33e
000000e0: 5708 fd3e eee1 9cbe 6e72 0c3f 1350 003f
000000f0: bbf5 2b3e 9c4b ed3e 2b44 893e 411c 66bd
00000100: cc85 8dbe 3b46 e9be 42bf a33e cb52 003e
00000110: 873f c43e 6135 33be ea86 533e 9aed bb3e
00000120: c541 a23e 6bea 5cbe cbdb 9c3e 6757 f43e
00000130: ce78 123e b4d3 40be aac4 b03e 2996 613e
00000140: e9b6 a1be 6b46 14be 6b60 ab3e f022 903d
00000150: b492 a33e a27c fb3e 3904 9bbe d57e ba3e
00000160: cd64 aebe 5524 ed3e 826e d33e 4dc5 9ebe
00000170: a9f4 d33e 99c3 e93e f143 a1be f8f5 dd3e
00000180: 1b9a bb3e a3db 6cbe b878 073f 3a5d f1bd
00000190: 792b 95be 911e bb3e 1ad8 dd3e 540b 3c3e
000001a0: 8b6f 013f d9b5 a63e 0514 10be be5f acbc
000001b0: 778a 783e 5ded c9bc df96 4fbe a7f7 b63e
000001c0: 4b8d 773e fa0c 7dbe 4e70 003f 4e6b b23d
000001d0: 2672 71be 915e 70be b410 063f a658 fb3e
000001e0: 3e2d 2ebe 300e a63e d81c cd3e 8192 2bbe
000001f0: c8cb f63c 20cb b43e b7f8 073f 23f9 fa3e

layer2.weight f4 [128, 128]
0.1582518 0.21700549 -0.08976108 0.12196136 0.11842585 -0.28459278 -0.06917431 0.15268393
-0.18874922 -0.077965334 -0.43493062 0.27222952 0.060827278 0.12050211 0.17756996 -0.021828048
0.12754935 -0.18350323 -0.0014106822 0.1551778 0.20531446 0.16284694 0.07660156 -0.023842555
-0.05470246 -0.12365007 0.15903503 0.28567842 -0.10440034 0.18959972 -0.03717012 -0.2020934
0.21575259 0.1674914 0.032828625 -0.27175283 -0.57351285 0.20463246 -0.064952165 -0.03451234
-0.42206717 0.27738684 0.05141229 0.22459358 -0.49218932 0.12771301 0.05664903 0.0448005
-0.032169785 -0.06658525 0.006650296 0.12979622 0.16599654 -0.56831974 0.15911044 0.17019145
0.24004172 -0.28680015 0.17266217 0.17113619 0.10622535 0.13486275 0.156909 -0.033329107
-0.18890591 -0.3420613 0.24926564 0.054459766 0.05101402 -0.27671552 0.08547765 0.15057416
0.117564194 -0.04093511 0.11175662 0.16610275 -0.091079704 -0.13240217 0.12609226 0.19679676
-0.19616982 -0.19593778 0.14647613 0.08482836 0.18688089 0.17792629 -0.10865544 0.19397824
-0.4923995 0.17988561 0.13464734 -0.11456492 0.07633643 0.19405402 -0.44602275 0.14368567
0.099466674 -0.2940514 0.1332835 -0.102580085 -0.10477231 0.1065407 0.18117905 0.037227813
0.08966808 0.19495572 -0.03227157 -0.28940177 0.15567517 -0.019194 -0.14997806 0.20355844
-0.017189842 -0.26015124 0.17845903 0.114794515 -0.53715616 -0.14476338 0.30312872 0.23266421
0.014848285 0.107720524 0.14013647 -0.106810205 0.07770443 0.09289499 0.1833932 0.1568755
0.028471591 -0.0013729854 0.13687132 0.07056576 -0.032808192 0.0026191843 -0.015872195 -0.007188118
-0.035974078 0.17693883 0.08213794 0.0038930983 -0.0109389555 -0.060517356 -0.0015807548 0.030437307
0.0220418 -0.032001305 0.2322623 0.026160426 -0.0473904 -0.038955387 -0.10217736 0.0037649164
-0.05345399 0.232956 0.0024136903 -0.32120803 0.35448962 -0.03757644 0.1670915 0.14774586
-0.044073496 -0.15368861 -0.1559501 0.103096485 -0.021397503 0.011030362 0.4535535 0.002616073
0.009637675 0.037461963 0.0018403548 -0.024360279 0.25038984 0.03505812 0.048982564 -0.0026946964
0.018001923 1.1283433 -0.019583385 0.075422145 -0.020173274 0.34258 0.059877526 -0.120494545
-0.041886605 -0.09303993 0.024520097 0.040217176 0.028144624 0.07022382 -0.0016574571 0.12283603
0.034687463 -0.040654384 0.099162176 0.11668151 -0.043841034 0.21239117 0.13070421 0.02448409
-0.037635244 -0.037057314 -0.037858356 0.06845583 0.0057246634 -0.0062974105 -0.040559545 -0.42681167
0.31179962 0.06394933 0.1135236 -0.043656107 0.057941534 -0.17146215 0.005871832 0.08079008
0.048639394 -0.018569028 -0.0026333437 0.016182914 0.053610805 -0.0609878 -0.10797122 0.056752108
-0.066989854 0.21191067 0.055172358 0.11879993 0.18344076 0.030535158 -0.10871442 0.11376046
0.076249935 0.052596793 0.019887349 0.09452837 -0.0700976 0.14163114 0.16134752 0.008960258
0.024906332 0.28449747 0.056707013 0.03699856 -0.07513107 0.1916773 -0.07928109 0.031694226
0.013706572 -0.12359776 -0.02400418 0.15626265 0.07386636 -0.004308001 -0.030904954 -0.09886801
00000000: c30c 223e b036 5e3e a8d4 b7bd e1c6 f93d
00000010: 4189 f23d 25b6 91be 43ab 8dbd 2d59 1c3e
00000020: 7a47 41be 4aac 9fbd 3aaf debe ab61 8b3e
00000030: 0626 793d cfc9 f63d e6d4 353e bcd0 b2bc
00000040: 4c9c 023e 45e8 3bbe a4e6 b8ba eee6 1e3e
00000050: f43d 523e 59c1 263e 47e1 9c3d 7651 c3bc
00000060: b00f 60bd 3f3c fdbd 14da 223e 7144 923e
00000070: d8cf d5bd 6e26 423e b23f 18bd 92f1 4ebe
00000080: 3fee 5c3e de82 2b3e 4f77 063d 3023 8bbe
00000090: bdd1 12bf 2c8b 513e a405 85bd d05c 0dbd
000000a0: 3019 d8be a605 8e3e b295 523d dcfb 653e
000000b0: 3d00 fcbe 33c7 023e d008 683d bb80 373d
000000c0: 77c4 03bd d95d 88bd baea d93b 4de9 043e
000000d0: fffa 293e 677d 11bf d9ed 223e ab46 2e3e
000000e0: 7fcd 753e 78d7 92be 5ace 303e 533e 2f3e
000000f0: ad8c d93d 7619 0a3e c1ac 203e 1a84 08bd
00000100: 8d70 41be a922 afbe 7e3f 7f3e 3411 5f3d
00000110: 14f4 503d a8ad 8dbe e80e af3d 1d30 1a3e
00000120: 7fc5 f03d 93ab 27bd a8e0 e43d d716 2a3e
00000130: ff87 babd 6f94 07be 541e 013e 1785 493e
00000140: bee0 48be eaa3 48be d7fd 153e 7eba ad3d
00000150: b45d 3f3e 4f32 363e be86 debd 3ba2 463e
00000160: ca1b fcbe ef33 383e fee0 093e 03a1 eabd
00000170: 4656 9c3d 19b6 463e 185d e4be 5622 133e
00000180: 2fb5 cb3d e88d 96be 787b 083e 8215 d2bd
00000190: dd92 d6bd 0332 da3d 0087 393e 317c 183d
000001a0: e6a3 b73d 79a2 473e 322f 04bd 782c 94be
000001b0: 5069 1f3e bc3c 9dbc d993 19be a071 503e
000001c0: b6d1 8cbc 8b32 85be f7bd 363e 6319 eb3d
000001d0: 1183 09bf da3c 14be b033 9b3e 873f 6e3e
000001e0: 3946 733c 949c dc3d ef7f 0f3e 4fbf dabd
000001f0: 8023 9f3d bb3f be3d 6dcb 3b3e f9a3 203e
00000200: 413d e93c bff5 b3ba ff27 0c3e c884 903d
00000210: e261 06bd 9fa6 2b3b 6806 82bc 4e8a ebbb
00000220: 8e59 13bd 742f 353e f037 a83d 5a23 7f3b
00000230: 4e39 33bc 0ce1 77bd 5431 cfba a957 f93c
00000240: 0191 b43c cd13 03bd 2bd6 6d3e 644e d63c
00000250: 701c 42bd af8f 1fbd 5d42 d1bd d1bc 763b
00000260: 92f2 5abd 058c 6e3e 012f 1e3b 6175 a4be
00000270: aa7f b53e c1e9 19bd 091a 2b3e b14a 173e
00000280: 6986 34bd 8c60 1dbe 62b1 1fbe 4024 d33d
00000290: d149 afbc b1b8 343c 2a38 e83e 6c72 2b3b
000002a0: 57e7 1d3c b771 193d 0f38 f13a 358f c7bc
000002b0: 1933 803e 1a99 0f3d f1a1 483d 8199 30bb
000002c0: c578 933c 8e6d 903f 566d a0bc ed76 9a3d
000002d0: 6c42 a5bc a566 af3e 2342 753d d8c5 f6bd
000002e0: 4a91 2bbd b88b bebd 5fde c83c c4ba 243d
000002f0: 8e8f e63c 82d1 8f3d 083f d9ba 7591 fb3d
00000300: 7114 0e3d 3685 26bd 8a15 cb3d b7f6 ee3d
00000310: a892 33bd 127d 593e 53d7 053e dc92 c83c
00000320: 6a27 1abd 69c9 17bd 5d11 1bbd 9232 8c3d
00000330: f595 bb3b 825a cebb c421 26bd 0f87 dabe
00000340: 33a4 9f3e def7 823d 107f e83d bfd0 32bd
00000350: 1a54 6d3d c693 2fbe 7f68 c03b 4575 a53d
00000360: 1a3a 473d 131e 98bc 2d94 2cbb 0892 843c
00000370: 0197 5b3d 58ce 79bd 0420 ddbd e674 683d
00000380: fa31 89bd 1cff 583e 69fc 613d 614d f33d
00000390: e5d7 3b3e de24 fa3c aaa5 debd 3efb e83d
000003a0: ed28 9c3d bc6f 573d cbea a23c 1798 c13d
000003b0: 558f 8fbd c107 113e 4938 253e 0cce 123c
000003c0: 5d08 cc3c a7a9 913e 9d45 683d cd8b 173d
000003d0: 52de 99bd 0e47 443e 205e a2bd ced1 013d
000003e0: 8891 603c d320 fdbd 6aa4 c4bc 5103 203e
000003f0: 3f47 973d 222a 8dbb 632c fdbc 507b cabd

layer2.bias f4 [128]
0.19127344 -0.009907972 -0.04201628 0.19145943 0.2787528 -0.07275925 0.20112196 0.26140687
-0.009832163 -0.04830316 0.23089157 0.22806467 0.015530084 -0.102898896 0.24999785 0.010433467
-0.026234915 0.045501765 -0.015177492 0.26720423 0.27226773 0.24428023 0.19318187 0.064312726
0.19487014 0.16331984 0.25405666 0.022986192 0.22839683 -0.04244886 0.044953983 0.23188885
0.25718886 0.21697794 -0.02150979 -0.031766795 0.010704827 0.20537299 -0.02463388 -0.010620719
0.28686202 0.23568855 0.215843 -0.11494743 0.28321952 -0.052447762 -0.024927024 -0.043857295
-0.08300639 0.17354673 -0.065209255 0.21975765 -0.022838132 0.19667102 -0.014962179 0.2239876
0.20158105 0.21479222 0.22207251 -0.009344412 -0.05752926 0.2874468 -0.07086159 0.18945004
0.21637712 0.20764609 0.0048677446 -0.028152904 0.2321397 0.038511712 -0.052053258 0.17543375
0.23373622 0.06109676 0.23254946 0.2791747 0.25489867 -0.066231035 0.169974 0.22400227
0.24689704 0.26222482 -0.031727888 0.03017301 -0.04303398 0.013985272 -0.019444441 0.19980663
-0.023969239 0.18545935 0.20242597 0.016173394 0.25824335 0.018151348 -0.061664928 -0.020351348
0.21693948 -0.054127675 -3.831982e-05 0.24260512 -0.023236949 0.2674907 0.0139344875 0.0014497867
0.0065591224 0.017136835 -0.0017883121 0.24373852 0.21329595 -0.012260856 0.25684163 -0.055846076
0.27463263 0.24862981 0.18985285 0.2430689 0.2719281 0.2472328 0.23650575 -0.049187202
0.09617011 0.22372755 0.19794895 0.2618804 -0.023030631 0.2765228 0.26015076 -0.06000435
00000000: 2fdd 433e 0c55 22bc 4319 2cbd f10d 443e
00000010: b0b8 8e3e cd02 95bd eaf2 4d3e 1fd7 853e
00000020: 1517 21bc 89d9 45bd d76e 6c3e c989 693e
00000030: e571 7e3c a8bc d2bd 70ff 7f3e 22f1 2a3c
00000040: 9bea d6bc 0f60 3a3d 04ab 78bc fece 883e
00000050: ad66 8b3e 9924 7a3e 78d1 453e 64b6 833d
00000060: 0a8c 473e 513d 273e b713 823e 8a4d bc3c
00000070: dce0 693e dbde 2dbd ab21 383d 4574 6d3e
00000080: 42ae 833e 772f 5e3e 4d35 b0bc e61d 02bd
00000090: 4c63 2f3c 4c4d 523e fecc c9bc 8602 2ebc
000000a0: 94df 923e 5758 713e f305 5d3e 8f69 ebbd
000000b0: 2602 913e 77d3 56bd c233 ccbc b5a3 33bd
000000c0: 41ff a9bd 3cb6 313e 6e8c 85bd 2608 613e
000000d0: 0917 bbbc 2164 493e ed23 75bc 015d 653e
000000e0: 436b 4e3e 7ef2 5b3e fa66 633e 4e19 19bc
000000f0: cda3 6bbd 3a2c 933e e21f 91bd 31ff 413e
00000100: f791 5d3e 2da1 543e 9a81 9f3b eba0 e6bc
00000110: 08b6 6d3e 75be 1d3d cc35 55bd e8a4 333e
00000120: 8c58 6f3e 9940 7a3d 7221 6e3e fcef 8e3e
00000130: 1482 823e 23a4 87bd aa0d 2e3e da60 653e
00000140: 94d2 7c3e 5542 863e 1af5 01bd 632d f73c
00000150: 6644 30bd 7b22 653c f349 9fbc 1c9a 4c3e
00000160: 235b c4bc 0ee9 3d3e c148 4f3e 117e 843c
00000170: 7938 843e 23b2 943c 5d94 7cbd dfb7 a6bc
00000180: 6225 5e3e fbb4 5dbd 98b9 20b8 7a6d 783e
00000190: 6a5b bebc 8bf4 883e 7a4d 643c c506 be3a
000001a0: e8ed d63b 8c62 8c3c cc65 eaba 9796 793e
000001b0: 416a 5a3e c2e1 48bc bf80 833e dbbe 64bd
000001c0: a69c 8c3e d098 7e3e c968 423e 0ee7 783e
000001d0: 293a 8b3e 982a 7d3e 902e 723e 8578 49bd
000001e0: d6f4 c43d d618 653e 21b3 4a3e 3015 863e
000001f0: bcaa bcbc 6594 8d3e 7b32 853e 1fc7 75bd

layer3.weight f4 [2, 128]
0.32907975 -0.18418287 -0.3467083 0.28183344 0.29916373 -0.30635065 0.28108498 0.26905307
-0.0379391 -0.50380754 0.22616936 0.30808207 -0.22869019 -0.38428733 0.3206731 -0.28639668
-0.16301566 -0.041683592 -0.4097598 0.30460772 0.27940717 0.30071175 0.3078776 -0.37761116
0.34033906 0.3337329 0.2879888 -0.5878924 0.24410799 0.049334586 -0.025786802 0.2773669
0.2843888 0.26761085 -0.71844983 0.037989117 -0.008317775 0.3030232 -0.051650017 -0.62052315
0.27940318 0.33705845 0.29024073 -0.39438346 0.25454637 0.047773898 0.043358553 0.04643835
-0.32878685 0.27944472 -0.24494696 0.27699772 -0.024809798 0.2795436 -0.044912633 0.30725008
0.30360427 0.34556925 0.25529236 -0.5320302 -0.6007654 0.26466095 -0.6118818 0.2542066
0.30587167 0.30759358 -0.425283 -0.0065788245 0.21960571 -0.24324933 -0.4177675 0.3013161
0.23768917 0.2950442 0.2787784 0.3029323 0.28704968 -0.46371928 0.3413091 0.32886812
0.31131604 0.3079162 -0.52222514 -0.060575772 -0.49186343 -0.263132 0.018932039 0.3124046
-0.009332372 0.2657882 0.25017163 0.04404537 0.3336424 0.26694617 -0.5164014 -0.01649052
0.2669461 -0.46397832 -0.007822578 0.25071928 -0.19529913 0.229869 -0.29738104 -0.4005974
0.0011206279 -0.2753843 -0.27198276 0.31385377 0.33008876 -0.2912704 0.31150025 -0.2345729
0.3168461 0.23524392 0.29811794 0.25003552 0.26865318 0.27885255 0.36319444 -0.017611653
-0.3343359 0.32290307 0.30280298 0.29549664 0.04922388 0.28297246 0.2704644 -0.16340238
0.22706057 0.10396026 -0.41209644 0.310692 0.24248827 -0.4851695 0.2946246 0.27939084
0.015649596 -0.4747522 0.30279633 0.35985956 -0.006615852 -0.5269146 0.31369546 -0.3635461
-0.24589597 -0.042539608 -0.005273827 0.24643753 0.26828995 0.236981 0.26868293 -0.15458287
0.24859293 0.34507006 0.3078874 -0.38630724 0.32541412 0.05015952 -0.0080400845 0.27939424
0.26099706 0.3068415 -0.6412244 -0.03867301 -0.0360197 0.287121 -0.011923202 -0.5516519
0.25216854 0.2588467 0.276793 -0.3818333 0.29153436 -0.020127831 0.03278481 0.007009187
-0.4227122 0.30871284 -0.25932583 0.27446848 -0.002484936 0.32894027 0.0032090642 0.21659206
0.22508614 0.307472 0.32141137 -0.20200104 -0.29857868 0.2881333 -0.5842935 0.27938914
0.3086701 0.2371967 -0.35074484 -0.020412367 0.31584248 -0.29585928 -0.35466248 0.296664
0.2979878 -0.18049784 0.32499838 0.2724959 0.30097136 -0.58026534 0.22999433 0.34544617
0.32458892 0.27214608 -0.30466363 0.02726908 -0.27430654 0.008114545 0.07167479 0.24338943
-0.21928638 0.30732477 0.30756402 0.010992476 0.23457028 -0.1476676 -0.5451283 0.009464379
0.28363493 -0.39587235 -0.02703651 0.31996676 -0.25639448 0.29599833 -0.39305106 -0.37720355
0.035305273 -0.27842847 -0.04141101 0.25235826 0.3371436 -0.13519937 0.23121472 -0.08195391
0.30748147 0.306946 0.18629439 0.27848732 0.25721064 0.3063185 0.3068975 -0.050619967
0.47976044 0.308808 0.308803 0.21694975 -0.031195547 0.25074118 0.30957866 -0.27689484
00000000: 247d a83e 6f9a 3cbe c083 b1be 794c 903e
00000010: fd2b 993e fed9 9cbe 5fea 8f3e 53c1 893e
00000020: 0866 1bbd 88f9 00bf f198 673e efbc 9d3e
00000030: c32d 6abe 4fc1 c4be 442f a43e 96a2 92be
00000040: 94ed 26be 6abc 2abd 09cc d1be 8bf5 9b3e
00000050: 750e 8f3e e4f6 993e 22a2 9d3e 4056 c1be
00000060: ec40 ae3e 0adf aa3e 4573 933e 1e80 16bf
00000070: 72f7 793e 1013 4a3d d83e d3bc 0903 8e3e
00000080: 699b 913e 4a04 893e 54ec 37bf 7a9a 1b3d
00000090: 4747 08bc db25 9b3e f88e 53bd 9bda 1ebf
000000a0: ef0d 8f3e ed92 ac3e 6f9a 943e a1ec c9be
000000b0: e753 823e 90ae 433d bd98 313d 2436 3e3d
000000c0: c056 a8be 6113 8f3e 60d3 7abe a5d2 8d3e
000000d0: eb3d cbbc 5720 8f3e 4ff6 37bd e24f 9d3e
000000e0: 0572 9b3e 74ee b03e aeb5 823e 2233 08bf
000000f0: c3cb 19bf a481 873e 49a4 1cbf 5e27 823e
00000100: 369b 9c3e e87c 9d3e b2be d9be 2e93 d7bb
00000110: 52e0 603e 5a16 79be 9fe5 d5be 1b46 9a3e
00000120: ca64 733e 0910 973e 0bbc 8e3e f119 9b3e
00000130: 2df8 923e 9d6c edbe 11c0 ae3e 6761 a83e
00000140: d164 9f3e 31a7 9d3e 8cb0 05bf 4d1e 78bd
00000150: 86d5 fbbe 3db9 86be 5d17 9b3c 7ff3 9f3e
00000160: cee6 18bc 6415 883e 7f16 803e eb68 343d
00000170: 2dd3 aa3e 2bad 883e e232 04bf 2117 87bc
00000180: 29ad 883e 918e edbe 452a 00bc 475e 803e
00000190: 7ffc 47be c762 6b3e 5442 98be 1a1b cdbe
000001a0: 08e2 923a 2cff 8cbe 5341 8bbe 71b1 a03e
000001b0: 6501 a93e 6521 95be f67c 9f3e e133 70be
000001c0: a739 a23e c8e3 703e eaa2 983e a804 803e
000001d0: e98c 893e c3c5 8e3e 9ff4 b93e 5046 90bc
000001e0: 132e abbe 8d53 a53e fe08 9b3e 564b 973e
000001f0: fb9e 493d c4e1 903e 4f7a 8a3e f452 27be
00000200: 9182 683e 1ee9 d43d 4efe d2be 0613 9f3e
00000210: d84e 783e 2368 f8be 09d9 963e 510c 8f3e
00000220: 9533 803c b812 f3be 1f08 9b3e 833f b83e
00000230: cac9 d8bb e0e3 06bf b19c a03e b722 babe
00000240: 27cc 7bbe 033e 2ebd 11d0 acbb 1f5a 7c3e
00000250: 4d5d 893e 26ab 723e cf90 893e f94a 1ebe
00000260: 258f 7e3e 06ad b03e 6ba3 9d3e 10ca c5be
00000270: ae9c a63e 1274 4d3d 8fba 03bc c30c 8f3e
00000280: 68a1 853e 541a 9d3e 4827 24bf 9767 1ebd
00000290: 6589 13bd 8601 933e 8959 43bc 0f39 0dbf
000002a0: 3c1c 813e 8e87 843e d0b7 8d3e a87f c3be
000002b0: fe43 953e 1fe3 a4bc 5d49 063d 52ad e53b
000002c0: bc6d d8be 9c0f 9e3e 5bc6 84be 2287 8c3e
000002d0: 4fda 22bb dc6a a83e 2a4f 523b 4fca 5d3e
000002e0: fb7c 663e f86c 9d3e 0890 a43e 5cd9 4ebe
000002f0: 4edf 98be 3586 933e 4294 15bf 180c 8f3e
00000300: 020a 9e3e b1e3 723e d494 b3be d637 a7bc
00000310: 1bb6 a13e de7a 97be 5296 b5be 58e4 973e
00000320: db91 983e 6dd4 38be 3066 a63e 9584 8b3e
00000330: eb18 9a3e 458c 14bf a283 6b3e 52de b03e
00000340: 8530 a63e bb56 8b3e dffc 9bbe 6863 df3c
00000350: e871 8cbe def2 043c 3bca 923d 143b 793e
00000360: 9c8c 60be ac59 9d3e 0879 9d3e c919 343c
00000370: 3133 703e 2d36 17be 878d 0bbf 7c10 1b3c
00000380: 9938 913e c8af cabe ac7b ddbc afd2 a33e
00000390: 2346 83be 188d 973e fd3d c9be d320 c1be
000003a0: 439c 103d 2d8e 8ebe 979e 29bd 1a35 813e
000003b0: 169e ac3e b471 0abe 8dc3 6c3e 74d7 a7bd
000003c0: 366e 9d3e 0728 9d3e f5c3 3e3e e495 8e3e
000003d0: 1db1 833e c7d5 9c3e ab21 9d3e e256 4fbd
000003e0: 29a3 f53e 151c 9e3e 6d1b 9e3e 1328 5e3e
000003f0: ce8d ffbc 2661 803e 1881 9e3e 29c5 8dbe

layer3.bias f4 [2]
0.0386718 0.10053693
00000000: 5266 1e3d 4ee6 cd3d
