model_weights/DQN/cartpole/cartpole_dqn_episode_2799.pth (torch, 72508 bytes, 6 tensors)

layer1.weight f4 [128, 4]
0	0x3e031e49	0.12804522
1	0xbe4eef8e	-0.2020857
2	0x3dca4b89	0.098776884
3	0xbe60c787	-0.21951114
4	0xbdfd67b3	-0.12373295
5	0x3e067ba0	0.13133097
6	0x3e9c4d66	0.305278
7	0x3d55295b	0.052041393
8	0x3e7e308c	0.24823207
9	0xbe843bcd	-0.25826874
10	0x3f3721e9	0.7153612
11	0x3e81bad3	0.25337848
12	0xbe4df5f6	-0.20113358
13	0xbe67bfd1	-0.22631766
14	0x3d8ac712	0.06776251
15	0xbdff9ab2	-0.12480678
16	0x3d3cca6a	0.046091475
17	0xbe98cbc5	-0.29842964
18	0xbecbd493	-0.3981062
19	0xbe4b36d7	-0.19845138
20	0xbe839d3c	-0.25705898
21	0xbcc8ee8c	-0.02452781
22	0xbf506674	-0.8140633
23	0xbdc8f48d	-0.09812269
24	0x3ee86a56	0.45393628
25	0xbddc8f15	-0.10769478
26	0xbec1327f	-0.37733838
27	0xbe29676a	-0.16543356
28	0xbe782a84	-0.24234968
29	0xbd801782	-0.06254484
30	0xbd039f95	-0.03213461
31	0x3bebff11	0.007202037
32	0xbe7b1ebb	-0.24523441
33	0xbe584eb8	-0.21123779
34	0xbda375c2	-0.07981445
35	0xbe11b56c	-0.14229363
36	0x3e2b901d	0.16754194
37	0x3e6fe418	0.23426855
38	0x3eaac7bc	0.3335551
39	0x3ed99db5	0.42503133
40	0x3e5b4c20	0.21415758
41	0xbe8ac42c	-0.27102792
42	0xbe8eeb3a	-0.2791384
43	0xbe6baf03	-0.2301598
44	0xbde17ca1	-0.11010099
45	0xbde088ac	-0.10963568
46	0x3dd290a5	0.10281495
47	0xbdc16a01	-0.09444047
48	0x3ecee75e	0.40410894
49	0x3dd17568	0.102274716
50	0x3e4424bf	0.19154643
51	0xbe126696	-0.14296946
52	0x3e67e650	0.22646451
53	0x3d823001	0.06356812
54	0xbd40bb4b	-0.047053616
55	0xbd164e93	-0.036696028
56	0xbe338d74	-0.17534429
57	0x3e7e32ce	0.24824068
58	0x3e31ed06	0.17375574
59	0x3e8b217f	0.27173993
60	0xbeb9856c	-0.36234605
61	0xbe8aa2ce	-0.27077335
62	0xbf569771	-0.8382483
63	0xbe66eef5	-0.22552092
64	0xbe896979	-0.26838282
65	0x3c885308	0.016641155
66	0x3de628be	0.1123824
67	0x39f6e952	0.00047094614
68	0xbeae42e4	-0.34035408
69	0xbd2cff27	-0.04223552
70	0xbf61d27a	-0.88211787
71	0xbdf81ee2	-0.121152654
72	0xbe90dcf4	-0.28293574
73	0xbe26fb36	-0.16306767
74	0x3bb837f1	0.005621903
75	0xbdd9f1d8	-0.10641831
76	0xbcf78e4b	-0.030219218
77	0x3e162de4	0.14665943
78	0x3ec10a74	0.37703288
79	0x3d6a402a	0.057190098
80	0x3e5bc7bd	0.21462913
81	0xbe8a7b10	-0.27047014
82	0xbde5dda6	-0.11223917
83	0xbe6009da	-0.21878758
84	0xbdd3b9ed	-0.10338197
85	0x3e394138	0.18091285
86	0x3d332966	0.043740653
87	0xbcb7e2d3	-0.022447025
88	0x3e9d1d9c	0.30686653
89	0x3e1ba18a	0.15198341
90	0xbe6993cb	-0.22810285
91	0x3cab0903	0.02087832
92	0x3e9e809f	0.30957505
93	0x3e02ab9d	0.12760778
94	0x3dacae6e	0.08431707
95	0xbe21c753	-0.15798692
96	0x3e179e0e	0.14806387
97	0x3eb9f570	0.36320066
98	0x3df9ca5b	0.12196799
99	0x3e02876e	0.12746975
100	0xbe183c48	-0.14866745
101	0xbe1af9de	-0.1513438
102	0x3e883c70	0.2660861
103	0x3db49872	0.08818139
104	0x3f1e746b	0.6189639
105	0x3d79a305	0.060946483
106	0xbe86bbaf	-0.26315066
107	0x3c12b360	0.008953899
108	0x3e4275f3	0.18990307
109	0x3d88898c	0.0666686
110	0xbed9e72d	-0.42559186
111	0x3cf24c13	0.02957729
112	0xbeaddc50	-0.33957148
113	0xbe5286fa	-0.20559302
114	0x3e7b6787	0.24551211
115	0xbce44cc7	-0.027868642
116	0xbe928793	-0.2861906
117	0x3d8516a0	0.06498456
118	0xbead8bfc	-0.33895862
119	0x3db503a4	0.08838585
120	0xbe92b40d	-0.28652993
121	0xbe608023	-0.2192388
122	0x3e6c8625	0.23098047
123	0xbd950940	-0.07277155
124	0x3e9196a1	0.28435233
125	0x3d1fb129	0.038987312
126	0xbe298ade	-0.1655688
127	0x3d37bb02	0.04485608
128	0xbe9d7e6a	-0.3076051
129	0x3dbd95a1	0.09257055
130	0x3e07040d	0.13185139
131	0x3d340144	0.04394652
132	0xbe780b6a	-0.24223104
133	0x3d7eafbe	0.06217932
134	0x3ee1be3f	0.4409046
135	0x3dd430eb	0.10360893
136	0xbe1d1aaf	-0.1534221
137	0xbecf9cb5	-0.40549245
138	0xbf8e21b0	-1.1104031
139	0xbe9443ee	-0.28958076
140	0x3e00d83b	0.12582485
141	0x3e3d693c	0.18497175
142	0x3e58a95a	0.21158352
143	0xbd584e14	-0.052808836
144	0xbe1da287	-0.1539403
145	0xbe75db55	-0.2400945
146	0xbeeeae3d	-0.46617308
147	0xbe874ca7	-0.2642567
148	0xbe9ae389	-0.3025172
149	0xbddca82d	-0.107742645
150	0x3cd040f8	0.025421605
151	0x3d21f9c1	0.039544825
152	0xbebb8254	-0.3662287
153	0xbecc6efd	-0.39928427
154	0x3de26dab	0.11056074
155	0xbe43d06d	-0.19122477
156	0xbec17718	-0.37786174
157	0xbe7a055b	-0.24416105
158	0xbf09946b	-0.5374209
159	0xbebfd1b9	-0.37464693
160	0xbeb38105	-0.35059372
161	0x3c571540	0.013127625
162	0xbebd80d8	-0.37012362
163	0x3d8cb0ca	0.06869657
164	0xbed2a12b	-0.41138586
165	0x3e7b0178	0.24512279
166	0xbe5c555d	-0.21516939
167	0x3e7f7504	0.24946982
168	0x3e92dc5a	0.2868374
169	0x3ef803b5	0.48440328
170	0x3ebe826d	0.37208882
171	0x3e8e737b	0.2782248
172	0xbea32934	-0.31867373
173	0x3ddfaeab	0.10921987
174	0x3e380f61	0.17974617
175	0x3dfb19be	0.12260769
176	0xbd0064dd	-0.03134619
177	0x3e61cbc1	0.22050382
178	0x3f6f9111	0.9358073
179	0x3e929b9e	0.28634351
180	0x3b16528e	0.002293739
181	0x3cdd1be8	0.026990846
182	0x3d78a9c6	0.060708784
183	0xbe8d1893	-0.2755781
184	0x3e5eb9c6	0.21750554
185	0xbe5a2483	-0.2130299
186	0xbebda916	-0.37043065
187	0x3c94b6fd	0.018153662
188	0x3e70c411	0.23512293
189	0x3e31dcde	0.1736941
190	0xbe062504	-0.13100058
191	0xbe43b4d5	-0.1911195
192	0x3edaa99f	0.42707536
193	0xbdc3671b	-0.0954115
194	0xbdc45a5e	-0.09587549
195	0xbe0d091b	-0.13773005
196	0xbddd6b48	-0.10811478
197	0xbe874870	-0.26422453
198	0xbf02443f	-0.50885385
199	0xbe3d3f4e	-0.1848118
200	0x3e8d79b5	0.27631918
201	0x3e473d04	0.1945687
202	0x3ccf4bab	0.025304636
203	0x3e1e7b59	0.15476741
204	0xbda5f1dd	-0.081027724
205	0xbe4cc542	-0.19997123
206	0xbe25963f	-0.16170596
207	0x3ce63eb7	0.028106077
208	0x3e178005	0.1479493
209	0xbe218ce3	-0.157764
210	0xbee607a1	-0.44927695
211	0xbdb342ea	-0.08752997
212	0x3d2f77aa	0.04283873
213	0x3d972760	0.07380557
214	0x3f7362f7	0.95072883
215	0x3e44ff67	0.19238053
216	0xbe62b275	-0.22138388
217	0x3e4db81d	0.20089765
218	0x3ef1da73	0.47236976
219	0xbdfd352c	-0.12363657
220	0xbea7eff2	-0.3280025
221	0x3dcdca56	0.10048358
222	0xbeb9a5e3	-0.36259374
223	0xbc29acfb	-0.010356183
224	0x3d59cfb5	0.0531766
225	0xbc8cb839	-0.017177688
226	0x3cfd4b00	0.030919552
227	0xbe190d03	-0.1494637
228	0xbee6f66b	-0.45109877
229	0xbdc449dc	-0.095844
230	0xbf18f9b4	-0.59756017
231	0xbe00db86	-0.12583742
232	0x3e84b47c	0.2591895
233	0xbe6c809e	-0.23095939
234	0x3e0cbaed	0.13743182
235	0xbdcadb3b	-0.09905096
236	0xbd8e0918	-0.06935328
237	0xbe23f169	-0.1601006
238	0x3e6bde58	0.23034036
239	0xbe19713e	-0.14984605
240	0xbd53241b	-0.051548105
241	0x3ecc7a3b	0.39937004
242	0x3ee53b70	0.4477191
243	0x3e9ea49a	0.30984956
244	0x3c419e59	0.011817538
245	0xbe951620	-0.29118443
246	0xbeb3886b	-0.35065016
247	0xbd39a9ca	-0.04532794
248	0x3f15540e	0.5833138
249	0xbd67036d	-0.05639975
250	0xbd19a115	-0.037507135
251	0xbe2ae0a0	-0.1668725
252	0xbee1179e	-0.4396333
253	0xbe8fa202	-0.2805329
254	0x3e59ddd2	0.21276024
255	0x3dbca65f	0.0921142

layer1.bias f4 [128]
0	0x3ee773e3	0.45205602
1	0x3e8e2003	0.27758798
2	0xbe8574ff	-0.26065823
3	0x3ee7379d	0.45159617
4	0x3ec3a78a	0.3821376
5	0xbe696ba2	-0.22794965
6	0xbe4968b2	-0.19668844
7	0x3eaa9090	0.33313417
8	0xbea82b8e	-0.3284573
9	0xbe43c1e6	-0.19116935
10	0xbe043e84	-0.12914473
11	0x3f09da0e	0.5384835
12	0x3da3bcb9	0.0799498
13	0x3ee9af4a	0.45641547
14	0x3ee72049	0.4514182
15	0xbe90983c	-0.28241146
16	0x3e9dc567	0.3081467
17	0xbe17cbe2	-0.14823869
18	0xbd00a0b3	-0.031403255
19	0x3ee9b2dd	0.45644274
20	0x3e894631	0.26811364
21	0x3eeb677e	0.45977396
22	0x3ec9fed4	0.3945223
23	0xbe9ab91e	-0.30219358
24	0xbe9f4c64	-0.3111297
25	0xbe494e5d	-0.196588
26	0x3eb97d6f	0.3622851
27	0x3e8e3a4a	0.27778846
28	0xbec3cf79	-0.38244227
29	0x3ec6a7ae	0.38799804
30	0xbd7eb54a	-0.06218461
31	0xbe3b5df8	-0.18297565
32	0x3ec31991	0.38105443
33	0x3e7a2c1f	0.24430893
34	0xbcb6437a	-0.022248972
35	0xbeac8667	-0.3369629
36	0xbe788bd7	-0.24272095
37	0x3ed773c1	0.420805
38	0xbe2d9307	-0.16950618
39	0xbe1968a0	-0.14981318
40	0xbebb8669	-0.36625984
41	0x3da6e910	0.08149922
42	0x3d7558f4	0.059899285
43	0x3edf9541	0.4366856
44	0xbe97488f	-0.29547545
45	0x3ea94a44	0.33064473
46	0x3e8ef19e	0.27918714
47	0x3dd17c15	0.10228745
48	0xbe1120f6	-0.1417273
49	0xbde9b1bc	-0.11410853
50	0x3e4b587b	0.19857971
51	0x3eccc1db	0.3999165
52	0x3f0e0889	0.55481774
53	0xbdef8efc	-0.11697194
54	0x3eb0bd28	0.34519315
55	0x3eec8d1a	0.46201402
56	0x3f056324	0.521044
57	0xbe9f0d96	-0.31065053
58	0x3f150d37	0.5822329
59	0x3f077606	0.52914464
60	0x3e0ac939	0.13553323
61	0x3ef99977	0.48749897
62	0x3e8ca0c7	0.27466413
63	0xbd6e799d	-0.05822145
64	0xbe9c9c5a	-0.30588037
65	0xbf005d13	-0.5014202
66	0x3ea662a6	0.32497138
67	0x3e07ddfe	0.13268277
68	0x3eb85cdf	0.36008355
69	0xbe464aef	-0.19364522
70	0x3e406dbd	0.18791862
71	0x3eb86a1c	0.36018455
72	0x3ea771b6	0.32703942
73	0xbe7429bc	-0.23844045
74	0x3e9d4cb9	0.30722597
75	0x3f00fe06	0.5038761
76	0x3e0a10ef	0.13483022
77	0xbe5423a8	-0.20716727
78	0x3ea2f13e	0.31824678
79	0x3e531647	0.20613967
80	0xbea2a3b1	-0.31765512
81	0xbe11c0d5	-0.14233716
82	0x3eadb536	0.33927315
83	0x3d997592	0.07493128
84	0x3ea1a2b6	0.3156945
85	0x3f03356b	0.51253384
86	0xbeaa4dc2	-0.3326245
87	0x3ec0b989	0.37641552
88	0xbec113a4	-0.37710297
89	0x3ef896b7	0.48552486
90	0x3edc6e55	0.43052927
91	0xbeafc58b	-0.343304
92	0x3ecf4b26	0.4048702
93	0x3ef3fb80	0.47652817
94	0xbeb25e2a	-0.34837466
95	0x3ee88e1b	0.45420918
96	0x3eb2093c	0.3477267
97	0xbe8336f3	-0.2562786
98	0x3f0f0712	0.55870163
99	0xbe05bfd8	-0.13061464
100	0xbe9f9874	-0.31171
101	0x3eabc775	0.3355061
102	0x3ee8c817	0.45465156
103	0x3e29cae7	0.16581307
104	0x3f07a66a	0.529883
105	0x3eaa6671	0.33281282
106	0xbe14da90	-0.145365
107	0xbd096270	-0.033541143
108	0x3e78539c	0.24250644
109	0xbcb0ad6d	-0.02156707
110	0xbe65b56e	-0.22432491
111	0x3eba5f99	0.3640106
112	0x3e612c6b	0.219896
113	0xbe86bcd2	-0.26315933
114	0x3f076058	0.52881384
115	0x3d9e226a	0.07721408
116	0xbe857afd	-0.26070395
117	0xbe853099	-0.2601364
118	0x3f0c8391	0.54888254
119	0x3f03de1b	0.5151078
120	0xbe4f3f11	-0.20238902
121	0x3e83a96e	0.25715202
122	0x3ed6b208	0.41932702
123	0xbe3ddcb6	-0.18541226
124	0x3cf4a76a	0.029864985
125	0x3eba4d80	0.36387253
126	0x3f0fa49b	0.56110543
127	0x3f04cc1c	0.51873946

layer2.weight f4 [128, 128]
0	0x3e1f9fc1	0.15588285
1	0x3e4bff63	0.19921641
2	0xbdd62b0c	-0.10457429
3	0x3df996fc	0.12187001
4	0x3df0427b	0.1173143
5	0xbea1ed14	-0.3162619
6	0xbd9cc5fb	-0.07654949
7	0x3e1db52f	0.15401147
8	0xbe55df03	-0.20885853
9	0xbdafe83e	-0.085892186
10	0xbef6caff	-0.4820175
11	0x3e90f292	0.28310066
12	0x3d865ce7	0.065606885
13	0x3dc1a649	0.094555445
14	0x3e297be1	0.16551162
15	0xbccf3de2	-0.025298063
16	0x3e0071b2	0.12543371
17	0xbe5778c2	-0.21042159
18	0xbb8834a4	-0.004156666
19	0x3e05e417	0.1307529
20	0x3e58635f	0.21131657
21	0x3e11e628	0.14247954
22	0x3d712d5a	0.05888114
23	0xbcd88f08	-0.02643539
24	0xbd77da1c	-0.06051074
25	0xbe073f60	-0.1320777
26	0x3e26309e	0.16229483
27	0x3e90ce1a	0.28282243
28	0xbded99ed	-0.11601625
29	0x3e45d0ab	0.19317882
30	0xbd32a5c3	-0.043615114
31	0xbe650452	-0.2236493
32	0x3e60dc05	0.21958931
33	0x3e286d14	0.1644786
34	0x3d05a7b4	0.032630637
35	0xbe99f5e6	-0.30070418
36	0xbf227990	-0.6346674
37	0x3e59c465	0.21266325
38	0xbd979ed5	-0.07403342
39	0xbd2819ca	-0.04104022
40	0xbeef2fbd	-0.4671611
41	0x3e99816a	0.29981548
42	0x3d610b8d	0.054942656
43	0x3e6900a7	0.22754155
44	0xbf0b9da2	-0.54537404
45	0x3de75531	0.11295546
46	0x3d406a26	0.04697623
47	0x3d60ead5	0.054911453
48	0xbd11c58a	-0.03558878
49	0xbd9b87c7	-0.07594257
50	0xbb57a3c5	-0.003290401
51	0x3e04b74f	0.12960552
52	0x3e275214	0.16339904
53	0xbf216b90	-0.6305475
54	0x3e13bda6	0.14427814
55	0x3e2f7e12	0.17137936
56	0x3e73dd6f	0.23814939
57	0xbea375bb	-0.3192576
58	0x3e2d3cb9	0.16917695
59	0x3e304b1e	0.17216155
60	0x3de8b375	0.11362354
61	0x3e09d45c	0.13459915
62	0x3e16faf1	0.14744164
63	0xbd1c1b3d	-0.038111914
64	0xbe560b3f	-0.20902728
65	0xbec1f114	-0.3787924
66	0x3e703cc6	0.23460683
67	0x3d4f206e	0.050568037
68	0x3d147755	0.036246616
69	0xbe9cc8a4	-0.30621827
70	0x3dab3624	0.08359936
71	0x3e045341	0.12922384
72	0x3dd6f1c4	0.10495332
73	0xbd3985c8	-0.0452936
74	0x3ddd4fdc	0.108062476
75	0x3e282e30	0.16423869
76	0xbdd47eb5	-0.1037573
77	0xbe17fe6e	-0.14843151
78	0x3dd987e4	0.10621622
79	0x3e402651	0.18764617
80	0xbe61bee9	-0.22045483
81	0xbe608702	-0.21926501
82	0x3e1744f9	0.14772405
83	0x3dbd93c4	0.092567
84	0x3e38f4d2	0.18062142
85	0x3e2337a2	0.15939191
86	0xbdf6db9f	-0.12053608
87	0x3e457cae	0.19285843
88	0xbf0bac38	-0.5455966
89	0x3e3e5763	0.18588023
90	0x3e096c2b	0.13420169
91	0xbe01f5f9	-0.12691487
92	0x3d6a5d2a	0.057217754
93	0x3e3ec5f0	0.18630195
94	0xbefcb079	-0.49353388
95	0x3e098154	0.13428241
96	0x3d97bab9	0.074086614
97	0xbea6952a	-0.32535678
98	0x3dfaa62f	0.12238728
99	0xbde861ae	-0.11346756
100	0xbdf2ed1d	-0.11861632
101	0x3d910b92	0.07082285
102	0x3e39b999	0.18137206
103	0x3cfe21da	0.031022001
104	0x3d919124	0.071077615
105	0x3e501999	0.20322265
106	0xbd15e770	-0.03659767
107	0xbeac43e6	-0.33645552
108	0x3e1229c2	0.14273742
109	0xbc8209a9	-0.015873747
110	0xbe29e87f	-0.16592596
111	0x3e4ea4ac	0.20180005
112	0xbd1d5e8f	-0.038420256
113	0xbe9267b9	-0.2859476
114	0x3e3a5596	0.18196711
115	0x3e003512	0.12520245
116	0xbf18278b	-0.5943534
117	0xbe2408cd	-0.16018982
118	0x3e99aa70	0.30012846
119	0x3e5e94ac	0.21736401
120	0x3c873e30	0.016509145
121	0x3d88349e	0.06650661
122	0x3e0b3791	0.13595416
123	0xbdf22f0a	-0.11825378
124	0x3da68a8f	0.08131897
125	0x3dbe1cf3	0.092828654
126	0x3e3c3b3e	0.18381974
127	0x3e223aeb	0.15842788
128	0xbcd2b86c	-0.025722705
129	0xbbd714a1	-0.0065637385
130	0x3e169657	0.14705788
131	0x3d39eafb	0.04539011
132	0xbd858141	-0.06518794
133	0x3b41cf98	0.0029573198
134	0xbc8fd5eb	-0.017558059
135	0xbc85e71e	-0.016345557
136	0xbd230ec6	-0.03980901
137	0x3e494cb3	0.19658165
138	0x3dbafc7b	0.09130188
139	0xbca9d6c2	-0.020732287
140	0xbc451917	-0.012029908
141	0xbd739cd3	-0.05947573
142	0x3ca3c797	0.019992633
143	0x3cb0d374	0.021585204
144	0x3c3c047c	0.0114756785
145	0x3b4ccca1	0.0031249898
146	0x3d76a0b4	0.060211852
147	0x3cba6e19	0.022757577
148	0xbe1372ae	-0.14399216
149	0xbccc0a48	-0.024907246
150	0xbd9fe0c5	-0.07806543
151	0x3b88c59d	0.004173948
152	0xbd7265b7	-0.059179034
153	0x3e6d01da	0.23145238
154	0xbd12cfe3	-0.035842787
155	0xbe6e6c60	-0.2328353
156	0x3ec22022	0.3791514
157	0xbc4ef596	-0.012631794
158	0x3de4040e	0.11133586
159	0x3e2764d3	0.16347055
160	0xbd3c55e7	-0.04598036
161	0xbe3ed4a6	-0.18635806
162	0xbe39015c	-0.18066925
163	0x3de98585	0.1140242
164	0xbcc20bbe	-0.02368724
165	0x3b0ba521	0.0021308141
166	0x3ec59b87	0.3859522
167	0x3b9383b7	0.0045017856
168	0x3c2ecd6d	0.0106690945
169	0x3e0a3dcf	0.1350014
170	0x3b05aaf0	0.0020396076
171	0xbcbadec3	-0.0228113
172	0x3e8deeb9	0.27721193
173	0x3beaf26b	0.0071700118
174	0x3d503c9c	0.05083905
175	0xbb34f5f0	-0.002761241
176	0x3ca3311d	0.01992088
177	0xbdad70e7	-0.084688
178	0x3c34a7d8	0.011026345
179	0x3d98df20	0.07464433
180	0xbcb4fba3	-0.022092646
181	0x3ec16f65	0.377803
182	0x3d14955d	0.036275256
183	0xbdd696a9	-0.10477955
184	0xbd7a3539	-0.061085913
185	0xbe09a2db	-0.1344103
186	0x39a9d7c6	0.00032394956
187	0x392039c2	0.00015280306
188	0x3da4afb0	0.08041322
189	0x3d8a9b99	0.06767959
190	0xbd07905f	-0.033096667
191	0x3de7ea55	0.11323992
192	0x3d1d3ad9	0.0383862
193	0xbd3839cf	-0.044977006
194	0x3dc9e523	0.098581575
195	0x3df83b38	0.1212067
196	0xbcabff4e	-0.020995762
197	0x3e70c675	0.23513205
198	0x3e004659	0.12526836
199	0x3d252f68	0.040328413
200	0xbdad0b3b	-0.08449408
201	0xbd2ae913	-0.041726183
202	0xbcb99c3e	-0.02265751
203	0x3d484389	0.04889253
204	0xbda857fd	-0.082199074
205	0xbbe46278	-0.006969746
206	0xbd948bd9	-0.07253236
207	0xbe5e779b	-0.21725313
208	0x3ea83ac5	0.32857338
209	0x3d90e236	0.07074396
210	0x3dca1b09	0.09868438
211	0xbd468a8c	-0.048471972
212	0x3daceda1	0.084437616
213	0xbe00577d	-0.12533374
214	0x3bd4eee1	0.006498203
215	0x3dbbbde9	0.09167082
216	0x3d5c69f0	0.053811967
217	0xbcfe5af4	-0.03104923
218	0xbd786eae	-0.060652427
219	0x3c92a9f2	0.017903302
220	0x3d53e09b	0.051727872
221	0xbdb5224a	-0.08844431
222	0xbdf4b853	-0.119492196
223	0x3d0abcd8	0.0338715
224	0xbda69c73	-0.08135309
225	0x3e703681	0.23458292
226	0x3d1b6dff	0.037946697
227	0x3e06d6ee	0.13167927
228	0x3e4572cf	0.19282077
229	0xbc8a7b8c	-0.016904615
230	0xbe0a30a8	-0.13495123
231	0x3c1d2d41	0.009593309
232	0x3db55f3d	0.08856056
233	0x3d83fd19	0.06444759
234	0xbb5c0ffe	-0.0033578868
235	0x3de13518	0.10996455
236	0xbe0d3631	-0.13790204
237	0x3e10fb51	0.1415837
238	0x3e36ce9d	0.17852254
239	0x3ab3d1c6	0.0013719134
240	0x3c829ab0	0.015942901
241	0x3e92dcc1	0.28684047
242	0x3d8743fa	0.066047624
243	0x3d27ac72	0.04093594
244	0xbd9d3256	-0.076756164
245	0x3e5919a2	0.21201184
246	0xbd01dad4	-0.03170283
247	0x3d64fcda	0.0559052
248	0x3c78649c	0.015160706
249	0xbd9405b9	-0.07227654
250	0xbd578a24	-0.052621976
251	0x3e312078	0.17297542
252	0x3d963ff6	0.07336418
253	0xbb9ca529	-0.004780431
254	0xbd22ae1c	-0.039716825
255	0xbdc61d84	-0.096735984

layer2.bias f4 [128]
0	0x3e3cb5c3	0.18428712
1	0xbc5bc584	-0.013413791
2	0xbd3e7bf8	-0.046504945
3	0x3e3d73b2	0.18501166
4	0x3e90298b	0.28156695
5	0xbda4e28c	-0.08051023
6	0x3e481330	0.1953857
7	0x3e861a2d	0.26191846
8	0xbc324d4d	-0.010882688
9	0xbd5ad321	-0.053424004
10	0x3e697974	0.22800237
11	0x3e633a12	0.22190121
12	0x3c8ce8dd	0.017200882
13	0xbde914c5	-0.113809146
14	0x3e801551	0.25016263
15	0x3c78c671	0.015184031
16	0xbcf34f94	-0.029701032
17	0x3d4e44e8	0.050358683
18	0xbbe5ac55	-0.007009069
19	0x3e892ead	0.26793423
20	0x3e8bb150	0.27283716
21	0x3e799a88	0.24375355
22	0x3e3f90a2	0.18707517
23	0x3d9d3e97	0.07677954
24	0x3e338a99	0.1753334
25	0x3e172b83	0.14762692
26	0x3e82afd3	0.25524768
27	0x3cd08314	0.025453128
28	0x3e66422e	0.22486183
29	0xbd408289	-0.046999488
30	0x3d4ba6c8	0.049719602
31	0x3e6b1fb4	0.22961313
32	0x3e843c0d	0.25827065
33	0x3e5a6452	0.21327332
34	0xbcc30ada	-0.023808885
35	0xbd0ff006	-0.035141014
36	0x3c422759	0.0118502015
37	0x3e4d84b4	0.20070153
38	0xbcdf6232	-0.027268503
39	0xbc40a92d	-0.011759085
40	0x3e94dab2	0.290731
41	0x3e70099e	0.23441169
42	0x3e595197	0.2122253
43	0xbe0266c8	-0.1273452
44	0x3e92f598	0.28702998
45	0xbd6dbb7c	-0.058040127
46	0xbce21461	-0.027597608
47	0xbd46c275	-0.048525292
48	0xbdbc04c3	-0.09180596
49	0x3e2860da	0.16443196
50	0xbd93c02b	-0.072143875
51	0x3e5d354a	0.2160236
52	0xbccf1a62	-0.025281135
53	0x3e4267d3	0.18984918
54	0xbc87df9d	-0.01658612
55	0x3e6225f2	0.22084787
56	0x3e48033b	0.19532482
57	0x3e576bc7	0.21037208
58	0x3e5fcdf2	0.21855906
59	0xbc2961b3	-0.010338235
60	0xbd82878b	-0.06373509
61	0x3e950f34	0.29113162
62	0xbda09c23	-0.07842281
63	0x3e3aefc1	0.18255521
64	0x3e59b715	0.21261247
65	0x3e4fcf7a	0.2029399
66	0x3bb45a4a	0.0055039274
67	0xbcff419c	-0.031159215
68	0x3e6b485c	0.22976822
69	0x3d3634b5	0.04448386
70	0xbd6be2b7	-0.05758926
71	0x3e2b2914	0.16714889
72	0x3e6cb155	0.23114522
73	0x3d92e0cd	0.071717836
74	0x3e6c6b5e	0.23087832
75	0x3e90ce06	0.28282183
76	0x3e832fba	0.2562235
77	0xbd961366	-0.07327919
78	0x3e250307	0.16114436
79	0x3e547fe4	0.20751911
80	0x3e7d0a44	0.24710947
81	0x3e866c47	0.26254484
82	0xbd0f80c7	-0.03503492
83	0x3d0904ef	0.03345197
84	0xbd4eb1c8	-0.050462514
85	0x3c36b704	0.011152033
86	0xbcb05640	-0.021525502
87	0x3e46c86c	0.19412392
88	0xbcd92f43	-0.026511794
89	0x3e365cb0	0.17808795
90	0x3e493551	0.19649245
91	0x3c9293c3	0.017892724
92	0x3e84f70e	0.25969738
93	0x3cc7538c	0.02433183
94	0xbd8bec0d	-0.068321325
95	0xbcb87113	-0.022514855
96	0x3e5a6ecb	0.21331327
97	0xbd755738	-0.05989763
98	0xb831e751	-4.241552e-05
99	0x3e768220	0.24073076
100	0xbcd2b968	-0.025723174
101	0x3e890db0	0.26768255
102	0x3c892dc6	0.01674546
103	0x3a8190ef	0.0009885113
104	0x3bedd9b3	0.007258618
105	0x3c9b58be	0.018963214
106	0xbb01d4aa	-0.0019810596
107	0x3e796b13	0.24357252
108	0x3e55e39a	0.20887604
109	0xbc035689	-0.008016237
110	0x3e840897	0.25787804
111	0xbd7d1f45	-0.0617974
112	0x3e8d51c3	0.27601442
113	0x3e7da719	0.24770774
114	0x3e3b1b84	0.18272215
115	0x3e784d68	0.24248278
116	0x3e8b9c75	0.27267805
117	0x3e7c7199	0.24652709
118	0x3e64d630	0.22347331
119	0xbd5f00ba	-0.054444052
120	0x3dd3a17e	0.103335366
121	0x3e5f5196	0.21808466
122	0x3e440d15	0.19145615
123	0x3e867751	0.26262906
124	0xbcd0e772	-0.025500987
125	0x3e8e177c	0.27752292
126	0x3e85b752	0.26116425
127	0xbd883b69	-0.066519566

layer3.weight f4 [2, 128]
0	0x3ea9ab6a	0.3313859
1	0xbe3e34d5	-0.18574841
2	0xbec4752b	-0.38370642
3	0x3e907f4f	0.2822213
4	0x3e9b4995	0.30329576
5	0xbead8a36	-0.3389451
6	0x3e9102f9	0.2832258
7	0x3e896743	0.26836595
8	0xbd2be94d	-0.04197054
9	0xbf0eb528	-0.5574517
10	0x3e632674	0.22182637
11	0x3e9d837c	0.30764377
12	0xbe81b525	-0.25333515
13	0xbed99d4b	-0.42502818
14	0x3ea6890a	0.32526428
15	0xbea2aa67	-0.31770632
16	0xbe3892d1	-0.18024756
17	0xbd3cdfb2	-0.04611177
18	0xbee6f405	-0.45108047
19	0x3e9ca3b9	0.3059366
20	0x3e8f0f3f	0.2794132
21	0x3e9b816d	0.30372182
22	0x3e9f7add	0.31148425
23	0xbed558a7	-0.416692
24	0x3ea9d10a	0.33167297
25	0x3eaa2f02	0.3323899
26	0x3e9438c5	0.28949562
27	0xbf2685fe	-0.65048206
28	0x3e78302e	0.24237129
29	0x3d5fb30b	0.054614108
30	0xbce9a3ea	-0.028520543
31	0x3e8dc2cc	0.2768768
32	0x3e92f15a	0.28699762
33	0x3e88c066	0.26709288
34	0xbf4b688f	-0.7945642
35	0x3d2c22fd	0.042025555
36	0xbc16c8aa	-0.0092031155
37	0x3e9c1861	0.3048735
38	0xbd69ff7d	-0.05712842
39	0xbf2fdcc8	-0.6869626
40	0x3e8f3733	0.279718
41	0x3eb020f1	0.34400132
42	0x3e963a93	0.29341564
43	0xbedf86b3	-0.43657455
44	0x3e8271cb	0.25477442
45	0x3d58756a	0.05284635
46	0x3d448be8	0.047984987
47	0x3d529144	0.051408067
48	0xbeba35ab	-0.3636907
49	0x3e8f23b7	0.27956936
50	0xbe8afe5a	-0.2714718
51	0x3e8de23e	0.27711672
52	0xbce10be1	-0.027471485
53	0x3e8df862	0.27728564
54	0xbd4b7432	-0.04967136
55	0x3ea01837	0.31268474
56	0x3e9c02ec	0.3047098
57	0x3eb55f5e	0.35424322
58	0x3e82d3d7	0.25552246
59	0xbf16b248	-0.58865786
60	0xbf2a2601	-0.6646424
61	0x3e875595	0.2643248
62	0xbf2d49c3	-0.67690676
63	0x3e821024	0.2540294
64	0x3e9d0ad0	0.30672312
65	0x3e9f4e30	0.3111434
66	0xbef11175	-0.4708363
67	0xbbee9695	-0.0072811344
68	0x3e5df86f	0.21676801
69	0xbe8a97a2	-0.27068812
70	0xbeecaba8	-0.46224713
71	0x3e9acfe9	0.30236748
72	0x3e70dbc2	0.23521331
73	0x3eae915e	0.3409528
74	0x3e8f0e5d	0.27940646
75	0x3e9cbed4	0.3061434
76	0x3e9478a6	0.28998297
77	0xbf038880	-0.5138016
78	0x3eb234fc	0.3480605
79	0x3ea1cb47	0.316004
80	0x3ea20e5a	0.31651574
81	0x3e9d88f8	0.3076856
82	0xbf13e84c	-0.5777633
83	0xbd898c73	-0.06716242
84	0xbf0cb09e	-0.54956996
85	0xbe93b7f6	-0.2885129
86	0x3cab92c4	0.020944007
87	0x3ea2a7dc	0.31768692
88	0xbc292a26	-0.01032499
89	0x3e883149	0.26600102
90	0x3e7ddee0	0.24792051
91	0x3d47981a	0.04872904
92	0x3ead458f	0.33842131
93	0x3e7db96a	0.24777761
94	0xbf12403a	-0.5712925
95	0xbc9576b9	-0.018245088
96	0x3e88b615	0.26701418
97	0xbf039b99	-0.514093
98	0xbc0de5e5	-0.008660768
99	0x3e80b72c	0.2513975
100	0xbe5d4a3d	-0.21610351
101	0x3e68335c	0.22675842
102	0xbea8e8f8	-0.3299024
103	0xbee30c3f	-0.4434528
104	0x3aa28b4d	0.0012401134
105	0xbe9c06c5	-0.30473915
106	0xbe9a1762	-0.30095965
107	0x3ea33515	0.31876436
108	0x3eaae95f	0.33381173
109	0xbea4fcdc	-0.32224166
110	0x3ea20335	0.31643072
111	0xbe851896	-0.2599532
112	0x3ea476e9	0.3212197
113	0x3e6e04c2	0.23244002
114	0x3e99b658	0.3002193
115	0x3e809435	0.25113073
116	0x3e89fb44	0.26949513
117	0x3e8e4ad4	0.27791464
118	0x3eb7c64a	0.3589347
119	0xbc9faccf	-0.019491581
120	0xbecbc656	-0.39799756
121	0x3ea73b6a	0.32662517
122	0x3e9b2b45	0.3030645
123	0x3e9887d6	0.29791135
124	0x3d5f2d1b	0.054486375
125	0x3e925b26	0.28585166
126	0x3e8a4ab1	0.2701011
127	0xbe391a41	-0.18076421
128	0x3e602097	0.21887432
129	0x3d9d47db	0.07679721
130	0xbee95b1b	-0.4557732
131	0x3ea056d6	0.3131625
132	0x3e75868e	0.2397711
133	0xbf09b5fb	-0.53793305
134	0x3e976d09	0.29575375
135	0x3e8f0f20	0.27941227
136	0x3c8def35	0.017325977
137	0xbf06b5ef	-0.5262136
138	0x3e9c56db	0.30535015
139	0x3eba930c	0.36440313
140	0xbbeff991	-0.007323452
141	0xbf153dc6	-0.58297384
142	0x3ea20518	0.3164451
143	0xbecd75a1	-0.40128806
144	0xbe8b576c	-0.27215135
145	0xbd40e99f	-0.0470978
146	0xbbd70768	-0.006562162
147	0x3e77ea67	0.24210511
148	0x3e887e44	0.26658833
149	0x3e6efd95	0.23338921
150	0x3e88803a	0.2666033
151	0xbe2b672b	-0.16738574
152	0x3e67f26f	0.22651075
153	0x3eb11ee7	0.3459389
154	0x3e9e19a5	0.3087894
155	0xbedac146	-0.4272558
156	0x3ea92002	0.33032233
157	0x3d636b92	0.05552251
158	0xbc11ba88	-0.00889457
159	0x3e8f5083	0.27991113
160	0x3e852349	0.26003483
161	0x3e9de676	0.3083989
162	0xbf35a4cb	-0.7095458
163	0xbd2f5f50	-0.042815506
164	0xbd234366	-0.039859198
165	0x3e93b380	0.28847885
166	0xbc5819d8	-0.013189755
167	0xbf1c4717	-0.61045974
168	0x3e80a290	0.25124025
169	0x3e837a90	0.25679445
170	0x3e8d97b6	0.2765481
171	0xbed842e6	-0.4223854
172	0x3e96ab42	0.29427534
173	0xbcb671b5	-0.022271017
174	0x3d149218	0.03627214
175	0x3bfe2d87	0.007756892
176	0xbeef905d	-0.46789828
177	0x3e9e0249	0.30861118
178	0xbe92e416	-0.2868964
179	0x3e8c2dde	0.27378744
180	0xbb34398d	-0.0027500123
181	0x3ea98f5c	0.33117187
182	0x3b689f75	0.0035495434
183	0x3e58a432	0.21156386
184	0x3e5f7824	0.21823174
185	0x3e9e2417	0.3088691
186	0x3ea74729	0.32671478
187	0xbe64ea61	-0.22355033
188	0xbea921e6	-0.33033675
189	0x3e947958	0.28998828
190	0xbf25828c	-0.64652324
191	0x3e8f2fca	0.27966148
192	0x3e9e1c55	0.3088099
193	0x3e6e33f8	0.23262012
194	0xbec6b256	-0.38807935
195	0xbcb8fcac	-0.02258142
196	0x3ea50d5c	0.32236755
197	0xbea72535	-0.32645574
198	0xbec8de9f	-0.39232346
199	0x3e980edf	0.29698846
200	0x3e99da54	0.30049384
201	0xbe455c2c	-0.19273442
202	0x3ea97ddd	0.3310384
203	0x3e8b4fc4	0.27209294
204	0x3e9b44b6	0.3032586
205	0xbf246029	-0.6420923
206	0x3e665dda	0.22496739
207	0x3ea7c195	0.3276488
208	0x3ea8a60d	0.32939187
209	0x3e897940	0.2685032
210	0xbeac8f39	-0.3370302
211	0x3cf72257	0.030167742
212	0xbe968b35	-0.29403082
213	0x3b50118c	0.003174874
214	0x3da2711e	0.07931732
215	0x3e763794	0.24044639
216	0xbe785f5c	-0.24255127
217	0x3e9f769e	0.31145185
218	0x3e9e20fe	0.30884546
219	0x3c474260	0.012161821
220	0x3e6b2069	0.22961582
221	0xbda38e7f	-0.07986163
222	0xbf1a6c0e	-0.6032113
223	0x3c2b8b33	0.010470199
224	0x3e92a107	0.2863848
225	0xbee067e0	-0.4382925
226	0xbcf51a17	-0.029919667
227	0x3ea6bedc	0.3256749
228	0xbe91392d	-0.28363934
229	0x3e98f07d	0.29870978
230	0xbede6a68	-0.43440557
231	0xbed5b563	-0.4173995
232	0x3d200b5a	0.039073326
233	0xbe9dc21b	-0.30812153
234	0xbd3b9b50	-0.045802414
235	0x3e808a87	0.25105688
236	0x3eaf2db4	0.34214556
237	0xbe1a1615	-0.15047486
238	0x3e670e5d	0.22564073
239	0xbdb9aacc	-0.0906578
240	0x3e9de00f	0.30835006
241	0x3e9e609d	0.30933085
242	0x3e34ac1b	0.17643778
243	0x3e8f836c	0.28029954
244	0x3e83ba9a	0.25728303
245	0x3e9d9354	0.30776465
246	0x3e967365	0.29384914
247	0xbd6570de	-0.05601584
248	0x3ef71972	0.482616
249	0x3e9edb4e	0.3102669
250	0x3e9e86c8	0.30962205
251	0x3e57f24e	0.21088526
252	0xbd0d7f2b	-0.034545105
253	0x3e8000cd	0.2500061
254	0x3ea0e044	0.314211
255	0xbe9ce2c2	-0.30641752

layer3.bias f4 [2]
0	0x3d04d71b	0.032431703
1	0x3dd3b528	0.10337287
