model_weights/DQN/cartpole/cartpole_dqn_episode_999.pth (torch, 72498 bytes, 6 tensors)

layer1.weight f4 [128, 4]
0	0x3e17296d	0.14761896
1	0xbe8e6ff0	-0.27819777
2	0x3dc570cb	0.09640654
3	0xbe986195	-0.2976195
4	0xbe1d57e9	-0.15365566
5	0x3e49be76	0.19701561
6	0x3ea8f587	0.32999822
7	0xbc9fe630	-0.019518942
8	0x3e9799f1	0.29609635
9	0xbeb11c62	-0.34591967
10	0x3f3e7a78	0.7440562
11	0x3e9df622	0.30851847
12	0xbe8cc645	-0.27495018
13	0xbe9af6b1	-0.30266336
14	0x3d8babeb	0.068199
15	0xbe2a3969	-0.16623463
16	0x3d105c26	0.03524413
17	0xbecdac9f	-0.40170762
18	0xbefe0780	-0.49615097
19	0xbe7b519e	-0.24542853
20	0xbe8fc70c	-0.28081548
21	0x3da48a65	0.08034209
22	0xbf230288	-0.6367574
23	0xbdfb9be3	-0.122855924
24	0x3f18ac33	0.59637755
25	0xbe091acc	-0.13389128
26	0xbec9821b	-0.39357075
27	0xbe56819a	-0.20947877
28	0xbeaa44bd	-0.33255568
29	0xbdb025b1	-0.08600939
30	0xbd594b9b	-0.05305062
31	0x3c730b22	0.014834197
32	0xbe7a828c	-0.24463862
33	0xbe6898cd	-0.22714539
34	0x3e62537f	0.22102164
35	0x3e785bf9	0.24253835
36	0x3e734c75	0.23759635
37	0x3ea599ab	0.32343802
38	0x3dbfd234	0.09366265
39	0x3f04a35e	0.5181178
40	0x3e8c6b1b	0.27425465
41	0xbe9aa153	-0.30201206
42	0xbdf451a1	-0.11929632
43	0xbe6674fc	-0.22505563
44	0xbe2b0cb8	-0.1670407
45	0xbe217711	-0.15768076
46	0x3dda0c84	0.106469184
47	0xbdfedf55	-0.12444941
48	0x3ef72fd1	0.4827867
49	0xbdc3f94d	-0.09569035
50	0x3dd4e27f	0.10394763
51	0xbc08668f	-0.008325233
52	0x3e769297	0.24079357
53	0x3dddd1b1	0.10831011
54	0x3dac9921	0.084276445
55	0xbe1d4987	-0.1536008
56	0xbd5f4ef5	-0.05451866
57	0x3edaad4f	0.4271035
58	0x3e2df095	0.16986306
59	0x3ea09b59	0.3136852
60	0xbec6ebc1	-0.3885174
61	0xbe994d26	-0.29941672
62	0xbea6743b	-0.32510552
63	0x3e6a6740	0.22890949
64	0xbebd3a18	-0.36958385
65	0x3ca1372e	0.019679632
66	0x3ddbf885	0.10740761
67	0xbbedad0a	-0.007253294
68	0xbeb9bac5	-0.36275306
69	0x3df66783	0.12031462
70	0xbedd8c46	-0.43271083
71	0xbea67f65	-0.3251907
72	0xbebe3f5b	-0.3715771
73	0xbd8db62f	-0.069195144
74	0x3ed649df	0.41853234
75	0xbd15e8a1	-0.036598805
76	0xbbea0c7c	-0.0071426015
77	0x3e79d91f	0.24399231
78	0x3ee2fe78	0.4433477
79	0x3c2684a5	0.010163461
80	0x3e68dfd0	0.22741628
81	0xbebca05d	-0.36841097
82	0xbe2cd14e	-0.16876718
83	0xbe8ea48a	-0.27859908
84	0xbc2c9b7c	-0.010535117
85	0x3eaa4881	0.3325844
86	0xbc0c6996	-0.0085700955
87	0xbe299677	-0.16561304
88	0x3eba0c73	0.36337623
89	0x3e4368e1	0.19082977
90	0xbe5482b8	-0.2075299
91	0xbd1605b3	-0.03662653
92	0x3ed64160	0.41846752
93	0x3e29ccf8	0.16582096
94	0x3dabab3c	0.0838227
95	0xbe3f7451	-0.18696715
96	0x3e48c197	0.19605099
97	0x3ef25101	0.47327426
98	0x3e1f5988	0.15561497
99	0x3e5497c4	0.20761019
100	0xbd8287fc	-0.06373593
101	0xbdd82513	-0.10553946
102	0x3f218b3f	0.631031
103	0x3eb7ce8a	0.35899764
104	0x3ee4bb59	0.44674185
105	0xbdcfa7e5	-0.10139445
106	0xbe9065b6	-0.282026
107	0x3d70ba70	0.05877155
108	0x3dd9f2fb	0.10642048
109	0x3cd7cf2d	0.026343906
110	0xbef07116	-0.46961278
111	0x3c48c27a	0.012253398
112	0xbeca7c07	-0.3954775
113	0xbe72aab6	-0.23697934
114	0x3f059be4	0.52190995
115	0x3e8255e9	0.2545617
116	0xbec29db6	-0.3801095
117	0x3da255ee	0.07926546
118	0xbeea0363	-0.4570571
119	0x3dfeb3f7	0.12436669
120	0xbe8499ba	-0.25898534
121	0xbde32925	-0.11091832
122	0x3f2929f3	0.66079634
123	0x3ebcbc14	0.36862242
124	0x3ec06882	0.37579733
125	0x3d4e6e8d	0.0503984
126	0xbe65b7b8	-0.22433364
127	0x3d7179e1	0.058954123
128	0xbed09c7c	-0.40744388
129	0x3df5f8c1	0.12010337
130	0x3e1cea38	0.15323722
131	0x3d7b6432	0.06137485
132	0xbeb15d50	-0.34641504
133	0x3d860214	0.06543365
134	0x3ee6a23c	0.4504565
135	0x3de5c596	0.11219327
136	0xbdcd5f86	-0.10027985
137	0xbece153e	-0.40250582
138	0xbe98a352	-0.29812104
139	0x3dc1b5c2	0.09458496
140	0x3e28d738	0.1648835
141	0x3e7792ba	0.24177065
142	0x3e8df942	0.2772923
143	0xbd61c778	-0.05512187
144	0xbd5972e5	-0.053088088
145	0xbe28a121	-0.16467716
146	0x3d06676d	0.03281348
147	0x3e32e10b	0.1746866
148	0xbed4172b	-0.41423926
149	0xbe170c23	-0.14750724
150	0x3a9ac394	0.0011807554
151	0x3d54aac4	0.051920667
152	0xbee1a5d3	-0.44071826
153	0xbef3ce5d	-0.4761838
154	0x3e8e6634	0.2781235
155	0xbe3096bf	-0.17245005
156	0xbed96840	-0.4246235
157	0xbe7de0f7	-0.24792849
158	0xbdb7e8cb	-0.089799486
159	0xbed1df35	-0.40990606
160	0xbeaa2a37	-0.33235332
161	0x3e324ae9	0.17411388
162	0x3d93375e	0.07188295
163	0x3ef1e42e	0.472444
164	0xbed283c5	-0.41116157
165	0x3ee2a28f	0.44264647
166	0xbea34676	-0.31889695
167	0x3e86aaae	0.26302093
168	0x3ef05758	0.46941638
169	0x3efd0f21	0.49425605
170	0xbdaddffa	-0.08489986
171	0x3e9ef907	0.31049368
172	0xbed7ac60	-0.421237
173	0x3e118041	0.14209081
174	0x3e57a428	0.21058714
175	0x3e25b305	0.16181572
176	0xbcd72192	-0.026261125
177	0x3e9a6235	0.3015305
178	0x3f707af2	0.939376
179	0x3e88b6d5	0.2670199
180	0x3cbb486a	0.022861678
181	0x3d6f2f7c	0.058394894
182	0xbb9485c0	-0.004532546
183	0xbed38815	-0.4131476
184	0x3e583e41	0.21117498
185	0xbebb595c	-0.36591613
186	0xbeb11205	-0.3458406
187	0x3eb97224	0.36219895
188	0x3d4c88f6	0.049935304
189	0x3e31498c	0.17313212
190	0xbaa2146c	-0.0012365705
191	0xbece8bea	-0.4034112
192	0x3f0f0ae6	0.55876005
193	0xbe02619b	-0.12732546
194	0xbd981290	-0.074254155
195	0xbe635cc4	-0.22203356
196	0xbdc73ad2	-0.09728016
197	0xbe94b06b	-0.29040846
198	0xbceab7d8	-0.028652117
199	0xbe833a9d	-0.25630656
200	0x3ea5df3e	0.32396883
201	0x3e6cf89f	0.23141716
202	0x3c31139d	0.010807899
203	0x3e0a5f72	0.13512972
204	0xbe05017d	-0.12988849
205	0xbe811e5d	-0.25218478
206	0xbe704535	-0.234639
207	0x3cf2c6ca	0.029635806
208	0x3e309cf1	0.17247368
209	0xbe6380a0	-0.22217035
210	0xbf1da888	-0.61585283
211	0xbdf8b834	-0.12144509
212	0x3d6d514a	0.05793885
213	0x3e0d6213	0.13806944
214	0x3f6e49f2	0.9308158
215	0x3de42e03	0.111415885
216	0xbe8d441d	-0.2759103
217	0x3e8d6000	0.27612305
218	0x3ef56615	0.47929445
219	0xbe3c786e	-0.18405315
220	0xbede4826	-0.4341442
221	0x3e014b94	0.12626487
222	0xbef31b5f	-0.4748182
223	0xbb63c95c	-0.003475747
224	0x3d4db45c	0.050220832
225	0xbcd4af67	-0.025962545
226	0x3bd941a0	0.0066301376
227	0xbe7db348	-0.24775422
228	0xbef0e4c9	-0.4704955
229	0x3d1dabaa	0.03849379
230	0xbe6021c1	-0.21887876
231	0xbe8a4b3c	-0.27010524
232	0x3ea20fa3	0.31652555
233	0xbea0bd9f	-0.3139467
234	0x3e1218d8	0.1426729
235	0xbe11d4a0	-0.14241266
236	0xbde84dce	-0.11342965
237	0xbe5c82c6	-0.21534261
238	0x3e92be07	0.28660604
239	0xbe52ec70	-0.20598006
240	0x3d8359fa	0.06413646
241	0x3ef1c496	0.47220296
242	0x3e426396	0.18983302
243	0x3e359213	0.17731504
244	0xbc13be1b	-0.009017493
245	0xbec37c13	-0.381806
246	0xbeeeb7a2	-0.46624476
247	0xbd9a6e05	-0.07540516
248	0x3ee93ad1	0.45552686
249	0xbe892284	-0.26784146
250	0xbdd52fdf	-0.10409521
251	0xbe9f2b00	-0.31087494
252	0xbf07220a	-0.52786314
253	0xbe9b4e0c	-0.30332983
254	0x3e023a26	0.12717494
255	0x3ecbdb20	0.39815617

layer1.bias f4 [128]
0	0x3ef64a86	0.48103732
1	0x3e6798ce	0.22616884
2	0xbea74f51	-0.326777
3	0x3ef0d09b	0.47034153
4	0x3ec0ebd3	0.3767992
5	0xbe028218	-0.1274494
6	0xbe9ab350	-0.3021493
7	0x3e9ef421	0.3104563
8	0xbeb0c444	-0.3452474
9	0xbe6290c4	-0.22125536
10	0xbe6f1fe5	-0.2335201
11	0x3f184037	0.59472984
12	0x3e9baa3f	0.30403325
13	0x3f07669d	0.5289095
14	0x3ee16b95	0.4402739
15	0xbeab3356	-0.33437604
16	0x3e8df840	0.27728462
17	0xbdafe2f5	-0.085882105
18	0xbe247543	-0.16060357
19	0x3ee14ca1	0.44003776
20	0x3e888732	0.26665646
21	0x3eed4eec	0.46349275
22	0x3efea75b	0.49737057
23	0xbec41259	-0.38295248
24	0xbed60c12	-0.41806084
25	0xbe111349	-0.14167513
26	0x3f128d7e	0.5724715
27	0x3e807be0	0.2509451
28	0xbeb50cfa	-0.35361463
29	0x3ecec603	0.40385446
30	0xbe744488	-0.23854268
31	0xbe7a5e0b	-0.24449937
32	0x3ec72b8a	0.38900405
33	0x3e44e800	0.19229126
34	0xbe7ae18f	-0.24500106
35	0xbee579ca	-0.4481948
36	0xbe7a558c	-0.24446696
37	0x3eda5e12	0.42649895
38	0xbe33c506	-0.17555627
39	0xbc23917f	-0.009983419
40	0xbec37d8e	-0.38181728
41	0x3da30e75	0.07961742
42	0x3e86639a	0.26247865
43	0x3eeee574	0.46659434
44	0xbeb8c34d	-0.36086503
45	0x3ea04e6b	0.31309828
46	0x3e69fdb0	0.2285068
47	0x3e804942	0.2505589
48	0xbe37755f	-0.17915867
49	0xbdf69e68	-0.12041932
50	0x3ec68f32	0.38781124
51	0x3ecd177d	0.40056983
52	0x3f1da12a	0.6157404
53	0xbdfbfbdb	-0.12303897
54	0x3eafef96	0.34362477
55	0x3f006d21	0.5016652
56	0x3f100d51	0.5627032
57	0xbeccffd1	-0.40038922
58	0x3f257060	0.64624596
59	0x3f126ad4	0.57194257
60	0x3e633295	0.22187264
61	0x3f05bc24	0.52240205
62	0x3ef411c3	0.476698
63	0x3cfd287c	0.030903094
64	0xbece823a	-0.4033373
65	0xbefff3cf	-0.499907
66	0x3e9cc101	0.30616
67	0x3e67501a	0.2258915
68	0x3efadb84	0.48995602
69	0xbe5e12dc	-0.21686882
70	0x3db4a097	0.088196926
71	0x3ec6d12b	0.38831457
72	0x3e9d1396	0.30679005
73	0xbe5f1e9e	-0.21789023
74	0x3e8a3944	0.26996815
75	0x3f0c5485	0.54816467
76	0xbcbfaf20	-0.023398936
77	0xbe870f92	-0.26379067
78	0x3ed02882	0.40655905
79	0x3e16512a	0.14679399
80	0xbeb5ed9a	-0.35532838
81	0xbe5d74ec	-0.21626633
82	0x3ea34397	0.31887504
83	0x3e95f28a	0.29286605
84	0x3e86b2d4	0.2630831
85	0x3f05b21d	0.52224904
86	0xbedcfd44	-0.43161976
87	0x3ebf615f	0.37378976
88	0xbe8b4a6a	-0.2720521
89	0x3f0431cc	0.51638484
90	0x3ee26981	0.44221118
91	0xbee991ce	-0.45619053
92	0x3ef8a5da	0.48564035
93	0x3f072b91	0.5280085
94	0xbead2140	-0.3381443
95	0x3ef59bae	0.47970337
96	0x3ecb8be3	0.39755163
97	0xbeacb0e6	-0.33728713
98	0x3f1ae9d8	0.6051307
99	0xbe38acbf	-0.18034647
100	0xbeb4a3e4	-0.3528129
101	0x3eb88fe8	0.36047292
102	0x3efaf138	0.4901216
103	0x3e17a31b	0.14808314
104	0x3f14d8bb	0.58143204
105	0x3eacbde6	0.3373863
106	0xbccc9bf0	-0.0249767
107	0xbda51468	-0.08060533
108	0x3e9602f4	0.29299128
109	0xbe05dd05	-0.13072594
110	0xbe8b5322	-0.27211863
111	0x3ebcada0	0.36851215
112	0x3e7f344c	0.24922293
113	0xbed7c593	-0.42142925
114	0x3f126bbf	0.5719566
115	0x3e8ec780	0.2788658
116	0xbebb7ab9	-0.36617067
117	0xbeab5ef1	-0.33470872
118	0x3f1b32a1	0.6062413
119	0x3f0f11a6	0.55886304
120	0xbe6e6ef2	-0.2328451
121	0x3e0f3b6d	0.13987513
122	0x3ee02144	0.4377538
123	0xbe7d7b78	-0.24754131
124	0x3e666c29	0.22502197
125	0x3ed7a7a9	0.42120102
126	0x3f1e5251	0.61844355
127	0x3f1205ec	0.57040286

layer2.weight f4 [128, 128]
0	0x3de93095	0.113862194
1	0x3dc6e3c9	0.09711415
2	0xbe1841aa	-0.14868799
3	0x3de7bd6d	0.11315427
4	0x3dc397c6	0.09550433
5	0xbd80b235	-0.0628399
6	0xbdaffa16	-0.08592622
7	0x3e1caacb	0.15299527
8	0xbd9c271a	-0.076246455
9	0xbcd16d0f	-0.025564699
10	0xbe911733	-0.28338012
11	0x3e98029b	0.29689488
12	0x3dad88e5	0.08473376
13	0x3d373731	0.04473037
14	0x3dc21401	0.09476472
15	0x3dc20009	0.09472663
16	0x3ddadb6a	0.10686381
17	0xbdcc80fd	-0.0998554
18	0x3d19c822	0.037544377
19	0x3cb95c5a	0.022627044
20	0x3e4d35b4	0.20040017
21	0x3db151ee	0.08658205
22	0x3d4ecdf3	0.050489377
23	0xbd050a85	-0.032480735
24	0xbda2ab58	-0.079428375
25	0x3ce5ec05	0.028066644
26	0x3d819194	0.06326595
27	0x3e3104b2	0.17286947
28	0x3d83bc34	0.06432381
29	0x3e3ab190	0.18231797
30	0x3d4c45fe	0.049871437
31	0xbe9a87d2	-0.30181748
32	0x3e574aeb	0.21024673
33	0x3e140a59	0.14457072
34	0x3d0ed49f	0.03487074
35	0xbecaa2f8	-0.3957746
36	0x3cfbfe44	0.030760892
37	0x3e6ed8e8	0.2332493
38	0xbd25e62d	-0.040502716
39	0x3c07eeda	0.008296693
40	0x3cfd0ad7	0.030888958
41	0x3e961be9	0.2931817
42	0x3d7bdf9a	0.06149254
43	0x3e5a43ec	0.21314973
44	0xbeb77b5b	-0.358363
45	0x3dad4d87	0.08462053
46	0x3afe504c	0.0019402592
47	0x3dc58b40	0.096457005
48	0xbce906cb	-0.028445622
49	0xbc8cf6e6	-0.017207574
50	0x3be05e1e	0.006847157
51	0x3deb2ccd	0.114831544
52	0x3ddbe01b	0.10736104
53	0xbf0ecb03	-0.5577852
54	0x3d71f65d	0.05907284
55	0x3e174b61	0.14774849
56	0x3e4102dc	0.18848747
57	0xbd9f66d2	-0.07783283
58	0x3ddd6f9b	0.10812303
59	0x3e1df107	0.15423976
60	0x3dc06351	0.09393943
61	0x3de79a5d	0.11308739
62	0x3d9899de	0.07451223
63	0xbb8bd417	-0.0042672264
64	0xbe8d4fca	-0.27599937
65	0xbeaf5fad	-0.34252682
66	0x3e20d3d2	0.15705803
67	0x3dd4eada	0.10396357
68	0x3c7743b1	0.0150918225
69	0xbe562033	-0.2091072
70	0x3dc02f34	0.09384003
71	0x3dd63cec	0.10460839
72	0x3cd2a5e1	0.025713863
73	0x3dba3dae	0.09093796
74	0x3d9a3940	0.07530451
75	0x3e039169	0.12848438
76	0xbd84ac14	-0.06478134
77	0xbe51c42e	-0.20484993
78	0x3dd51e95	0.10406224
79	0x3e0689c4	0.13138491
80	0x3c2755a9	0.010213294
81	0xbe4222d1	-0.18958594
82	0x3e1c17f2	0.1524351
83	0x3dfa3682	0.12217428
84	0x3df3ec1f	0.11910271
85	0x3d6672f6	0.05626198
86	0xbe26cda7	-0.16289388
87	0x3e2cf8e6	0.16891822
88	0xbe531915	-0.20615037
89	0x3e49d9cb	0.19711988
90	0x3deaa432	0.11457099
91	0xbe2e49e3	-0.17020373
92	0x3d135e0b	0.03597836
93	0x3e0e726a	0.13910833
94	0xbe29eeb7	-0.16594969
95	0x3d7f881f	0.062385675
96	0x3d84621e	0.06464027
97	0xbedba6c7	-0.4290068
98	0x3d13fc38	0.036129206
99	0xbdb8a10c	-0.09015092
100	0x3d267963	0.040643107
101	0x3d803987	0.062609725
102	0x3e1684e3	0.1469913
103	0xbb850165	-0.004059004
104	0x3cfd8d79	0.030951248
105	0x3e6c1ce3	0.23057894
106	0x3d2aa201	0.041658405
107	0xbeb278e2	-0.3485785
108	0x3ce36b96	0.027761262
109	0xbc8fd35c	-0.017556839
110	0xbde18511	-0.110117085
111	0x3e2b1ece	0.1671097
112	0xbc415cd1	-0.011801914
113	0xbde81d59	-0.113337226
114	0x3e33e6ad	0.17568465
115	0x3e0d8619	0.13820685
116	0xbdf027a8	-0.11726314
117	0xbde2be9c	-0.11071512
118	0x3e67eea2	0.22649625
119	0x3df9cb32	0.121969596
120	0xbbf16531	-0.0073667993
121	0x3c57bcd1	0.013167576
122	0x3da4f794	0.08055034
123	0xbe0b26d3	-0.13589029
124	0x3de37edf	0.11108183
125	0x3df4fd6f	0.11962401
126	0x3e2369b1	0.15958287
127	0x3e0ec038	0.13940513
128	0x3d0a2294	0.033724383
129	0x3cb3faeb	0.021970233
130	0xbd43b3d5	-0.047778923
131	0x3d441a47	0.047876623
132	0xbd1f3b6d	-0.038875032
133	0x3b7faf13	0.0039014264
134	0xbc82f6ba	-0.015986789
135	0xbd7a8569	-0.061162386
136	0xbd57115e	-0.052506797
137	0x3d78f336	0.06077882
138	0x3e05c279	0.13062467
139	0xbc110935	-0.008852293
140	0xbc8c07db	-0.01709359
141	0x3bb4c60d	0.0055167736
142	0xbcc3af23	-0.023887223
143	0x3cb951ed	0.022622073
144	0x3ca1d13e	0.019753095
145	0x3c274ac3	0.010210696
146	0xbdfa3006	-0.12216191
147	0x3d65bebf	0.056090113
148	0xbdcb837a	-0.099371865
149	0x3d38de09	0.045133624
150	0xbd70a169	-0.058747683
151	0x3bde40e6	0.006782639
152	0xbd9f8637	-0.07789271
153	0x3d27afd8	0.040939182
154	0x3d133aac	0.035944626
155	0xbdcaf236	-0.09909479
156	0x3d8b819e	0.06811832
157	0xbbf44dfc	-0.0074555855
158	0xbda12e7a	-0.07870193
159	0x3e6357cf	0.22201465
160	0xbd47a504	-0.048741356
161	0xbecf646a	-0.40506297
162	0xbd4e01bd	-0.050294627
163	0x3e1ab15c	0.1510672
164	0xbcfe18b3	-0.031017637
165	0xbd53dcd5	-0.051724274
166	0x3e6b4e25	0.22979029
167	0x3bdf0bd8	0.006806832
168	0xbb899425	-0.0041985684
169	0x3d7c9c6a	0.061672606
170	0x3aab9a2d	0.0013092213
171	0xbd73f443	-0.059559118
172	0x3d268be0	0.04066074
173	0x3c9541e5	0.018219898
174	0x3c60aa6c	0.013712507
175	0xbbe5a8a4	-0.007008629
176	0x3cf58073	0.029968476
177	0xbdfd7654	-0.12376085
178	0x3d0b10e4	0.033951655
179	0x3d195918	0.037438482
180	0x3c4066c6	0.011743253
181	0x3e3f765f	0.18697499
182	0x3d66746f	0.056263383
183	0xbd853bab	-0.065055214
184	0x3c43ef98	0.011958979
185	0xbe0f6f0d	-0.14007206
186	0xbc147a2c	-0.009062331
187	0x3cb05d06	0.021528732
188	0x3ddbad3a	0.107264
189	0x3d6950a9	0.05696169
190	0xbb9c8e90	-0.004777737
191	0xbd1440b8	-0.036194533
192	0x3d4f90d7	0.05067524
193	0xbd730d21	-0.059338693
194	0x3d935a06	0.07194905
195	0x3d09440e	0.033512168
196	0x3cea3aa3	0.028592413
197	0x3d0745f1	0.033025686
198	0x3b9acd9b	0.004724217
199	0x3cedff11	0.02905229
200	0xbd1c95bb	-0.03822873
201	0xbd62ed58	-0.05540213
202	0xbd9c472e	-0.07630764
203	0x3d42a7d3	0.04752333
204	0xbd9d624e	-0.07684766
205	0xbbaaf0fd	-0.0052167163
206	0xbcd768bf	-0.026295064
207	0xbc7fb98c	-0.015608203
208	0x3d0e2b79	0.034709428
209	0x3de38aa7	0.1111043
210	0x3d179b1f	0.03701317
211	0xbcce94ec	-0.025217496
212	0xbca55a04	-0.020184524
213	0xbda0f351	-0.07858909
214	0x3c180905	0.009279494
215	0x3d4d0318	0.05005178
216	0x3d9190da	0.07107706
217	0xbd92883a	-0.071548894
218	0xbbeab2c9	-0.007162426
219	0x3cddb814	0.027065314
220	0x3d0198c7	0.03163984
221	0xbd3e9e92	-0.046537943
222	0xbe219ded	-0.157829
223	0x3c0353fc	0.008015629
224	0xbd6e85cd	-0.05823307
225	0x3e9e7ff9	0.3095701
226	0x3d4384f8	0.04773423
227	0x39ffbd86	0.00048778596
228	0x3ac7f765	0.0015256224
229	0xbced4260	-0.028962314
230	0xbd99cf32	-0.075102225
231	0x3ca34d7b	0.019934407
232	0x3d7886fd	0.06067561
233	0xbd2c08b1	-0.042000476
234	0x3b6996c7	0.0035642849
235	0x3e3949ce	0.1809456
236	0xbd5d68f8	-0.054055184
237	0x3bed8eb8	0.0072496794
238	0x3d04aba8	0.032390267
239	0xbca1bcf2	-0.019743416
240	0x3c99a862	0.018757049
241	0xbc47c5ac	-0.012193125
242	0x3cc42388	0.023942724
243	0x3d73d88d	0.05953269
244	0xbcffbb45	-0.031217227
245	0x3dc457ad	0.09587035
246	0xbc938f86	-0.018012773
247	0x3cea8a3b	0.028630367
248	0x3ca04123	0.01956231
249	0xbdbaca2a	-0.09120591
250	0x3d38abea	0.045085825
251	0x3e53562e	0.20638344
252	0x3dbfafe4	0.0935972
253	0xbc01b91e	-0.0079176705
254	0xba1cbd9e	-0.0005979183
255	0xbdc48039	-0.09594769

layer2.bias f4 [128]
0	0x3df29bc3	0.118461154
1	0xbad9002a	-0.0016555835
2	0xbd85d2bf	-0.06534337
3	0x3e0eb51b	0.13936274
4	0x3e820173	0.2539173
5	0xbd721836	-0.05910512
6	0x3e11323a	0.14179316
7	0x3e6997af	0.22811769
8	0xbc6b271f	-0.014352589
9	0xbbb9318a	-0.0056516575
10	0x3e3c0b49	0.1836368
11	0x3e45eb1c	0.19327968
12	0x3ce4baa2	0.027921025
13	0xbdbfebdf	-0.09371161
14	0x3e6e7e18	0.23290288
15	0xbbbbc826	-0.0057306467
16	0xbc13369e	-0.00898519
17	0x3d884f7b	0.06655785
18	0xbcccb4a2	-0.024988476
19	0x3e70cb0a	0.23514953
20	0x3e767401	0.2406769
21	0x3e4e1b1b	0.20127527
22	0x3e076753	0.13223009
23	0x3d8e032e	0.069342
24	0x3d9ef576	0.07761662
25	0x3da76a56	0.08174579
26	0x3e66b272	0.22529009
27	0x3d258899	0.040413473
28	0x3e3c7533	0.18404083
29	0xbd7dfb88	-0.062007457
30	0x3d86a0af	0.06573617
31	0x3e410765	0.18850477
32	0x3e679b79	0.22617902
33	0x3e2a91ed	0.16657229
34	0xbbdceeb0	-0.006742321
35	0xbd34cc80	-0.04414034
36	0x3c801a3b	0.015637508
37	0x3e1aa80d	0.15103169
38	0xbd138bb1	-0.036021892
39	0x3bbfd877	0.005854662
40	0x3e878ba0	0.26473713
41	0x3e455801	0.19271852
42	0x3e27bda1	0.16380931
43	0xbdbd77dc	-0.09251377
44	0x3e86f11e	0.26355833
45	0xbd9cee76	-0.0766267
46	0xbd0b2f0c	-0.033980414
47	0xbd834237	-0.06409114
48	0xbdf81bbd	-0.12114666
49	0x3de0979d	0.10966418
50	0xbda62a69	-0.08113558
51	0x3e2b715f	0.16742466
52	0xbd08d8b6	-0.033409797
53	0x3e132a00	0.1437149
54	0xbcb3311c	-0.021874003
55	0x3e2ec9c4	0.17069155
56	0x3e080a42	0.13285163
57	0x3e3d1e4c	0.18468589
58	0x3e356207	0.17713176
59	0x3d8d10dd	0.06887982
60	0x3d8c86b4	0.0686163
61	0x3e890576	0.2676198
62	0xbdd06277	-0.10175031
63	0x3dfe2cc8	0.12410885
64	0x3e2e37e2	0.17013505
65	0x3e18862f	0.14894937
66	0xbb3343f1	-0.0027353729
67	0xbd28960e	-0.04115873
68	0x3e41a142	0.18909171
69	0x3d2fcf10	0.04292208
70	0xbc300dd0	-0.010745481
71	0x3de01301	0.10941125
72	0x3e42a6f3	0.19008999
73	0x3d7d85fb	0.06189535
74	0x3e472c3b	0.19450466
75	0x3e84d465	0.25943294
76	0x3e692031	0.22766186
77	0xbdc559bf	-0.09636258
78	0x3db7f31b	0.089819156
79	0x3dfe9db5	0.12432424
80	0x3e5edc3a	0.21763697
81	0x3e682ad5	0.22672589
82	0xbd3cd69f	-0.046103116
83	0x3d34b834	0.044120982
84	0xbd908bd8	-0.07057923
85	0x3c6ebe9f	0.014571815
86	0xbd0eeea0	-0.03489554
87	0x3e0eef77	0.13958536
88	0xbd0f5b7e	-0.034999363
89	0x3df93207	0.12167745
90	0x3e1664a5	0.1468683
91	0x3cc16412	0.023607288
92	0x3e6720a6	0.22571048
93	0x3d4d66ab	0.05014674
94	0xbdb75d24	-0.08953312
95	0xbcf356d1	-0.029704483
96	0x3e2991d9	0.16559543
97	0xbd7f8b8d	-0.062388945
98	0xb86a9f25	-5.5938162e-05
99	0x3e4fd70f	0.20296882
100	0x3cc44847	0.023960246
101	0x3e722787	0.23647891
102	0xbba6e8e4	-0.0050936807
103	0x3cd806c6	0.026370417
104	0x3c1d0159	0.009582841
105	0x3d2c135b	0.042010646
106	0xbb9cd12c	-0.0047856774
107	0x3e53c522	0.20680669
108	0x3e2e3002	0.17010501
109	0xb98987cd	-0.00026231856
110	0x3e63753b	0.22212689
111	0xbdabd687	-0.08390527
112	0x3e7f8140	0.24951649
113	0x3e59843e	0.21241853
114	0x3deb49ab	0.114886604
115	0x3e4db4e5	0.20088537
116	0x3e74249f	0.23842095
117	0x3e5c90c1	0.21539594
118	0x3e09d02f	0.13458322
119	0xbd934ab6	-0.07191984
120	0xbd109191	-0.035295073
121	0x3e3ff272	0.1874483
122	0x3e0fc75f	0.14040898
123	0x3e64c222	0.22339681
124	0xbd0a011c	-0.033692464
125	0x3e7cdb62	0.24693063
126	0x3e6e758b	0.23287027
127	0xbc8c7281	-0.017144443

layer3.weight f4 [2, 128]
0	0x3e89d9b6	0.26923913
1	0xbd265093	-0.040604185
2	0xbd74ce04	-0.059766784
3	0x3e5e66b4	0.21718866
4	0x3e842870	0.258121
5	0xbe221d31	-0.15831448
6	0x3e611bd9	0.2198328
7	0x3e4d278c	0.20034617
8	0xbd62e976	-0.055398427
9	0xbee135b6	-0.4398629
10	0x3e1561d9	0.14588107
11	0x3e6ed7a4	0.23324448
12	0xbe2679d2	-0.16257408
13	0xbe5fe271	-0.21863724
14	0x3e87e1da	0.265395
15	0xbd3415b5	-0.043966014
16	0xbdb63fc6	-0.088988826
17	0xbd793a48	-0.060846597
18	0xbed362c8	-0.41286302
19	0x3e7fb2ca	0.24970546
20	0x3e5b925a	0.21442547
21	0x3e8034a5	0.25040165
22	0x3e86b450	0.26309443
23	0xbe836841	-0.25665477
24	0x3e708460	0.23487997
25	0x3e856a5a	0.26057702
26	0x3e671ea7	0.22570287
27	0xbf34d8a6	-0.7064308
28	0x3e2d9efd	0.1695518
29	0x3d93c197	0.07214659
30	0xbd1a5fbb	-0.037688952
31	0x3e5a6135	0.21326144
32	0x3e6f0de7	0.23345147
33	0x3e4d20e8	0.20032084
34	0xbf5f7611	-0.8728953
35	0x3d50ae99	0.05094776
36	0xbc46dc0c	-0.012137424
37	0x3e7d0cab	0.24711864
38	0xbd9a98f7	-0.07548707
39	0xbf42672f	-0.75938696
40	0x3e626d78	0.22112072
41	0x3e977db1	0.29588082
42	0x3e765b61	0.24058296
43	0xbead3eda	-0.33837014
44	0x3e43ae1e	0.19109389
45	0x3d8edc60	0.06975627
46	0x3d5e9b12	0.054347105
47	0x3d8b12da	0.06790705
48	0xbef5b247	-0.47987577
49	0x3e539cfe	0.20665357
50	0xbe108621	-0.14113666
51	0x3e5c0aa1	0.2148843
52	0xbd14a77b	-0.036292534
53	0x3e4f408a	0.20239463
54	0xbd86802a	-0.06567414
55	0x3e8c4c49	0.2740195
56	0x3e79a75e	0.24380252
57	0x3e99e28b	0.3005565
58	0x3e425c7c	0.18980592
59	0xbedbe95d	-0.4295148
60	0xbeb5ecc7	-0.3553221
61	0x3e4c0808	0.19924939
62	0xbf53dd67	-0.8275971
63	0x3e428800	0.18997192
64	0x3e76ac9a	0.2408928
65	0x3e87be94	0.26512587
66	0xbf07f603	-0.5310976
67	0xbc1d7766	-0.009610986
68	0x3e1743b4	0.1477192
69	0xbd4b2a29	-0.049600754
70	0xbebacd9b	-0.3648499
71	0x3e7853d7	0.24250732
72	0x3e2a3af2	0.16624048
73	0x3e32420e	0.1740801
74	0x3e628db2	0.22124365
75	0x3e80ef2e	0.2518248
76	0x3e73f347	0.23823272
77	0xbf2d8072	-0.67774117
78	0x3e9aaa86	0.30208224
79	0x3e5e1f20	0.21691561
80	0x3e872682	0.26396567
81	0x3e71570d	0.23568363
82	0xbf1f69e6	-0.62270963
83	0xbdb56ce4	-0.0885866
84	0xbf08c96a	-0.53432333
85	0xbe4443df	-0.19166516
86	0x3cc6b79b	0.024257472
87	0x3e8c0be1	0.27352813
88	0xbc5f2a9f	-0.0136210015
89	0x3e4efbfe	0.20213315
90	0x3e34ade0	0.17644453
91	0x3d83d620	0.064373255
92	0x3e978fdc	0.29601943
93	0xbbbc789c	-0.0057516824
94	0xbf410ce1	-0.75410277
95	0xbcc524b9	-0.024065362
96	0x3e5041d4	0.20337611
97	0xbf178a86	-0.59195745
98	0xbc3b397c	-0.01142728
99	0x3e40b606	0.18819436
100	0xbda6ed06	-0.081506774
101	0x3e1d6c22	0.1537328
102	0xbd9901b0	-0.07471025
103	0xbee856f5	-0.45378843
104	0x3ad66b63	0.0016358908
105	0xbddc0a99	-0.10744209
106	0xbecdf594	-0.40226424
107	0x3e896051	0.26831296
108	0x3e8c4510	0.2739644
109	0xbd926741	-0.071486
110	0x3e88cc0e	0.2671818
111	0xbeb05c0f	-0.34445235
112	0x3e869439	0.2628496
113	0x3e23af14	0.15984756
114	0x3e816610	0.2527318
115	0x3e41aa10	0.1891253
116	0x3e539a51	0.20664336
117	0x3e571a86	0.21006212
118	0x3e7ffd1a	0.24998894
119	0xbcd2c493	-0.0257285
120	0xbe19506f	-0.14972089
121	0x3e884a86	0.26619357
122	0x3e72d0b5	0.23712428
123	0x3e7caf1f	0.24676178
124	0x3d93684c	0.071976274
125	0x3e6ca4eb	0.23109786
126	0x3e520b71	0.20512177
127	0xbe08fa59	-0.1337675
128	0x3e15a404	0.14613348
129	0xbc91fc1d	-0.017820412
130	0xbdc923b5	-0.09821264
131	0x3e8a7c24	0.27047837
132	0x3e3efa01	0.18650056
133	0xbec1d772	-0.37859684
134	0x3e7c936d	0.24665613
135	0x3e668cfa	0.22514716
136	0x3cbb45e7	0.02286048
137	0xbeaa71cc	-0.33289945
138	0x3e8446ae	0.25835174
139	0x3e922e2d	0.28550854
140	0x3d7f219e	0.06228792
141	0xbed4822d	-0.41505566
142	0x3e751bb7	0.23936354
143	0xbd419c3d	-0.04726814
144	0xbe5ca1da	-0.21546116
145	0xbd7e8256	-0.062136017
146	0xbdb68d80	-0.08913708
147	0x3e366ea8	0.1781565
148	0x3e57b514	0.2106517
149	0x3e367086	0.17816362
150	0x3e57f1d8	0.2108835
151	0xbe83449c	-0.25638282
152	0x3cd47d99	0.025938796
153	0x3e79b913	0.24387006
154	0x3e876490	0.2644391
155	0xbf1893c5	-0.5960048
156	0x3e96081a	0.29303056
157	0x3d963c9c	0.07335779
158	0xbc4049ac	-0.011736315
159	0x3e70713a	0.23480693
160	0x3e536973	0.20645694
161	0x3e8870f8	0.26648688
162	0xbf6feea1	-0.93723494
163	0xbd81be99	-0.06335182
164	0xbd5755b0	-0.052571952
165	0x3e799e77	0.24376856
166	0xbc8ea183	-0.017411
167	0xbf505e14	-0.8139355
168	0x3e496d9d	0.1967072
169	0x3e4e887d	0.20169254
170	0x3e6a4f81	0.22881891
171	0xbebe58d4	-0.37177145
172	0x3e8076f8	0.25090766
173	0xbcf0acff	-0.029379366
174	0x3d74d235	0.05977078
175	0x3c27e36b	0.010247092
176	0xbf1e1384	-0.6174853
177	0x3e845ebe	0.25853533
178	0xbe1a975c	-0.15096802
179	0x3e60e73f	0.21963213
180	0xbb6db775	-0.003627268
181	0x3e8f3f56	0.2797801
182	0x3b99b489	0.004690711
183	0x3e1f695c	0.15567535
184	0x3e178142	0.14795402
185	0x3e6fa0f0	0.23401237
186	0x3e95a7e2	0.29229647
187	0x3d841980	0.06450176
188	0xbe09882a	-0.13430849
189	0x3e78ae26	0.24285182
190	0xbf56524e	-0.83719337
191	0x3e6f671c	0.23379177
192	0x3e88bf44	0.26708424
193	0x3e2bb61d	0.1676869
194	0xbedfc411	-0.43704274
195	0xbcf410f3	-0.029793238
196	0x3e946f37	0.289911
197	0xbdb732cf	-0.08945238
198	0xbe9602b6	-0.29298943
199	0x3e803435	0.2503983
200	0x3e830967	0.2559311
201	0xbe39186e	-0.18075725
202	0x3e99b3be	0.30019945
203	0x3e67a48f	0.22621368
204	0x3e837255	0.25673166
205	0xbf58b065	-0.84644157
206	0x3e269e55	0.16271336
207	0x3df066f6	0.11738388
208	0x3e942449	0.28933933
209	0x3e5d43bc	0.2160787
210	0xbef409cb	-0.4766372
211	0x3d2346d0	0.039862454
212	0xbedc1ca3	-0.42990598
213	0xbd389bfd	-0.045070637
214	0x3d860df2	0.065456286
215	0x3e39b15b	0.18134062
216	0xbea420c3	-0.32056245
217	0x3e8bd08a	0.2730754
218	0x3e886d1d	0.26645747
219	0x3c839ac6	0.016065013
220	0x3e27a071	0.16369797
221	0xbca9f787	-0.020747913
222	0xbf4b9106	-0.79518163
223	0x3c626924	0.013819013
224	0x3e7674c4	0.2406798
225	0xbf172af2	-0.59049904
226	0xbd21e124	-0.03952135
227	0x3e920216	0.28517216
228	0xbe1346f3	-0.14382534
229	0x3e81a3f4	0.253204
230	0xbdd91442	-0.10599567
231	0xbf020de5	-0.5080245
232	0x3d533ce8	0.051571757
233	0xbdff54d7	-0.12467354
234	0xbd763141	-0.060105566
235	0x3e4a20ea	0.19739118
236	0x3e9d6297	0.3073928
237	0x3d0eb88f	0.034843978
238	0x3e266068	0.16247714
239	0xbdfae105	-0.1224995
240	0x3e82bc33	0.2553421
241	0x3e8b47f1	0.27203324
242	0x3ddde60c	0.108348936
243	0x3e71326e	0.23554394
244	0x3e525176	0.20538887
245	0x3e874783	0.26421747
246	0x3df4bfe9	0.119506665
247	0xbd979579	-0.074015565
248	0x3dcae619	0.09907169
249	0x3e626194	0.22107536
250	0x3e8506bd	0.25981703
251	0x3e15c90c	0.14627475
252	0xbd3ab084	-0.045578495
253	0x3e473b95	0.19456322
254	0x3e8c4da9	0.27403
255	0xbe8d67e1	-0.27618316

layer3.bias f4 [2]
0	0x3bc53974	0.006018812
1	0x3de9eb72	0.11421861
