model_weights/DQN/cartpole/cartpole_dqn_episode_2699.pth (torch, 72508 bytes, 6 tensors)

layer1.weight f4 [128, 4]
0.1360854 -0.2102093 0.10550815 -0.23056024 -0.12893982 0.14073233 0.32397327 0.05545953
0.26077366 -0.27260867 0.7527557 0.26770344 -0.20989156 -0.23556876 0.07295381 -0.13090375
0.050141048 -0.3108943 -0.41796154 -0.20874017 -0.27359524 -0.024658283 -0.8574744 -0.12285221
0.4776484 -0.11328272 -0.3967099 -0.17403935 -0.25332397 -0.06323507 -0.032266494 0.008241568
-0.25836512 -0.22227098 -0.08391227 -0.14974421 0.17599931 0.24607684 0.3511326 0.4476468
0.22533345 -0.2849967 -0.2939948 -0.24203366 -0.11448952 -0.11292436 0.10981938 -0.099130794
0.4251522 0.10637308 0.19879869 -0.13810864 0.24187097 0.075701684 -0.045730323 -0.038158484
-0.18294372 0.26406243 0.18517493 0.2865679 -0.3812499 -0.2847645 -0.8819455 -0.23613389
-0.2802885 0.020403529 0.119994774 0.00080281455 -0.3565709 -0.044802368 -0.931588 -0.13921131
-0.2955227 -0.17114618 0.0024605892 -0.10982376 -0.03016819 0.15696846 0.39935064 0.06091335
0.2270997 -0.2819401 -0.1171498 -0.22999877 -0.10687778 0.19341137 0.048108257 -0.02273666
0.32704088 0.17037113 -0.23472637 0.022515861 0.32596633 0.1343133 0.08876545 -0.16618256
0.15562472 0.38220167 0.12849516 0.13417527 -0.15768297 -0.16025001 0.28194958 0.09363479
0.60171974 0.058705855 -0.27772897 0.01862131 0.20238495 0.07467092 -0.44636044 0.031413905
-0.35745287 -0.21622302 0.25865915 -0.02931716 -0.29944202 0.07111502 -0.35539407 0.09328919
-0.3019401 -0.23201804 0.24283566 -0.07540934 0.2992535 0.041036222 -0.17418689 0.047185868
-0.32222858 0.10029736 0.14094591 0.046723604 -0.2539661 0.067455344 0.46619657 0.10964389
-0.16035931 -0.42623815 -1.1750798 -0.30704206 0.13253038 0.1946575 0.22264142 -0.055567093
-0.16208881 -0.25275394 -0.49031 -0.27766773 -0.31659916 -0.1108269 0.028417768 0.042122647
-0.38592604 -0.4206289 0.11676392 -0.20129348 -0.39543146 -0.25907436 -0.5660123 -0.40342084
-0.36854413 0.013811862 -0.38949513 0.072293386 -0.43069386 0.26103252 -0.22844996 0.26369524
0.30240873 0.5058393 0.38622648 0.30007485 -0.33340234 0.11776342 0.1916215 0.1297403
-0.03302257 0.23192893 0.98429745 0.30124468 0.0034151878 0.030983415 0.06670099 -0.2871038
0.23254453 -0.2235847 -0.38813612 0.026872594 0.23020273 0.19015975 -0.1309289 -0.21609303
0.4494271 -0.10033051 -0.10083019 -0.1449611 -0.11440647 -0.2759418 -0.5326786 -0.22129087
0.28105494 0.20678478 0.03750565 0.16348468 -0.083498985 -0.20798334 -0.16786046 0.030419724
0.15698491 -0.16364157 -0.47148997 -0.091699705 0.043556582 0.07629021 1.0011564 0.20369773
-0.2311654 0.21442097 0.49987614 -0.12793823 -0.34307218 0.10867416 -0.38044605 -0.010608074
0.0575008 -0.015457418 0.03390383 -0.15682116 -0.47249433 -0.10109452 -0.63199556 -0.12601954
0.2739039 -0.24055132 0.14688803 -0.103815794 -0.0714782 -0.16573393 0.24416111 -0.15710229
-0.05924298 0.42879656 0.4845918 0.32165477 0.014057604 -0.30372328 -0.3674609 -0.04724887
0.5887332 -0.04568915 -0.03386612 -0.19955823 -0.46333373 -0.29726222 0.22158013 0.09847981
00000000: f959 0b3e 1b41 57be a814 d83d fc17 6cbe
00000010: cd08 04be 231c 103e d3df a53e 8829 633d
00000020: 2084 853e 5d93 8bbe 99b4 403f 6d10 893e
00000030: d0ed 56be f038 71be cf68 953d a20b 06be
00000040: b360 4d3d 8a2d 9fbe 0eff d5be fcbf 55be
00000050: ad14 8cbe 2b00 cabc 7183 5bbf f199 fbbd
00000060: 558e f43e c500 e8bd 8f1d cbbe 5f37 32be
00000070: aeb3 81be 6381 81bd df29 04bd a407 073c
00000080: 6f48 84be 019b 63be 32da abbd 8c56 19be
00000090: 2a39 343e 91fb 7b3e a7c7 b33e f631 e53e
000000a0: d0bd 663e 16eb 91be 7d86 96be acd7 77be
000000b0: 7b79 eabd e344 e7bd fce8 e03d 1605 cbbd
000000c0: 8dad d93e 21da d93d e291 4b3e 5a6c 0dbe
000000d0: 06ad 773e 7c09 9b3d b84f 3bbd 124c 1cbd
000000e0: 9955 3bbe 3133 873e 7f9e 3d3e 07b9 923e
000000f0: 3033 c3be a7cc 91be 2ec7 61bf 15cd 71be
00000100: f981 8fbe 4d25 a73c d2bf f53d f973 523a
00000110: 7690 b6be b082 37bd 8d7c 6ebf 698d 0ebe
00000120: c04e 97be f240 2fbe d641 213b 48eb e0bd
00000130: 4823 f7bc 57bc 203e b077 cc3e 4780 793d
00000140: d38c 683e 745a 90be 3cec efbd cc84 6bbe
00000150: bde2 dabd a10d 463e 2a0d 453d 3b42 babc
00000160: e771 a73e c575 2e3e 1c5c 70be 2f73 b83c
00000170: 0fe5 a63e 6d89 093e a9ca b53d c32b 2abe
00000180: 165c 1f3e f0af c33e 3c94 033e 3e65 093e
00000190: a577 21be 9418 24be b25b 903e 99c3 bf3d
000001a0: 4e0a 1a3f 8d75 703d 7e32 8ebe b88b 983c
000001b0: 003e 4f3e 11ed 983d 5b89 e4be deab 003d
000001c0: 1004 b7be 9169 5dbe f96e 843e 8a2a f0bc
000001d0: 7750 99be c0a4 913d 36f6 b5be 670e bf3d
000001e0: e597 9abe 2396 6dbe e9a9 783e 3670 9abd
000001f0: c137 993e 9915 283d 0c5e 32be f845 413d
00000200: 25fb a4be b468 cd3d 2054 103e 4061 3f3d
00000210: d807 82be 0726 8a3d 51b1 ee3e fa8c e03d
00000220: 3b35 24be e33b dabe 0469 96bf 9e34 9dbe
00000230: 0bb6 073e 4c54 473e 1dfc 633e 529a 63bd
00000240: 9cfa 25be f768 81be ea09 fbbe 772a 8ebe
00000250: 4919 a2be 37f9 e2bd 61cc e83c cc88 2c3d
00000260: 1998 c5be ac5c d7be ec21 ef3d e11f 4ebe
00000270: fe75 cabe 65a5 84be 2fe6 10bf 2d8d cebe
00000280: d1b1 bcbe 264b 623c e86b c7be 8e0e 943d
00000290: e883 dcbe 0ea6 853e c9ee 69be 1003 873e
000002a0: 51d5 9a3e af7e 013f 7abf c53e 69a3 993e
000002b0: b6b3 aabe f32d f13d 6d38 443e a4da 043e
000002c0: ad42 07bd c77e 6d3e ebfa 7b3f be3c 9a3e
000002d0: 58d1 5f3b eed0 fd3c 879a 883d 45ff 92be
000002e0: 2720 6e3e 63f3 64be c7b9 c6be ea23 dc3c
000002f0: 44ba 6b3e 3db9 423e 3a12 06be 7e47 5dbe
00000300: 4f1b e63e 157a cdbd 0f80 cebd af70 14be
00000310: f04d eabd 3e48 8dbe a05d 08bf 139a 62be
00000320: 6fe6 8f3e 64bf 533e 869f 193d 8768 273e
00000330: 8401 abbd 96f9 54be 9de3 2bbe c932 f93c
00000340: a7c0 203e a891 27be 2267 f1be 0ecd bbbd
00000350: 6368 323d 0b3e 9c3d e525 803f 2396 503e
00000360: 9fb6 6cbe 2c91 5b3e c4ef ff3e 3d02 03be
00000370: 28a7 afbe 8f90 de3d d3c9 c2be 7dcd 2dbc
00000380: f585 6b3d 1c41 7dbc bede 0a3d ba95 20be
00000390: c7ea f1be a50a cfbd 76ca 21bf 440b 01be
000003a0: 223d 8c3e 1653 76be d169 163e 609d d4bd
000003b0: 2a63 92bd 28b6 29be 5f05 7a3e 6cdf 20be
000003c0: c4a8 72bd 398b db3e 6b1c f83e efaf a43e
000003d0: dd51 663c 9e81 9bbe d623 bcbe 0888 41bd
000003e0: 38b7 163f 8c24 3bbd 33b7 0abd fe58 4cbe
000003f0: 143a edbe c132 98be e7e5 623e c8af c93d

layer1.bias f4 [128]
0.46356118 0.2767215 -0.27116567 0.4615522 0.38864422 -0.23340265 -0.20697765 0.3357347
-0.3454498 -0.20012513 -0.13591501 0.553783 0.06835684 0.45537597 0.4610148 -0.29734722
0.3095344 -0.15770392 -0.036792487 0.46598628 0.27037218 0.46864626 0.38703123 -0.31792188
-0.32752097 -0.20361201 0.4021934 0.27363318 -0.40217957 0.39395607 -0.06431259 -0.19259076
0.38604176 0.24579853 -0.021095416 -0.35472864 -0.2557038 0.42907086 -0.18009274 -0.15646313
-0.38551578 0.06889227 0.054238494 0.44471547 -0.31053194 0.33445865 0.28051877 0.11647194
-0.14917788 -0.12237677 0.20280887 0.40792823 0.5719065 -0.11919865 0.34720907 0.47173804
0.53487545 -0.33151776 0.59995794 0.5428901 0.12368801 0.5006662 0.29103073 -0.05436984
-0.32197735 -0.5282423 0.3281108 0.15452643 0.3466422 -0.20370033 0.17808343 0.35907063
0.33222592 -0.25089315 0.30792236 0.5187183 0.13978244 -0.21790971 0.30619428 0.199211
-0.33271042 -0.14986399 0.3427392 0.06443989 0.31414255 0.5242933 -0.35016802 0.3829366
-0.39647448 0.49783716 0.4402198 -0.3611854 0.40610808 0.48687568 -0.36625606 0.4657689
0.34165293 -0.26968965 0.57642066 -0.13732016 -0.32709873 0.32583675 0.4663934 0.16109762
0.5433191 0.33584923 -0.15606335 -0.027567083 0.24837597 -0.027833033 -0.23600477 0.3673367
0.2181551 -0.27676612 0.5421082 0.051031232 -0.274115 -0.27354744 0.56220776 0.52817357
-0.21179554 0.2289719 0.42875114 -0.19509801 0.027899876 0.36825606 0.5785406 0.53314936
00000000: e457 ed3e 71ae 8d3e 3ad6 8abe 9250 ec3e
00000010: 60fc c63e 1b01 6fbe f3f1 53be 6be5 ab3e
00000020: ccde b0be 9aed 4cbe 4e2d 0bbe b9c4 0d3f
00000030: acfe 8b3d 0a27 e93e 220a ec3e e53d 98be
00000040: 4b7b 9e3e 237d 21be b8b3 16bd c195 ee3e
00000050: 396e 8a3e 67f2 ef3e f528 c63e a8c6 a2be
00000060: d4b0 a7be ab7f 50be 4bec cd3e a619 8c3e
00000070: 7bea cdbe 9cb4 c93e 52b6 83bd 8336 45be
00000080: 44a7 c53e 9cb2 7b3e 4bd0 acbc fe9e b5be
00000090: 9ceb 82be 2daf db3e 3b6a 38be df37 20be
000000a0: 5362 c5be 6417 8d3d 2f29 5e3d bfb1 e33e
000000b0: 0bfe 9ebe 2a3e ab3e 28a0 8f3e d788 ee3d
000000c0: 16c2 18be aca0 fabd 21ad 4f3e f8db d03e
000000d0: 7768 123f 6c1e f4bd 63c5 b13e a687 f13e
000000e0: 99ed 083f b2bc a9be d896 193f d8fa 0a3f
000000f0: 2450 fd3d a92b 003f fb01 953e e9b2 5ebd
00000100: 37da a4be e33a 07bf 24fe a73e 2d3c 1e3e
00000110: 167b b13e d296 50be 815b 363e 1bd8 b73e
00000120: 8419 aa3e 1175 80be 00a8 9d3e b9ca 043f
00000130: 2123 0f3e b923 5fbe 7fc5 9c3e f8fd 4b3e
00000140: 0559 aabe f275 19be 837b af3e 10f9 833d
00000150: 4bd7 a03e 1638 063f 3949 b3be 4410 c43e
00000160: b4fe cabe 83e4 fe3e 7d64 e13e 4bed b8be
00000170: 66ed cf3e c547 f93e ea85 bbbe 4379 ee3e
00000180: 22ed ae3e c314 8abe 4e90 133f a89d 0cbe
00000190: 7c79 a7be 13d4 a63e 1ecb ee3e c6f6 243e
000001a0: f616 0b3f 6ef4 ab3e 12cf 1fbe 5dd4 e1bc
000001b0: 4556 7e3e 1a02 e4bc 3cab 71be 8e13 bc3e
000001c0: 0d64 5f3e 4ab4 8dbe 9ac7 0a3f 2006 513d
000001d0: cd58 8cbe 690e 8cbe d9ec 0f3f 6236 073f
000001e0: eee0 58be 9c77 6a3e 4585 db3e c6c7 47be
000001f0: 488e e43c 0f8c bc3e 3d1b 143f 7a7c 083f

layer2.weight f4 [128, 128]
0.15451993 0.18780118 -0.11042818 0.12142572 0.11687802 -0.3331957 -0.08058168 0.1542476
-0.2197218 -0.09036398 -0.50756496 0.28905028 0.06291942 0.08164482 0.15750153 -0.026599359
0.12340539 -0.22190762 -0.0063526505 0.11623277 0.21504596 0.13031767 0.051063567 -0.027816731
-0.06373649 -0.13937679 0.15808964 0.283739 -0.12201754 0.19451164 -0.04849772 -0.2352841
0.22051139 0.16137406 0.03271477 -0.31628355 -0.66744995 0.2167839 -0.080305986 -0.044798844
-0.49135977 0.31176886 0.056746732 0.22793017 -0.573682 0.10444745 0.04184564 0.059742134
-0.037451424 -0.08004691 -0.007757785 0.12934971 0.16216794 -0.66348356 0.1340591 0.17139827
0.23672202 -0.33716556 0.16656284 0.17215371 0.11910194 0.13441807 0.14068237 -0.043113228
-0.21990258 -0.39824894 0.22605923 0.05047489 0.030348765 -0.32234904 0.08216334 0.119546324
0.098593175 -0.047659848 0.10646897 0.1629937 -0.116017796 -0.15602913 0.0977467 0.18308342
-0.23204082 -0.23060772 0.1476977 0.092436135 0.17572087 0.14860676 -0.12692304 0.19215782
-0.5739293 0.18897553 0.13392895 -0.1336204 0.048130322 0.18057907 -0.5199756 0.12891889
0.062417377 -0.34206742 0.1162958 -0.119394496 -0.124812804 0.053540625 0.18139906 0.028064946
0.061187673 0.20712557 -0.038457155 -0.3766942 0.13257997 -0.01787928 -0.17457652 0.19932373
-0.048719823 -0.30371636 0.18331026 0.1282703 -0.6248066 -0.16838546 0.29717425 0.20748429
0.017449422 0.048145473 0.1340021 -0.12439492 0.084430896 0.08733677 0.18423703 0.15884665
-0.031284057 -0.0030160977 0.15424374 0.046163388 -0.07178055 0.0031091706 -0.018489381 -0.016874487
-0.04185792 0.2068625 0.09609394 -0.022825316 -0.012652744 -0.062555134 0.023539783 0.02270279
0.013510792 0.0058094272 0.05587627 0.025444323 -0.160528 -0.023621773 -0.08085582 0.004385461
-0.06225286 0.24189332 -0.03861518 -0.24070561 0.39863554 -0.010555502 0.113738984 0.17189789
-0.045659833 -0.19527486 -0.2032664 0.119984664 -0.024904251 0.0022674424 0.39935923 0.001685464
0.011227888 0.15108758 0.0021443814 -0.02217626 0.2918687 0.006458046 0.052167114 -0.002903331
0.020945335 -0.11942646 0.013110078 0.07779786 -0.024261758 0.3970377 0.041433554 -0.10714782
-0.06508422 -0.1412725 -0.0019551578 -0.002075871 0.09002535 0.06992333 -0.035009395 0.118306085
0.040413436 -0.04731687 0.10358846 0.12640752 -0.02149186 0.24732836 0.1316087 0.04234118
-0.093368575 -0.043911066 -0.023014383 0.04949573 -0.067453876 -0.007332048 -0.07927443 -0.20618547
0.34458527 0.07446925 0.10305204 -0.050990418 0.09113065 -0.12688425 0.0068356353 0.096549615
0.056605935 -0.032940395 -0.06848047 0.018834624 0.05262531 -0.09212597 -0.12575254 0.033584546
-0.08722761 0.2467449 0.037682127 0.13838479 0.20265427 -0.021749856 -0.14364426 5.868108e-05
0.092887565 0.06860286 -0.0035325098 0.11565795 -0.14609024 0.14757809 0.18776655 0.0039270413
0.01760743 0.30768895 0.06978032 0.043048985 -0.08080901 0.22310033 -0.028111747 0.06095359
0.015971271 -0.06480179 -0.05895877 0.18191612 0.076941326 -0.0046602623 -0.04158074 -0.10063985
00000000: 793a 1e3e f44e 403e 2b28 e2bd 0cae f83d
00000010: be5d ef3d a098 aabe 0208 a5bd 15f3 1d3e
00000020: c0fe 60be c010 b9bd c7ef 01bf 66fe 933e
00000030: e6db 803d 6635 a73d 1548 213e e6e6 d9bc
00000040: f7bb fc3d c03b 63be e529 d0bb 720b ee3d
00000050: 0235 5c3e ff71 053e 0828 513d eadf e3bc
00000060: 4788 82bd cab8 0ebe 40e2 213e 3d46 913e
00000070: 55e4 f9bd 0f2e 473e 8ca5 46bd 51ee 70be
00000080: bdcd 613e 3e3f 253e ecff 053d ebef a1be
00000090: 00de 2abf 99fc 5d3e 7777 a4bd fe7e 37bd
000000a0: 8293 fbbe 2ba0 9f3e 436f 683d 8766 693e
000000b0: d3dc 12bf 8be8 d53d 5566 2b3d 2bb4 743d
000000c0: aa66 19bd a2ef a3bd 0435 febb 4074 043e
000000d0: 5a0f 263e 0fda 29bf ca46 093e 0783 2f3e
000000e0: 4267 723e f7a0 acbe 738f 2a3e 1049 303e
000000f0: b8eb f33d e4a4 093e 0a0f 103e 7f97 30bd
00000100: 242e 61be 49e7 cbbe 127c 673e c2be 4e3d
00000110: f99d f83c ef0a a5be 4145 a83d b4d4 f43d
00000120: 38eb c93d f936 43bd 670c da3d d2e7 263e
00000130: bd9a edbd 1ac6 1fbe 6c2f c83d 387a 3b3e
00000140: 1c9c 6dbe 6e24 6cbe 113e 173e 284f bd3d
00000150: 2cf0 333e 5f2c 183e 1df8 01be 05c5 443e
00000160: 08ed 12bf cd82 413e ac24 093e c9d3 08be
00000170: 4d24 453d b8e9 383e 1f1d 05bf 5003 043e
00000180: 5da9 7f3d 7623 afbe 7e2c ee3d 1a85 f4bd
00000190: db9d ffbd 6a4d 5b3d adc0 393e 75e8 e53c
000001a0: ed9f 7a3d ba18 543e 4085 1dbd 10de c0be
000001b0: 0bc3 073e 9177 92bc 30c4 32be 851b 4c3e
000001c0: 708e 47bd b680 9bbe afb5 3b3e 4a59 033e
000001d0: 53f3 1fbf 3d6d 2cbe 3927 983e c376 543e
000001e0: 17f2 8e3c 3034 453d d937 093e c4c2 febd
000001f0: 1bea ac3d 9fdd b23d a2a8 3c3e b2a8 223e
00000200: b623 00bd b9a9 45bb 12f2 1d3e d215 3d3d
00000210: ae01 93bd 3ac3 4b3b 0b77 97bc 5d3c 8abc
00000220: 3673 2bbd c3d3 533e e6cc c43d 28fc babc
00000230: 744d 4fbc e81c 80bd 81d6 c03c 34fb b93c
00000240: 5e5c 5d3c 025d be3b 84de 643d 9d70 d03c
00000250: 7461 24be 7382 c1bc bc97 a5bd eab3 8f3b
00000260: dbfc 7ebd e2b2 773e f32a 1ebd 887b 76be
00000270: f519 cc3e fcf0 2cbc fcef e83d 0006 303e
00000280: ce05 3bbd 22f6 47be 1125 50be 85ba f53d
00000290: 0004 ccbc 5f99 143b d078 cc3e caea dc3a
000002a0: 2df5 373c b4b6 1a3e c088 0c3b fdaa b5bc
000002b0: d06f 953e 049e d33b 2fad 553d d045 3ebb
000002c0: 8d95 ab3c dc95 f4bd a7cb 563c 7c54 9f3d
000002d0: 98c0 c6bc 8748 cb3e 3bb6 293d 5170 dbbd
000002e0: e04a 85bd bda9 10be 1b22 00bb 560b 08bb
000002f0: 365f b83d f633 8f3d 0366 0fbd 764a f23d
00000300: 8f88 253d 56cf 41bd 3026 d43d f970 013e
00000310: b20f b0bc a543 7d3e 6ec4 063e f26d 2d3d
00000320: 0638 bfbd 17dc 33bd a988 bcbc 09bc 4a3d
00000330: 4225 8abd ad41 f0bb a25a a2bd 4922 53be
00000340: 7b6d b03e 5683 983d f30c d33d 54db 50bd
00000350: b5a2 ba3d f2ed 01be 77fd df3b cebb c53d
00000360: a0db 673d 82ec 06bd 7d3f 8cbd 124b 9a3c
00000370: a38d 573d 8aac bcbd 46c5 00be f38f 093d
00000380: 64a4 b2bd b2aa 7c3e 9358 1a3d beb4 0d3e
00000390: 9a84 4f3e c12c b2bc 7b17 13be 5420 7638
000003a0: d63b be3d a87f 8c3d ae81 67bb 13de ec3d
000003b0: ae98 15be b61e 173e e045 403e 69ae 803b
000003c0: 753d 903c 6889 9d3e fce8 8e3d 2254 303d
000003d0: 327f a5bd 6a74 643e 9b4a e6bc 79aa 793d
000003e0: 2fd6 823c cdb6 84bd c07e 71bd 3848 3a3e
000003f0: 6a93 9d3d 1db5 98bb 9150 2abd 441c cebd

layer2.bias f4 [128]
0.18009172 -0.014029282 -0.048926383 0.18113282 0.28352606 -0.084612526 0.19194256 0.2620594
-0.011441481 -0.056217972 0.22577022 0.2185936 0.018103054 -0.11975885 0.24979617 0.019190881
-0.029355688 0.052966386 -0.0067891884 0.26822004 0.27302724 0.24336582 0.18384413 0.08164236
0.1653674 0.13913591 0.25566694 0.026764307 0.2227859 -0.049420927 0.052327305 0.22833936
0.2586564 0.21055755 -0.025035255 -0.03700366 0.012459214 0.19808091 -0.02867701 -0.012364444
0.29253468 0.23354758 0.2096514 -0.13405073 0.2887622 -0.061042774 -0.029028056 -0.05104784
-0.09664002 0.15935576 -0.075869165 0.21404088 -0.026584987 0.18632902 -0.01742431 0.2191193
0.19175464 0.20751558 0.21659878 -0.010875973 -0.06708785 0.29283077 -0.08252063 0.17833892
0.20993039 0.20044652 0.005786561 -0.032830253 0.22841212 0.049904905 -0.06056949 0.16226465
0.2297363 0.07645413 0.22982012 0.2847409 0.25667322 -0.07700448 0.15647589 0.199187
0.24694675 0.26262468 -0.036897566 0.035150785 -0.058718327 0.017461048 -0.02264309 0.19090088
-0.027898591 0.17400393 0.1928905 0.018824046 0.26027426 0.029004702 -0.07187644 -0.023686985
0.21061857 -0.063046746 -4.4598306e-05 0.23957382 -0.027053641 0.26768827 0.016223753 0.0010408981
0.0076341736 0.019953843 -0.0020858333 0.24329287 0.20639524 -0.00820034 0.25826702 -0.06510883
0.27649575 0.24712658 0.17851722 0.24131836 0.2729149 0.24604446 0.21658206 -0.05725487
0.10958563 0.21501994 0.18805008 0.26294094 -0.026815584 0.27786565 0.26148102 -0.06987449
00000000: f769 383e 13db 65bc 0867 48bd e27a 393e
00000010: 542a 913e 5549 adbd 978c 443e a62c 863e
00000020: 0d75 3bbc d144 66bd 4f30 673e 00d7 5f3e
00000030: db4c 943c 2144 f5bd 91ca 7f3e 3236 9d3c
00000040: 577b f0bc 48f3 583d d777 debb 2354 893e
00000050: 3aca 8b3e e434 793e a341 3c3e 1c34 a73d
00000060: 1256 293e a579 0e3e c7e6 823e d240 db3c
00000070: fd21 643e 996d 4abd 2855 563d cbd1 693e
00000080: 9d6e 843e 669c 573e bc16 cdbc 2691 17bd
00000090: bb21 4c3c b9d5 4a3e 0dec eabc 3d94 4abc
000000a0: 1bc7 953e 1927 6f3e dbae 563e 9844 09be
000000b0: a4d8 933e fd07 7abd 3fcc edbc 8a17 51bd
000000c0: 34eb c5bd 282e 233e 4b61 9bbd 882d 5b3e
000000d0: c2c8 d9bc 09cd 3e3e 6dbd 8ebc cf60 603e
000000e0: 545b 443e f77e 543e 12cc 5d3e 2331 32bc
000000f0: 5b65 89bd eaed 953e 9300 a9bd 7a9e 363e
00000100: fef7 563e da41 4d3e 319d bd3b 0479 06bd
00000110: dee4 693e 1669 4c3d b717 78bd b428 263e
00000120: fe3f 6b3e fc93 9c3d f755 6b3e 8fc9 913e
00000130: ac6a 833e 86b4 9dbd 373b 203e adf7 4b3e
00000140: 9cdf 7c3e be76 863e e721 17bd 45fa 0f3d
00000150: a182 70bd 790a 8f3c 007e b9bc 857b 433e
00000160: 968b e4bc 162e 323e 1685 453e e334 9a3c
00000170: ab42 853e 459b ed3c f433 93bd 350b c2bc
00000180: 65ac 573e a71e 81bd 110f 3bb8 d752 753e
00000190: 999f ddbc 700e 893e ade7 843c bf6e 883a
000001a0: 1728 fa3b 3e76 a33c 7ab2 08bb c421 793e
000001b0: 4659 533e b85a 06bc 933b 843e c757 85bd
000001c0: da90 8d3e c00e 7d3e 38cd 363e 291c 773e
000001d0: 80bb 8b3e 14f3 7b3e b0c7 5d3e 1584 6abd
000001e0: 6e6e e03d 302e 5c3e 3390 403e 32a0 863e
000001f0: 5bac dbbc 6844 8e3e d7e0 853e 5b1a 8fbd

layer3.weight f4 [2, 128]
0.33233294 -0.19551158 -0.40354097 0.28189152 0.30504125 -0.35682648 0.28368485 0.2675572
-0.044177637 -0.58710164 0.21909536 0.30716825 -0.2667462 -0.4472769 0.3272817 -0.33441672
-0.19038384 -0.04853321 -0.47968096 0.30613118 0.2787857 0.30488423 0.313568 -0.44206646
0.3284413 0.33175507 0.28975195 -0.6838823 0.24036849 0.057436265 -0.03001066 0.276101
0.28789985 0.26616892 -0.83628744 0.044237655 -0.009670582 0.30552325 -0.06010865 -0.7227254
0.2807291 0.34751397 0.29468748 -0.45912924 0.25449055 0.055607285 0.05046597 0.054066267
-0.38273254 0.2783964 -0.28549075 0.27676338 -0.028893525 0.27540067 -0.052279063 0.31572166
0.30509922 0.35845205 0.25505102 -0.61854154 -0.6993299 0.2635289 -0.71266955 0.253454
0.30655473 0.31339833 -0.49526468 -0.0076580974 0.21472026 -0.28464746 -0.4861387 0.3025215
0.2333435 0.35292926 0.27935693 0.30731478 0.29108852 -0.54062366 0.35181156 0.3110176
0.3186774 0.30737123 -0.60756564 -0.07058877 -0.58162814 -0.30689257 0.022043804 0.32007182
-0.010861524 0.26572925 0.2460081 0.05126726 0.34201127 0.21344998 -0.60109484 -0.01917641
0.266621 -0.5409151 -0.009118558 0.25112247 -0.22727938 0.22413631 -0.34718615 -0.46646604
0.0013041418 -0.320722 -0.31656456 0.32090068 0.3351251 -0.3386691 0.31854472 -0.27336425
0.3230074 0.23041995 0.30134398 0.2513142 0.26940346 0.2768502 0.35776418 -0.020516036
-0.4356647 0.3280073 0.30277914 0.29890424 0.057300016 0.28696564 0.26945424 -0.19019504
0.21451557 0.077698134 -0.4796078 0.31422025 0.23762397 -0.56541425 0.29601336 0.27847654
0.01824205 -0.5530357 0.30618888 0.36669764 -0.00770306 -0.61277616 0.3178518 -0.42289877
-0.28567535 -0.049519237 -0.0020011368 0.23880161 0.26517308 0.23074488 0.26507837 -0.17637192
0.21516307 0.34623834 0.3099695 -0.44960755 0.33224952 0.058405224 -0.009360231 0.28026482
0.25887093 0.3087638 -0.74614316 -0.04505068 -0.041908108 0.28853565 -0.01387843 -0.6425236
0.24996679 0.25495663 0.27567628 -0.44444534 0.295037 -0.023422826 0.038134784 0.008172716
-0.49214303 0.30812353 -0.30179757 0.27280906 -0.0028911666 0.3318649 0.0037350056 0.20769274
0.21389203 0.31061268 0.3289375 -0.23517855 -0.34750012 0.29050624 -0.6795636 0.28015453
0.30877087 0.22953622 -0.40825027 -0.023759097 0.32525966 -0.3433751 -0.41282085 0.29671484
0.30136317 -0.205398 0.33350942 0.27120107 0.30381468 -0.67487484 0.22075929 0.32084647
0.3311491 0.26634288 -0.35480204 0.031769663 -0.3087273 0.0075927223 0.083415136 0.23771149
-0.2555178 0.3134987 0.31067902 0.012794804 0.22598486 -0.0677584 -0.6345503 0.011019934
0.28706697 -0.46096173 -0.03149058 0.32813218 -0.2985405 0.2995176 -0.4568358 -0.4391033
0.041122235 -0.32444263 -0.048211064 0.24956992 0.34461156 -0.1583118 0.22175997 -0.09539618
0.3081156 0.31159076 0.17031763 0.28135422 0.2566066 0.30809584 0.28696615 -0.058931448
0.48760077 0.31150612 0.31034395 0.20645577 -0.03636538 0.24822092 0.31604075 -0.3225682
00000000: 8b27 aa3e 3034 48be ec9c cebe 1654 903e
00000010: 5e2e 9c3e f6b1 b6be 243f 913e 42fd 883e
00000020: 9cf3 34bd 4b4c 16bf 895a 603e 2845 9d3e
00000030: f592 88be 7a01 e5be 7891 a73e ab38 abbe
00000040: fbf3 42be c2ca 46bd be98 f5be 3abd 9c3e
00000050: 00bd 8e3e c919 9c3e fc8b a03e 8956 e2be
00000060: 7529 a83e cddb a93e 5e5a 943e e912 2fbf
00000070: 2823 763e 4a42 6b3d ead8 f5bc 1c5d 8d3e
00000080: 9c67 933e 4b47 883e ef16 56bf 8b32 353d
00000090: 5c71 1ebc 8b6d 9c3e 7d34 76bd 8804 39bf
000000a0: b9bb 8f3e 5aed b13e 47e1 963e fd12 ebbe
000000b0: 964c 823e 77c4 633d 68b5 4e3d 9774 5d3d
000000c0: 85f5 c3be f989 8e3e d82b 92be eeb3 8d3e
000000d0: 1db2 ecbc 5101 8d3e 9222 56bd 45a6 a13e
000000e0: f735 9c3e 0787 b73e 0c96 823e bd58 1ebf
000000f0: 4907 33bf 43ed 863e 8371 36bf b9c4 813e
00000100: bef4 9c3e bf75 a03e 5593 fdbe c7f0 fabb
00000110: a1df 5b3e 50bd 91be 2ce7 f8be 19e4 9a3e
00000120: 99f1 6e3e 25b3 b43e df07 8f3e 5d58 9d3e
00000130: 8e09 953e 5066 0abf a520 b43e b33d 9f3e
00000140: af29 a33e c35f 9d3e 6c89 1bbf d890 90bd
00000150: 95e5 14bf 0621 9dbe 3595 b43c 74e0 a33e
00000160: 89f4 31bc aa0d 883e 8ce9 7b3e 9efd 513d
00000170: 1a1c af3e a292 5a3e 5ae1 19bf d917 9dbc
00000180: 8c82 883e 6979 0abf 0166 15bc 2093 803e
00000190: edbb 68be fd83 653e 62c2 b1be a3d4 eebe
000001a0: bdef aa3a ad35 a4be c014 a2be 184d a43e
000001b0: 8495 ab3e 0966 adbe 4b18 a33e 66f6 8bbe
000001c0: 3a61 a53e 35f3 6b3e c249 9a3e 41ac 803e
000001d0: 40ef 893e 4fbf 8d3e de2c b73e 3f11 a8bc
000001e0: 720f dfbe 93f0 a73e de05 9b3e fa09 993e
000001f0: 6cb3 6a3d 29ed 923e e8f5 893e 7dc2 42be
00000200: f8a9 5b3e 3320 9f3d 278f f5be 7ae1 a03e
00000210: b353 733e fdbe 10bf 108f 973e 7a94 8e3e
00000220: 5a70 953c bf93 0dbf cac4 9c3e cbbf bb3e
00000230: f369 fcbb e6de 1cbf 79bd a23e 3086 d8be
00000240: 0a44 92be afd4 4abd 8125 03bb 6988 743e
00000250: c4c4 873e 6348 6c3e 5ab8 873e d79a 34be
00000260: b553 5c3e 2746 b13e 53b4 9e3e f632 e6be
00000270: 9c1c aa3e 513a 6f3d a85b 19bc df7e 8f3e
00000280: bb8a 843e 4a16 9e3e 3d03 3fbf 1087 38bd
00000290: d6a7 2bbd f2ba 933e 5b62 63bc 6d7c 24bf
000002a0: 4bf7 7f3e ad89 823e 7125 8d3e 578e e3be
000002b0: 170f 973e 3ae1 bfbc 3833 1c3d dbe6 053c
000002c0: 2cfa fbbe 5ec2 9d3e 3685 9abe a1ad 8b3e
000002d0: ba79 3dbb 32ea a93e ffc6 743b 68ad 543e
000002e0: 8306 5b3e a008 9f3e 7f6a a83e a5d2 70be
000002f0: 89eb b1be 3cbd 943e e1f7 2dbf 6a70 8f3e
00000300: 3717 9e3e 8b0b 6b3e 2e06 d1be 70a2 c2bc
00000310: 6f88 a63e dcce afbe 415d d3be 02eb 973e
00000320: 464c 9a3e da53 52be bfc1 aa3e deda 8a3e
00000330: 998d 9b3e 99c4 2cbf b90e 623e fd45 a43e
00000340: 608c a93e 185e 883e 9da8 b5be e820 023d
00000350: 8111 9ebe 5fcc f83b 8ed5 aa3d a46a 733e
00000360: 3bd3 82be e782 a03e 5211 9f3e 4ca1 513c
00000370: 9368 673e ebc4 8abd e371 22bf f48c 343c
00000380: 71fa 923e 2d03 ecbe 44fc 00bd f100 a83e
00000390: 4dda 98be 5f5a 993e 62e6 e9be 26d2 e0be
000003a0: ca6f 283d 581d a6be f778 45bd 428f 7f3e
000003b0: ed70 b03e 7d1c 22be 0c15 633e 135f c3bd
000003c0: 54c1 9d3e d388 9f3e bf67 2e3e a90d 903e
000003d0: f161 833e bdbe 9d3e 3aed 923e 1a62 71bd
000003e0: cfa6 f93e bb7d 9f3e 67e5 9e3e 2469 533e
000003f0: ddf3 14bd a02d 7e3e 18d0 a13e a927 a5be

layer3.bias f4 [2]
0.029040352 0.104759194
00000000: 08e6 ed3c fd8b d63d
