model_weights/DQN/cartpole/cartpole_dqn_episode_2899.pth (torch, 72508 bytes, 6 tensors)

layer1.weight f4 [128, 4]
0	0x3df77b0a	0.12084015
1	0xbe46b036	-0.19403157
2	0x3dc169b0	0.094439864
3	0xbe55ca6d	-0.20878
4	0xbdf35fcb	-0.118835054
5	0x3dfa73fa	0.12229152
6	0x3e954bb1	0.2915931
7	0x3d4976de	0.049185626
8	0x3e7886eb	0.24270217
9	0xbe71e054	-0.2362073
10	0x3f2dbc76	0.67865694
11	0x3e6d6cd7	0.2318605
12	0xbe44c6f3	-0.19216518
13	0xbe5e90ee	-0.21734974
14	0x3d853d73	0.06505861
15	0xbdf365c5	-0.118846454
16	0x3d305471	0.04304928
17	0xbe925141	-0.28577617
18	0xbec1a6ca	-0.37822562
19	0xbe414c8c	-0.18876857
20	0xbe7674f4	-0.24068052
21	0xbcce7903	-0.025204187
22	0xbf457025	-0.77124244
23	0xbd760275	-0.060060937
24	0x3edcf8a6	0.43158454
25	0xbdd1bb0e	-0.10240756
26	0xbeb7a908	-0.35871148
27	0xbe2102fa	-0.15723792
28	0xbe6cfb99	-0.23142852
29	0xbd7c9f8e	-0.0616756
30	0xbcf4f995	-0.029904166
31	0x3bddf1d6	0.006773214
32	0xbe6ec1d5	-0.23316129
33	0xbe4da058	-0.20080698
34	0xbd9b584d	-0.075852014
35	0xbe0a93c5	-0.13532932
36	0x3e23fd0e	0.16014501
37	0x3e64e3c8	0.22352517
38	0x3ea15b5a	0.31515008
39	0x3ece753d	0.4032382
40	0x3e5097ff	0.20370482
41	0xbe83bb0a	-0.25728637
42	0xbe877285	-0.2645456
43	0xbe5ab87d	-0.21359439
44	0xbdd7baca	-0.10533674
45	0xbdd90bf2	-0.105979815
46	0x3dc94116	0.09826867
47	0xbdb80ea9	-0.08987171
48	0x3ec925e1	0.39286712
49	0x3db7b3b4	0.089698225
50	0x3e278562	0.16359475
51	0xbde4e276	-0.111760065
52	0x3e5a0f49	0.21294893
53	0x3d5931a0	0.05302584
54	0xbd32e477	-0.043674912
55	0xbd0f736a	-0.035022177
56	0xbe2bbaf0	-0.1677053
57	0x3e6f4ee1	0.23369934
58	0x3e2a31c7	0.16620551
59	0x3e843c76	0.25827378
60	0xbeaf69d9	-0.34260443
61	0xbe840e3e	-0.25792116
62	0xbf4b7d51	-0.7948809
63	0xbe4f330e	-0.2023432
64	0xbe830995	-0.25593248
65	0x3c5d4532	0.013505267
66	0x3ddc38a9	0.107529946
67	0x39917a77	0.000277478
68	0xbea8ecc6	-0.32993144
69	0xbd258dd0	-0.040418446
70	0xbf4f8406	-0.81060827
71	0xbe0a8e41	-0.13530828
72	0xbe89f258	-0.26942706
73	0xbe1ecfd4	-0.15508968
74	0x3ba15b44	0.00492421
75	0xbdcd71fe	-0.10031508
76	0xbcf52fcb	-0.029930016
77	0x3e0c3cd2	0.13695076
78	0x3eb81642	0.3595448
79	0x3d5df186	0.054185413
80	0x3e50569c	0.20345539
81	0xbe849372	-0.25893742
82	0xbdd9c67d	-0.10633562
83	0xbe54efbc	-0.20794576
84	0xbdcb794e	-0.099352464
85	0x3e2d5158	0.16925561
86	0x3d2d1e38	0.042265147
87	0xbcb0c3d9	-0.021577762
88	0x3e947405	0.28994766
89	0x3e0b8aeb	0.13627212
90	0xbe5d5749	-0.21615328
91	0x3ca0457e	0.019564386
92	0x3e96d68a	0.29460555
93	0x3df818ed	0.12114129
94	0x3da449fe	0.080219254
95	0xbe19d0ff	-0.15021132
96	0x3e0ffcee	0.14061329
97	0x3eb0cdb0	0.34531927
98	0x3ded817a	0.11596961
99	0x3df7d89a	0.1210186
100	0xbe11fb20	-0.14255953
101	0xbe128c17	-0.14311253
102	0x3e7813be	0.24226281
103	0x3db6738e	0.08908759
104	0x3f12b68d	0.573098
105	0x3d934fc7	0.07192951
106	0xbe5f9448	-0.21833909
107	0xbc86b3b6	-0.016443115
108	0x3e372b95	0.17887719
109	0x3d73ff7d	0.059569824
110	0xbecec752	-0.40386444
111	0x3ce5e63f	0.028063891
112	0xbea47341	-0.32119182
113	0xbe46bdb5	-0.19408305
114	0x3e6d6fe7	0.23187219
115	0xbcf3a076	-0.0297396
116	0xbe8bc63a	-0.27299672
117	0x3d73b8d3	0.059502434
118	0xbea4d103	-0.32190713
119	0x3dabd18b	0.083895765
120	0xbe8b49ef	-0.27204844
121	0xbe5314bc	-0.20613378
122	0x3e61e897	0.22061382
123	0xbd916ec4	-0.07101205
124	0x3e8a780f	0.27044722
125	0x3d17eb65	0.037089724
126	0xbe21266e	-0.15737316
127	0x3d2e9342	0.042620905
128	0xbe966585	-0.29374328
129	0x3daf77bb	0.08567759
130	0x3e00d4f1	0.1258123
131	0x3d2a233c	0.04153751
132	0xbe6caf54	-0.23113757
133	0x3d6bb94e	0.057549767
134	0x3ed6f269	0.4198182
135	0x3dc90ac7	0.09816509
136	0xbe1444f8	-0.14479434
137	0xbec5cc55	-0.38632455
138	0xbf87a8c2	-1.0598376
139	0xbe8a9ff9	-0.27075174
140	0x3df4da07	0.11955648
141	0x3e342a54	0.17594272
142	0x3e4dfafa	0.20115271
143	0xbd4d9fb4	-0.050201133
144	0xbe159aff	-0.14609908
145	0xbe6a0c46	-0.22856244
146	0xbee2e2ae	-0.44313568
147	0xbe79278f	-0.24331497
148	0xbe93b898	-0.2885177
149	0xbdd61697	-0.104535274
150	0x3ccad9b5	0.024762014
151	0x3d195740	0.037436724
152	0xbeb4a0ec	-0.35279024
153	0xbebfe470	-0.3747897
154	0x3dd944cb	0.10608824
155	0xbe4199fe	-0.189064
156	0xbeb9f8b9	-0.36322573
157	0xbe6c7629	-0.2309195
158	0xbeff45a0	-0.49857807
159	0xbeb50011	-0.35351613
160	0xbeaa9598	-0.33317256
161	0x3c4c66e0	0.012475699
162	0xbeb4401f	-0.3520517
163	0x3d85d2fa	0.06534381
164	0xbec8ecb8	-0.39243102
165	0x3e6ac3ed	0.22926302
166	0xbe4ac381	-0.19801141
167	0x3e738bb9	0.23783769
168	0x3e8d3c74	0.27585185
169	0x3ee7535f	0.45180795
170	0x3eb7f627	0.35929987
171	0x3e8f37e6	0.27972335
172	0xbe9b8f8f	-0.30382964
173	0x3dcffcd4	0.10155645
174	0x3e2f8f47	0.171445
175	0x3dee08fd	0.11622808
176	0xbcf40ced	-0.02979132
177	0x3e569e5a	0.20958844
178	0x3f63bce6	0.8896011
179	0x3e8b62f2	0.27223927
180	0x3b0b4095	0.002124821
181	0x3cc8fe12	0.024535213
182	0x3d6a3008	0.057174712
183	0xbe896c24	-0.26840317
184	0x3e48e155	0.19617207
185	0xbe496d21	-0.19670536
186	0xbeb1100b	-0.34582552
187	0xbcacf1dd	-0.021111423
188	0x3e5f06ba	0.2177991
189	0x3e22191d	0.15829892
190	0xbe084e95	-0.13311227
191	0xbe2f795c	-0.17136139
192	0x3ecff5f6	0.4061734
193	0xbdb9b236	-0.09067194
194	0xbdba92c2	-0.09110023
195	0xbe062b4b	-0.13102452
196	0xbdcb9ffa	-0.099426225
197	0xbe7fb81f	-0.2497258
198	0xbefa80de	-0.48926443
199	0xbe375fac	-0.1790759
200	0x3e83f05e	0.25769323
201	0x3e3ab173	0.18231754
202	0x3ce19ade	0.027539667
203	0x3e10f0c4	0.14154345
204	0xbd9f6a18	-0.07783908
205	0xbe44d15d	-0.19220491
206	0xbe1c7da6	-0.15282306
207	0x3cd75beb	0.026288947
208	0x3e0f113b	0.13971417
209	0xbe1b9886	-0.15194902
210	0xbeda593d	-0.42646208
211	0xbdaa500e	-0.083160505
212	0x3d4d5c49	0.050136838
213	0x3d9f87ec	0.07789597
214	0x3f64d52d	0.8938778
215	0x3e32cabb	0.17460148
216	0xbe58b718	-0.21163595
217	0x3e40e32f	0.18836664
218	0x3ee695ba	0.45036107
219	0xbdf2eea3	-0.118619226
220	0xbea00c50	-0.31259394
221	0x3dbe97fa	0.09306331
222	0xbeb04fd8	-0.34435916
223	0xbc2013b5	-0.0097703235
224	0x3d4b886a	0.04969064
225	0xbc977af0	-0.018491238
226	0x3cf4cd08	0.029882923
227	0xbe117316	-0.14204058
228	0xbed94bf1	-0.4244075
229	0xbdbc75c3	-0.09202149
230	0xbf0ed8cb	-0.5579955
231	0xbdcec235	-0.10095636
232	0x3e7b2555	0.2452596
233	0xbe62cc9b	-0.22148363
234	0x3e067f87	0.13134585
235	0xbdc1885e	-0.09449838
236	0xbd88f945	-0.066881694
237	0xbe1dd17c	-0.15411943
238	0x3e60d5e0	0.21956587
239	0xbe120df4	-0.14263135
240	0xbd2b21ff	-0.041780468
241	0x3ebe636f	0.37185237
242	0x3ecca39b	0.3996857
243	0x3e9b6d10	0.30356646
244	0x3c2b5653	0.010457593
245	0xbe8e94c9	-0.2784789
246	0xbeaa5380	-0.3326683
247	0xbd30af3d	-0.04313587
248	0x3f105f04	0.5639498
249	0xbd812055	-0.06304995
250	0xbcf4e730	-0.029895395
251	0xbe180850	-0.14846921
252	0xbed51117	-0.416146
253	0xbe891a98	-0.26778102
254	0x3e475156	0.19464621
255	0x3dbe38ba	0.092881635

layer1.bias f4 [128]
0	0x3ee1f903	0.44135293
1	0x3e8ebb4e	0.27877277
2	0xbe8b4fe9	-0.27209404
3	0x3ee268fa	0.44220716
4	0x3ec0484b	0.37555155
5	0xbe65bded	-0.22435732
6	0xbe3f7da2	-0.18700269
7	0x3ea9226d	0.33034077
8	0xbe9fc71e	-0.31206602
9	0xbe3bca27	-0.18338834
10	0xbe000c69	-0.12504734
11	0x3f05ded7	0.5229315
12	0x3db4ecba	0.088342145
13	0x3eea753f	0.45792577
14	0x3ee2b542	0.44278914
15	0xbe8b9454	-0.27261603
16	0x3e9d38fc	0.30707538
17	0xbe0b4adc	-0.13602775
18	0xbcf4e554	-0.029894508
19	0x3ee5baa5	0.4486896
20	0x3e87fec9	0.26561573
21	0x3ee79faa	0.45239002
22	0x3ecdc8a5	0.40192142
23	0xbe9317fe	-0.28729242
24	0xbe978fc9	-0.29601887
25	0xbe411f02	-0.18859485
26	0x3ebcb973	0.36860237
27	0x3e8fedcc	0.28111112
28	0xbebbc5cb	-0.36674342
29	0x3ec38174	0.38184702
30	0xbd7a1aa0	-0.061060548
31	0xbe323638	-0.17403495
32	0x3ec07876	0.37591904
33	0x3e7865d7	0.24257599
34	0xbcab797a	-0.020931948
35	0xbea421f7	-0.32057163
36	0xbe6d2520	-0.23158693
37	0x3ed34a53	0.41267642
38	0xbe22a682	-0.1588383
39	0xbe1048b1	-0.1409023
40	0xbeb25ea9	-0.34837845
41	0x3dc8d721	0.098066576
42	0x3da1119e	0.07864688
43	0x3edb6ac1	0.42854884
44	0xbe8fa76f	-0.2805743
45	0x3ea75367	0.32680818
46	0x3e944eb0	0.28966284
47	0x3dede444	0.11615804
48	0xbe0a0e28	-0.13481963
49	0xbde0c0a0	-0.1097424
50	0x3e5eb768	0.21749651
51	0x3ec91425	0.39273182
52	0x3f0a2e2f	0.5397672
53	0xbe08de8a	-0.13366142
54	0x3eafcb0b	0.34334597
55	0x3ee7cd3a	0.45273763
56	0x3f01ddf6	0.5072931
57	0xbe9d1ec2	-0.3068753
58	0x3f107f6c	0.5644443
59	0x3f03e7b5	0.5152543
60	0x3e286980	0.16446495
61	0x3ef37246	0.4754812
62	0x3e8a0dfa	0.26963788
63	0xbd5c3283	-0.05375911
64	0xbe94fb3a	-0.2909792
65	0xbef44a2c	-0.4771284
66	0x3ea4f449	0.32217625
67	0x3df9f07e	0.12204073
68	0x3ebe43de	0.37161154
69	0xbe3c5fdf	-0.18395947
70	0x3e4a305b	0.19745009
71	0x3eb9cb13	0.36287746
72	0x3ea4d8cd	0.32196656
73	0xbe680c06	-0.22660837
74	0x3e9d0cc7	0.3067381
75	0x3efadbd0	0.4899583
76	0x3e125836	0.14291462
77	0xbe4a0acc	-0.19730681
78	0x3ea9a148	0.3313086
79	0x3e5a98a4	0.2134729
80	0xbea0a7ab	-0.3137792
81	0xbe12ec09	-0.14347853
82	0x3eac7011	0.3367925
83	0x3d8ee5e4	0.06977442
84	0x3ea27f68	0.31737828
85	0x3f004642	0.50107205
86	0xbea2afbd	-0.31774703
87	0x3ebd5d25	0.36985126
88	0xbeb78c8d	-0.3584942
89	0x3ef2eb7f	0.47445294
90	0x3ed7da5a	0.42158777
91	0xbea729bd	-0.3264903
92	0x3ed40145	0.4140722
93	0x3eeedb09	0.46651486
94	0xbea98afa	-0.33113843
95	0x3ee34422	0.4438792
96	0x3eb6054b	0.35550913
97	0xbe791a26	-0.24326381
98	0x3f0b40df	0.5439586
99	0xbdfde3d7	-0.123969726
100	0xbe9a8e60	-0.30186749
101	0x3eb36c14	0.35043395
102	0x3ee36229	0.44410828
103	0x3e33fd15	0.17577012
104	0x3f045cbd	0.5170401
105	0x3ea861bf	0.32887074
106	0xbe0e881b	-0.13919108
107	0xbcd066dd	-0.025439674
108	0x3e79e285	0.24402817
109	0xbcb9a916	-0.022663634
110	0xbe5a453f	-0.21315478
111	0x3eb8ab09	0.3606799
112	0x3e5fcb7c	0.21854967
113	0xbe819cd2	-0.25314957
114	0x3f03ee88	0.51535845
115	0x3da26410	0.07929242
116	0xbe7d8474	-0.24757558
117	0xbe7cd543	-0.24690728
118	0x3f094805	0.5362552
119	0x3f0095bf	0.50228494
120	0xbe3e38c4	-0.18576342
121	0x3e93d983	0.28876886
122	0x3ed1f874	0.41009867
123	0xbe3494ec	-0.17634934
124	0x3cf7248c	0.030168794
125	0x3eb08e36	0.34483498
126	0x3f0bca86	0.546059
127	0x3f010b54	0.5040791

layer2.weight f4 [128, 128]
0	0x3e20c321	0.15699436
1	0x3e55f6f9	0.20894994
2	0xbdc419d0	-0.09575236
3	0x3df9cca2	0.12197234
4	0x3df11894	0.11772266
5	0xbe99c0d3	-0.30029926
6	0xbd9524db	-0.0728242
7	0x3e1d22af	0.15345262
8	0xbe4b328a	-0.19843498
9	0xbda6dfaa	-0.08148129
10	0xbeea54c6	-0.45767802
11	0x3e8e015d	0.27735415
12	0x3d8297ad	0.06376586
13	0x3ddc2b91	0.10750497
14	0x3e30a38d	0.1724989
15	0xbcc42695	-0.023944179
16	0x3e01b778	0.12667644
17	0xbe495feb	-0.19665496
18	0xbb1fc9d1	-0.0024381767
19	0x3e1343fe	0.14381406
20	0x3e5507bc	0.20803732
21	0x3e1cef45	0.15325649
22	0x3d8a2a3f	0.06746339
23	0xbccde0a8	-0.025131539
24	0xbd6ba51c	-0.057530507
25	0xbe02e311	-0.12781931
26	0x3e247811	0.16061427
27	0x3e9130e5	0.28357616
28	0xbde19517	-0.11014765
29	0x3e4422c2	0.19153884
30	0xbd216fac	-0.03941314
31	0xbe599ff2	-0.2125242
32	0x3e5f377b	0.21798508
33	0x3e2a9de5	0.16661794
34	0x3d05e310	0.032687247
35	0xbe9254c6	-0.28580302
36	0xbf1a72dd	-0.6033152
37	0x3e55d06e	0.20880291
38	0xbd8c7a37	-0.06859248
39	0xbd1bf4cc	-0.038075253
40	0xbee361a7	-0.4441044
41	0x3e93ea75	0.28889814
42	0x3d5b9d87	0.053617027
43	0x3e67e805	0.22647102
44	0xbf04bfd2	-0.51855195
45	0x3df6b043	0.12045338
46	0x3d5056c1	0.050863985
47	0x3d45e92f	0.048318084
48	0xbd0aa247	-0.033846166
49	0xbd92afbf	-0.07162427
50	0x3abcd6a9	0.0014407235
51	0x3e04da19	0.12973823
52	0x3e289038	0.16461265
53	0xbf192e67	-0.5983643
54	0x3e1c150b	0.15242402
55	0x3e2f00e6	0.17090186
56	0x3e74dd5e	0.2391257
57	0xbe9ae827	-0.30255243
58	0x3e2f085b	0.17093031
59	0x3e2fdbbe	0.17173669
60	0x3de1741a	0.11008473
61	0x3e09f0b1	0.13470723
62	0x3e1bfda9	0.15233482
63	0xbd0ffe4d	-0.03515463
64	0xbe4b5cdf	-0.19859646
65	0xbeb8532f	-0.36000964
66	0x3e788741	0.24270345
67	0x3d4687c0	0.048469305
68	0x3d319430	0.043354213
69	0xbe952784	-0.2913171
70	0x3dad8578	0.08472723
71	0x3e0f4e31	0.13994671
72	0x3de3a6cb	0.111157976
73	0xbd305e08	-0.043058425
74	0x3de0f41a	0.10984059
75	0x3e2930bc	0.16522497
76	0xbdc817e7	-0.09770184
77	0xbe0fa8e4	-0.1402927
78	0x3decdf0c	0.1156598
79	0x3e44d459	0.19221629
80	0xbe54bed7	-0.20775925
81	0xbe54491f	-0.20731018
82	0x3e16d6e6	0.14730415
83	0x3db78e42	0.089626804
84	0x3e3d4c54	0.18486148
85	0x3e2d780e	0.16940328
86	0xbdea0930	-0.114275336
87	0x3e4633a0	0.19355631
88	0xbf04ce68	-0.5187745
89	0x3e3b1fa5	0.1827379
90	0x3e09878c	0.13430613
91	0xbdf6d603	-0.12052538
92	0x3d87ff9f	0.06640553
93	0x3e4315e2	0.19051316
94	0xbef03bf1	-0.46920732
95	0x3e0ec784	0.13943297
96	0x3db0c454	0.086311966
97	0xbe9e30ba	-0.3089655
98	0x3e02f76b	0.12789695
99	0xbddceffe	-0.107879624
100	0xbde53d39	-0.11193318
101	0x3db4f69d	0.088361
102	0x3e398414	0.1811679
103	0x3d0ae10a	0.03390602
104	0x3da54c63	0.0807121
105	0x3e4be23c	0.1991052
106	0xbd0f1322	-0.034930356
107	0xbe9fa853	-0.3118311
108	0x3e189568	0.14900744
109	0xbc9e3762	-0.019313518
110	0xbe21840f	-0.15773033
111	0x3e502124	0.20325142
112	0xbce5ead0	-0.028066069
113	0xbe8b3f65	-0.27196804
114	0x3e38b836	0.18039021
115	0x3dfa23c4	0.12213853
116	0xbf10866b	-0.56455106
117	0xbe1bddfa	-0.15221396
118	0x3e9ac95b	0.30231747
119	0x3e679782	0.2261639
120	0x3c7c543b	0.0154009415
121	0x3db0411b	0.08606168
122	0x3e0d3b5d	0.13792177
123	0xbde630ff	-0.11239814
124	0x3da3795a	0.0798213
125	0x3dbbe934	0.09175339
126	0x3e3c181e	0.18368575
127	0x3e2180fa	0.15771857
128	0x3c2d05bd	0.01056045
129	0xbb99c495	-0.004692624
130	0x3e1246d6	0.14284834
131	0x3d849b76	0.06474964
132	0xbd29910e	-0.0413981
133	0x3b383a0c	0.002811077
134	0xbc88e438	-0.016710386
135	0xbc083486	-0.008313304
136	0xbd1afaae	-0.037836723
137	0x3e3f9183	0.18707852
138	0x3db113e0	0.08646369
139	0xbb517389	-0.0031959733
140	0xbc3b42d0	-0.011429504
141	0xbd79f1f9	-0.06102178
142	0x3bf67cfc	0.0075222235
143	0x3ce22cf1	0.02760932
144	0x3ca3346c	0.019922458
145	0xbce6e358	-0.028184578
146	0x3e3831f5	0.17987807
147	0x3ccd4729	0.025058346
148	0xbda23431	-0.07920111
149	0xbd13dc4a	-0.036098756
150	0xbdc357da	-0.09538241
151	0x3b81e7cd	0.0039644004
152	0xbd666442	-0.056247957
153	0x3e72acdd	0.23698755
154	0xbc7b34e8	-0.015332438
155	0xbe94df66	-0.2907669
156	0x3eb9a0fe	0.3625564
157	0xbcdb25f5	-0.026751498
158	0x3e1ba7f2	0.15200785
159	0x3e1f0063	0.15527491
160	0xbd35d587	-0.04439309
161	0xbe2a6b92	-0.16642597
162	0xbe18f5b0	-0.14937472
163	0x3dde1213	0.10843291
164	0xbcb87191	-0.02251509
165	0x3c27d52c	0.010243695
166	0x3ee0a9ab	0.43879446
167	0x3c960623	0.018313473
168	0x3c26464d	0.010148597
169	0x3d996a87	0.074910216
170	0x3afdbc59	0.00193585
171	0xbcb9f414	-0.022699393
172	0x3e8710e9	0.2638009
173	0x3ca2ccca	0.019873042
174	0x3d578d00	0.052624702
175	0xbb2beb6f	-0.0026232859
176	0x3c9b19e5	0.018933246
177	0x3f447caa	0.7675272
178	0xbc182a78	-0.009287469
179	0x3da15ce8	0.078790486
180	0xbc96e781	-0.018420937
181	0x3eb86387	0.36013433
182	0x3d309760	0.043113112
183	0xbded1970	-0.115771174
184	0xbd4b795e	-0.04967629
185	0xbe02c50b	-0.12770478
186	0x3c95c5f8	0.018282875
187	0x3ce4e31e	0.02794033
188	0x3d40adcc	0.047040746
189	0x3d95df52	0.073179856
190	0xbc86a670	-0.016436785
191	0x3dfde806	0.123977706
192	0x3d1599b9	0.036523554
193	0xbd2f120f	-0.04274183
194	0x3dd062dc	0.10175106
195	0x3df9e498	0.12201804
196	0xbd1445a1	-0.036199216
197	0x3e64def4	0.22350675
198	0x3e082628	0.13295805
199	0x3d069445	0.032856245
200	0xbd56df96	-0.052459322
201	0xbd2284a3	-0.039677273
202	0xbcf41260	-0.029793918
203	0x3d83fe62	0.06445004
204	0xbd47c88b	-0.048775237
205	0xbbd908e2	-0.0066233734
206	0xbd57fd2d	-0.05273168
207	0xbeb5f71e	-0.35540098
208	0x3ea4b7f4	0.32171595
209	0x3d89d5ae	0.06730209
210	0x3de48ce9	0.11159689
211	0xbd3c34c1	-0.045948748
212	0x3d8fc139	0.07019276
213	0xbe20e060	-0.15710592
214	0x3bca538f	0.0061745117
215	0x3db4a80d	0.08821116
216	0x3d519863	0.051170718
217	0xbcaab5ae	-0.020838585
218	0xbcaaca93	-0.020848548
219	0x3c8b6fd8	0.017021105
220	0x3d63b756	0.055594765
221	0xbd984ae5	-0.0743616
222	0xbde891b4	-0.11355916
223	0x3d5194a1	0.051167134
224	0xbd99917a	-0.074984506
225	0x3e6457ff	0.22299193
226	0x3d549013	0.051895212
227	0x3dfff300	0.124975204
228	0x3e3fd7e5	0.18734701
229	0x3c3a6129	0.011375704
230	0xbdf27cc2	-0.11840202
231	0x3da700c7	0.08154445
232	0x3dac62fd	0.08417318
233	0x3d759822	0.05995954
234	0x3c960515	0.01831297
235	0x3dd34d29	0.103174515
236	0xbdcf30a1	-0.10116697
237	0x3e158e61	0.14605094
238	0x3e2da6dd	0.16958185
239	0x3bdaa3d6	0.006672363
240	0x3c9ca5ed	0.019122088
241	0x3e922871	0.2854648
242	0x3d819cd9	0.063287444
243	0x3d1f4802	0.03888703
244	0xbd95bd26	-0.07311468
245	0x3e4e6b42	0.20158103
246	0xbd7e6f4d	-0.062117863
247	0x3d2d55e1	0.04231823
248	0x3c6c2f9c	0.014415648
249	0xbdf50e79	-0.11965651
250	0xbd04a4da	-0.032383777
251	0x3e2867c1	0.16445829
252	0x3d957489	0.07297618
253	0xbba902cc	-0.005157804
254	0xbd05fbb1	-0.032710735
255	0xbdc68889	-0.09694011

layer2.bias f4 [128]
0	0x3e404b08	0.18778622
1	0xbc1ea361	-0.009682507
2	0xbd3527ee	-0.044227533
3	0x3e40d2dc	0.18830436
4	0x3e8f1a58	0.27949786
5	0xbd9ca3ed	-0.07648454
6	0x3e4b71a9	0.19867577
7	0x3e85fed8	0.26170993
8	0xbc297b85	-0.010344391
9	0xbd501cb3	-0.05080862
10	0x3e6b0128	0.2294966
11	0x3e667cf4	0.22508603
12	0x3c860b0d	0.016362691
13	0xbddda315	-0.10822121
14	0x3e801436	0.2501542
15	0x3c53dd37	0.01293116
16	0xbce68524	-0.028139658
17	0x3d442371	0.047885362
18	0xbc66cb1b	-0.01408651
19	0x3e8902b6	0.2675988
20	0x3e8b9151	0.27259305
21	0x3e79ea2d	0.24405737
22	0x3e42bf22	0.19018224
23	0x3d8fe6e0	0.07026458
24	0x3e3dac6f	0.1852281
25	0x3e1f93d1	0.15583731
26	0x3e826a8f	0.25471923
27	0x3cc6389a	0.024196912
28	0x3e684e65	0.22686155
29	0xbd37069b	-0.044684034
30	0x3d41b52f	0.04729193
31	0x3e6c5749	0.23080172
32	0x3e83fcc7	0.2577879
33	0x3e5c59db	0.21518652
34	0xbcb95d0d	-0.022627378
35	0xbd08fbb6	-0.033443175
36	0x3c388b0c	0.01126362
37	0x3e4ff9db	0.20310156
38	0xbcd45df6	-0.02592371
39	0xbc372a46	-0.011179512
40	0x3e93e266	0.28883666
41	0x3e70c305	0.23511894
42	0x3e5b666d	0.21425791
43	0xbdf79e8f	-0.120907895
44	0x3e920552	0.28519684
45	0xbd6204aa	-0.05518023
46	0xbcd6e222	-0.026230875
47	0xbd3cd765	-0.046103854
48	0xbdb2dd03	-0.08733561
49	0x3e2d757b	0.16939346
50	0xbd8c6a3e	-0.068562016
51	0x3e5f2b32	0.21793821
52	0xbcc4e9ab	-0.024037203
53	0x3e45f41c	0.19331402
54	0xbc8101cd	-0.015747929
55	0x3e63ccee	0.22246143
56	0x3e4b91cf	0.1987984
57	0x3e5a21d3	0.21301965
58	0x3e61b194	0.22040397
59	0xbc20fd43	-0.009826007
60	0xbd77d8cd	-0.06050949
61	0x3e942592	0.28934914
62	0xbd98c102	-0.07458688
63	0x3e3ea446	0.18617353
64	0x3e5bcb13	0.21464185
65	0x3e524183	0.20532803
66	0x3bab5cc2	0.0052295635
67	0xbcf2a66c	-0.029620372
68	0x3e6c951c	0.23103756
69	0x3d322f94	0.043502405
70	0xbd604972	-0.054757543
71	0x3e2f9ec1	0.17150404
72	0x3e6e145c	0.23249954
73	0x3d8d798d	0.069079496
74	0x3e6d5d65	0.23180158
75	0x3e8fc3db	0.28079113
76	0x3e82e38e	0.25564235
77	0xbd8e81f3	-0.069583796
78	0x3e29aaf8	0.16569126
79	0x3e5d0c57	0.21586739
80	0x3e7d0855	0.2471021
81	0x3e865a77	0.26240894
82	0xbd08d2ea	-0.03340427
83	0x3d02271f	0.03177559
84	0xbd3b896a	-0.045785345
85	0x3c37571e	0.011190204
86	0xbca7ae63	-0.020468896
87	0x3e49f7de	0.1972346
88	0xbcce80e3	-0.025207942
89	0x3e3a6b32	0.18204954
90	0x3e4c8663	0.1997314
91	0x3c8b5be1	0.017011585
92	0x3e849cea	0.25900966
93	0x3cb49a04	0.022046097
94	0xbd850e3d	-0.06496856
95	0xbcaf4953	-0.021397268
96	0x3e5c5bfc	0.21519464
97	0xbd6926ab	-0.056921642
98	0xb8291e08	-4.032071e-05
99	0x3e779039	0.2417611
100	0xbcc8467a	-0.024447668
101	0x3e890893	0.26764354
102	0x3c727eb3	0.014800715
103	0x3a762263	0.00093892793
104	0x3be220fe	0.0069009056
105	0x3c93b79e	0.018031891
106	0xbaf69acc	-0.0018814444
107	0x3e799152	0.24371842
108	0x3e58436c	0.2111947
109	0xbc3285d6	-0.010896167
110	0x3e83ca1c	0.25740135
111	0xbd70a438	-0.05875036
112	0x3e8d0102	0.2753983
113	0x3e7e2eb5	0.24822505
114	0x3e3ed8af	0.18637346
115	0x3e78bd13	0.24290876
116	0x3e8b725f	0.27235696
117	0x3e7cdcf0	0.24693656
118	0x3e6bb4ac	0.2301814
119	0xbd5402fe	-0.051760666
120	0x3dcaf86d	0.09910665
121	0x3e624ae4	0.22098881
122	0x3e476ea2	0.19475797
123	0x3e86489f	0.2622728
124	0xbcc695cc	-0.02424135
125	0x3e8dddc5	0.2770826
126	0x3e857ec4	0.26073277
127	0xbd815d99	-0.063166805

layer3.weight f4 [2, 128]
0	0x3ea918fa	0.33026868
1	0xbe3f7648	-0.18697464
2	0xbebaab80	-0.3645897
3	0x3e9062f7	0.28200504
4	0x3e9a3d12	0.30124718
5	0xbea51e05	-0.32249466
6	0x3e907b83	0.28219232
7	0x3e898b65	0.26864162
8	0xbd2384dd	-0.03992163
9	0xbf07d758	-0.53062963
10	0x3e6556cb	0.2239639
11	0x3e9d8cab	0.30771384
12	0xbe7662c3	-0.24061112
13	0xbeceeeeb	-0.40416655
14	0x3ea54fc7	0.32287428
15	0xbe9a87d7	-0.30181763
16	0xbe2feffe	-0.17181394
17	0xbd33ab5f	-0.043864604
18	0xbedb93a5	-0.4288608
19	0x3e9c40ae	0.30518097
20	0x3e8f0eda	0.27941018
21	0x3e9abb3a	0.30220968
22	0x3e9e2457	0.308871
23	0xbecaea75	-0.39632002
24	0x3eac24d7	0.33621857
25	0x3eaa7010	0.33288622
26	0x3e93cd95	0.28867784
27	0xbf1e218e	-0.6176995
28	0x3e791d74	0.24327642
29	0x3d54a96c	0.051919386
30	0xbcde2e91	-0.027121814
31	0x3e8ddd56	0.27707928
32	0x3e923b5a	0.28560907
33	0x3e88e924	0.26740372
34	0xbf417b67	-0.7557892
35	0x3d23be8d	0.039976645
36	0xbc0f278a	-0.008737454
37	0x3e9b99a2	0.3039065
38	0xbd5e846b	-0.054325502
39	0xbf273f0b	-0.6533057
40	0x3e8f0b0a	0.2793811
41	0x3eae23cb	0.34011683
42	0x3e95675e	0.29180425
43	0xbed48008	-0.4150393
44	0x3e825bec	0.25460756
45	0x3d4dc70a	0.050238647
46	0x3d3ac07d	0.045593727
47	0x3d482134	0.04885979
48	0xbeb10deb	-0.3458093
49	0x3e8f1462	0.27945238
50	0xbe84208a	-0.25806075
51	0x3e8dd378	0.277004
52	0xbcd5eb44	-0.02611316
53	0x3e8eb621	0.27873328
54	0xbd418636	-0.047247134
55	0x3e9e5dbc	0.3093089
56	0x3e9ba569	0.30399635
57	0x3eb32c58	0.3499477
58	0x3e82c57c	0.25541294
59	0xbf0f1128	-0.55885553
60	0xbf21c191	-0.63185984
61	0x3e876197	0.26441643
62	0xbf24e2f1	-0.64408785
63	0x3e821136	0.25403756
64	0x3e9ccc9f	0.30624864
65	0x3e9e0b16	0.30867833
66	0xbee52544	-0.44754994
67	0xbbe2d212	-0.006922015
68	0x3e5f73bb	0.21821491
69	0xbe839d2e	-0.25705856
70	0xbee105d4	-0.4394976
71	0x3e9a8460	0.3017912
72	0x3e720cb8	0.23637664
73	0x3ea27ea2	0.31737238
74	0x3e8edc2f	0.27902362
75	0x3e9bec32	0.3045364
76	0x3e93b14e	0.2884621
77	0xbef9b430	-0.48770285
78	0x3eb06fda	0.34460336
79	0x3ea5192f	0.32245776
80	0x3ea0b40a	0.3138736
81	0x3e9d9753	0.30779514
82	0xbf0c8e5c	-0.54904723
83	0xbd82aea3	-0.063809656
84	0xbf050d9d	-0.519739
85	0xbe8ccc8d	-0.2749981
86	0x3ca32e54	0.019919552
87	0x3ea1462e	0.31498855
88	0xbc20c5b6	-0.009812763
89	0x3e881fe7	0.2658684
90	0x3e7f2344	0.24915797
91	0x3d3dad0a	0.0463076
92	0x3eac03dd	0.33596697
93	0x3e8be978	0.2732656
94	0xbf0b10b2	-0.5432235
95	0xbc8df4f1	-0.017328711
96	0x3e88aa38	0.26692367
97	0xbef9d843	-0.48797807
98	0xbc070815	-0.008241673
99	0x3e808a88	0.2510569
100	0xbe5269bc	-0.20548147
101	0x3e69eac2	0.22843459
102	0xbea06725	-0.31328693
103	0xbed7c97a	-0.42145902
104	0x3a9a8328	0.0011788355
105	0xbe9465a5	-0.289838
106	0xbe927642	-0.2860585
107	0x3ea1f43a	0.31631643
108	0x3ea9fae8	0.3319924
109	0xbe9cc29b	-0.30617222
110	0x3ea0b797	0.31390068
111	0xbe7ca7e8	-0.24673426
112	0x3ea34d49	0.318949
113	0x3e6f7071	0.23382737
114	0x3e991bdb	0.29904065
115	0x3e8042bc	0.25050914
116	0x3e89be49	0.2690299
117	0x3e8e7d7b	0.2783011
118	0x3eb8bf10	0.3608327
119	0xbc97e770	-0.018542975
120	0xbebb16af	-0.36540744
121	0x3ea637e7	0.32464525
122	0x3e9b0d5b	0.30283627
123	0x3e97da9a	0.29658967
124	0x3d542c69	0.051800165
125	0x3e919c61	0.2843962
126	0x3e8a584e	0.27020496
127	0xbe2ff281	-0.17182352
128	0x3e6430a5	0.22284181
129	0x3dc37271	0.09543312
130	0xbedde96b	-0.43342146
131	0x3e9fc99d	0.31208506
132	0x3e77197f	0.2413082
133	0xbf02d82b	-0.51111096
134	0x3e973a0c	0.29536474
135	0x3e8f0d76	0.27939957
136	0x3c871165	0.016487787
137	0xbeffb4ad	-0.49942532
138	0x3e9bced6	0.3043124
139	0x3eb978b4	0.36224902
140	0xbbe41ede	-0.0069616875
141	0xbf0dc1b0	-0.5537367
142	0x3ea15602	0.3151093
143	0xbec3ac93	-0.382176
144	0xbe84717f	-0.2586784
145	0xbd3765c3	-0.044774782
146	0xbbc71f8b	-0.0060767583
147	0x3e7a7c59	0.24461497
148	0x3e890c8b	0.26767382
149	0x3e710956	0.23538718
150	0x3e8926f2	0.26787525
151	0xbe20218c	-0.15637797
152	0x3e729c53	0.23692445
153	0x3eb0e519	0.34549788
154	0x3e9dfde5	0.3085777
155	0xbed00c09	-0.40634182
156	0x3ea7f9c9	0.32807758
157	0x3d582272	0.052767225
158	0xbc0a985f	-0.00845918
159	0x3e8f0e23	0.27940473
160	0x3e858231	0.2607589
161	0x3e9d9732	0.30779415
162	0xbf2c8bb8	-0.67400694
163	0xbd26cc07	-0.04072192
164	0xbd1b2a85	-0.037882347
165	0x3e9374f1	0.28800157
166	0xbc4d6b78	-0.01253783
167	0xbf14a5f7	-0.5806574
168	0x3e8107e8	0.25201344
169	0x3e841ad7	0.25801727
170	0x3e8dc744	0.2769109
171	0xbecd9486	-0.40152377
172	0x3e961a06	0.2931673
173	0xbcad49f5	-0.02115343
174	0x3d0d272d	0.03446119
175	0x3bf1a295	0.0073741176
176	0xbee3bc3d	-0.44479552
177	0x3e9e1a5b	0.30879483
178	0xbe8ba42b	-0.27273688
179	0x3e8c7fbe	0.2744121
180	0xbb2b3ebf	-0.002612993
181	0x3ea91b51	0.33028653
182	0x3b5d2dc5	0.0033749205
183	0x3e5ba396	0.21449122
184	0x3e6341a3	0.22193007
185	0x3e9dc040	0.30810738
186	0x3ea60651	0.32426694
187	0xbe5987bc	-0.21243185
188	0xbea0bd76	-0.31394547
189	0x3e942c39	0.2893999
190	0xbf1d3562	-0.6140958
191	0x3e8f0d0e	0.27939647
192	0x3e9e1b9e	0.30880445
193	0x3e70cb31	0.23515011
194	0xbebcc746	-0.36870784
195	0xbcafd4ec	-0.021463834
196	0x3ea37af5	0.31929746
197	0xbe9efa23	-0.31050214
198	0xbebef38f	-0.37295195
199	0x3e981560	0.29703808
200	0x3e995cad	0.29953519
201	0xbe3667bf	-0.17813013
202	0x3ea81b9b	0.3283356
203	0x3e8b897b	0.27253327
204	0x3e9ace87	0.30235693
205	0xbf1c2d65	-0.61006767
206	0x3e697515	0.2279857
207	0x3eabc09b	0.33545384
208	0x3ea787c0	0.32720757
209	0x3e8a63a9	0.2702916
210	0xbea42ac9	-0.32063892
211	0x3ceaed57	0.028677626
212	0xbe909fe0	-0.28246975
213	0x3b7f41d4	0.0038949149
214	0x3d9a6b5b	0.07540008
215	0x3e785fc5	0.24255283
216	0xbe6c2a5c	-0.23063034
217	0x3e9e3048	0.3089621
218	0x3e9dec91	0.30844548
219	0x3c3d5750	0.011556461
220	0x3e6ddb87	0.23228274
221	0xbdf5bbdf	-0.11998724
222	0xbf12caee	-0.57340896
223	0x3c2326c3	0.009957972
224	0x3e920d7d	0.28525916
225	0xbed55232	-0.41664273
226	0xbce8ed5c	-0.028433494
227	0x3ea56da6	0.32310218
228	0xbe8a23f3	-0.26980552
229	0x3e986ccc	0.29770505
230	0xbed3974d	-0.4132637
231	0xbecb0be3	-0.39657506
232	0x3d183d63	0.037167918
233	0xbe9620fb	-0.29322037
234	0xbd327390	-0.04356724
235	0x3e80f878	0.25189567
236	0x3eadc094	0.33935988
237	0xbe119fca	-0.14221111
238	0x3e6a5f5d	0.2288794
239	0xbdb0830c	-0.08618745
240	0x3e9dcc1f	0.30819795
241	0x3e9dd024	0.3082286
242	0x3e3a2f02	0.18181995
243	0x3e8efc83	0.27927026
244	0x3e83dfe6	0.25756758
245	0x3e9d5321	0.30727485
246	0x3e99a792	0.30010659
247	0xbd5a0542	-0.05322767
248	0x3ef694ca	0.48160392
249	0x3e9e6070	0.3093295
250	0x3e9e1bc3	0.30880556
251	0x3e5b93a9	0.21443047
252	0xbd06a15b	-0.032868724
253	0x3e804f48	0.25060487
254	0x3e9fd6a8	0.31218457
255	0xbe9541a2	-0.29151636

layer3.bias f4 [2]
0	0x3d11e21e	0.035616033
1	0x3dd0e3be	0.101996884
