model_weights/DQN/cartpole/cartpole_dqn_episode_3699.pth (torch, 72508 bytes, 6 tensors)

layer1.weight f4 [128, 4]
0	0x3d9e3578	0.07725042
1	0xbe0c611b	-0.13708918
2	0x3d6327d6	0.055457912
3	0xbe1108e2	-0.14163545
4	0xbdb24808	-0.08705145
5	0x3d94ca73	0.072651766
6	0x3e3dfbbf	0.18553065
7	0x3d055f77	0.032561745
8	0x3e2e85ed	0.17043276
9	0xbe1b633f	-0.15174578
10	0x3ee8ac01	0.4544373
11	0x3e183284	0.1486302
12	0xbe0999cc	-0.13437575
13	0xbe1d7c32	-0.15379408
14	0x3d0f1d87	0.03494027
15	0xbda5f5b3	-0.08103504
16	0x3cc9fbb1	0.024656149
17	0xbe4c136b	-0.19929282
18	0xbe874be1	-0.2642508
19	0xbe03f16a	-0.12885061
20	0xbe192c13	-0.14958219
21	0xbc88d5d4	-0.016703524
22	0xbefff1ea	-0.49989253
23	0xbd1e08d0	-0.038582623
24	0x3e952d69	0.29136208
25	0xbd8e79c7	-0.06956821
26	0xbe7dc22c	-0.24781102
27	0xbdd9a186	-0.10626511
28	0xbe2505ca	-0.1611549
29	0xbd4ada97	-0.04952487
30	0xbcf07332	-0.029351804
31	0x3b7638f7	0.0037570575
32	0xbe20ca6e	-0.15702221
33	0xbe0a916f	-0.13532041
34	0xbd513160	-0.05107248
35	0xbdbb2e9f	-0.09139752
36	0x3dd96253	0.10614457
37	0x3e17ed93	0.14836721
38	0x3e50194a	0.20322147
39	0x3e8ca130	0.27466726
40	0x3e0dc8bd	0.13846107
41	0xbe2d3ef0	-0.1691854
42	0xbe3ae33b	-0.18250744
43	0xbe14acb8	-0.14519012
44	0xbd99271a	-0.07478161
45	0xbd9e49d2	-0.07728924
46	0x3d710af0	0.05884832
47	0xbd7a316c	-0.06108229
48	0x3e8637f6	0.2621457
49	0x3cd99ead	0.02656492
50	0x3e310e42	0.17290595
51	0xbd16a378	-0.03677699
52	0x3e035272	0.12824419
53	0x3ba5e019	0.005062115
54	0xbd505798	-0.050864786
55	0xbccd404e	-0.025055077
56	0xbdf3acd7	-0.11898201
57	0x3e185e5b	0.14879744
58	0x3dd1ea1b	0.1024973
59	0x3e31888f	0.17337249
60	0xbe5ba8be	-0.21451089
61	0xbe326916	-0.174229
62	0xbf03396a	-0.5125948
63	0xbe0fe338	-0.14051521
64	0xbe35c187	-0.17749606
65	0x3a87016f	0.001030011
66	0x3d80fc29	0.06298096
67	0xba8047f2	-0.0009787066
68	0xbe61e0de	-0.22058436
69	0xbcfa9f6c	-0.030593596
70	0xbefcb018	-0.493531
71	0xbda0e42b	-0.078560196
72	0xbe39ea22	-0.18155721
73	0xbddbf13e	-0.10739373
74	0xbb216784	-0.002462835
75	0xbd8aaf8b	-0.067717634
76	0xbcde6414	-0.02714733
77	0x3da8da7f	0.082448
78	0x3e6c5c99	0.23082198
79	0x3d148866	0.036262892
80	0x3e09049b	0.13380663
81	0xbe3809d3	-0.17972498
82	0xbda1cf0f	-0.079008214
83	0xbe10c8f8	-0.14139163
84	0xbd988e24	-0.07448986
85	0x3dd32faa	0.103118256
86	0x3c832afd	0.01601171
87	0xbc8c1ffb	-0.017105093
88	0x3e37de5d	0.17955919
89	0x3d6bc9b2	0.0575654
90	0xbe31eae4	-0.1737476
91	0x3c3f9399	0.011692905
92	0x3e4ad588	0.19808018
93	0x3da74865	0.08168105
94	0x3d5d8c41	0.054088835
95	0xbdcf7ff6	-0.101318285
96	0x3dc1edde	0.09469198
97	0x3e6df5c3	0.23238282
98	0x3d9ff5ee	0.07810579
99	0x3da711d4	0.08157697
100	0xbdc3100f	-0.09524547
101	0xbdb90c4d	-0.09035549
102	0x3e27e4c5	0.16395862
103	0x3d4b2b32	0.04960174
104	0x3e981b3d	0.2970828
105	0x3d281364	0.041034117
106	0xbdae55ca	-0.08512457
107	0xbd044d57	-0.03230032
108	0x3de53440	0.111916065
109	0x3cde80fc	0.027161114
110	0xbe9190b1	-0.28430703
111	0x3c8bdeef	0.017074076
112	0xbe562b0e	-0.20914862
113	0xbdfee9db	-0.12446948
114	0x3e1d75a9	0.15376915
115	0xbd0c88f3	-0.034310292
116	0xbe41112d	-0.18854208
117	0x3d057efa	0.032591797
118	0xbe66e910	-0.22549844
119	0x3d62a8d6	0.055336796
120	0xbe3a0a3a	-0.18167964
121	0xbe0ba308	-0.1363641
122	0x3e22e237	0.15906607
123	0xbd3a2a2e	-0.045450382
124	0x3e3a41a1	0.18189098
125	0x3ccc501a	0.02494054
126	0xbdd8d98c	-0.10588369
127	0x3ceafd2f	0.02868518
128	0xbe504fe7	-0.2034298
129	0x3d497ccf	0.049191292
130	0x3d99aaa7	0.075032525
131	0x3cdf90c5	0.027290711
132	0xbe23f322	-0.16010717
133	0x3d0569be	0.032571547
134	0x3e8d7b85	0.276333
135	0x3d887468	0.06662828
136	0xbdc16792	-0.094435826
137	0xbe864ba2	-0.26229578
138	0xbf3882f4	-0.7207482
139	0xbe3a4c09	-0.18193068
140	0x3da502cf	0.08057176
141	0x3df27148	0.11838013
142	0x3e0ad3e6	0.13557395
143	0xbd0a9939	-0.03383753
144	0xbdc610cf	-0.09671175
145	0xbe1d89ee	-0.15384647
146	0xbe98ecb3	-0.29868087
147	0xbe189430	-0.14900279
148	0xbe4b581c	-0.1985783
149	0xbd9ebb54	-0.07750574
150	0x3c082e40	0.008311808
151	0x3cc8bb58	0.024503395
152	0xbe6eea3b	-0.2333154
153	0xbe7f326d	-0.2492158
154	0x3dba40e9	0.09094412
155	0xbdffd87e	-0.124924645
156	0xbe7223e4	-0.23646504
157	0xbe1bac2a	-0.15202394
158	0xbe9f5587	-0.3111994
159	0xbe810b0a	-0.25203735
160	0xbe64df48	-0.223508
161	0x3c142b5b	0.00904354
162	0xbe72e5b8	-0.23720443
163	0x3d114356	0.035464607
164	0xbe8a7588	-0.27042794
165	0x3e0e72f6	0.13911042
166	0xbe1cb918	-0.15304983
167	0x3e227f9f	0.15868996
168	0x3e4311bd	0.19049735
169	0x3e98e5a8	0.29862714
170	0x3e9dec14	0.30844176
171	0x3e56a0d7	0.20959793
172	0xbe574326	-0.21021709
173	0x3d751aba	0.05983994
174	0x3dd7285b	0.10505744
175	0x3d9f5083	0.07779028
176	0xbca475cd	-0.020075703
177	0x3e108719	0.14114036
178	0x3f1973a8	0.599421
179	0x3e3b7acf	0.18308567
180	0xbba3e9d2	-0.005002239
181	0x3beede81	0.007289708
182	0x3cca831a	0.024720717
183	0xbe3154fa	-0.17317572
184	0x3dfb044c	0.12256679
185	0xbe0b4540	-0.13600636
186	0xbe73390b	-0.23752229
187	0xbcdd8df2	-0.027045224
188	0x3e1add40	0.15123463
189	0x3daecc0b	0.08535012
190	0xbdb3b87c	-0.08775422
191	0xbd9c5d5e	-0.07634996
192	0x3e8c35d1	0.2738481
193	0xbd7b79e2	-0.061395533
194	0xbd81a624	-0.06330517
195	0xbdb1cbb7	-0.08681434
196	0xbd78a2f9	-0.060702298
197	0xbe26b017	-0.1627811
198	0xbea1eec9	-0.3162749
199	0xbe0ea7cb	-0.13931195
200	0x3e262242	0.16224006
201	0x3dcc4ebc	0.09975955
202	0xbb898c9f	-0.0041976715
203	0x3dbdfad4	0.09276357
204	0xbd6a1950	-0.057153046
205	0xbe0c1e55	-0.13683446
206	0xbde561c1	-0.11200286
207	0x3c8fbfe7	0.01754756
208	0x3db84b4a	0.08998735
209	0xbdde9b27	-0.10869437
210	0xbe9742c6	-0.29543132
211	0xbd6a93e1	-0.057269935
212	0x3d13457e	0.035954945
213	0x3d5da4d3	0.054112267
214	0x3f198718	0.5997176
215	0x3decb071	0.11557091
216	0xbe1956b6	-0.14974484
217	0x3dee748e	0.11643325
218	0x3e9589e0	0.29206753
219	0xbda5b578	-0.08091253
220	0xbe5c9dd6	-0.21544585
221	0x3d5f8c22	0.054577
222	0xbe774fd8	-0.24151552
223	0xbc093477	-0.008374325
224	0x3cea46d9	0.028598236
225	0xbca3df46	-0.020003926
226	0x3c2fd83f	0.010732709
227	0xbdc6f379	-0.097144075
228	0xbe92a420	-0.28640842
229	0xbd7ed7c9	-0.062217508
230	0xbeacfc2d	-0.33786145
231	0xbd78f998	-0.060784906
232	0x3e24a8ae	0.16079971
233	0xbe1fa065	-0.1558853
234	0x3da375a6	0.07981424
235	0xbd82f9ef	-0.06395327
236	0xbd4c58a2	-0.049889214
237	0xbde3c898	-0.111222446
238	0x3e0e2711	0.1388209
239	0xbdc6e32e	-0.097113
240	0xbc340508	-0.010987528
241	0x3ea4dc22	0.32199198
242	0x3e64b115	0.22333176
243	0x3e44f667	0.1923462
244	0x3b3cb0af	0.0028791835
245	0xbe46e52d	-0.19423361
246	0xbe6db810	-0.23214746
247	0xbcf7762d	-0.030207718
248	0x3edf3111	0.43592122
249	0xbd2e51a1	-0.042558316
250	0x3c8095e1	0.015696468
251	0xbdd29aba	-0.10283418
252	0xbe8cec08	-0.27523828
253	0xbe38d16b	-0.18048637
254	0x3e116f3c	0.14202589
255	0x3d947328	0.07248527

layer1.bias f4 [128]
0	0x3eb9ec5c	0.3631314
1	0x3e909862	0.2824126
2	0xbe4e5827	-0.20150815
3	0x3ebd9de0	0.37034512
4	0x3ea7258f	0.32645842
5	0xbe336334	-0.17518312
6	0xbdfa69d9	-0.1222722
7	0x3e99d208	0.30043054
8	0xbe5723fd	-0.21009822
9	0xbdf0ace5	-0.11751727
10	0xbdbea6f2	-0.09309186
11	0x3ed36066	0.41284484
12	0x3e2eff98	0.17089689
13	0x3ef912d5	0.4864718
14	0x3ec5aa3c	0.3860644
15	0xbe58ec0e	-0.21183798
16	0x3e946138	0.28980422
17	0xbde92a35	-0.113850035
18	0xbc228653	-0.009919721
19	0x3ecc7212	0.3993078
20	0x3e722314	0.23646194
21	0x3ed40cd4	0.41416037
22	0x3ef03fe4	0.46923745
23	0xbe460ec7	-0.19341575
24	0xbe4bcfd8	-0.19903505
25	0xbe0f73f8	-0.14009082
26	0x3ed09f2c	0.40746439
27	0x3e9875cd	0.29777375
28	0xbe85364e	-0.26017994
29	0x3ea9c1dd	0.33155718
30	0xbd6475f1	-0.05577654
31	0xbdefd678	-0.117108285
32	0x3eac4307	0.33644888
33	0x3e67efbd	0.22650047
34	0xbc0cddec	-0.008597832
35	0xbe5ccf3f	-0.21563433
36	0xbe23758b	-0.15962808
37	0x3eb2378f	0.34808013
38	0xbe061b45	-0.1309634
39	0xbdfba1a6	-0.12286691
40	0xbe719655	-0.23592503
41	0x3e61b385	0.22041138
42	0x3e0021a0	0.12512827
43	0x3ebee5dd	0.37284747
44	0xbe417eb9	-0.18895997
45	0x3e9ea4a5	0.3098499
46	0x3e8ba109	0.27271298
47	0x3de3b86e	0.111191615
48	0xbdb87a74	-0.09007731
49	0xbdc2975a	-0.09501524
50	0x3ea26c2c	0.31723154
51	0x3eaca333	0.3371826
52	0x3edb790c	0.4286579
53	0xbdc3344c	-0.09531459
54	0x3eaba161	0.3352156
55	0x3ec543f3	0.38528404
56	0x3ed6cd02	0.41953284
57	0xbe5ba83f	-0.214509
58	0x3ee62d15	0.4495627
59	0x3ed73e1d	0.42039576
60	0x3e5c4f64	0.2151466
61	0x3ec67418	0.38760448
62	0x3e7b4de1	0.24541427
63	0xbd5b9d34	-0.053616717
64	0xbe486ba7	-0.19572316
65	0xbea6af27	-0.32555506
66	0x3e9d5726	0.3073055
67	0x3de23adc	0.11046383
68	0x3eebbb37	0.4604127
69	0xbdfdae23	-0.123867296
70	0x3e8256ee	0.25456947
71	0x3eca1080	0.39465714
72	0x3e921dbc	0.2853831
73	0xbe19c7ad	-0.15017577
74	0x3e99a345	0.30007377
75	0x3ecaebf5	0.39633146
76	0x3e24585e	0.16049334
77	0xbe0a5065	-0.1350723
78	0x3ee4f8ef	0.4472117
79	0x3e862039	0.2619646
80	0xbe6ee5e0	-0.23329878
81	0xbdd0103c	-0.101593465
82	0x3ea00ca2	0.31259638
83	0x3df9df69	0.12200815
84	0x3eab3a99	0.33443144
85	0x3edf7a5b	0.43648037
86	0xbe613856	-0.21994147
87	0x3ea71311	0.32631734
88	0xbe76f43f	-0.2411661
89	0x3ec7ec8b	0.39047655
90	0x3eb516ca	0.3536895
91	0xbe60f11e	-0.21966979
92	0x3ec5503e	0.38537782
93	0x3ecc5be2	0.3991385
94	0xbe66c82c	-0.22537297
95	0x3ebd4e3e	0.36973757
96	0x3eec4bc1	0.46151546
97	0xbe27e85a	-0.16397229
98	0x3edfd1e3	0.43714818
99	0xbdab3188	-0.08359057
100	0xbe632ba0	-0.2218461
101	0x3ef6537a	0.48110563
102	0x3eba9d11	0.36447957
103	0x3e4cb500	0.19990921
104	0x3ee09fcf	0.43871924
105	0x3e971d1b	0.29514393
106	0xbde71716	-0.112837
107	0xbbed094e	-0.007233775
108	0x3e8f0f59	0.27941397
109	0xbc97a776	-0.018512469
110	0xbe1322e2	-0.14368775
111	0x3ea9c1cf	0.33155677
112	0x3ef9c08e	0.4877972
113	0xbe4603e1	-0.19337417
114	0x3ed81b11	0.4220815
115	0x3df06f97	0.11740034
116	0xbe449c13	-0.19200163
117	0xbe2a525e	-0.16632983
118	0x3ee51ce2	0.44748598
119	0x3edad4f8	0.42740607
120	0xbdf34f22	-0.11880328
121	0x3f2fd002	0.6867677
122	0x3eae82a6	0.34084052
123	0xbdf2ff68	-0.11865121
124	0x3dc8a22c	0.09796557
125	0x3ed5f8c9	0.4179137
126	0x3ede8828	0.43463254
127	0x3ecf9fea	0.40551692

layer2.weight f4 [128, 128]
0	0x3e1dad85	0.15398224
1	0x3e8a893c	0.27057827
2	0xbd7fce16	-0.0624524
3	0x3dec7687	0.11546045
4	0x3de78573	0.1130475
5	0xbe4d4aba	-0.20048037
6	0xbd4bcc61	-0.049755458
7	0x3e11594d	0.14194222
8	0xbe0908ae	-0.13382217
9	0xbd61cd16	-0.055127226
10	0xbe9d87a3	-0.30767545
11	0x3e6c6b14	0.23087722
12	0x3d949a81	0.07256032
13	0x3e45645f	0.1927657
14	0x3e53fd29	0.20702042
15	0xbc68c3b3	-0.014206815
16	0x3e05dc96	0.13072428
17	0xbdfb80fc	-0.12280461
18	0x3b1d5045	0.0024004143
19	0x3e5be885	0.21475418
20	0x3e36fddd	0.17870279
21	0x3e5cb549	0.2155353
22	0x3e0a57d7	0.1351007
23	0xbc8c0ce6	-0.017095994
24	0xbd1eae6d	-0.038740564
25	0xbdad80fe	-0.08471869
26	0x3e466693	0.19375066
27	0x3e9944b0	0.29935217
28	0xbd96e356	-0.0736758
29	0x3e32e319	0.17469443
30	0xbccbcde9	-0.024878459
31	0xbe12acd0	-0.14323735
32	0x3e4f0298	0.20215833
33	0x3e2e0d03	0.16997151
34	0x3ce8ea87	0.028432144
35	0xbe44f9aa	-0.19235864
36	0xbecfda8f	-0.40596434
37	0x3e333ea0	0.17504358
38	0xbd387a03	-0.045038234
39	0xbca776d7	-0.02044241
40	0xbe9935fd	-0.29924002
41	0x3e85e3dc	0.26150405
42	0x3d409733	0.047019195
43	0x3e567e61	0.20946647
44	0xbeb2a150	-0.34888697
45	0x3e28ee37	0.16497122
46	0x3da5a0e2	0.080873266
47	0x3d11ea1c	0.035623655
48	0xbcbad106	-0.022804748
49	0xbd363c61	-0.044491176
50	0x3d591972	0.053002782
51	0x3df9a12c	0.12188944
52	0x3e25a5c5	0.16176517
53	0xbece2edc	-0.40270126
54	0x3e521964	0.20517498
55	0x3e282764	0.16421276
56	0x3e6f6f5a	0.23382321
57	0xbe4e74d5	-0.20161755
58	0x3e2d071b	0.16897242
59	0x3e246449	0.16053881
60	0x3dde067b	0.1084108
61	0x3e000420	0.12501574
62	0x3e3591b2	0.1773136
63	0xbcb83107	-0.022484316
64	0xbe09251d	-0.13393064
65	0xbe77d7bb	-0.24203388
66	0x3e900291	0.28126958
67	0x3d83d467	0.06436997
68	0x3dd05205	0.10171894
69	0xbe48a53b	-0.1959428
70	0x3db8fbe2	0.09032418
71	0x3e55eaec	0.20890397
72	0x3e0f09e6	0.1396862
73	0xbcee9952	-0.029125843
74	0x3deed0c1	0.116609104
75	0x3e2365c5	0.15956791
76	0xbc9b1c39	-0.018934356
77	0xbdb88313	-0.090093754
78	0x3e462fde	0.19354197
79	0x3e75817f	0.2397518
80	0xbe0e1b43	-0.13877587
81	0xbe153371	-0.14570405
82	0x3e0c1e49	0.13683428
83	0x3da40052	0.080078736
84	0x3e58b1bc	0.2116155
85	0x3e668d19	0.22514762
86	0xbd9ad7cf	-0.075606935
87	0x3e3fd1ea	0.1873242
88	0xbeb2b4c3	-0.34903535
89	0x3e1f3850	0.15548825
90	0x3e010a2a	0.12601534
91	0xbda6600c	-0.08123788
92	0x3df80a75	0.121113695
93	0x3e55d135	0.20880587
94	0xbea1d957	-0.3161113
95	0x3e1f8ba5	0.15580614
96	0x3e3a6c45	0.18205364
97	0xbe551532	-0.20808867
98	0x3e185996	0.14877924
99	0xbd94ee81	-0.072720535
100	0xbd944eec	-0.07241616
101	0x3e6813b9	0.22663774
102	0x3e2dc0d8	0.16968095
103	0x3d474577	0.04865023
104	0x3e01c37d	0.12672229
105	0x3e2b12fd	0.16706462
106	0xbcb2d553	-0.021830237
107	0xbe451b27	-0.19248639
108	0x3e522c06	0.20524606
109	0xbc217c55	-0.009856303
110	0xbdd950b6	-0.106110975
111	0x3e53867b	0.20656769
112	0x3d9cd752	0.076582566
113	0xbe3e3d3f	-0.18578051
114	0x3e2393bb	0.15974323
115	0x3dba42f4	0.090948015
116	0xbec1ffd5	-0.37890497
117	0xbdd1d6ea	-0.1024607
118	0x3e9d5095	0.30725542
119	0x3e87de9b	0.26537022
120	0x3c910e0d	0.017706895
121	0x3eb3147e	0.34976572
122	0x3e0e7692	0.13912418
123	0xbd9b1663	-0.07572629
124	0x3d8ff098	0.070283115
125	0x3e0b3469	0.13594212
126	0x3e2fa9bc	0.17154592
127	0x3e15e662	0.14638665
128	0x3c2e4def	0.010638698
129	0x3bd4a5dc	0.0064894985
130	0x3dc86e1c	0.09786627
131	0x3d8450f7	0.06460755
132	0xbc8d3bb5	-0.017240385
133	0xb9e1759f	-0.0004300298
134	0xbc38272d	-0.011239809
135	0x3c5bf925	0.0134261
136	0xbcc2d6bb	-0.023784032
137	0x3e002d4e	0.12517282
138	0x3d2eac34	0.042644694
139	0x3c1d9da0	0.0096201
140	0xbc5ad853	-0.01335724
141	0xbd6c8a82	-0.05774928
142	0x3c3dd09a	0.011585379
143	0x3d864b63	0.065573476
144	0x3d116238	0.03549406
145	0xbbc4ae76	-0.0060022427
146	0x3e8b3dad	0.27195492
147	0x3c8955ec	0.016764604
148	0xbd41989a	-0.047264673
149	0xbd2fb550	-0.042897522
150	0xbdbe4fd4	-0.0929257
151	0x3b2ed69f	0.0026678217
152	0xbd1b388f	-0.037895735
153	0x3e38bbae	0.18040344
154	0xbd00ffbb	-0.031493884
155	0xbe855447	-0.2604086
156	0x3e88898f	0.2666745
157	0xbc262916	-0.010141632
158	0x3e224777	0.15847574
159	0x3dd61d7e	0.10454844
160	0xbc69aef3	-0.014262903
161	0xbdb5678a	-0.08857639
162	0xbd740414	-0.0595742
163	0x3d95ac70	0.073082805
164	0xbcbe02bb	-0.023194661
165	0x3cd57042	0.026054505
166	0x3ebf1691	0.37321904
167	0xbda65ebf	-0.0812354
168	0x3d5cc547	0.053899076
169	0x3d8c03bc	0.0683665
170	0x3aab8bfb	0.0013087982
171	0xba211bbd	-0.0006145796
172	0x3e35b819	0.17746009
173	0xbd072695	-0.03299578
174	0x3d22fdd4	0.03979285
175	0xbb2fff4c	-0.002685505
176	0x3c50c468	0.012742139
177	0xbc6d4137	-0.01448088
178	0xbcb93c14	-0.022611655
179	0x3d8c6ee0	0.06857085
180	0xbc6392c6	-0.013889974
181	0x3e7803a4	0.24220139
182	0xbb0fbf22	-0.0021933992
183	0xbda8257e	-0.08210276
184	0xbd34d040	-0.044143915
185	0x3f804d1a	1.002353
186	0x3ca7fafa	0.020505417
187	0x3d0adf2e	0.033904247
188	0x3c5ff913	0.013670224
189	0x3d7d5778	0.061850995
190	0xbca8e882	-0.02061868
191	0x3df01211	0.11722196
192	0x3cc939b2	0.024563644
193	0xbceba641	-0.0287658
194	0x3da1d03d	0.079010464
195	0x3db7874f	0.08961355
196	0xbd3ccac9	-0.04609183
197	0x3e1a3506	0.1505929
198	0x3df35448	0.1188131
199	0x3cac0a17	0.021000905
200	0xbd0fb7b0	-0.035087287
201	0xbc08163e	-0.008306084
202	0xbc340aa5	-0.010988866
203	0x3d6365aa	0.055516876
204	0xbd6b2730	-0.05741042
205	0xbb9240e9	-0.0044633043
206	0xbd3ac55c	-0.045598373
207	0xbe89e0f2	-0.26929432
208	0x3e641cc3	0.22276597
209	0x3d39670a	0.04526428
210	0x3dcc8bf2	0.0998763
211	0xbd08b4ef	-0.033375677
212	0x3d7c1730	0.06154555
213	0xbe059db0	-0.13048434
214	0x3b886e4f	0.0041635404
215	0x3d8fe7c5	0.070266284
216	0x3d0d26ce	0.034460835
217	0x3b71cb65	0.0036894914
218	0xbb4f1a24	-0.0031601274
219	0x3c3b8c02	0.011446955
220	0x3d104795	0.035224516
221	0xbd719d5c	-0.05898796
222	0xbd9cac31	-0.076500304
223	0x3d3da646	0.04630115
224	0xbda44b63	-0.080221914
225	0x3e19db0e	0.15024969
226	0x3d274dbd	0.04084562
227	0x3dac5125	0.084139146
228	0x3e102788	0.1407758
229	0xbd2167f5	-0.03940578
230	0xbdb43694	-0.087994725
231	0x3da9c33d	0.08289192
232	0x3d819c6c	0.06328663
233	0x3d6e55a7	0.058187153
234	0xbcb87e4f	-0.022521166
235	0xbc85c06a	-0.016327102
236	0xbda92851	-0.08259643
237	0x3def730e	0.11691867
238	0x3de9c1ff	0.11413955
239	0x3ccb988e	0.024853017
240	0xbcfcbfa4	-0.0308531
241	0x3e7e95ce	0.24861833
242	0x3d680d50	0.05665332
243	0x3cdb6e3a	0.026785959
244	0x3e434d22	0.19072393
245	0x3e0b1c14	0.1358493
246	0xbd3fa91e	-0.046792142
247	0x3d07cbff	0.03315353
248	0x3c1f0da5	0.009707843
249	0xbdfcde48	-0.12347084
250	0xbd03b50f	-0.032155093
251	0x3de2a2c7	0.110662036
252	0x3d5ea758	0.05435881
253	0xbd6a8dbf	-0.057264086
254	0xbc955f8b	-0.018234035
255	0xbd7292a4	-0.05922188

layer2.bias f4 [128]
0	0x3e537f48	0.20654023
1	0xbb893d7a	-0.004188237
2	0xbcf3c36c	-0.02975627
3	0x3e4fdb80	0.20298576
4	0x3e887ed4	0.26659262
5	0xbd52ec0c	-0.051494643
6	0x3e579fd5	0.21057065
7	0x3e817d61	0.2529097
8	0xbbe41ad1	-0.0069612046
9	0xbd0c32b8	-0.034228057
10	0x3e6f6dda	0.23381749
11	0x3e716713	0.23574476
12	0x3c345af3	0.011008012
13	0xbd956272	-0.072941676
14	0x3e7b53d5	0.24543698
15	0x3bdcbfda	0.0067367377
16	0xbcb9d5c2	-0.022684935
17	0x3d04259d	0.032262433
18	0xbc09a36b	-0.008400778
19	0x3e8458aa	0.25848895
20	0x3e871f85	0.26391235
21	0x3e76cb3a	0.24100962
22	0x3e504afc	0.20341104
23	0x3d59a4e0	0.053135753
24	0x3e8124ab	0.25223288
25	0x3e4c7206	0.19965371
26	0x3e7ac828	0.24490416
27	0x3c8596b9	0.016307222
28	0x3e69c47f	0.22828864
29	0xbcf641a7	-0.030060602
30	0x3d0276d1	0.031851593
31	0x3e6e8874	0.2329424
32	0x3e7d4a1c	0.24735302
33	0x3e637c2f	0.22215341
34	0xbc796e07	-0.0152239865
35	0xbcb8467f	-0.022494553
36	0x3bf84793	0.0075768917
37	0x3e5a56dc	0.21322197
38	0xbc8eeef6	-0.01744793
39	0xbbf67135	-0.0075208195
40	0x3e8b84f0	0.2724986
41	0x3e6deae4	0.23234135
42	0x3e605725	0.21908243
43	0xbda6e9ed	-0.081500866
44	0x3e8a2ad2	0.26985794
45	0xbd184e2a	-0.037183918
46	0xbc90b785	-0.017665634
47	0xbcfe4a70	-0.031041354
48	0xbd70b4dd	-0.058766235
49	0x3e45007f	0.1923847
50	0xbd3ce703	-0.046118747
51	0x3e66d413	0.22541837
52	0xbc84aed8	-0.016196653
53	0x3e54e97b	0.2079219
54	0xbc2da3f3	-0.010598171
55	0x3e690c52	0.22758606
56	0x3e5b2c48	0.2140361
57	0x3e5f15eb	0.21785705
58	0x3e66d28a	0.22541252
59	0xbbd8a526	-0.006611484
60	0xbd2711f7	-0.040788617
61	0x3e8b90ed	0.27259007
62	0xbd4d7b29	-0.050166283
63	0x3e4f739d	0.20258947
64	0x3e62d83c	0.221528
65	0x3e5b79d7	0.21433197
66	0x3bd90c9b	0.006623817
67	0xbca37f54	-0.019958176
68	0x3e6dc834	0.23220903
69	0x3cdf22d1	0.027238281
70	0xbd1726af	-0.036902126
71	0x3e4491a1	0.19196178
72	0x3e710dcb	0.23540418
73	0x3d2307b6	0.039802276
74	0x3e6b0d47	0.22954284
75	0x3e88c8bf	0.26715657
76	0x3e7a4534	0.24440461
77	0xbd3fecd0	-0.0468567
78	0x3e3f6b43	0.18693261
79	0x3e8bc34d	0.2729744
80	0x3e74d5f3	0.2390974
81	0x3e82d320	0.255517
82	0xbcb7f332	-0.022454832
83	0x3caf2b0c	0.021382831
84	0xbd111efe	-0.035429947
85	0x3b967dd1	0.004592635
86	0xbc61a601	-0.013772489
87	0x3e5501e9	0.2080151
88	0xbc8b29fb	-0.016987791
89	0x3e4b510e	0.19855139
90	0x3e5a5d40	0.21324635
91	0x3c3b7163	0.011440608
92	0x3e7d54e8	0.2473942
93	0x3ca3face	0.020017054
94	0xbd3309de	-0.043710582
95	0xbc6beff1	-0.014400468
96	0x3e62f20b	0.22162645
97	0xbd1d0f80	-0.03834486
98	0xb7e39b57	-2.7132844e-05
99	0x3e754342	0.23951438
100	0xbc8702ca	-0.016480822
101	0x3e84ea3e	0.25959963
102	0x3bcf58ad	0.0063277096
103	0x3be20303	0.0068973317
104	0x3b98610d	0.004650241
105	0x3c46c6f6	0.012132397
106	0xbaa63756	-0.0012681286
107	0x3e759962	0.23984292
108	0x3e5bd3ba	0.21467486
109	0xbc3c8b55	-0.011507829
110	0x3e7de515	0.24794419
111	0xbd221dd1	-0.039579216
112	0x3e8602a0	0.26173878
113	0x3e7abcfc	0.24486154
114	0x3e52a8f5	0.20572264
115	0x3e7633fd	0.2404327
116	0x3e860b3a	0.2618044
117	0x3e786d56	0.24260458
118	0x3e8969e0	0.2683859
119	0xbd0eb47a	-0.034840085
120	0x3dcffcee	0.101556644
121	0x3e6cb014	0.23114043
122	0x3e553f6b	0.20824973
123	0x3e81b35d	0.25332156
124	0xbc85d73e	-0.016337987
125	0x3e8814e2	0.26578432
126	0x3e7f498b	0.24930398
127	0xbd2e1e59	-0.04250941

layer3.weight f4 [2, 128]
0	0x3ea41ff0	0.32055616
1	0xbe13a1f3	-0.14417247
2	0xbe7b47d4	-0.24539119
3	0x3e8efa55	0.27925363
4	0x3e8eb397	0.2787139
5	0xbe5e26f5	-0.21694548
6	0x3e8d76a8	0.2762959
7	0x3e87ff57	0.26561996
8	0xbcdbf904	-0.026852138
9	0xbeb6c0ad	-0.35693875
10	0x3e6cc4f3	0.23122005
11	0x3e9e0bf9	0.3086851
12	0xbe2610d0	-0.16217351
13	0xbe8b70b7	-0.27234432
14	0x3e9d5744	0.3073064
15	0xbe4e779a	-0.20162812
16	0xbdecf2d1	-0.11569751
17	0xbcf1c801	-0.029514315
18	0xbe962093	-0.29321727
19	0x3e97f7ed	0.2968134
20	0x3e8e0d72	0.27744633
21	0x3e920e73	0.2852665
22	0x3e97e90c	0.29669988
23	0xbe8df976	-0.27729386
24	0x3ec38bb6	0.38192528
25	0x3ead2ad5	0.3382174
26	0x3e8ecd4a	0.27890998
27	0xbed501e4	-0.41603005
28	0x3e79e71c	0.24404567
29	0x3d0f214b	0.03494386
30	0xbc95bf6f	-0.01827976
31	0x3e8c4bdd	0.2740163
32	0x3e8d3463	0.2757903
33	0x3e87445b	0.2641934
34	0xbf024ed0	-0.5090151
35	0x3cdc47ae	0.026889648
36	0xbbc0d876	-0.005885179
37	0x3e953df4	0.2914883
38	0xbd15f8ab	-0.0366141
39	0xbee10e2a	-0.4395612
40	0x3e8c780d	0.2743534
41	0x3ea1e8d5	0.3162295
42	0x3e8d35bb	0.27580056
43	0xbe8f04dd	-0.27933398
44	0x3e7e35f5	0.2482527
45	0x3d0ab282	0.033861645
46	0x3cfb6590	0.030688077
47	0x3d06e8fc	0.032937035
48	0xbe6e4b67	-0.23270951
49	0x3e8f0a2c	0.27937448
50	0xbe31ccf0	-0.17363334
51	0x3e8ab509	0.27091244
52	0xbc90072f	-0.01758155
53	0x3e8f0cc3	0.27939424
54	0xbd02564c	-0.03182058
55	0x3e93fa66	0.28901976
56	0x3e97d0ea	0.29651576
57	0x3ea47081	0.32117084
58	0x3e7f5019	0.24932899
59	0xbec0bb5d	-0.37642947
60	0xbed99efe	-0.42504114
61	0x3e857ef7	0.2607343
62	0xbeddd665	-0.43327633
63	0x3e7ffb1f	0.24998139
64	0x3e99c787	0.3003504
65	0x3e9723c6	0.2951948
66	0xbe9bab73	-0.30404243
67	0xbb98d71a	-0.004664314
68	0x3e64bdbe	0.22338006
69	0xbe2f5f89	-0.17126288
70	0xbe97a446	-0.29617518
71	0x3e966431	0.29373315
72	0x3e77518e	0.24152204
73	0x3e73fb6f	0.23826383
74	0x3e8a8c3a	0.2706011
75	0x3e925547	0.28580686
76	0x3e8d1988	0.2755854
77	0xbea84c06	-0.328705
78	0x3ea54cc2	0.32285124
79	0x3eca5bae	0.3952307
80	0x3e97af94	0.29626143
81	0x3e9ce0f4	0.30640376
82	0xbebd1b2f	-0.36934802
83	0xbd2fdfbb	-0.042937975
84	0xbeb35006	-0.3502199
85	0xbe423739	-0.18966378
86	0x3c5b8303	0.013397935
87	0x3e97e01e	0.29663175
88	0xbbd85e74	-0.0066030566
89	0x3e846e67	0.2586548
90	0x3e7fc78c	0.24978465
91	0x3cff61d2	0.031174574
92	0x3e9fd22e	0.31215042
93	0x3e3e7651	0.18599822
94	0xbebb0d25	-0.36533466
95	0xbc3f2122	-0.011665614
96	0x3e858a4c	0.26082075
97	0xbea8635e	-0.3288831
98	0xbbb5ac54	-0.0055442248
99	0x3e7c23db	0.24623053
100	0xbe0dad63	-0.13835673
101	0x3e6f638d	0.2337782
102	0xbe5674b6	-0.20942959
103	0xbe914dda	-0.2837971
104	0x3a4ff15f	0.00079323904
105	0xbe47a933	-0.19498138
106	0xbe452532	-0.1925247
107	0x3e990d5f	0.29893014
108	0x3e9f90d7	0.31165192
109	0xbe5316c3	-0.20614152
110	0x3e994219	0.2993324
111	0xbe2a3505	-0.16621788
112	0x3e9aa23f	0.3020191
113	0x3e758654	0.23977023
114	0x3e93cd50	0.28867579
115	0x3e7a0e1f	0.2441945
116	0x3e84d846	0.25946254
117	0x3e8e1913	0.27753505
118	0x3ec15f69	0.37768105
119	0xbc4c4a8e	-0.012468947
120	0xbe1cb184	-0.15302092
121	0x3e9fe8ea	0.31232387
122	0x3e989f08	0.2980883
123	0x3e911017	0.28332588
124	0x3d0ecf1b	0.03486548
125	0x3e8c925c	0.27455413
126	0x3e88847d	0.2666358
127	0xbdecd185	-0.115634
128	0x3e7d3f4d	0.24731179
129	0x3dd85c21	0.10564447
130	0xbe959155	-0.29212442
131	0x3e9b2b86	0.30306643
132	0x3e76a114	0.24084884
133	0xbeb0171c	-0.3439263
134	0x3e902563	0.28153524
135	0x3e8c963f	0.2745838
136	0x3c35b8bf	0.01109141
137	0xbeac2e39	-0.33629015
138	0x3e92ed56	0.28696698
139	0x3eae38cb	0.34027705
140	0xbb99b4f8	-0.0046907626
141	0xbebed71a	-0.37273484
142	0x3e9bcb33	0.30428466
143	0xbe85493e	-0.26032442
144	0xbe32a9f2	-0.17447641
145	0xbcf6c087	-0.030121101
146	0xba6344b4	-0.00086696004
147	0x3e800009	0.25000027
148	0x3e883cfa	0.2660902
149	0x3e775bdd	0.24156137
150	0x3e88c415	0.267121
151	0xbdf86f20	-0.121305704
152	0x3ea61491	0.32437566
153	0x3eadb324	0.33925736
154	0x3e97f1f5	0.29676786
155	0xbe8c2802	-0.27374274
156	0x3e9b3117	0.3031089
157	0x3d119c50	0.03554946
158	0xbbba6cb6	-0.005689229
159	0x3e8cf3fd	0.27529898
160	0x3e83459f	0.25639054
161	0x3e963649	0.2933829
162	0xbee8482f	-0.45367572
163	0xbce07155	-0.02739779
164	0xbcd0dbac	-0.025495373
165	0x3e8e0db1	0.2774482
166	0xbc0a77a5	-0.008451377
167	0xbec7fccf	-0.39060065
168	0x3e7e3e94	0.24828559
169	0x3e83dfed	0.2575678
170	0x3e89fa01	0.2694855
171	0xbe8a9208	-0.27064538
172	0x3e8da0c8	0.2766173
173	0xbc694853	-0.014238435
174	0x3cbdf7eb	0.023189506
175	0x3ba2ccb0	0.0049682483
176	0xbe997337	-0.29970714
177	0x3e9b815a	0.30372125
178	0xbe3bd1c7	-0.18341742
179	0x3e891e58	0.26780963
180	0xbae68222	-0.001758639
181	0x3ea130d0	0.31482553
182	0x3b15143d	0.0022747659
183	0x3e6598fc	0.2242164
184	0x3e73422d	0.23755713
185	0x3e975fc2	0.29565245
186	0x3e996767	0.29961702
187	0xbe129b84	-0.14317137
188	0xbe5853f4	-0.21125776
189	0x3e8d9a97	0.27657005
190	0xbed3b7b0	-0.4135108
191	0x3e8ca7ae	0.2747168
192	0x3e9ac9b5	0.30232015
193	0x3e786594	0.24257499
194	0xbe825c0b	-0.25460848
195	0xbc6caa13	-0.014444846
196	0x3e95eb8a	0.29281265
197	0xbe5859ec	-0.21128052
198	0xbe808e4f	-0.25108573
199	0x3e939ba6	0.28829688
200	0x3e9038db	0.28168377
201	0xbe09e3b0	-0.13465762
202	0x3e99b1d4	0.30018485
203	0x3e8803e0	0.26565456
204	0x3e91b2d9	0.28456762
205	0xbed2461a	-0.41069108
206	0x3e7735a8	0.24141562
207	0x3ed62c76	0.41830796
208	0x3e9b1ad1	0.30293897
209	0x3e8f1155	0.2794291
210	0xbe5cdb45	-0.2156802
211	0x3c9e3016	0.019310039
212	0xbe4b17c7	-0.19833289
213	0x3c965ec3	0.018355733
214	0x3d4fd00c	0.05073552
215	0x3e78e485	0.24305923
216	0xbe1f0a09	-0.15531172
217	0x3e944f72	0.28966862
218	0x3e97534b	0.29555735
219	0x3bfef1b7	0.0077802795
220	0x3e787bb4	0.24265939
221	0xbe0a4239	-0.13501824
222	0xbec59344	-0.38588917
223	0x3bdb78b2	0.0066977376
224	0x3e8c2443	0.27371415
225	0xbe8f99d9	-0.28047064
226	0xbc9ce94b	-0.019154212
227	0x3e9804e5	0.29691234
228	0xbe39d17c	-0.18146318
229	0x3e8efa88	0.27925515
230	0xbe8f606b	-0.2800325
231	0xbe892c3f	-0.2679157
232	0x3cccc2e4	0.024995275
233	0xbe49e988	-0.19717991
234	0xbcf02843	-0.029316073
235	0x3e7fc2a4	0.24976593
236	0x3ea2a40a	0.31765777
237	0xbdc3f882	-0.095688835
238	0x3e7699f1	0.24082161
239	0xbd6d923d	-0.05800079
240	0x3e979c1d	0.29611292
241	0x3e956092	0.2917524
242	0x3e55a1a6	0.20862445
243	0x3e88e55e	0.26737493
244	0x3e7e884c	0.2485668
245	0x3e96dc80	0.29465103
246	0x3eaf5f8b	0.3425258
247	0xbd12f52d	-0.03587835
248	0x3ee57efa	0.44823438
249	0x3e9d3910	0.30707598
250	0x3e9b3c71	0.3031955
251	0x3e69e6ef	0.22842
252	0xbcb5235c	-0.022111587
253	0x3e7df54f	0.24800609
254	0x3e96f3a4	0.29482758
255	0xbe48c72e	-0.19607231

layer3.bias f4 [2]
0	0x3d5c83ba	0.05383656
1	0x3dba8bec	0.09108719
