model_weights/DQN/cartpole/cartpole_dqn_episode_499.pth (torch, 72498 bytes, 6 tensors)

layer1.weight f4 [128, 4]
0	0x3e256a64	0.16153866
1	0xbe945d28	-0.28977323
2	0x3e72ea1b	0.23722117
3	0xbe940613	-0.28910884
4	0xbe1f3fb2	-0.15551642
5	0x3e5d4c74	0.21611196
6	0x3ee5f546	0.4491369
7	0xbc0eb8d7	-0.008711061
8	0x3eb49c7b	0.35275635
9	0xbea92141	-0.33033183
10	0x3f4957ce	0.78649604
11	0x3ebd7594	0.37003767
12	0xbe30ebf7	-0.17277513
13	0xbec36870	-0.38165617
14	0xbd4d8f8d	-0.05018573
15	0xbe69ff37	-0.22851263
16	0xbd3ffdfb	-0.046873074
17	0xbee0a724	-0.43877518
18	0xbedf919a	-0.43665773
19	0xbea276ff	-0.31731412
20	0xbe91bf00	-0.28466034
21	0x3dc2a934	0.09504929
22	0xbf39f65f	-0.7264156
23	0xbe11c388	-0.14234746
24	0x3f14af6f	0.5808019
25	0xbe7f958d	-0.24959393
26	0xbf2d25b6	-0.6763567
27	0xbeb8f21b	-0.36122212
28	0xbe8afe34	-0.27147067
29	0xbe26a830	-0.16275096
30	0xbe283618	-0.16426885
31	0xbd48bbe7	-0.049007323
32	0xbe9712b5	-0.2950646
33	0xbe894a58	-0.26814532
34	0x3e49d997	0.1971191
35	0x3e8462ce	0.25856632
36	0x3e75207e	0.23938176
37	0x3e9d6e8b	0.307484
38	0xbe0bd5e6	-0.13655815
39	0x3f07701c	0.5290544
40	0x3e680dfb	0.22661583
41	0xbea395d9	-0.31950262
42	0xbf36305a	-0.7116753
43	0xbeb46bd6	-0.35238522
44	0xbe106481	-0.14100839
45	0xbdef5d35	-0.116877
46	0x3ed0626b	0.40700087
47	0xbd57e54a	-0.0527089
48	0x3efc8034	0.4931656
49	0xbe1677e0	-0.14694166
50	0x3ddaede6	0.10689907
51	0x3c834888	0.016025797
52	0x3e808d2b	0.25107703
53	0x3dd85e81	0.105649
54	0x3e267276	0.16254601
55	0xbe1120e2	-0.141727
56	0xbd86dbec	-0.065849155
57	0x3ee1893a	0.44050008
58	0x3e68c520	0.22731447
59	0x3ebb6413	0.36599788
60	0xbee09c30	-0.43869162
61	0xbeab8003	-0.33496103
62	0xbea3d7d1	-0.32000592
63	0x3e836ac5	0.25667396
64	0xbe7e5679	-0.24837674
65	0x3e0a5988	0.13510716
66	0x3e44656b	0.19179313
67	0xbea91721	-0.33025458
68	0xbe9ab24e	-0.3021416
69	0x3e3ee7f3	0.18643169
70	0xbef6bbb3	-0.48190078
71	0xbec2b223	-0.38026533
72	0xbece90c9	-0.40344837
73	0xbd8acc00	-0.06777191
74	0x3f04915c	0.517843
75	0xbd4b79fa	-0.049676873
76	0xbc2d7c11	-0.010588662
77	0x3e8241fa	0.2544096
78	0x3f09fda0	0.53902626
79	0x3cf7ef3f	0.030265449
80	0x3e860024	0.26171982
81	0xbeb75065	-0.35803524
82	0xbc0d9344	-0.008641068
83	0xbe892007	-0.26782247
84	0xbcb269fe	-0.021779057
85	0x3eb0fc21	0.3456736
86	0x3d6e1a0f	0.05813032
87	0xbe2e72cd	-0.1703598
88	0x3ebf6098	0.37378383
89	0x3e35bb45	0.17747219
90	0xbe46080c	-0.19339007
91	0xbcf05106	-0.02933551
92	0x3edafceb	0.42771086
93	0x3e09b6f8	0.13448703
94	0xbe08497b	-0.1330928
95	0xbe998dea	-0.29991084
96	0x3e4143de	0.18873546
97	0x3eefdfa8	0.46850324
98	0xbd794bde	-0.06086337
99	0x3df4b3c7	0.11948352
100	0xbdd5ee3e	-0.10445832
101	0xbdea49db	-0.11439868
102	0x3f291ce4	0.6605971
103	0x3ed4fdd5	0.41599908
104	0x3eef86dd	0.4678258
105	0xbe070d08	-0.13188565
106	0xbe801e08	-0.25022912
107	0x3df23518	0.11826533
108	0x3e036c5f	0.12834309
109	0x3d19294f	0.03739291
110	0xbec19f11	-0.3781667
111	0x3d23d223	0.039995324
112	0xbee9b6f2	-0.4564739
113	0xbe93b006	-0.28845233
114	0x3f092e39	0.53586155
115	0x3e924c0c	0.28573644
116	0xbe9e3b6c	-0.3090471
117	0x3e2de994	0.16983634
118	0xbeb24278	-0.34816337
119	0x3e5b6e26	0.21428737
120	0xbe983f94	-0.29736006
121	0xbe00c54f	-0.12575267
122	0x3f3c0e51	0.73459345
123	0x3ed381f4	0.41310084
124	0x3eb09cad	0.34494534
125	0xbd7b5015	-0.06135567
126	0xbef31b2b	-0.47481665
127	0x3d2cdee6	0.04220476
128	0xbeb20ade	-0.34773916
129	0x3e4f7a1d	0.20261426
130	0x3e9051a1	0.28187278
131	0x3df27239	0.118381925
132	0xbe52113f	-0.20514391
133	0x3d8578dd	0.065171935
134	0x3eb63420	0.35586643
135	0xbc863adf	-0.016385494
136	0xbdaa823d	-0.08325622
137	0xbec6500a	-0.3873294
138	0xbe7c8db4	-0.2466343
139	0x3da2a2a6	0.07941179
140	0x3e2a8fb8	0.16656387
141	0x3e7147d8	0.23562562
142	0x3dba74ad	0.091042854
143	0xbe150ff5	-0.14556868
144	0xbd6ffc2e	-0.058590107
145	0xbe4c1ecd	-0.19933625
146	0x3c597994	0.013273615
147	0x3e4868b6	0.19571194
148	0xbe3a0bc9	-0.18168558
149	0xbe174f2b	-0.14776294
150	0xbdf69a89	-0.12041194
151	0x3c5b7022	0.013393434
152	0xbeeecf3f	-0.4664249
153	0xbf0053cd	-0.5012787
154	0x3e87ba07	0.26509115
155	0xbe3e86a8	-0.18606055
156	0xbee4752e	-0.4462065
157	0xbe80f9a7	-0.2519047
158	0xbdc31da6	-0.09527139
159	0xbee26e14	-0.44224608
160	0xbea73d3b	-0.32663903
161	0x3e52b8fc	0.20578378
162	0x3d9cdf3d	0.07659767
163	0x3f033769	0.51256424
164	0xbec91167	-0.3927109
165	0x3f056324	0.521044
166	0xbe82c1b7	-0.25538418
167	0x3e911f09	0.2834399
168	0x3ef318e3	0.47479925
169	0x3ee511f8	0.44740272
170	0xbe3e62f5	-0.18592437
171	0x3ea7d670	0.3278079
172	0xbec08731	-0.37603143
173	0x3e5d55d5	0.21614774
174	0x3eafbf9e	0.3432588
175	0x3e66263d	0.22475524
176	0xbd6af4af	-0.057362255
177	0x3e9133e9	0.28359917
178	0x3f5adb08	0.85490465
179	0x3eae6896	0.34064168
180	0x3cbfc1dd	0.02340787
181	0x3d86d178	0.06582922
182	0x3deb57a8	0.114913285
183	0xbee770b7	-0.45203182
184	0x3e550e64	0.20806271
185	0xbedf6eb9	-0.43639162
186	0xbed60c74	-0.41806376
187	0x3ec2d9c2	0.3805676
188	0x3d3b579d	0.04573785
189	0x3e3a2aac	0.1818034
190	0x3dcb8aac	0.09938559
191	0xbee4f359	-0.4471691
192	0x3f098895	0.5372403
193	0xbe763f3f	-0.24047564
194	0xbea0234a	-0.31276923
195	0xbec6a7d8	-0.3879993
196	0xbda4f411	-0.080543645
197	0xbe9f4d60	-0.3111372
198	0xbdccec13	-0.10005965
199	0xbe94f35b	-0.29091915
200	0x3eadaa39	0.33918932
201	0x3e6abd4d	0.22923775
202	0x3d47a0e3	0.048737418
203	0x3e1fd7ed	0.15609713
204	0xbdd30553	-0.1030375
205	0xbeb670a6	-0.3563282
206	0xbeb45afa	-0.3522566
207	0xbd61ab35	-0.055094916
208	0x3e3fc937	0.18729101
209	0xbe6d38e7	-0.23166238
210	0xbf06c78d	-0.5264824
211	0xbdd001b3	-0.10156574
212	0x3c2e577b	0.010640974
213	0x3da6e1c1	0.08148528
214	0x3f470a57	0.7775015
215	0x3df6e46c	0.12055287
216	0xbea6edbb	-0.3260325
217	0x3e918d42	0.28428084
218	0x3f1ab8cd	0.60438234
219	0xbe284e98	-0.16436231
220	0xbebfaef9	-0.3743818
221	0x3e656920	0.22403383
222	0xbeb65bb2	-0.35616833
223	0x3bb4598e	0.00550384
224	0x3d5d5a75	0.054041345
225	0xbcc5e82b	-0.024158558
226	0x3e025994	0.12729484
227	0xbe7860c0	-0.24255657
228	0xbf00a570	-0.5025244
229	0x3c58f88c	0.013242852
230	0xbea5fa8e	-0.3241772
231	0xbe8b8794	-0.27251875
232	0x3eadd334	0.33950198
233	0xbeacf76d	-0.3378252
234	0x3e819345	0.2530767
235	0xbe004de8	-0.12529719
236	0xbe33ff87	-0.17577945
237	0xbe96ec8e	-0.29477352
238	0x3e91d3b9	0.28481844
239	0xbe9003e4	-0.28127968
240	0x3d440dab	0.047864597
241	0x3ef08483	0.46976098
242	0x3e44755f	0.19185399
243	0x3e303930	0.17209315
244	0x3c5eb113	0.0135920225
245	0xbed0916c	-0.40735948
246	0xbefc3860	-0.4926176
247	0xbd8ee961	-0.06978107
248	0x3efa8b3f	0.4893436
249	0xbe956284	-0.29176724
250	0xbc5668fb	-0.013086553
251	0xbe9956b9	-0.29948977
252	0xbf0168b9	-0.5055042
253	0xbeabc475	-0.33548322
254	0x3dd6d834	0.10490456
255	0x3f001c56	0.5004324

layer1.bias f4 [128]
0	0x3ef5d3d6	0.4801318
1	0x3e4e24e4	0.2013126
2	0xbe9717ed	-0.2951044
3	0x3edf083f	0.4356098
4	0x3ebeac98	0.37241054
5	0xbe1f395f	-0.15549229
6	0xbef223fd	-0.47293082
7	0x3e851ab8	0.25996947
8	0xbead4572	-0.33842045
9	0xbe884458	-0.26614642
10	0xbe232b12	-0.15934399
11	0x3f114213	0.56741446
12	0x3e7ee9fd	0.24893947
13	0x3f03fd52	0.5155841
14	0x3ed31b63	0.41231832
15	0xbeaa2f0f	-0.33239028
16	0x3eab88ef	0.3350291
17	0xbd8c49fd	-0.0685005
18	0xbe2ac139	-0.16675271
19	0x3ed4e7db	0.41583142
20	0x3e97740f	0.29580733
21	0x3ee171f4	0.44032252
22	0x3ef0078d	0.4688076
23	0xbef1a75f	-0.47198007
24	0xbf0134a6	-0.5047096
25	0xbdafcfe5	-0.085845746
26	0x3f0eb365	0.55742484
27	0x3e56ee20	0.20989275
28	0xbeb001fd	-0.34376517
29	0x3f02351a	0.50862277
30	0xbe676528	-0.22597182
31	0xbedbd742	-0.42937666
32	0x3ef9d0cf	0.4879212
33	0x3e087c3e	0.13328645
34	0xbea0274e	-0.31279987
35	0xbf010f09	-0.50413567
36	0xbe65ca0f	-0.2244036
37	0x3ed73130	0.42029715
38	0xbe60151f	-0.21883057
39	0xbd6bec20	-0.057598233
40	0xbed39e08	-0.41331506
41	0x3dd7342f	0.10508
42	0x3e44c90b	0.19217317
43	0x3f0e43db	0.5557229
44	0xbedb20ee	-0.4279856
45	0x3e8ea6bb	0.2786158
46	0x3e390410	0.18067956
47	0x3e448b32	0.19193724
48	0xbeb0b08a	-0.3450969
49	0xbe173967	-0.14767991
50	0x3eb585dd	0.35453692
51	0x3eba1901	0.363472
52	0x3f1efa44	0.62100625
53	0xbe5dbfbf	-0.21655177
54	0x3ea234c1	0.31680873
55	0x3f1c3a50	0.6102648
56	0x3f0f9fa7	0.56102985
57	0xbed9b225	-0.42518726
58	0x3f24ca74	0.6437142
59	0x3f01c5b6	0.5069231
60	0x3e2a3e7b	0.16625397
61	0x3f01177b	0.50426453
62	0x3eea0d66	0.45713347
63	0xbc82f5ab	-0.015986284
64	0xbef37a14	-0.47554076
65	0xbee1c2db	-0.44093975
66	0x3e8af914	0.27143157
67	0x3e3d37fa	0.18478385
68	0x3eebd85f	0.46063516
69	0xbe958204	-0.29200757
70	0x3da22f2c	0.079191536
71	0x3eb630b5	0.35584036
72	0x3e8af0e7	0.2713692
73	0xbe5370ec	-0.20648545
74	0x3e53fb22	0.20701268
75	0x3f0d16d3	0.5511295
76	0xbe3ba2b2	-0.18323782
77	0xbe8b3918	-0.27191997
78	0x3ebfce64	0.3746215
79	0x3e45e5e2	0.19325975
80	0xbec5304b	-0.38513407
81	0xbe4a206a	-0.19738927
82	0x3e90a2d0	0.28249216
83	0x3e84df38	0.25951552
84	0x3e2b5cbe	0.16734597
85	0x3f01e297	0.50736374
86	0xbf0d0d30	-0.5509825
87	0x3eb3ae0c	0.35093725
88	0xbe82e6e1	-0.25566772
89	0x3f02cd47	0.5109448
90	0x3edaa7e8	0.42706227
91	0xbf1045ec	-0.5635669
92	0x3eeea0b9	0.46606997
93	0x3f028206	0.5097965
94	0xbea890b9	-0.32922915
95	0x3eed0940	0.4629612
96	0x3eb42d3d	0.35190764
97	0xbee61edb	-0.44945416
98	0x3f185276	0.59500825
99	0xbe9e69ae	-0.30940002
100	0xbea3994e	-0.319529
101	0x3ea3872b	0.31939062
102	0x3efebc3c	0.49752986
103	0x3e44a6f3	0.19204311
104	0x3f0e65a4	0.5562384
105	0x3e979fcd	0.29614106
106	0xbdb6d132	-0.089266196
107	0x3d0c61b4	0.034272864
108	0x3e6c06aa	0.23049417
109	0xbda8fd99	-0.08251495
110	0xbebadc3e	-0.36496156
111	0x3ee7c85e	0.45270056
112	0x3e248423	0.16066031
113	0xbecd3c79	-0.400852
114	0x3f0d7277	0.55252784
115	0x3e6491db	0.22321264
116	0xbeba0bc5	-0.36337104
117	0xbed968d7	-0.424628
118	0x3f144988	0.579247
119	0x3f0cb64a	0.5496565
120	0xbe86ee01	-0.26353458
121	0x3da01d74	0.07818118
122	0x3ee16c38	0.44027877
123	0xbe7f42e4	-0.2492786
124	0x3e31a190	0.17346787
125	0x3ec1c8e8	0.37848592
126	0x3f0f7162	0.56032383
127	0x3f25c84c	0.64758754

layer2.weight f4 [128, 128]
0	0x3d7c489d	0.061592687
1	0x3d98bb81	0.074576385
2	0xbd874b77	-0.06606191
3	0x3d577005	0.052597065
4	0x3dc68c11	0.09694684
5	0xbd9084aa	-0.07056554
6	0xbe8f141e	-0.27945036
7	0x3dbfc348	0.09363419
8	0xbde08564	-0.10962942
9	0xbb54ae57	-0.0032452547
10	0xbd9d06c5	-0.07667307
11	0x3e4c8357	0.19971977
12	0x3d877b9b	0.06615373
13	0x3c46394a	0.01209862
14	0x3d8c0a6b	0.068379246
15	0x3d501294	0.050798967
16	0x3d422074	0.04739423
17	0xbe024312	-0.12720898
18	0x3d670792	0.056403704
19	0xbbf38b5d	-0.007432385
20	0x3e055b92	0.13023213
21	0x3d64eba9	0.055888806
22	0x3ca2451a	0.01980834
23	0xbd1fcb10	-0.039012015
24	0xbd73de8a	-0.0595384
25	0xbd22e29e	-0.0397669
26	0x3cdcb41e	0.026941355
27	0x3e036ba9	0.12834038
28	0x3ce5d75d	0.028056795
29	0x3e168ab3	0.14701347
30	0xbd168ee6	-0.036757372
31	0xbef2560b	-0.4733127
32	0x3e46d7d3	0.19418268
33	0x3cada9c7	0.02119912
34	0xbc4551a0	-0.012043387
35	0xbeca3ea4	-0.39500916
36	0x3c0f7d22	0.008757861
37	0x3e1c755a	0.15279141
38	0xbd4bf02e	-0.0497896
39	0x3cbf139a	0.023324776
40	0x3d635dba	0.055509306
41	0x3e96973d	0.2941226
42	0x3d3785e7	0.044805434
43	0x3e5149e7	0.20438348
44	0xbea994f1	-0.33121446
45	0x3d54631e	0.051852338
46	0xbd005e3b	-0.031339865
47	0x3d986a90	0.074422
48	0xbe035fce	-0.12829515
49	0xbd3b8752	-0.04578335
50	0xbcb68e90	-0.022284776
51	0x3dc76ebf	0.0973792
52	0x3d0c65b6	0.034276687
53	0xbed2baca	-0.41158134
54	0x3d13c7f4	0.036079362
55	0x3e00d269	0.12580265
56	0x3e190f75	0.14947303
57	0xbd8e579a	-0.069503024
58	0x3d78c0a6	0.0607306
59	0x3d82884c	0.06373653
60	0x3d9a7683	0.075421356
61	0x3d1b6074	0.03793378
62	0x3d1e357b	0.03862522
63	0xbce6e31f	-0.028184472
64	0xbe85f8cf	-0.26166388
65	0xbe32f335	-0.17475589
66	0x3e03b55d	0.12862153
67	0x3db01563	0.08597829
68	0xbc62294b	-0.01380379
69	0xbe6c4294	-0.23072273
70	0x3ca729e7	0.020405723
71	0x3da1bcfe	0.078973755
72	0xbc76f372	-0.01507269
73	0x3d44ea97	0.048075285
74	0x3d2c0c3b	0.04200385
75	0x3d91fd3f	0.07128381
76	0xbdd944a0	-0.10608792
77	0xbea31ce7	-0.31857988
78	0x3dac5b79	0.084158845
79	0x3dd60b62	0.1045139
80	0x3c519d6d	0.012793881
81	0xbe560925	-0.20901926
82	0x3db0badc	0.086293906
83	0x3db9254c	0.09040317
84	0x3d7f05d6	0.062261425
85	0x3c83f6b7	0.016108854
86	0xbe3498e1	-0.17636444
87	0x3dd6a974	0.10481539
88	0xbe491b7a	-0.19639388
89	0x3e072f54	0.13201648
90	0x3c92f6ff	0.017940043
91	0xbe66d97b	-0.225439
92	0xbab8dc6c	-0.0014103777
93	0x3ddb0700	0.106946945
94	0xbdfb459d	-0.12269137
95	0x3c9d421e	0.019196566
96	0x3d1b9832	0.03798694
97	0xbed10008	-0.40820336
98	0xbc589b4b	-0.0132206185
99	0xbd977bc6	-0.07396655
100	0x3c3340d4	0.010940749
101	0x3d25b15c	0.040452346
102	0x3d95d403	0.07315829
103	0x3d24ee62	0.040266402
104	0xbbfee51f	-0.007778778
105	0x3e12223c	0.14270872
106	0xbb0b65a5	-0.0021270302
107	0xbce0ed0c	-0.027456783
108	0xbba0b386	-0.0049042134
109	0xbd22d7e4	-0.03975667
110	0xbdda0ffa	-0.106475785
111	0x3e215be7	0.15757714
112	0xbd0e8216	-0.03479203
113	0xbd602740	-0.05472493
114	0x3e01212c	0.1261031
115	0x3de1f0fe	0.11032294
116	0xbdff4ffc	-0.12466428
117	0xbd9f8e21	-0.07790781
118	0x3e3d5a9b	0.18491594
119	0x3db0006b	0.0859383
120	0xbbbe872d	-0.005814454
121	0xbcaad596	-0.020853799
122	0x3c2e1efe	0.010627506
123	0x3d188563	0.037236582
124	0x3dc03dc6	0.09386782
125	0x3dcd68df	0.10029768
126	0x3d4fed3f	0.050763365
127	0x3d798b17	0.060923662
128	0x3d1a968b	0.037741225
129	0xbc15747d	-0.009122011
130	0xbd7e9f0d	-0.0621634
131	0x3d66d6cc	0.05635719
132	0xbd0df845	-0.034660596
133	0x3b89a80f	0.0042009423
134	0x3e2ee17d	0.17078204
135	0xbd5db6b5	-0.05412932
136	0xbd6734cd	-0.05644684
137	0x3d523867	0.05132332
138	0x3d970a73	0.0737504
139	0x3c1a17c4	0.00940508
140	0xbcbc778e	-0.023006227
141	0x3b1b4cbb	0.0023696858
142	0xbd25b149	-0.040452275
143	0x3cc7445f	0.024324594
144	0x3cea7723	0.028621262
145	0x3c49bdf3	0.012313354
146	0xbe06bf26	-0.13158855
147	0x3d2b0afc	0.041758522
148	0xbdbc6415	-0.09198777
149	0x3d392e41	0.045210127
150	0xbd80fe24	-0.062984735
151	0x3c41e73c	0.011834916
152	0xbdc2b222	-0.095066324
153	0x3d26d190	0.040727198
154	0x3d29cba2	0.041453965
155	0xbdb01b55	-0.08598963
156	0x3d9606e8	0.07325536
157	0xbc4e7c0c	-0.012602817
158	0xbdad3087	-0.084565215
159	0x3ec24c26	0.37948722
160	0xbd8edbce	-0.06975518
161	0xbd48fc94	-0.049069002
162	0xbd5d7f7c	-0.054076657
163	0x3e0f899e	0.1401734
164	0xbd08d0eb	-0.033402365
165	0xbd4a8ba2	-0.04944957
166	0x3e7d09df	0.24710797
167	0x3befd1e1	0.0073187207
168	0xbb93e29a	-0.004513097
169	0x3d1f52ce	0.038897328
170	0xbb9a4598	-0.0047080033
171	0xbdb154ca	-0.0865875
172	0xbcb6163a	-0.022227395
173	0x3cbb723f	0.022881625
174	0x3c799ce6	0.015235161
175	0xbbae5bcc	-0.0053210016
176	0x3e01412e	0.1262252
177	0xbe087af5	-0.13328154
178	0x3cf6d30c	0.030129932
179	0x3d30075a	0.04297576
180	0x3cb9bc31	0.022672744
181	0x3cc0787c	0.023494951
182	0x3d133231	0.035936538
183	0xbda03ea3	-0.07824447
184	0x3c532370	0.012886867
185	0xbe1a5963	-0.15073161
186	0xbc30e81d	-0.010797528
187	0x3cdb59e2	0.026776258
188	0x3dd12c28	0.102135
189	0x3d8e049c	0.06934473
190	0x39f595d6	0.00046841678
191	0xbd1e697b	-0.038674813
192	0x3ca26c7c	0.01982712
193	0xbd82ca11	-0.06386197
194	0x3d4e9e8b	0.050444167
195	0x3d0c0309	0.034182582
196	0x3cd95858	0.026531383
197	0x3d2fc646	0.042913698
198	0x3bbc6040	0.0057487786
199	0x3ccd9fb2	0.025100563
200	0xbcfd60de	-0.030929979
201	0xbd73f4a6	-0.059559487
202	0xbda6ffd0	-0.08154261
203	0x3d4955de	0.049154155
204	0xbd892c73	-0.06697931
205	0x3d8240a9	0.06359989
206	0xbd1d8da8	-0.038465172
207	0xbcfa16eb	-0.030528506
208	0x3d18fc86	0.0373502
209	0x3de7526d	0.11295018
210	0x3d2e6e8d	0.0425859
211	0xbc93e52a	-0.01805361
212	0xbd8707c8	-0.06593281
213	0xbdb63756	-0.08897273
214	0x3c809bfb	0.015699377
215	0x3d4447a8	0.0479199
216	0x3d9c7b30	0.07640684
217	0xbd94e503	-0.07270243
218	0x3a89f2c0	0.0010524616
219	0x3d62ce9b	0.055372816
220	0x3d08eafc	0.033427224
221	0xbd71ff2c	-0.05908124
222	0xbe2daa1c	-0.16959423
223	0xba6ffd25	-0.0009154848
224	0xbd818613	-0.06324401
225	0x3e91a198	0.284436
226	0x3d51b196	0.05119475
227	0xbc9f7514	-0.019465007
228	0x3ad97d65	0.0016593157
229	0xbd20eb71	-0.039287034
230	0xbd923299	-0.07138557
231	0x3d0086ca	0.031378545
232	0x3d82acbc	0.06380603
233	0xbd22df80	-0.039763927
234	0x3b7b370b	0.0038332369
235	0x3d4b43be	0.04962515
236	0xbd677bdf	-0.056514617
237	0x3c99f2bc	0.018792503
238	0x3caec6d6	0.021335047
239	0xbd52a668	-0.05142823
240	0x3bd1f90c	0.0064078625
241	0xbc56c864	-0.0131093
242	0x3cb4a0b2	0.022049282
243	0x3d9c4e5a	0.07632132
244	0xbd09ae84	-0.033613697
245	0x3d937679	0.07200331
246	0xbcc4e06c	-0.024032794
247	0x3c94c697	0.018161101
248	0x3cb05440	0.021524549
249	0xbdbcc943	-0.09218075
250	0x3d819a0f	0.063282125
251	0x3d242ed8	0.040083736
252	0x3daf3132	0.08554305
253	0xbc490c11	-0.012270943
254	0x3c8c67a0	0.017139256
255	0xbdb9f140	-0.09079218

layer2.bias f4 [128]
0	0x3d8eb678	0.06968397
1	0xbb34b3e8	-0.0027573053
2	0xbd87bdff	-0.06628036
3	0x3ddf3be1	0.10900093
4	0x3e6136c7	0.21993552
5	0xbdb5a697	-0.08869665
6	0x3dce1703	0.10062983
7	0x3e44937d	0.19196887
8	0xbc7ce069	-0.015434363
9	0xbd86ca2f	-0.06581532
10	0x3e12c374	0.14332372
11	0x3e2e9ae8	0.1705128
12	0x3c9e8337	0.019349677
13	0xbe005108	-0.12530911
14	0x3e5287df	0.20559643
15	0xbbb89084	-0.005632462
16	0xbcbdf3b3	-0.023187494
17	0x3d9279dd	0.0715215
18	0xbd6f21dc	-0.0583819
19	0x3e4fc821	0.20291187
20	0x3e541487	0.20710956
21	0x3e262efd	0.16228862
22	0x3dc032ba	0.09384675
23	0x3d98cfc1	0.07461501
24	0x3ca593b9	0.020212041
25	0x3d533d23	0.051571976
26	0x3e448647	0.19191848
27	0xbd72194a	-0.05910615
28	0x3e16663b	0.14687435
29	0xbd88c17a	-0.06677528
30	0x3d909b34	0.07060853
31	0x3e1bb228	0.1520468
32	0x3e454900	0.19266129
33	0x3e02db97	0.1277908
34	0xbdb77738	-0.08958286
35	0xbd425e7f	-0.0474534
36	0x3c89ed22	0.016836707
37	0x3de7b4a7	0.113137536
38	0xbd1e7ed2	-0.038695164
39	0xbde7a051	-0.11309875
40	0x3e6dc5bc	0.23219961
41	0x3e20acd0	0.15690923
42	0x3e005fd6	0.12536559
43	0xbe14e819	-0.14541663
44	0x3e6c7b7b	0.23093979
45	0xbda8d1de	-0.08243154
46	0xbd15ab29	-0.036540184
47	0xbd8d151e	-0.068887934
48	0xbd92f8f0	-0.07176387
49	0x3d9a353f	0.07529687
50	0xbdc4bc79	-0.09606261
51	0x3e0294c2	0.12752059
52	0xbd131258	-0.035906166
53	0x3de48be1	0.11159492
54	0xbcc0a0d2	-0.023514185
55	0x3e062a75	0.13102134
56	0x3db2e189	0.08734424
57	0x3e1e1a1d	0.15439649
58	0x3e0fd01b	0.1404423
59	0x3d924e06	0.07143788
60	0x3d4291ce	0.04750233
61	0x3e717db3	0.23583107
62	0xbde656d0	-0.11247027
63	0x3da53f3c	0.080687016
64	0x3e0ca792	0.13735798
65	0x3dde53be	0.10855816
66	0xbd51f75c	-0.05126129
67	0xbd35446e	-0.044254713
68	0x3e1954d0	0.1497376
69	0x3d2e1386	0.042499088
70	0xbd2b5183	-0.041825783
71	0x3d918e26	0.07107191
72	0x3e1b0084	0.15136915
73	0x3d6deeac	0.058088943
74	0x3e2378ee	0.159641
75	0x3e6a55f8	0.22884357
76	0x3e489e28	0.19591582
77	0xbde21940	-0.11039972
78	0x3d23efd9	0.04002366
79	0x3ddc3bdb	0.10753604
80	0x3e409b66	0.1880928
81	0x3e407945	0.1879626
82	0xbdfa03cf	-0.12207758
83	0x3d424881	0.047432426
84	0xbe083b75	-0.13303931
85	0xbc16fa25	-0.009214913
86	0xbd7262ec	-0.05917637
87	0x3dcde800	0.10054016
88	0xbd3c2b2a	-0.045939602
89	0x3da2f825	0.07957486
90	0x3dde19cd	0.10844765
91	0x3ccfe920	0.025379717
92	0x3e458777	0.19289957
93	0x3d5cd957	0.05391821
94	0xbdc6b5e7	-0.09702664
95	0xbd02f384	-0.031970516
96	0x3e022c4d	0.12712212
97	0xbdf3cbc6	-0.11904101
98	0xb87c4fef	-6.0155926e-05
99	0x3e2a2e55	0.16619237
100	0x3ce06a4d	0.027394438
101	0x3e4daab6	0.20084652
102	0xbb9065d4	-0.00440667
103	0xbce16579	-0.027514206
104	0x3c28e6a4	0.010308895
105	0x3d22dac3	0.03975941
106	0x3c4b3ff1	0.012405382
107	0x3e321939	0.17392434
108	0x3e0f9326	0.14020976
109	0xbbac37dd	-0.005255683
110	0x3e4025e4	0.18764454
111	0xbe24f80d	-0.16110249
112	0x3e62135c	0.22077698
113	0x3e32fe85	0.17479904
114	0x3d89c7a0	0.067275286
115	0x3e25a91d	0.16177793
116	0x3e4efdae	0.20213959
117	0x3e3d2f8c	0.18475169
118	0x3db18f13	0.08669867
119	0xbd9e3758	-0.077254
120	0xbd60fdde	-0.054929607
121	0x3e249356	0.16071829
122	0x3dd14b12	0.10219397
123	0x3e3d7c4d	0.18504448
124	0xbd145bad	-0.03622024
125	0x3e5ab5c7	0.21358405
126	0x3e4d62ca	0.20057216
127	0xbd0fc58f	-0.035100516

layer3.weight f4 [2, 128]
0	0x3e607488	0.21919453
1	0xbd3523bc	-0.044223532
2	0xbd38ce53	-0.04511864
3	0x3e3c0b56	0.183637
4	0x3e66d3c4	0.2254172
5	0xbe4226a8	-0.18960059
6	0x3e3a6b11	0.18204905
7	0x3e284fea	0.16436735
8	0xbd73f178	-0.059556454
9	0xbefc8b4a	-0.4932502
10	0x3dd4d643	0.1039243
11	0x3e4d94b7	0.20076261
12	0xbe3503ae	-0.17677185
13	0xbe83e10a	-0.2575763
14	0x3e72f7e2	0.23727372
15	0xbd2eaf3a	-0.042647578
16	0xbd9c0545	-0.076181926
17	0xbd863d0d	-0.06554613
18	0xbecd1f28	-0.40062833
19	0x3e608af2	0.21928003
20	0x3e389a44	0.18027598
21	0x3e5dbbda	0.21653691
22	0x3e6f1373	0.23347263
23	0xbe8d3b28	-0.27584195
24	0x3e38e9d0	0.18057942
25	0x3e6ea3c1	0.23304655
26	0x3e40e1d7	0.18836151
27	0xbf373d9a	-0.7157837
28	0x3e045f2d	0.12926932
29	0x3d9eba1c	0.07750341
30	0xbd2601aa	-0.04052893
31	0x3e376b92	0.17912129
32	0x3e4f09f0	0.20218635
33	0x3e25cd27	0.1619154
34	0xbf65a1fc	-0.89700294
35	0x3d605d44	0.054776445
36	0xbc55cccb	-0.013049315
37	0x3e5a8921	0.21341373
38	0xbda6409f	-0.08117794
39	0xbf48ecfd	-0.78486615
40	0x3e40dc8b	0.1883413
41	0x3e878a6d	0.26472798
42	0x3e523c8d	0.20530911
43	0xbeaff668	-0.3436768
44	0x3e1cc820	0.15310717
45	0x3d99c115	0.075075306
46	0x3d6f5996	0.058435045
47	0x3d958bd5	0.073020615
48	0xbef49c05	-0.47775283
49	0x3e31455e	0.17311618
50	0xbe0c2f0d	-0.13689823
51	0x3e386cc1	0.18010236
52	0xbd1fb6fd	-0.03899287
53	0x3e2b2737	0.16714178
54	0xbd907712	-0.07053961
55	0x3e78276d	0.2423379
56	0x3e557c27	0.20848142
57	0x3e8c15d4	0.27360404
58	0x3e1a12ee	0.15046284
59	0xbec955bb	-0.3932322
60	0xbe874333	-0.26418456
61	0x3e25218f	0.16126083
62	0xbf578ab1	-0.84196
63	0x3e1d03d5	0.15333493
64	0x3e53e502	0.20692828
65	0x3e70d26d	0.23517771
66	0xbf0d04a5	-0.5508521
67	0xbc296880	-0.010339856
68	0x3dd206fc	0.102552384
69	0xbd48ac1c	-0.04899226
70	0xbeba8df8	-0.3643644
71	0x3e5794c3	0.21052842
72	0x3e029066	0.12750396
73	0xbc9cade5	-0.019125888
74	0x3e3b0071	0.18261887
75	0x3e603efc	0.21899027
76	0x3e523593	0.2052825
77	0xbf299ed0	-0.66257954
78	0x3e8259d6	0.25459164
79	0x3e0e6552	0.13905838
80	0x3e6d832e	0.23194572
81	0x3e40b8f1	0.1882055
82	0xbf275f68	-0.65379953
83	0xbdc30c40	-0.09523821
84	0xbf0a55b6	-0.54037035
85	0xbe235546	-0.15950498
86	0x3bf74218	0.007545721
87	0x3e7b82c6	0.24561605
88	0x3c9dab06	0.01924659
89	0x3e271dac	0.16319913
90	0x3e10ecbc	0.14152807
91	0x3d8da907	0.06917005
92	0x3e897e9d	0.2685441
93	0xbbcaa93f	-0.0061847265
94	0xbf4024b1	-0.75055987
95	0xbcd3f3ad	-0.02587303
96	0x3e2baabd	0.1676435
97	0xbf22a40f	-0.63531584
98	0xbc495490	-0.012288228
99	0x3e171a0c	0.1475603
100	0xbd8e98ba	-0.06962724
101	0x3deb77be	0.114974484
102	0xbd959eef	-0.07305705
103	0xbeecc869	-0.4624665
104	0x3ae682f7	0.0017586638
105	0xbde82ee2	-0.11337067
106	0xbeba7320	-0.36415958
107	0x3e7255f9	0.23665608
108	0x3e7a85c4	0.2446509
109	0xbcb73311	-0.022363218
110	0x3e73b69e	0.23800132
111	0xbebce7a6	-0.36895484
112	0x3e6d10f9	0.23151006
113	0x3df2a691	0.11848176
114	0x3e5e7bab	0.21726863
115	0x3e192b24	0.14957863
116	0x3e2f08e5	0.17093237
117	0x3e302721	0.17202426
118	0x3e4f6163	0.20251994
119	0xbce29962	-0.02766103
120	0xbdee11b0	-0.116244674
121	0x3e738c69	0.23784031
122	0x3e51df34	0.20495301
123	0x3e59830a	0.21241394
124	0x3d9e57e3	0.07731607
125	0x3e4a02f2	0.19727686
126	0x3e2c759a	0.16841736
127	0xbe03ff98	-0.1289047
128	0x3dc31698	0.09525794
129	0xbc848f09	-0.016181486
130	0xbdf0cc91	-0.11757768
131	0x3e76e56f	0.2411096
132	0x3e11283b	0.14175503
133	0xbee137a8	-0.43987775
134	0x3e55becb	0.20873563
135	0x3e3e7e39	0.18602838
136	0x3cc96203	0.024582868
137	0xbef5d4ee	-0.48014015
138	0x3e64bf9e	0.22338721
139	0x3e836f2b	0.25670752
140	0xbe0c25ab	-0.13686244
141	0xbef38d78	-0.4756887
142	0x3e549300	0.20759201
143	0xbd51446b	-0.05109064
144	0xbe655232	-0.22394636
145	0xbd8908d8	-0.0669114
146	0xbd3749cf	-0.044748124
147	0x3e10d22e	0.14142677
148	0x3e33cc68	0.17558444
149	0x3e0938f4	0.13400632
150	0x3e323ce2	0.17406037
151	0xbe8d1783	-0.27557
152	0xbd4429cd	-0.047891427
153	0x3e5caa77	0.21549402
154	0x3e6bd48f	0.23030303
155	0xbf222d12	-0.6335002
156	0x3e858806	0.2608034
157	0x3da174a1	0.07883573
158	0xbc4eb901	-0.012617351
159	0x3e4f3390	0.20234513
160	0x3e30182a	0.17196718
161	0x3e6e3952	0.23264053
162	0xbf77b520	-0.9676075
163	0xbd8b9180	-0.06814861
164	0xbd677e01	-0.05651665
165	0x3e57a370	0.2105844
166	0xbc997fad	-0.018737638
167	0xbf58827a	-0.8457409
168	0x3e223c76	0.15843377
169	0x3e223e67	0.15844117
170	0x3e44bfa6	0.19213733
171	0xbec6b4e3	-0.3880988
172	0x3e5b5c3c	0.21421903
173	0xbd0173fe	-0.03160476
174	0x3d83c8ec	0.06434807
175	0x3c34818e	0.011017216
176	0xbf1446c1	-0.5792046
177	0x3e685c8c	0.22691554
178	0xbe304b8a	-0.17216316
179	0x3e3ae771	0.1825235
180	0xbb7f99c4	-0.0039001564
181	0x3e7e4e3b	0.2483453
182	0x3ba54559	0.0050436673
183	0x3dd7ed10	0.10543263
184	0x3dc0d67d	0.094159104
185	0x3e4f2ec2	0.2023268
186	0x3e84f458	0.2596767
187	0x3c55f48c	0.013058793
188	0xbb9c506c	-0.004770329
189	0x3e52d476	0.2058886
190	0xbf5c1561	-0.8597012
191	0x3e4a3734	0.19747621
192	0x3e709a42	0.23496345
193	0x3dff8881	0.12477208
194	0xbf0b98f2	-0.5453025
195	0xbd035c37	-0.032070365
196	0x3e836419	0.25662306
197	0xbdc75b32	-0.09734191
198	0xbe9edb01	-0.31026462
199	0x3e5dbf5d	0.2165503
200	0x3e65307b	0.22381775
201	0xbde76cd6	-0.11300056
202	0x3e891318	0.2677238
203	0x3e4393c2	0.19099334
204	0x3e63ec0e	0.22258016
205	0xbf513b31	-0.81730944
206	0x3ddaa3f1	0.106758006
207	0x3ba980ec	0.0051728394
208	0x3e83f6b7	0.25774166
209	0x3e2f6ccd	0.17131348
210	0xbefb3d95	-0.4907042
211	0x3d2f799f	0.042840596
212	0xbed92b25	-0.4241573
213	0xbb4e967e	-0.0031522806
214	0x3d0d9bd8	0.034572452
215	0x3e13158c	0.14363688
216	0xbe2f1954	-0.17099506
217	0x3e73d6fe	0.23812482
218	0x3e71b270	0.23603225
219	0x3c8d6dad	0.017264212
220	0x3df19cbb	0.11797472
221	0xbcb6c609	-0.022311227
222	0xbf4ac095	-0.79200107
223	0x3c736898	0.01485648
224	0x3e51f46a	0.20503393
225	0xbf230cfc	-0.6369169
226	0xbd2df36f	-0.042468484
227	0x3e7fdb1b	0.24985926
228	0xbe17d0d4	-0.14825755
229	0x3e610ff4	0.21978742
230	0xbdfb760d	-0.12278376
231	0xbf06e64e	-0.5269517
232	0x3d631a4f	0.05544501
233	0xbe1509a0	-0.14554453
234	0xbe1cbd61	-0.15306617
235	0x3e206a8f	0.15665649
236	0x3e8f9c98	0.2804916
237	0xbd067f5c	-0.032836303
238	0x3df306cf	0.11866533
239	0xbe496779	-0.19668378
240	0x3e632c85	0.22184952
241	0x3e756f61	0.23968269
242	0x3d4567fd	0.048194874
243	0x3e49d592	0.19710377
244	0x3e2b2f0d	0.16717167
245	0x3e6eb8f6	0.23312744
246	0x3d8c0199	0.06836242
247	0xbda2effb	-0.07955929
248	0x3d916808	0.070999205
249	0x3e40965e	0.1880736
250	0x3e6c3bc3	0.23069672
251	0x3dc4a1fe	0.0960121
252	0xbd48c02d	-0.049011398
253	0x3e1ecac1	0.15507032
254	0x3e7935b0	0.24336886
255	0xbe96163c	-0.29313838

layer3.bias f4 [2]
0	0xbb35cd36	-0.0027740723
1	0x3de6f555	0.11277262
