model_weights/DQN/cartpole/cartpole_dqn_episode_1199.pth (torch, 72508 bytes, 6 tensors)

layer1.weight f4 [128, 4]
00000000: 587c 153e 9f2b 8bbe 766e b63d e36a 94be
00000010: 27c1 20be 84e7 393e afe9 a13e 3d21 173c
00000020: 4d56 933e 057b afbe 8ef2 373f 9f15 a03e
00000030: e0e9 8dbe d488 96be 55f9 863d c631 26be
00000040: c78d 183d 738f c8be e545 02bf c86e 77be
00000050: f96e 84be 9156 cc3d d3cb 30bf ab12 13be
00000060: 25bc 143f b237 05be 294d c2be 4931 52be
00000070: 8d27 a8be 5c3d a7bd 8d29 5bbd 5cb3 483c
00000080: 6d58 7abe 4880 65be c85a 583e dea0 7c3e
00000090: ad9a 6d3e ba1c a33e 05d3 c83d 6159 fc3e
000000a0: bb86 873e 6595 94be 010f 16bc 024c 5fbe
000000b0: 2a82 24be eddb 1dbe e305 cc3d bcd7 f6bd
000000c0: 5c13 013f 7758 5fbd 28c9 d13d 1721 89bd
000000d0: 180a 893e efad ec3d cbd4 b13d 3890 0cbe
000000e0: 5aa2 c7bd 164e ca3e 05a2 063e 1e66 933e
000000f0: 92fc cfbe 88f2 89be 525f 20bf b074 c93d
00000100: 4f0c b9be 2f81 a03c 1ead df3d e9da b4bb
00000110: f719 b5be 1fc0 fb3d db3f 04bf 9478 aabe
00000120: 054e bcbe 4279 98bd 22e5 dd3e 711d 45bd
00000130: 4357 82bc e394 6a3e 6f57 da3e 610e a73c
00000140: a55a 653e 180c b8be 61bd 2dbe 4e89 8bbe
00000150: 0693 c4ba ecf2 a43e dd86 1dbd 0f67 16be
00000160: f36d c13e d20c 483e 279b 39be 3385 5dbb
00000170: 1a3e ce3e 7106 293e 25d0 753d 6f9d 7bbe
00000180: e82a 433e 9625 ed3e d111 223e 6d62 4e3e
00000190: 2fdd 79bd 5c42 e1bd 4e66 0f3f 64c0 b93e
000001a0: 16c6 ef3e fd0e acbd 879f 89be e1a0 453d
000001b0: 6dec d53d 5f73 de3c cbe6 f2be 6d8b 9e3b
000001c0: 1000 b4be 5480 54be 7644 0f3f 64cd 8b3e
000001d0: 2cbb bebe f833 9d3d 5755 e5be 102f f63d
000001e0: 4a61 93be 47e3 31be ec10 273f 76f2 bf3e
000001f0: 696c bb3e adac 4d3d 1f36 5abe 908b 6c3d
00000200: 8023 ccbe 297f ee3d b2ea 173e f26a 723d
00000210: a82d aebe 3179 883d 71b5 f13e aef4 e43d
00000220: b62c 1fbe e4eb ccbe 6a55 48bf 92d6 733c
00000230: 7227 263e 74ff 6d3e 3c6d 8c3e abbd bbbc
00000240: 512a a7bd a2b6 2ebe 90ca 5fbd 9217 73bc
00000250: 9954 d0be 6553 10be dec7 ca3b b0fc 4d3d
00000260: b49d d7be bbde f3be 739f a33e 4deb f9bd
00000270: 74b6 dcbe 55f5 8fbe 3ece 8dbe 5763 c8be
00000280: a460 b7be 7cc2 053e b949 1ebc 9d16 c63e
00000290: 716a d0be 3a8c d73e e278 a5be b8de 873e
000002a0: f162 eb3e 1bbe fe3e 12cb acbd b367 743e
000002b0: 0b25 d3be 543c 0d3e bcc0 503e ce60 213e
000002c0: 2204 d2bc e5ba 963e 72a2 6a3f 0d6d 853e
000002d0: fdc9 983c ea20 553d 75b7 c7bc 3a67 ccbe
000002e0: 153a 813e 5121 a0be 0da8 09bf ec81 7e3e
000002f0: be6d b03d 18e8 3b3e 453a 66bd 3235 c4be
00000300: 9fbb 0b3f 2a0e 00be 075a 8fbd 5cc9 51be
00000310: 3deb d1bd c681 97be eac2 15be 7fe0 85be
00000320: 26eb af3e b180 7e3e fe6a 113d 1156 0d3e
00000330: 4b68 fcbd 6849 87be a234 7abe 5b3e 2f3d
00000340: 3015 2e3e 706a 5dbe 6f50 1cbf ae0e f4bd
00000350: 161a 823d a508 0b3e a0b7 6a3f 0b64 f93d
00000360: d4f6 8cbe 158c 843e d2f8 e63e 8769 1dbe
00000370: 0f85 d9be 35cf fb3d 7237 efbe a876 a8bb
00000380: 06a3 503d b161 cbbc 90c2 9bb9 029c 77be
00000390: 5d4a e2be 2356 573d 20de a0be b004 91be
000003a0: 213a 9f3e 02fe 9cbe 32cc 073e 574f 0ebe
000003b0: cdb7 dcbd fc51 56be c2fe 863e a69e 4dbe
000003c0: 4aaf 8c3d a0ff e13e 7aea 633e e092 703e
000003d0: eac3 afbb 75bb c4be f7ea f1be c633 54bd
000003e0: 75a5 f83e 4435 7dbe 24f0 bfbd 6fb3 95be
000003f0: 2f89 febe 959f a2be c667 b33e 586c e63e
0.14598215 -0.27181718 0.089077875 -0.28987798 -0.15698682 0.18154722 0.316236 0.009224233
0.2877678 -0.34273544 0.71854484 0.31266496 -0.27717495 -0.29401267 0.06590525 -0.16229925
0.037244584 -0.39171943 -0.508879 -0.24163353 -0.25865915 0.09977449 -0.6906101 -0.1436259
0.58099586 -0.13009527 -0.37949494 -0.20526613 -0.32842675 -0.08166 -0.053506423 0.012249794
-0.24447794 -0.22412217 0.2112838 0.24670741 0.23203535 0.31857854 0.09805874 0.4928694
0.2646998 -0.2902023 -0.009158851 -0.21806338 -0.16065279 -0.15415926 0.0996206 -0.12052867
0.50420165 -0.054527726 0.10243446 -0.066957645 0.26765513 0.11556613 0.08683165 -0.1372689
-0.09747763 0.395127 0.13147743 0.28788847 -0.40622383 -0.2694285 -0.6264545 0.098367095
-0.36142203 0.01959285 0.10921691 -0.00551926 -0.35371372 0.122925036 -0.51659936 -0.3329512
-0.36778274 -0.07445003 0.43338877 -0.04812378 -0.01591075 0.22908358 0.42644832 0.020392599
0.2239786 -0.35946727 -0.16966774 -0.27253193 -0.001499743 0.32216585 -0.038458694 -0.14687751
0.37779197 0.1953614 -0.18125592 -0.0033801317 0.40281755 0.16506363 0.060012955 -0.24571775
0.19059336 0.46317738 0.15827109 0.20154734 -0.061001953 -0.10998985 0.5601548 0.36279595
0.46830815 -0.08401296 -0.26879522 0.04824913 0.10445485 0.027154623 -0.47441706 0.004838398
-0.35156298 -0.20752078 0.5596384 0.27305138 -0.37252176 0.07675928 -0.44791672 0.12020695
-0.28785163 -0.17371856 0.65260196 0.3748967 0.36606148 0.050213505 -0.21309708 0.057750285
-0.39870834 0.116453476 0.14835623 0.059184022 -0.34019208 0.066637404 0.4720874 0.111794814
-0.155444 -0.4002372 -0.7825533 0.0148827005 0.16225985 0.23241979 0.2742709 -0.02291759
-0.08162368 -0.17061856 -0.054636538 -0.014837163 -0.40689543 -0.14094312 0.006188377 0.05028981
-0.42112505 -0.47630867 0.31957588 -0.12203083 -0.4310795 -0.2811686 -0.27696413 -0.3913829
-0.35815918 0.13062471 -0.009661132 0.38689128 -0.40706208 0.42099172 -0.3231879 0.26537108
0.45973924 0.49754414 -0.0843717 0.23867683 -0.412392 0.13792545 0.20386022 0.15759584
-0.025636736 0.29439464 0.9165412 0.26059762 0.018651003 0.052033342 -0.024379471 -0.39922506
0.25239626 -0.31275418 -0.5377205 0.24854249 0.08614682 0.18350255 -0.056207914 -0.38321835
0.5458316 -0.12505403 -0.06999593 -0.20486969 -0.10249946 -0.29591197 -0.14625135 -0.2614784
0.34359092 0.2485378 0.035502426 0.13802363 -0.1232458 -0.26423192 -0.2443414 0.042784076
0.1700027 -0.21622634 -0.6106023 -0.119168624 0.06352632 0.13577516 0.9168644 0.12177285
-0.27532065 0.25888124 0.4511171 -0.15372287 -0.42484328 0.12295381 -0.4672199 -0.005141098
0.05093672 -0.024826856 -0.00029708864 -0.24180606 -0.4419736 0.05257238 -0.31419468 -0.2832389
0.31099036 -0.30662543 0.13261488 -0.13897453 -0.10777245 -0.20929712 0.2636624 -0.20080051
0.06869371 0.4414034 0.22257414 0.23493528 -0.005363931 -0.38424268 -0.47249576 -0.051807187
0.48563734 -0.2472735 -0.09371975 -0.2923846 -0.49714038 -0.31762376 0.3504011 0.45004535

layer1.bias f4 [128]
00000000: 7796 f73e 60a7 753e 5e12 9cbe 5c0c f33e
00000010: f4fb c43e 7042 44be aa48 96be b144 a43e
00000020: 79c8 b5be bded 59be b91f 6dbe 90fc 173f
00000030: b1a1 923e 5e74 fc3e 4475 e63e da49 bcbe
00000040: 0700 943e 6a34 1abe 1152 2dbe e24a e73e
00000050: 352f 8c3e 087d e83e 322e f63e f437 bdbe
00000060: 7d70 cfbe ebd9 3dbe eea7 0a3f 4ae9 853e
00000070: cd7e d3be 2860 ce3e 53e1 2dbe d864 71be
00000080: bd6e c73e 31e3 563e ea1e 56be 7a2d e1be
00000090: 8d54 b0be 38b4 de3e 6234 2cbe ef23 3dbd
000000a0: 1073 debe 4406 e83d 79fb 903e 45e6 ed3e
000000b0: ed60 b4be 46de a33e c924 783e e8a8 723e
000000c0: 52e9 2fbe 94ff bfbd 6049 ba3e 9406 d03e
000000d0: 42af 1d3f 541c e2bd f185 b63e 181f ff3e
000000e0: ab65 103f b63b f0be 5695 253f e48c 133f
000000f0: d06f 833e 23e5 053f 27fd dd3e b412 9a3c
00000100: 55af c9be ff8a 24bf 9fa2 a13e 5bb8 5b3e
00000110: 7597 f43e 82ab 5abe de88 dc3d 3c75 c43e
00000120: 133e a63e baa7 5abe d0e1 8a3e 9f8d 0c3f
00000130: 0091 94bc b171 85be 1e9e cc3e dc1f 1d3e
00000140: 696c c0be abf5 5cbe be96 a73e 693e 973e
00000150: 847d 8d3e d574 063f 2256 d4be 394e c13e
00000160: bfb0 cebe 7390 053f a0b0 e53e 9b2b e5be
00000170: 19c3 ec3e 8875 073f fc2e dabe 2226 f83e
00000180: 8913 cb3e 3cfa a8be 7c91 1b3f e727 2fbe
00000190: f7b7 c2be 548a ae3e 91f5 fa3e 155e 243e
000001a0: 1f6e 0d3f 8f03 b13e 047f 5fbd daf3 a5bd
000001b0: 8485 933e 2910 04be a853 86be d348 bd3e
000001c0: d746 8a3e d824 d7be fd4c 133f 606c 8b3e
000001d0: 9f8b ebbe d1d8 a4be 54ba 1a3f b679 0f3f
000001e0: 5516 68be 77fc 403e b261 e13e c88d 74be
000001f0: bec1 723e 2465 d73e 15ea 1e3f 52a4 113f
0.48356983 0.2398963 -0.30482763 0.47470367 0.38473475 -0.19165969 -0.29352313 0.32083657
-0.3550451 -0.21282096 -0.23156632 0.59369755 0.28638986 0.4930753 0.45011342 -0.36775094
0.2890627 -0.15059057 -0.16925837 0.4517432 0.27379766 0.4540789 0.4808212 -0.3695675
-0.4051551 -0.1854016 0.5416249 0.26154548 -0.4130768 0.40307736 -0.16980486 -0.23573625
0.38951674 0.20985104 -0.2091023 -0.43980008 -0.34439507 0.4349687 -0.16816857 -0.046176847
-0.4344716 0.1132932 0.28316858 0.46464744 -0.35230199 0.3200552 0.24232782 0.23697245
-0.17178848 -0.093749195 0.36384106 0.4063002 0.6159555 -0.110405594 0.35649064 0.4982841
0.56405133 -0.46920556 0.64680994 0.5763686 0.25671244 0.5230276 0.43357202 0.018807746
-0.3939158 -0.6427459 0.31569383 0.21457045 0.47771803 -0.21354488 0.10768293 0.38370693
0.32469234 -0.21353045 0.27125406 0.54903597 -0.018135548 -0.26063302 0.39964384 0.15344185
-0.3758271 -0.2157809 0.32732195 0.29539803 0.27634823 0.5252202 -0.41471964 0.37754992
-0.40369222 0.52173537 0.44861317 -0.4475983 0.46242598 0.52913713 -0.4261397 0.48466593
0.39663342 -0.33003414 0.60768867 -0.17105065 -0.3803098 0.3408991 0.49015477 0.16051514
0.55246156 0.34573027 -0.05456449 -0.081031516 0.28812802 -0.1289679 -0.262357 0.36969623
0.27007172 -0.42020297 0.5753935 0.2723112 -0.4600496 -0.32196668 0.60440564 0.5604509
-0.22664769 0.18846308 0.44019848 -0.2388221 0.2370672 0.42069352 0.6207593 0.5689136

layer2.weight f4 [128, 128]
00000000: 0ef0 fa3d 9c0e d43d e321 32be 8bbf f13d
00000010: 0390 d93d d78f 75bd 7255 9dbd 1f95 223e
00000020: cbd6 eabd 7657 cdbc b505 82be 5ea9 993e
00000030: 549c bd3d 5563 293d e1e9 b93d 5a02 ee3d
00000040: d108 eb3d 8fea c0bd 4fec 4d3d 2074 f13c
00000050: afcc 533e 31db b33d 155f 643d 71c0 f0bc
00000060: 9ef2 9dbd 2857 a3bc 4cb7 853d 0c27 433e
00000070: c87d 093d 3640 473e 8a94 f1bb cca5 93be
00000080: f96c 5e3e 4792 143e afb6 923d 5d96 c4be
00000090: 1e9f 44be feb5 713e a509 00bd f633 083c
000000a0: dbad fcbd afa0 983e fb5d 8b3d c6c5 603e
000000b0: fb18 b3be 8ebb bf3d 5f87 b43c 1cee d33d
000000c0: 48c5 c3bc 123f a7bc 6722 853c d7e9 fc3d
000000d0: e6ef 003e 8fee 0dbf dc70 873d 9bbd 253e
000000e0: f4b1 4c3e 7bd7 dfbd e67a f13d c983 223e
000000f0: d5ed ce3d 7540 fb3d a030 963d b030 7abc
00000100: 3305 8abe 4f26 bdbe 8735 253e c840 ce3d
00000110: 53e5 bc3c 91e1 4ebe a631 be3d 04f4 d23d
00000120: 0814 153d 69b3 6d3d d4ad c03d 4682 0a3e
00000130: 58f0 62bd 66f8 6dbe 9e39 d63d ba54 1a3e
00000140: 7168 4fbd 26e2 2dbe 32fa 1a3e cfc2 033e
00000150: 1898 c03d 6cb0 8b3d 8e7f 22be 3d6f 2b3e
00000160: 8e40 b7be 48e5 4e3e 74b1 fa3d a612 25be
00000170: ab2a 153d 334c 173e d623 6ebe acc0 8d3d
00000180: 915e 8a3d c771 d6be bd99 423d d2bc b0bd
00000190: 5363 b1bc d341 763d 22f2 243e 0dc6 983a
000001a0: 5858 d93c 8c4a 693e 79e3 333d 6ffe ccbe
000001b0: ec0c f93c 3afc 5fbd f5c1 d7bd 7371 303e
000001c0: a652 cabb 6fb0 3ebe 08ad 3c3e c7a5 173e
000001d0: 171f efbe 4d33 ddbd b4dd 763e de49 053e
000001e0: 3393 f4bb a30c d33c e933 c93d 5f0f 1cbe
000001f0: c0b4 f13d ed10 f93d 462c 2e3e b148 1b3e
00000200: 5327 0c3d 2a44 cf3c 01af 4ebd a05b 403d
00000210: ad1d 1dbd 0b79 793b ed51 b9bc b510 74bd
00000220: eef3 51bd f8e7 703d 9366 f33d 841f debb
00000230: c1fc 7dbc f099 fb3b 1d1c a6bc 8def b43c
00000240: 68d6 9e3c eb45 233c aa3d f4bd 6e7f 703d
00000250: b0ba c7bd 5e4f 403d d73d 63bd 6701 b03b
00000260: 8b31 9cbd c48d 233d 3f6e 143d 1df0 c3bd
00000270: d637 883d 410a d9bb db3f 9dbd 137a 573e
00000280: a884 3fbd 2083 c9be 3a10 49bd 6ca5 163e
00000290: 7aeb f7bc 244d 4ebd e1b4 653e 4e9e d93b
000002a0: 5d4a 86bb c953 793d 55da 2b3b 86ad 69bd
000002b0: 0887 223d 4fe3 a73c 1af2 2c3c 1208 6abb
000002c0: 0821 d23c a852 f7bd 16d5 0e3d d5c4 163d
000002d0: 3f28 463c cec1 413e 863a 6c3d ed2e 80bd
000002e0: a0be 5c3c ab1b 0cbe bc6a fbbb 5cad b93c
000002f0: 8277 db3d f725 643d fea3 70bb 9bdd 10bd
00000300: 607d 4a3d a134 6dbd 3faf 993d 0b48 033d
00000310: 3e60 f33c a434 f83c df1b 883b 9e02 f23c
00000320: 659f 13bd 6072 5dbd 2abf 96bd 20ab 433d
00000330: 01c2 96bd e639 13bc c850 bdbc 3921 67bc
00000340: b1e1 0a3d 1b73 cb3d e75e 143d a911 c8bc
00000350: 9fdb 79bc 3918 97bd 654e 093c 9fb7 4d3d
00000360: e406 8e3d 42a6 8ebd 96b6 d8bb 01c1 bc3c
00000370: dc1e fe3c a5bc 2dbd 2da5 1dbe 4a40 213c
00000380: 11e7 5ebd 0ad4 9a3e c8a5 433d efca 56ba
00000390: 7d37 c33a 5bd9 cfbc bc40 94bd ff2d 893c
000003a0: 467a 763d 079f 27bd f918 643b bbb4 293e
000003b0: 8d25 4cbd 1181 793b 4559 f63c 3520 95bc
000003c0: 4015 b33c c405 43bc c8b1 c53c 9d8c 6f3d
000003d0: 3d85 f9bc 6fb5 bf3d bd9e 7fbc d967 fe3c
000003e0: 871f a03c 7d15 b0bd ebc3 353d 4018 643e
000003f0: 99c5 c03d 4fbb a6bb cab8 833a 4008 bebd
0.12252818 0.10354349 -0.1739574 0.11804112 0.10623171 -0.05995163 -0.07682313 0.15877198
-0.1146675 -0.025066119 -0.2539498 0.3001203 0.09258333 0.041354496 0.09077812 0.11621542
0.11476291 -0.094197385 0.05027419 0.029474318 0.2068355 0.08782042 0.05575474 -0.029388638
-0.07712291 -0.01993902 0.06529102 0.19057864 0.03356722 0.19458088 -0.0073724436 -0.2883743
0.21721257 0.14508925 0.071637504 -0.38395968 -0.19201323 0.23604581 -0.031259198 0.00831317
-0.12337848 0.29810092 0.06805035 0.21950445 -0.34979996 0.09361945 0.022037206 0.1034815
-0.023897782 -0.020415816 0.016251756 0.12349289 0.12591514 -0.55442137 0.06613323 0.1618561
0.19989759 -0.109297715 0.11791019 0.15870585 0.101039566 0.122681536 0.07333493 -0.015270397
-0.26957092 -0.3694329 0.161337 0.1007095 0.023058569 -0.20203234 0.092868134 0.103004485
0.036396056 0.058032427 0.09408155 0.13526258 -0.05540499 -0.23239288 0.10460208 0.15071383
-0.050636712 -0.169808 0.15134504 0.12867282 0.094040096 0.06820759 -0.15868971 0.16741653
-0.3579144 0.20204651 0.12240878 -0.16120395 0.036417644 0.14775161 -0.23255858 0.06921515
0.06756318 -0.4188368 0.047509898 -0.086297646 -0.021653807 0.06012137 0.16107991 0.0011655703
0.026531383 0.22782344 0.043918107 -0.40037867 0.03040167 -0.0546839 -0.10535041 0.17230777
-0.0061744032 -0.18621992 0.18425381 0.14809333 -0.46703407 -0.108008005 0.2410801 0.1301646
-0.0074638366 0.025762862 0.09824354 -0.15240239 0.118020535 0.121614315 0.17009076 0.15164448
0.03421719 0.025301058 -0.050459865 0.04696238 -0.03835838 0.0038066532 -0.022622073 -0.059586246
-0.05125802 0.058814973 0.11884799 -0.0067786593 -0.015502156 0.007678263 -0.020277077 0.022086883
0.019389346 0.0099654 -0.11925824 0.058715276 -0.09752405 0.04695069 -0.055478897 0.005371261
-0.07626637 0.03993012 0.03623795 -0.09567282 0.06651275 -0.006623537 -0.07678195 0.21042661
-0.04675737 -0.39357853 -0.04908774 0.14711541 -0.030263651 -0.050366536 0.22432281 0.006641186
-0.0040982203 0.06087092 0.0026222665 -0.05705025 0.039679557 0.020494131 0.010555768 -0.0035710377
0.025650516 -0.12076312 0.034871183 0.036808807 0.012094556 0.18921587 0.057673 -0.062589504
0.013473183 -0.1368243 -0.007672636 0.022665672 0.10716154 0.05570027 -0.003671884 -0.03536759
0.049435973 -0.05791152 0.07504129 0.032051127 0.029708978 0.030298539 0.004153713 0.029542264
-0.036040682 -0.054064155 -0.073606804 0.04777062 -0.07361222 -0.008985972 -0.023109809 -0.014107042
0.033906642 0.09934064 0.03622332 -0.024422484 -0.015250116 -0.07377667 0.008380507 0.050223943
0.06934908 -0.06965305 -0.006613563 0.02304125 0.031020574 -0.042416234 -0.15395041 0.009841988
-0.05441958 0.30239898 0.047765523 -0.00081936916 0.0014893856 -0.025372198 -0.072389096 0.016745565
0.060175203 -0.040923145 0.0034804924 0.1657285 -0.0498405 0.0038071314 0.030071864 -0.018203834
0.021860719 -0.01190323 0.024132624 0.05848371 -0.03045904 0.093607776 -0.015601811 0.031055378
0.019546283 -0.085978486 0.044376295 0.22274876 0.09412689 -0.005088247 0.0010049578 -0.09278917

layer2.bias f4 [128]
00000000: 43c3 053e 6469 87b9 a627 8fbd 0c99 163e
00000010: b339 863e 5b86 93bd 9666 1c3e 9037 733e
00000020: 4b90 65bc 8081 debc ac68 473e 2b9b 4b3e
00000030: 6ab4 cc3c 58b2 edbd 120a 753e 60c0 25bc
00000040: 199c 70bb b305 853d f785 9cbc bbf1 783e
00000050: e21b 7f3e 0c57 583e 3586 113e 66b9 8a3d
00000060: d84e b83d a824 b73d 073d 6f3e 8848 373d
00000070: cf91 463e 07d0 77bd e756 833d f8ae 4a3e
00000080: d016 703e 2108 353e 4f7f 8cbb 206a 30bd
00000090: 84fb 793c bb95 243e 61e4 0fbd 1380 273c
000000a0: 14ca 8b3e 316d 4e3e 8af1 313e 485d e4bd
000000b0: a852 8b3e 2647 99bd 81b0 11bd b6f1 7fbd
000000c0: 3d43 f2bd e234 f33d 280c a6bd 322d 363e
000000d0: ee8e 05bd 30cf 1b3e bcce aebc ad37 393e
000000e0: ca82 143e e062 443e fc5b 3f3e b671 683d
000000f0: 6281 153d 1a4f 8d3e 2a97 c9bd c221 0b3e
00000100: d79f 363e 4b35 233e 3a0c 993a 3691 24bd
00000110: 38be 4c3e 1060 153d daa4 0cbd 5786 f43d
00000120: 8e60 4d3e 6be5 843d da4a 503e 259c 883e
00000130: 4809 713e 7e30 c1bd 3ce8 d13d e6fa 0d3e
00000140: 5c29 663e bdea 713e d066 26bd d455 303d
00000150: e588 87bd 44ee 993c 7c1b e3bc c6fd 183e
00000160: 110a 0cbd 451f 083e eef9 203e 2aa4 bc3c
00000170: 452a 6f3e 3c80 483d a634 b4bd 517e edbc
00000180: c800 343e 07f8 69bd d110 65b8 85dd 593e
00000190: 54d7 1c3c f5ff 7b3e e0a7 41bc 557f df3c
000001a0: 095a 193c b7b7 0b3d 3849 27bb fb2b 5c3e
000001b0: d68c 353e 5d42 d8bc 3e32 6c3e b32f a3bd
000001c0: 3b17 833e 53c9 633e ac98 023e b56f 583e
000001d0: 8cb4 7d3e 5e79 643e 381b 163e 66a3 8fbd
000001e0: 305d fabc 7675 463e b9c2 193e 84c8 6e3e
000001f0: 54b7 06bd 949f 823e 65e4 763e 5f77 f5bc
0.13062768 -0.0002582773 -0.06989984 0.1470682 0.26215896 -0.07203361 0.15273508 0.23751664
-0.014011453 -0.02716136 0.19473523 0.1988341 0.024988372 -0.11606282 0.23929623 -0.010116667
-0.0036714135 0.06495228 -0.019106848 0.24310963 0.2491298 0.21126956 0.14211352 0.06773643
0.08999413 0.089425385 0.23363124 0.044746906 0.19391559 -0.060501125 0.0641306 0.19793308
0.23446202 0.17678882 -0.0042876373 -0.04306996 0.01525772 0.16072743 -0.03512991 0.010223406
0.2730261 0.2015884 0.17377296 -0.111506045 0.272115 -0.074842736 -0.035568718 -0.062486373
-0.11829231 0.11875321 -0.08107787 0.17790678 -0.03260701 0.15215755 -0.021338813 0.18087645
0.14503017 0.19178343 0.18687433 0.05674907 0.036500342 0.27599412 -0.098432854 0.13587096
0.17834412 0.15938298 0.0011676617 -0.040177546 0.19994438 0.036468565 -0.034336902 0.11939686
0.20056364 0.064890705 0.20341054 0.2668163 0.23538697 -0.09433077 0.10249373 0.13865241
0.22476715 0.23624702 -0.040625393 0.043050602 -0.066179074 0.018790372 -0.027723067 0.14940557
-0.034189288 0.13293178 0.1572034 0.023027498 0.23355968 0.04895042 -0.087991044 -0.028990896
0.17578423 -0.057121303 -5.4613516e-05 0.21275909 0.009572823 0.24609359 -0.01181981 0.027282396
0.009359845 0.03411075 -0.002552582 0.21501152 0.17729506 -0.026398832 0.23066041 -0.07968082
0.2560366 0.22244768 0.12753552 0.21136363 0.24775904 0.22311923 0.1465882 -0.07013588
-0.030562013 0.19380745 0.15015687 0.23318678 -0.03288968 0.25512373 0.24110563 -0.029964147

layer3.weight f4 [2, 128]
00000000: cc40 8e3e 80be 22bd 8b7c fabd a364 683e
00000010: 993c 883e a90a 20be 1600 6b3e 2dfc 563e
00000020: 7e6e 5dbd 0423 efbe 633e 1f3e 907b 783e
00000030: 5a2f 41be fca9 80be 8bd0 8c3e 8041 a7bd
00000040: 4c8a a3bd 6156 73bd 4f99 cfbe 1d62 843e
00000050: 06bf 653e 944b 853e df26 8c3e 791e 80be
00000060: 6373 7d3e 6216 8a3e 1fc0 703e ad1f 30bf
00000070: e995 383e 471a 903d 6bb8 16bd ca2e 633e
00000080: fe24 783e 234d 573e 66b0 59bf 2991 4b3d
00000090: 241c 42bc fd43 833e a7f1 96bd a76e 3dbf
000000a0: a462 6c3e f388 9c3e 23ab 7e3e 2883 b7be
000000b0: 029d 4c3e 9892 8b3d d60c 7d3d 12c9 873d
000000c0: c7d9 efbe f79c 5d3e 67ef 17be f2c4 663e
000000d0: 2b00 11bd 596a 593e 6236 83bd fdfa 903e
000000e0: 9b87 813e c740 9f3e e279 4d3e 2c08 f6be
000000f0: f3f0 d9be d706 553e 3fa9 4ebf d7b7 4c3e
00000100: e7b8 803e 3761 8c3e 96b3 06bf 16d0 19bc
00000110: b0b6 203e fc83 8fbd d15f c7be 4ebd 803e
00000120: b94e 333e 67c9 2d3e 750b 6b3e 392d 863e
00000130: d58b 7c3e e95d 29bf 6dcf 9d3e aea3 6b3e
00000140: 8d8d 8b3e 11ee 793e 578f 1bbf 840a b1bd
00000150: 5ece 05bf 6815 4cbe 7df8 dc3c fe0a 903e
00000160: 08bb 59bc ef95 583e 1e20 3e3e 588c 803d
00000170: bb02 9c3e 9711 b8bb ed37 3cbf d164 c0bc
00000180: c20a 5a3e 9046 13bf 1cd7 36bc 8135 4a3e
00000190: 0e91 d4bd 8e93 263e e4ff d8bd 6a7c e3be
000001a0: f34d d13a bd00 03be e068 c6be b148 8e3e
000001b0: b40d 913e 2c40 d6bd efec 8d3e e746 abbe
000001c0: ad84 8b3e 755f 2d3e 82b0 863e 1464 4a3e
000001d0: ce34 5d3e 7a06 613e b391 863e 23a7 cdbc
000001e0: 9371 17be e28e 8c3e f80c 7d3e 379f 823e
000001f0: fcc0 8f3d 1ed1 753e 86c0 5b3e 0896 08be
00000200: 9924 243e b8ea 89bc 8731 11be 6fa3 8e3e
00000210: b76b 493e ddbc cdbe 678a 833e 0381 723e
00000220: 87e3 b63c 51e6 b1be 9b04 8a3e 87bd 963e
00000230: 649c 3d3d 2bfc dbbe d9cb 7c3e 825d 9cbd
00000240: 214f 64be e74e 78bd 3376 b3bd 3c9b 413e
00000250: 824b 623e 3de4 403e 1662 603e 3cf6 7fbe
00000260: ecfc 1a3d 9876 803e 532e 8c3e ff59 14bf
00000270: 7497 9a3e 4c95 923d 7e97 3bbc 293e 7a3e
00000280: 6044 5e3e 5727 8d3e 119f 69bf 8b15 7dbd
00000290: 4038 52bd c680 813e bb57 8bbc 48b8 4abf
000002a0: 1112 543e 66c6 583e 27ff 743e 8dc8 c3be
000002b0: 983d 863e 7fd4 eabc 9a3b 3f3d 93de 233c
000002c0: 346c 1abf b80e 893e f826 1fbe 17b7 6b3e
000002d0: 9cf7 67bb 8f0d 943e 390d 963b fc78 293e
000002e0: f606 233e 2bfd 763e ca19 9a3e 2db3 3d3d
000002f0: f7a5 3bbe 9ef6 813e ad44 51bf b6ec 783e
00000300: 92e1 8c3e 665d 363e b6af d6be 7338 eebc
00000310: 8c54 993e e9e8 d9bd 04ec 9dbe 239b 843e
00000320: 9b66 883e c701 3ebe 1aaa 9e3e 8de2 703e
00000330: 0aa3 883e ada2 53bf e8a8 343e 1849 023e
00000340: 2b4b 993e f2ce 683e 7d4c edbe f841 1f3d
00000350: 8dc1 d5be e637 11bd 9f2c d13d 5334 453e
00000360: eb1b a0be c6ea 903e f631 8d3e fe50 803c
00000370: 5c6b 323e aff2 a5bc f2d6 46bf 2cee 5c3c
00000380: e2b1 803e e503 13bf 47e2 1dbd 7dab 973e
00000390: ccb4 24be bc49 873e 64e9 0ebe 56dc ffbe
000003a0: 781f 4e3d eeed 0ebe a3b6 71bd 26f2 543e
000003b0: 9819 a13e 78a8 da3d 9de1 2f3e 9e20 efbd
000003c0: 17e0 873e 6c7c 903e af7c f33d 2ae0 7d3e
000003d0: 1a0d 5e3e 4229 8c3e fb0f 063e 29ee 93bd
000003e0: 741f db3d 1650 6b3e db4c 893e 66b8 213e
000003f0: 244e 36bd 5008 523e 2b2b 913e 7f7c 91be
0.2778381 -0.039732456 -0.12230786 0.2269464 0.26608732 -0.15629067 0.22949252 0.20994635
-0.05406045 -0.46706402 0.15551142 0.24265885 -0.1886572 -0.25129688 0.27502856 -0.0816679
-0.079853624 -0.05940855 -0.40546653 0.25856104 0.22436151 0.26034224 0.27373406 -0.2502325
0.24751048 0.26970202 0.23510788 -0.68798333 0.18025936 0.07036262 -0.03679697 0.22185817
0.24232861 0.21025519 -0.8503479 0.049698982 -0.01184753 0.25637808 -0.0737031 -0.7399697
0.23084503 0.30573234 0.24869971 -0.35842252 0.19981769 0.0681507 0.06177982 0.06630148
-0.46845838 0.21641909 -0.14837418 0.22536066 -0.03540055 0.21231975 -0.06406857 0.2831649
0.2529877 0.3110411 0.20066026 -0.4805311 -0.42566642 0.2080339 -0.80727 0.19992004
0.2514107 0.2741792 -0.52617776 -0.00938799 0.1569469 -0.07007596 -0.3894029 0.25144428
0.17510499 0.1697136 0.2295359 0.26206377 0.24662717 -0.6615892 0.30822316 0.23011658
0.27256432 0.24407221 -0.60765594 -0.08644584 -0.52268016 -0.19930041 0.026973957 0.28133386
-0.013289221 0.21150945 0.18566939 0.062767684 0.30470833 -0.0056173312 -0.73522836 -0.023485573
0.21293166 -0.57529545 -0.0111596845 0.19746973 -0.103792295 0.16267225 -0.10595682 -0.44430858
0.0015968665 -0.1279325 -0.38751888 0.27789834 0.28330767 -0.104614586 0.27719828 -0.33452532
0.2724966 0.16930945 0.2630654 0.1976474 0.21602175 0.21975127 0.26283035 -0.025104111
-0.14789419 0.2745276 0.24711978 0.25512096 0.07019231 0.24005553 0.2146016 -0.13338482
0.16029586 -0.016835555 -0.1417905 0.27859065 0.19669996 -0.40183154 0.2569153 0.23682027
0.02232529 -0.3474603 0.2695664 0.29441473 0.046291724 -0.42965826 0.24687137 -0.07635023
-0.2229581 -0.060622122 -0.08762779 0.18906873 0.22099116 0.18837066 0.21912417 -0.24996275
0.03783886 0.2509048 0.27379093 -0.57949823 0.30193675 0.07157382 -0.011449693 0.24437775
0.2170577 0.27569076 -0.9125834 -0.061788123 -0.051323175 0.2529356 -0.017009607 -0.7918744
0.20710017 0.21169433 0.23925458 -0.38238946 0.26218867 -0.02866578 0.0466877 0.010001796
-0.60321355 0.26769042 -0.15542209 0.23019062 -0.003539539 0.28916594 0.004579213 0.16550058
0.15920624 0.24120013 0.300978 0.046313453 -0.1832503 0.25383466 -0.81745416 0.24309048
0.27515846 0.17809066 -0.41930932 -0.029079651 0.29947317 -0.10640127 -0.30844128 0.2589961
0.26640782 -0.18555366 0.30989152 0.23523922 0.2668689 -0.826701 0.17642558 0.12723196
0.2994016 0.22735193 -0.46347418 0.038881272 -0.4174923 -0.0354537 0.10213589 0.19258241
-0.312713 0.28304118 0.2757718 0.01566362 0.17423767 -0.020257322 -0.7767173 0.013484519
0.25135714 -0.5742782 -0.038545873 0.29623023 -0.16084594 0.26423442 -0.13956219 -0.4997279
0.05032298 -0.1395795 -0.059012067 0.20795497 0.3146484 0.10676664 0.17175908 -0.11676143
0.26538154 0.28219926 0.11889016 0.24792543 0.21684685 0.27375227 0.13092034 -0.0722316
0.106993586 0.22979769 0.2681645 0.15792999 -0.044508114 0.20510983 0.28353247 -0.28415295

layer3.bias f4 [2]
00000000: 1378 013c 5cdb e93d
0.007902163 0.114187926
